Multistate Intensity Models/SDDR_outputs/best_estimator_splines_event_20.pth (torch, 276613 bytes, 114 tensors)

square_avg f4 [2, 1]
0	0x00000000	0.0
1	0x2959b0f7	4.8337172e-14

momentum_buffer f4 [2, 1]
0	0x00000000	0.0
1	0xc063fcb2	-3.5622983

square_avg f4 [2]
0	0x00000000	0.0
1	0x2859b0f7	1.2084293e-14

momentum_buffer f4 [2]
0	0x00000000	0.0
1	0xc05e0a63	-3.469384

square_avg f4 [2, 2]
0	0x00000000	0.0
1	0x2a4d0351	1.8208808e-13
2	0x00000000	0.0
3	0x00000000	0.0

momentum_buffer f4 [2, 2]
0	0x00000000	0.0
1	0x4066fc68	3.6091557
2	0x00000000	0.0
3	0x00000000	0.0

square_avg f4 [2]
0	0x29ce78b6	9.169178e-14
1	0x00000000	0.0

momentum_buffer f4 [2]
0	0x4065ac10	3.5886269
1	0x00000000	0.0

square_avg f4 [2, 2]
0	0x00000000	0.0
1	0x00000000	0.0
2	0x292ae3b8	3.7945097e-14
3	0x00000000	0.0

momentum_buffer f4 [2, 2]
0	0x00000000	0.0
1	0x00000000	0.0
2	0x4063344d	3.5500672
3	0x00000000	0.0

square_avg f4 [2]
0	0x00000000	0.0
1	0x1c86d4b1	8.922356e-22

momentum_buffer f4 [2]
0	0x00000000	0.0
1	0x3bb6c515	0.005577693

square_avg f4 [2, 2]
0	0x00000000	0.0
1	0x288d077c	1.565739e-14
2	0x00000000	0.0
3	0x00000000	0.0

momentum_buffer f4 [2, 2]
0	0x00000000	0.0
1	0x405f8580	3.4925232
2	0x00000000	0.0
3	0x00000000	0.0

square_avg f4 [2]
0	0x1e320d07	9.4259355e-21
1	0x00000000	0.0

momentum_buffer f4 [2]
0	0x3d456d4c	0.048199937
1	0x00000000	0.0

square_avg f4 [12, 12]
0	0x422b60d4	42.84456
1	0x40960d98	4.6891594
2	0x40b40cc6	5.6265593
3	0x40892f8a	4.287053
4	0x4150bb84	13.04578
5	0x41929a23	18.325262
6	0x40e6d324	7.213274
7	0x4047e8c7	3.1235826
8	0x4030c9fd	2.7623284
9	0x406d931d	3.712104
10	0x3e6d59f4	0.23178846
11	0x3d3e8a3b	0.046518546
12	0x40e7073c	7.219633
13	0x40b53eda	5.6639223
14	0x419d561a	19.667042
15	0x40ef98d8	7.4874077
16	0x40d3fa58	6.6243095
17	0x4132705e	11.152433
18	0x411e84f6	9.907461
19	0x4153b6cb	13.232127
20	0x3f241af5	0.64103633
21	0x403844e9	2.879206
22	0x3ea53049	0.322634
23	0x3c96db06	0.018414985
24	0x40ad0420	5.4067535
25	0x4082d025	4.0879083
26	0x40e9fb24	7.311907
27	0x4008a9a1	2.1353533
28	0x4139db76	11.616079
29	0x40e54205	7.164309
30	0x40390913	2.8911788
31	0x3f30e858	0.6910453
32	0x3f8df97d	1.1091763
33	0x3f57bdb0	0.84273815
34	0x3f4434a1	0.76642805
35	0x3c8d2e6d	0.017234052
36	0x411aa6cb	9.665721
37	0x40a53910	5.1632156
38	0x3e056583	0.13027005
39	0x4146146e	12.379988
40	0x4102ed5a	8.182947
41	0x40abdf5e	5.3710165
42	0x4091d318	4.5570183
43	0x402ff59f	2.7493665
44	0x3f6e3e0d	0.9306343
45	0x4051efcb	3.2802608
46	0x3e273715	0.16329606
47	0x3d036bd9	0.032085273
48	0x425ca160	55.157593
49	0x41e5ab5a	28.708668
50	0x40d7be60	6.741989
51	0x41f69fde	30.82806
52	0x41e50c43	28.630987
53	0x41c17ba9	24.18538
54	0x41ccb6ab	25.589193
55	0x41c8349f	25.025694
56	0x4040331a	3.003119
57	0x4056906d	3.352565
58	0x3f3c9fa0	0.7368107
59	0x3d90fd04	0.07079509
60	0x430a97e2	138.59329
61	0x421518f3	37.274364
62	0x40062bac	2.0964155
63	0x413f7bef	11.967757
64	0x42d93ea6	108.62236
65	0x426cabfd	59.167957
66	0x423db573	47.427197
67	0x41cf22a7	25.89192
68	0x41a52d34	20.647072
69	0x3e749b0f	0.23887275
70	0x380bed3b	3.336112e-05
71	0x3baa5133	0.005197668
72	0x41bb2dd5	23.397379
73	0x4131732c	11.090618
74	0x41a7950c	20.947777
75	0x41a3d463	20.478704
76	0x41c04514	24.03373
77	0x425d4000	55.3125
78	0x42308598	44.130463
79	0x41dc4d87	27.537855
80	0x3f779f4f	0.9672746
81	0x3fd53802	1.6657717
82	0x3e43a8d0	0.19107366
83	0x280c57e2	7.790618e-15
84	0x41b8edd5	23.116129
85	0x413b2e73	11.69884
86	0x40cab958	6.335125
87	0x41ada9a8	21.70784
88	0x416c1b53	14.756671
89	0x410e6b71	8.901231
90	0x412ea082	10.9141865
91	0x411155b6	9.0834255
92	0x40b6dd65	5.7145257
93	0x3feb5a6f	1.8386973
94	0x3e10286e	0.14077923
95	0x3d7848be	0.060616247
96	0x402fc932	2.746655
97	0x3f34eff3	0.70678633
98	0x4218407d	38.062977
99	0x40ec369b	7.3816657
100	0x407ed478	3.981718
101	0x40b6a976	5.708186
102	0x3fb254c3	1.3932117
103	0x3f0a72c8	0.5408139
104	0x3d6e99f9	0.05825231
105	0x3f0e4013	0.5556652
106	0x3e0aaed7	0.13543259
107	0x3a45a4c0	0.0007539503
108	0x4220b1b0	40.173523
109	0x4132eaed	11.182355
110	0x3f00f35d	0.5037134
111	0x419115eb	18.135702
112	0x41b4ed17	22.615767
113	0x41db3d41	27.40491
114	0x4185cacc	16.724022
115	0x40c82228	6.2541695
116	0x3fa13cc2	1.2596667
117	0x40512e20	3.2684402
118	0x3f11243a	0.566959
119	0x35ef6b8c	1.7838188e-06
120	0x42c6ef34	99.46719
121	0x418986ac	17.190758
122	0x41eacccf	29.350004
123	0x42007c87	32.12161
124	0x423dc69a	47.443947
125	0x42727075	60.60982
126	0x41d21ea7	26.264967
127	0x41a1c916	20.223186
128	0x3ff31557	1.8990887
129	0x3ffec4ca	1.9903805
130	0x3fa302e5	1.2735258
131	0x3b38cd79	0.0028198643
132	0x42402787	48.0386
133	0x414a04bd	12.626157
134	0x3fbd63d3	1.4796089
135	0x419ca012	19.57816
136	0x4153e181	13.242555
137	0x415ccdea	13.800272
138	0x41dec1e4	27.844673
139	0x40eed75d	7.4637895
140	0x400c66c0	2.1937714
141	0x40816c24	4.0444508
142	0x3f2727d2	0.65295136
143	0x3c05e92a	0.008173266

momentum_buffer f4 [12, 12]
0	0x408808fb	4.2510962
1	0xc11b80c6	-9.718939
2	0xc199467c	-19.159416
3	0xc09cdc1b	-4.9018683
4	0x40e2f53c	7.092436
5	0xbce4e0a0	-0.02793914
6	0xc0f2b54d	-7.5846314
7	0x41911f89	18.140398
8	0x4138ea7d	11.557248
9	0x40e871d1	7.2638936
10	0xc1022a6a	-8.135355
11	0x415bc96a	13.736673
12	0xc0e72592	-7.223336
13	0xc1049094	-8.285297
14	0xc1c0356e	-24.026089
15	0x40c9a675	6.3015695
16	0x416696fa	14.4118595
17	0xc178e877	-15.556754
18	0xc1169734	-9.411915
19	0x3f47df72	0.78075325
20	0x40a33cc3	5.101167
21	0x415b58df	13.709197
22	0xc1442c0a	-12.260752
23	0xc014926e	-2.3214374
24	0x41653f95	14.328023
25	0xbfb06be8	-1.378293
26	0xc11d3f87	-9.82801
27	0xbf0df848	-0.5545697
28	0xc1976cca	-18.92812
29	0x3e8262de	0.25466055
30	0x406cb28b	3.6983974
31	0x4100cafa	8.049555
32	0x41c4d1b1	24.602388
33	0x41996d7d	19.178461
34	0x3fc3cfbc	1.529777
35	0xc07011a5	-3.751077
36	0xc0b9f521	-5.811173
37	0xc1a2e943	-20.363897
38	0xc099ecc3	-4.8101516
39	0x4089e632	4.30935
40	0x401ffdd4	2.4998674
41	0xbec4dc45	-0.38449302
42	0xc0c49a2e	-6.143821
43	0xc122a9f4	-10.166492
44	0x409db741	4.92862
45	0x40ba6b07	5.825565
46	0x41718e5d	15.097257
47	0x4104c4bc	8.298031
48	0xbf5954f9	-0.84895283
49	0xc18aa70b	-17.331564
50	0xc0c35839	-6.1045194
51	0xc0602862	-3.5024648
52	0x40047570	2.0696678
53	0xc17c37ce	-15.763624
54	0x404ab5d8	3.1673489
55	0x41099695	8.599263
56	0xc0d3643e	-6.6059866
57	0x40d41879	6.6279874
58	0xc1aaba2f	-21.34091
59	0x40258d45	2.5867474
60	0x4099da02	4.8078623
61	0xc0d5a791	-6.676705
62	0x3fd6f266	1.6792724
63	0x4144a5b9	12.29046
64	0xbf85cb30	-1.0452633
65	0xc15c8d60	-13.784515
66	0x411fd9b0	9.990646
67	0x40a691f6	5.2053175
68	0x4190da2a	18.106525
69	0x41d2d386	26.353283
70	0x4186d8f2	16.85593
71	0x417acf33	15.675586
72	0x4161574e	14.083815
73	0x4129cd7c	10.612667
74	0xc210adae	-36.16961
75	0xbf024c0a	-0.50897276
76	0xc003f62b	-2.0619
77	0xc11c873f	-9.783019
78	0xc1544f85	-13.269414
79	0xc11fc8b5	-9.986501
80	0x41255e64	10.335545
81	0x42062b4b	33.54228
82	0x40dd28bf	6.911224
83	0x405b3bd3	3.4255264
84	0x412b77ab	10.716716
85	0xc1a48633	-20.565527
86	0xc088b2d6	-4.2718306
87	0xc173cdeb	-15.237773
88	0x40ca1a3d	6.315703
89	0xc0fedc95	-7.9644265
90	0xc1ac552d	-21.54159
91	0xc08a9cdf	-4.3316493
92	0xc086d8b9	-4.2139554
93	0xc14ad17e	-12.676146
94	0xc2150920	-37.25891
95	0xc1072aad	-8.447919
96	0x406e7454	3.72585
97	0xbfb281b7	-1.3945836
98	0xc18c9e0c	-17.577171
99	0x40262cfa	2.5964952
100	0xc103e4e7	-8.243384
101	0x413099d5	11.037557
102	0x40ed7bd3	7.4213653
103	0x3e515e5d	0.20446153
104	0x4087389b	4.22566
105	0x41dad0ef	27.352018
106	0x40407d11	3.0076334
107	0xc0c6875c	-6.2040234
108	0x40edde49	7.4333844
109	0xc17465b8	-15.274834
110	0xc056d8af	-3.3569753
111	0xc132aa2f	-11.166549
112	0x41501ece	13.007521
113	0x3fcfc9d1	1.6233464
114	0xc1170c1c	-9.440456
115	0xbf9c476e	-1.2209299
116	0x41247614	10.278828
117	0x40c65b04	6.1986103
118	0xc108c383	-8.547732
119	0x410f50f9	8.957269
120	0x41a6a61b	20.831106
121	0xc18d0978	-17.629623
122	0xc0f09b2b	-7.5189414
123	0xc042698a	-3.0376916
124	0xc0792e0c	-3.8934355
125	0x40266d8b	2.600436
126	0xc0b06886	-5.512759
127	0xc056fea8	-3.359293
128	0x41036f15	8.21462
129	0x41a9bbd0	21.216705
130	0xc14bab66	-12.729345
131	0x40900133	4.5001464
132	0x40d791a2	6.7365274
133	0xbe86e559	-0.26346853
134	0xbf2c2262	-0.67239964
135	0x414db9c4	12.857853
136	0x400b97d6	2.1811423
137	0x40b91219	5.783459
138	0xc0403223	-3.00306
139	0x41118050	9.093826
140	0x40c243bd	6.070769
141	0x40b0fd6a	5.5309343
142	0xc1371160	-11.441742
143	0x411e9636	9.911673

square_avg f4 [12]
0	0x412ee815	10.931661
1	0x4058c675	3.3871129
2	0x401f5315	2.489446
3	0x40a6b369	5.2094007
4	0x41b36dd9	22.428637
5	0x42cf3eff	103.62304
6	0x41faefa5	31.367014
7	0x41559ac0	13.350281
8	0x3fd81d81	1.6884004
9	0x41c677c5	24.808481
10	0x4217a17b	37.907696
11	0x41a1b16d	20.211634

momentum_buffer f4 [12]
0	0x41823967	16.278028
1	0x41f0e4c4	30.111702
2	0x421b9cac	38.903
3	0x421c5464	39.082413
4	0x40de2d87	6.9430575
5	0x418d2524	17.643135
6	0x404ce9b4	3.201764
7	0x40418427	3.023691
8	0x4232741d	44.61339
9	0x41c77f29	24.93709
10	0x421840d6	38.063316
11	0x418f99d3	17.95011

square_avg f4 [12, 12]
0	0x3f040363	0.5156767
1	0x3fb5b4d2	1.4195807
2	0x3f1e79e1	0.6190472
3	0x3f976285	1.1826941
4	0x428a2f2b	69.092125
5	0x3ff7da30	1.936346
6	0x3eaabe5f	0.33348367
7	0x4003f6cb	2.061938
8	0x3cfb6817	0.030689282
9	0x401095c3	2.2591407
10	0x42239881	40.89893
11	0x4052c052	3.2929883
12	0x3fca67b5	1.5812899
13	0x3f6874e4	0.9080336
14	0x3ed41b44	0.41427052
15	0x3f853e3d	1.0409619
16	0x4232daa6	44.713524
17	0x3f5644bd	0.83698636
18	0x3f9ce205	1.2256476
19	0x3e9d5870	0.30731535
20	0x3e616a8c	0.220133
21	0x40e278e7	7.0772586
22	0x439688ce	301.0688
23	0x3fda816b	1.7070745
24	0x40e807b4	7.2509403
25	0x40a2cfd2	5.0878687
26	0x3f2801ed	0.6562794
27	0x3fd62d07	1.6732491
28	0x40f1ec2c	7.5600796
29	0x3fe87834	1.8161683
30	0x40cf6aa7	6.481769
31	0x403a4c7e	2.9109187
32	0x4006dc26	2.1071868
33	0x400e84c7	2.226854
34	0x41b8ad09	23.08449
35	0x40c50ef4	6.1580753
36	0x40a8bb41	5.272858
37	0x404d945a	3.2121797
38	0x3f6aa793	0.9166195
39	0x3f421f88	0.7582936
40	0x41b2ad60	22.334656
41	0x418fec97	17.990522
42	0x3f7de08f	0.99170774
43	0x403de20c	2.9669218
44	0x3f6dfb31	0.9296141
45	0x419e25c4	19.76844
46	0x43589d32	216.61404
47	0x4052a9ea	3.2916207
48	0x42150203	37.251965
49	0x422785ae	41.880547
50	0x40aa21d1	5.316628
51	0x40178101	2.3672488
52	0x41bf6107	23.922377
53	0x405ae222	3.420052
54	0x427983fa	62.378883
55	0x41cddf0c	25.73391
56	0x424d171e	51.272575
57	0x40863669	4.194142
58	0x429e1fb0	79.06189
59	0x40799e0a	3.900271
60	0x40d3d11d	6.6192765
61	0x407a4e02	3.9110112
62	0x415ed363	13.926608
63	0x3f8db42b	1.1070608
64	0x42789dc1	62.154057
65	0x40ac938b	5.3930106
66	0x412a2c05	10.635747
67	0x4188184a	17.01186
68	0x4010885e	2.2583232
69	0x418aaec1	17.33533
70	0x4398ee65	305.86246
71	0x40bd579f	5.916946
72	0x40d592bd	6.6741624
73	0x409571d5	4.6701455
74	0x3f8d6876	1.1047504
75	0x3f651ed1	0.8950015
76	0x424e1f4e	51.53057
77	0x3d993cee	0.074823245
78	0x3ff91e0c	1.9462295
79	0x412219ac	10.131268
80	0x3c0eb61b	0.0087104095
81	0x41101204	9.004398
82	0x418896e5	17.073679
83	0x3f83de98	1.0302305
84	0x404993e3	3.1496513
85	0x409286c8	4.578953
86	0x3ec7fd4f	0.39060447
87	0x3f23715e	0.6384486
88	0x3fe5c12a	1.7949574
89	0x3f00e503	0.50349444
90	0x410014aa	8.005045
91	0x414c9b03	12.787845
92	0x40a466e6	5.137561
93	0x3ed0bd2f	0.40769336
94	0x413ed2e5	11.926488
95	0x3fca413b	1.5801157
96	0x3dfc10c0	0.12307882
97	0x3e9088cf	0.28229377
98	0x3c797775	0.015226235
99	0x3f18f3ad	0.5974682
100	0x42147eb5	37.123737
101	0x411560c1	9.336122
102	0x403fd46d	2.9973404
103	0x3d54378c	0.051810786
104	0x3c2d10a4	0.010563049
105	0x3f178f5b	0.5920312
106	0x3de54341	0.11194468
107	0x3f1b7308	0.607224
108	0x40a24cf5	5.071894
109	0x4074f406	3.827394
110	0x3fc5516b	1.5415472
111	0x3efc0249	0.49220493
112	0x408b05ed	4.3444734
113	0x3fe58acc	1.7932982
114	0x41240af7	10.252677
115	0x408e4394	4.4457493
116	0x400d3e31	2.2069209
117	0x3fac455b	1.3458666
118	0x43362af5	182.1678
119	0x403e462c	2.973033
120	0x410c031f	8.750762
121	0x413679a4	11.404697
122	0x40c1c20f	6.054939
123	0x3f702b50	0.9381609
124	0x40ed3d1b	7.413709
125	0x3ed2b97f	0.41157147
126	0x41685fe4	14.523411
127	0x400aee95	2.170812
128	0x40ef53c7	7.4789767
129	0x40742c08	3.8151875
130	0x42857bdb	66.741905
131	0x3f4aafdc	0.7917459
132	0x3e01ff9e	0.12695166
133	0x3ee2f3f0	0.44326735
134	0x3d05f4f8	0.032704324
135	0x3c256d4d	0.01009686
136	0x4100823f	8.031798
137	0x416c9105	14.785405
138	0x3de30adf	0.11086058
139	0x3e43fe9e	0.19140097
140	0x3c9f0b81	0.019414665
141	0x41d38153	26.438147
142	0x441aa734	618.61255
143	0x40efe315	7.49647

momentum_buffer f4 [12, 12]
0	0x4163d0e4	14.238499
1	0x413b7b8f	11.717666
2	0x40aa120b	5.3147025
3	0xbfed23dd	-1.852657
4	0x41671bfa	14.44433
5	0x4182b932	16.340427
6	0x40a3b6ea	5.1160784
7	0x41042a99	8.2604
8	0x42125202	36.580086
9	0x40ccb69c	6.397291
10	0x4123ef6e	10.2459545
11	0x41c51fce	24.64053
12	0x40d44408	6.6333046
13	0x417b3d08	15.7024
14	0x4176a4f6	15.415274
15	0x400b4006	2.1757827
16	0x400a3554	2.159505
17	0xc0e7a63a	-7.2390413
18	0x41917b65	18.185251
19	0x41691cda	14.569544
20	0x40a919fd	5.2844224
21	0x3ee37db5	0.44431844
22	0xc0f27eaf	-7.5779643
23	0x40596afe	3.3971553
24	0x40619bb9	3.5251296
25	0x40b88363	5.7660384
26	0x41373bca	11.452097
27	0x41352b80	11.32312
28	0x4186bb8b	16.841574
29	0x416a797f	14.654662
30	0x41a0a462	20.080265
31	0x41c1f6ee	24.245571
32	0x3e47e4c5	0.19520862
33	0x41b5d650	22.729645
34	0x40fa8b7b	7.8295264
35	0x410a9a69	8.662698
36	0x4190ee6a	18.116413
37	0x41767627	15.403846
38	0x412df95c	10.873379
39	0x41364804	11.392582
40	0x4136a6bf	11.4157095
41	0x410dbe2a	8.858927
42	0x41839c8c	16.451439
43	0x418fb746	17.964489
44	0x409c2178	4.8790855
45	0xbfe37774	-1.7770829
46	0xc0165479	-2.3489058
47	0x4121b065	10.105565
48	0x405a1eab	3.4081218
49	0xc0baa1b5	-5.8322396
50	0x3f6babfe	0.92059314
51	0xc05a6bdf	-3.412834
52	0x410df44b	8.872142
53	0x3fe18ca7	1.7621049
54	0xbf70ccdb	-0.94062585
55	0x40dac88a	6.83698
56	0xc0208632	-2.5081906
57	0xc0e8a903	-7.2706313
58	0xc0ef1729	-7.471577
59	0x40f33a79	7.600888
60	0x40fc5976	7.8859205
61	0x40c37940	6.108551
62	0x40b56a26	5.6692076
63	0x41181e57	9.507407
64	0xc11448ea	-9.267801
65	0x3c305290	0.010761872
66	0xc0ff913c	-7.986479
67	0x41a19e85	20.202402
68	0xc1011b86	-8.06922
69	0xbede98e0	-0.4347601
70	0xc089ef63	-4.310472
71	0xc1781fca	-15.507761
72	0x412ddee4	10.866917
73	0x414e804f	12.906325
74	0x41443d8d	12.265027
75	0x41898466	17.189648
76	0x41434c30	12.2061
77	0x41efffe6	29.99995
78	0x41191f8f	9.570205
79	0x41830ff2	16.382786
80	0x4065607a	3.5840135
81	0xc072d04a	-3.793963
82	0x414b4492	12.704241
83	0x41330982	11.189821
84	0x4178441e	15.51663
85	0x4130c9e8	11.0492935
86	0x4057a082	3.3691716
87	0x40d364b6	6.606044
88	0x4199b5ea	19.213825
89	0x4188b6a3	17.089178
90	0xc08197bc	-4.0497723
91	0x4183c00b	16.468771
92	0x40db7fe0	6.8593597
93	0x40d57526	6.6705503
94	0x4141f8cc	12.123241
95	0x40d6f9ae	6.7179785
96	0x40b85205	5.760012
97	0x410553dd	8.332974
98	0x4194482a	18.535236
99	0xc11b59c4	-9.709415
100	0xc10e61d9	-8.898889
101	0x3f0ed395	0.557916
102	0x419fae2d	19.960047
103	0x41f50f9e	30.632626
104	0x4137afec	11.48045
105	0xc037c7b4	-2.871564
106	0x41f5cfa3	30.726385
107	0xc1d7d792	-26.980259
108	0x40c9b7d1	6.3036885
109	0xc133b186	-11.230841
110	0x41551123	13.316684
111	0xc119b30d	-9.606214
112	0xbfcf5b38	-1.6199713
113	0xc0998a66	-4.7981443
114	0xc1758ec4	-15.347355
115	0x4012fc54	2.296651
116	0xc04d3b02	-3.2067266
117	0x40ef960f	7.4870677
118	0x413628b2	11.384935
119	0x3f6d9a4e	0.92813575
120	0x41c518f7	24.63719
121	0x414c1c70	12.756943
122	0x40879681	4.237122
123	0x3fadda12	1.3582175
124	0x4182b181	16.336672
125	0xbfd9b267	-1.7007569
126	0x413f6ea1	11.964509
127	0x41d4751a	26.557178
128	0x418d780e	17.68362
129	0x3fff0959	1.9924728
130	0xc164fe3a	-14.312067
131	0xbfa27879	-1.2693015
132	0x3fcd8f35	1.6059328
133	0x402cb041	2.6982577
134	0x41262d9a	10.386133
135	0xc0722744	-3.7836466
136	0x3e50cd3f	0.20390795
137	0xbf0282f2	-0.50981057
138	0x416318b6	14.193533
139	0x41c52e30	24.647552
140	0x400bf7eb	2.1870067
141	0xc0602bf4	-3.5026827
142	0xbed3315b	-0.41248593
143	0x40bc36fc	5.881712

square_avg f4 [12]
0	0x3f1b739e	0.6072329
1	0x3f879596	1.0592525
2	0x3f03303d	0.5124548
3	0x3f3d1bdc	0.73870635
4	0x3e31e09c	0.17370838
5	0x4010fbd1	2.2653697
6	0x3e1705e1	0.14748336
7	0x3ce9f0a2	0.028557125
8	0x3de6f675	0.11277477
9	0x3f48acfa	0.7838894
10	0x3e514805	0.2043763
11	0x40371cbd	2.861129

momentum_buffer f4 [12]
0	0xc01ba5da	-2.4319978
1	0xc1613ce8	-14.07737
2	0x41fe2461	31.767763
3	0x4117f141	9.4964
4	0xc254b6aa	-53.178383
5	0xc10305f6	-8.188955
6	0x41181e8a	9.507456
7	0x40f0d45c	7.525923
8	0x40b3673c	5.606352
9	0x41555a2b	13.334514
10	0x41567177	13.402701
11	0xc0903526	-4.506488

square_avg f4 [12, 12]
0	0x4099c5cd	4.8053956
1	0x41e8acdc	29.084404
2	0x40a591ce	5.1740484
3	0x41f6fddd	30.873957
4	0x4214949c	37.145126
5	0x42f748d9	123.64228
6	0x40680b79	3.6257002
7	0x408ca882	4.39557
8	0x40628415	3.5393116
9	0x420d5e03	35.34181
10	0x42ff7649	127.731026
11	0x41a7fa02	20.997074
12	0x3e24fe2c	0.16112584
13	0x3e800f61	0.25011733
14	0x3f1b501c	0.6066911
15	0x3c14bd4d	0.009078336
16	0x3d9a632b	0.07538446
17	0x3ec438dd	0.38324633
18	0x3a7749ab	0.00094332796
19	0x3e4dd5bd	0.20101066
20	0x3b438349	0.002983289
21	0x3b89244e	0.004185236
22	0x3b066ec3	0.0020512796
23	0x3924ee22	0.0001572897
24	0x3ec66edc	0.38756454
25	0x41b3a350	22.454742
26	0x3ee50720	0.44731998
27	0x42aa5f95	85.18668
28	0x42b54ad6	90.646164
29	0x427c0232	63.002144
30	0x400872fd	2.1320183
31	0x3f25ed7e	0.6481551
32	0x407be00e	3.9355502
33	0x3d0d735c	0.034533843
34	0x43e6d285	461.64468
35	0x4209131a	34.268654
36	0x3f9ebb6b	1.2400945
37	0x41ad9c74	21.701393
38	0x412d6116	10.836203
39	0x4207bdd8	33.935394
40	0x431cf404	156.95319
41	0x43b5a48b	363.2855
42	0x40bad551	5.8385396
43	0x417ffcdf	15.999236
44	0x40b8b196	5.771678
45	0x42857a05	66.73832
46	0x4377d5ab	247.83464
47	0x413ff5ec	11.9975395
48	0x2935c445	4.036031e-14
49	0x00000000	0.0
50	0x27dce631	6.131184e-15
51	0x00000000	0.0
52	0x27f13291	6.694576e-15
53	0x2860cdcb	1.2479122e-14
54	0x28992802	1.7003763e-14
55	0x26a3da9f	1.1369654e-15
56	0x299dab2d	7.001895e-14
57	0x2826ed92	9.266366e-15
58	0x29703410	5.3335862e-14
59	0x27b8443b	5.1144235e-15
60	0x3ec1bc90	0.37839174
61	0x3f48bdfc	0.78414893
62	0x41274e4f	10.456618
63	0x418536da	16.651783
64	0x40b0f77d	5.530211
65	0x432878fc	168.4726
66	0x3d35ad48	0.044354707
67	0x4105b7f0	8.357407
68	0x3bad6b55	0.005292336
69	0x42d0620e	104.19151
70	0x435474d0	212.4563
71	0x416a2922	14.635042
72	0x40449a07	3.071901
73	0x431eaca3	158.67436
74	0x3e438147	0.19092284
75	0x43961778	300.18335
76	0x3eab0647	0.33403227
77	0x43908c30	289.0952
78	0x3f333f92	0.70018876
79	0x3f684e86	0.9074482
80	0x3c420f0e	0.01184441
81	0x3e92364e	0.28557056
82	0x45026908	2086.5645
83	0x42a7c776	83.88957
84	0x2ac8510b	3.5583372e-13
85	0x2bd84351	1.5366407e-12
86	0x35ab1bd9	1.2748598e-06
87	0x38258cf1	3.9470327e-05
88	0x35f7afd7	1.845411e-06
89	0x3403499f	1.2227109e-07
90	0x383f8e99	4.5670753e-05
91	0x349921a4	2.8522948e-07
92	0x35781c26	9.242816e-07
93	0x326ab56c	1.3661843e-08
94	0x2c74d149	3.4790662e-12
95	0x36762e80	3.6683923e-06
96	0x41ab8fc8	21.445206
97	0x44460817	792.1264
98	0x408c9073	4.392633
99	0x44e09851	1796.7599
100	0x407cddd9	3.9510405
101	0x44d2068e	1680.2048
102	0x410840ee	8.515852
103	0x415af032	13.683641
104	0x3daf5687	0.08561426
105	0x407849aa	3.879496
106	0x463316bf	11461.687
107	0x44131e9e	588.4784
108	0x41e5790e	28.684109
109	0x42c1b320	96.84985
110	0x41473a6e	12.451765
111	0x4308b3ec	136.70282
112	0x4449f9c0	807.90234
113	0x4428c112	675.0167
114	0x40c5b49e	6.178298
115	0x4162aff5	14.167958
116	0x418ab1a5	17.33674
117	0x431ef05a	158.93887
118	0x4412e57e	587.5858
119	0x42c8ef9a	100.46797
120	0x41c501c6	24.625866
121	0x4237fee3	45.998913
122	0x40bad7a6	5.8388243
123	0x4198fe22	19.124088
124	0x4464b091	914.75885
125	0x438e7f63	284.9952
126	0x40aa47ef	5.321281
127	0x40a97c82	5.2964487
128	0x4137b201	11.480958
129	0x42ba1849	93.04743
130	0x42f3f5c7	121.980034
131	0x407754b2	3.8645444
132	0x3f9c666d	1.2218758
133	0x415585df	13.345183
134	0x405eecd4	3.4832048
135	0x42368461	45.629276
136	0x41cd3801	25.652346
137	0x42bd9101	94.78321
138	0x3fe6e586	1.8038795
139	0x4066e278	3.6075726
140	0x4103c0b5	8.234548
141	0x410e4c00	8.893555
142	0x436002d9	224.01112
143	0x41d7b77a	26.964588

momentum_buffer f4 [12, 12]
0	0x407226e2	3.7836232
1	0x419fec5b	19.990408
2	0xc08fd378	-4.494564
3	0xc162aa50	-14.16658
4	0x40eaff76	7.343684
5	0x413c0b66	11.752783
6	0xbf47a353	-0.7798359
7	0xc0cc251a	-6.379529
8	0x4118a0eb	9.539287
9	0x3fbd320a	1.4780896
10	0x40489fa5	3.134744
11	0xc0383b23	-2.8786094
12	0x3ff72499	1.9308044
13	0x408e26b3	4.442224
14	0x40f1476e	7.5399694
15	0x40a7ede5	5.24779
16	0x415a78c2	13.654482
17	0x40c46ccd	6.1382813
18	0x41205aef	10.022201
19	0x419bce16	19.475628
20	0x4133d846	11.240301
21	0x40311242	2.7667394
22	0x415feb24	13.994907
23	0x4181bb17	16.216352
24	0xc02239ad	-2.5347703
25	0x4137c877	11.486442
26	0x4057f40e	3.374271
27	0xc0e80cb8	-7.2515526
28	0x40e8fb22	7.280656
29	0x41304d4f	11.018874
30	0xbff91934	-1.9460816
31	0xc0b9d0fe	-5.8067617
32	0xbee569a5	-0.44807163
33	0xc118b3e6	-9.5439205
34	0xc0e118d4	-7.034281
35	0xc1271a0b	-10.443858
36	0x401cb408	2.4484882
37	0x40f6746f	7.701713
38	0x418055b3	16.041845
39	0x4115380c	9.326183
40	0x4122bf15	10.171651
41	0x412c986b	10.787211
42	0x413a3c79	11.639764
43	0x411c5684	9.771122
44	0x40a55ff0	5.167961
45	0x410d3595	8.825582
46	0x4085c462	4.1802225
47	0xc0cb8931	-6.360497
48	0x4063698d	3.5533173
49	0x00000000	0.0
50	0x4059756d	3.397792
51	0x00000000	0.0
52	0x405a21b1	3.4083064
53	0x405e39b5	3.4722722
54	0x405fdfb6	3.4980292
55	0x40469f6e	3.1034808
56	0x40650647	3.5785081
57	0x405c687f	3.443878
58	0x406447da	3.5668855
59	0x4057fd12	3.3748212
60	0x40e08390	7.01606
61	0x41568e35	13.4097185
62	0x3ff392ed	1.9029213
63	0x41189e50	9.5386505
64	0x418456b8	16.542343
65	0x413cc10c	11.797131
66	0x4185e79b	16.738089
67	0x4085eab4	4.1849003
68	0x417c34b6	15.762869
69	0x40f46caf	7.638267
70	0x407321b6	3.7989326
71	0xc00cab8d	-2.1979706
72	0x4135f3ce	11.372023
73	0x410f174c	8.943188
74	0xbf9f3ee8	-1.2441072
75	0xc0917802	-4.5458994
76	0x4138f03e	11.558653
77	0x40994ec6	4.790866
78	0xbf90edf2	-1.1322615
79	0xc07a921e	-3.9151683
80	0x3f16f8bd	0.58973294
81	0xc14f0e83	-12.941043
82	0xc089afb5	-4.3026986
83	0xc13db5b7	-11.856864
84	0xbff57c92	-1.9178641
85	0x4071c23d	3.7774804
86	0x40ed3989	7.4132733
87	0x411ae104	9.679935
88	0x40f2d10e	7.5880194
89	0x413f232c	11.946087
90	0x400bd4c8	2.1848621
91	0x410c5250	8.770096
92	0x3ebbe5e0	0.36698818
93	0x3e90ed57	0.28306076
94	0x3f5a24c9	0.8521238
95	0x3e8c160d	0.27360573
96	0xc101d74e	-8.115065
97	0x3f7ad019	0.9797378
98	0xc00092d5	-2.008962
99	0xc00bb526	-2.1829314
100	0x413370e5	11.215062
101	0x41387722	11.529085
102	0x40bdb52c	5.9283657
103	0x3f95e606	1.1710823
104	0x416464df	14.274627
105	0x41317e40	11.093323
106	0xc081aa53	-4.0520415
107	0xc0e96271	-7.293267
108	0x41dda2ed	27.704554
109	0x41814952	16.1608
110	0x3f86a4d9	1.0519058
111	0xc0e633ec	-7.193838
112	0x41b58070	22.687714
113	0x41939391	18.447054
114	0x406cb041	3.6982577
115	0x410ae692	8.681292
116	0x41d06e2d	26.053797
117	0x411c44dd	9.766812
118	0xc079150b	-3.8919094
119	0x41082830	8.509811
120	0xc0d81a4c	-6.75321
121	0x40e9a136	7.300929
122	0xc086c19c	-4.211134
123	0xbf703f0f	-0.9384622
124	0x419568be	18.676144
125	0x41781e37	15.507377
126	0xc1e15530	-28.166595
127	0xc0a0f6fe	-5.0301504
128	0xc085ec36	-4.1850843
129	0x41358561	11.345063
130	0xc0e82f76	-7.2557936
131	0x4077f562	3.874352
132	0xc00d0c6e	-2.2038836
133	0x4186452a	16.783772
134	0xbfd62031	-1.6728574
135	0xbfebd943	-1.8425678
136	0x41813f10	16.155792
137	0x41501423	13.004916
138	0xc12d415c	-10.828457
139	0xbf5c6cf1	-0.8610373
140	0x4178d7ef	15.552718
141	0x3fbc9b78	1.4734945
142	0x406ffcf2	3.7498136
143	0x40d479f3	6.6398864

square_avg f4 [12]
0	0x3b8b8933	0.004258299
1	0x3909c007	0.00013136874
2	0x3bff0131	0.0077821244
3	0x3b988add	0.0046552257
4	0x2af16d20	4.288592e-13
5	0x3b205949	0.002446728
6	0x3cdd66ba	0.027026523
7	0x3411c0d6	1.357433e-07
8	0x3e2acc60	0.16679525
9	0x3ca744dd	0.020418579
10	0x3c2ea184	0.0106586255
11	0x3beaf88a	0.0071707414

momentum_buffer f4 [12]
0	0xbf809fd1	-1.0048772
1	0x41aaa51d	21.330622
2	0x400c2b3b	2.1901386
3	0xc088c3f8	-4.273922
4	0x40681dd3	3.6268203
5	0x40ca9568	6.330738
6	0xbfb16690	-1.3859425
7	0x41926750	18.300446
8	0xc0135a2c	-2.3023787
9	0xc14132d6	-12.074911
10	0x4208eab7	34.229214
11	0x407a91c0	3.9151459

square_avg f4 [12, 12]
0	0x45969f90	4819.9453
1	0x3ba8983d	0.0051451013
2	0x4302ab08	130.66809
3	0x4362be4d	226.74336
4	0x00000000	0.0
5	0x42a7b43e	83.852036
6	0x440e799b	569.9001
7	0x2f00f3ec	1.172819e-10
8	0x42f54470	122.63367
9	0x465f1902	14278.252
10	0x44a5f9fa	1327.8118
11	0x44edda2e	1902.8181
12	0x45893144	4390.158
13	0x3bfa58fc	0.0076400023
14	0x42da82fa	109.25581
15	0x43445251	196.32155
16	0x2a0ccd59	1.2505742e-13
17	0x4295aad1	74.833626
18	0x43fb15f9	502.17166
19	0x32f196d7	2.8124687e-08
20	0x42ccb42e	102.35191
21	0x464e1447	13189.069
22	0x449ab3ae	1237.615
23	0x44dd2826	1769.2546
24	0x2e7206fa	5.5030626e-11
25	0x30504ee5	7.5782075e-10
26	0x321797f1	8.823904e-09
27	0x32159893	8.707633e-09
28	0x2a0696dd	1.1953932e-13
29	0x3388d14b	6.371064e-08
30	0x31a4a14b	4.791365e-09
31	0x2dde92b9	2.5303636e-11
32	0x2fd21f9f	3.8221246e-10
33	0x2f6491da	2.0788296e-10
34	0x00000000	0.0
35	0x3ef1bd88	0.47214913
36	0x40bcefa2	5.904252
37	0x310dfd46	2.066217e-09
38	0x401d8fde	2.461906
39	0x404f86e5	3.2426083
40	0x2a16eb06	1.3404216e-13
41	0x3f80588c	1.0027022
42	0x40f53b81	7.6635137
43	0x32550cab	1.2401112e-08
44	0x4000ad50	2.0105782
45	0x4129c8a6	10.611486
46	0x3d46f249	0.048570905
47	0x4113375e	9.201017
48	0x340f4c3f	1.3345651e-07
49	0x281fed40	8.8777184e-15
50	0x326c680c	1.37606655e-08
51	0x2e7e5fe9	5.78381e-11
52	0x287440e6	1.35587935e-14
53	0x2d4b656f	1.1561737e-11
54	0x2f57af1c	1.9616347e-10
55	0x2ec4f309	8.95622e-11
56	0x2c1997c5	2.1826857e-12
57	0x3518e595	5.69585e-07
58	0x00000000	0.0
59	0x3297d523	1.7675637e-08
60	0x3fa5cfcc	1.295404
61	0x3a7e754e	0.0009706811
62	0x3f87da72	1.0613539
63	0x3fa59c15	1.2938257
64	0x2918ecd7	3.3956206e-14
65	0x3fa3262f	1.2746028
66	0x3fc9fb7b	1.5779871
67	0x3274315c	1.4213892e-08
68	0x3f0c506c	0.54810214
69	0x403b31f5	2.9249241
70	0x3c2bfa44	0.01049668
71	0x3fddf2d1	1.7339727
72	0x358277a6	9.720577e-07
73	0x2d2d98fc	9.867881e-12
74	0x318c0f64	4.076286e-09
75	0x312dcb7b	2.5290479e-09
76	0x2a5af4fc	1.9447286e-13
77	0x2faa2c0e	3.0954123e-10
78	0x309a7093	1.123697e-09
79	0x30603b1e	8.1574736e-10
80	0x336d733e	5.5285675e-08
81	0x35b16aed	1.3218647e-06
82	0x310b8e82	2.0308168e-09
83	0x342b12ea	1.5932497e-07
84	0x3bdcf32f	0.006742857
85	0x382c33ef	4.1056363e-05
86	0x3da4163e	0.08012055
87	0x3d65fd16	0.056149565
88	0x2a718fa5	2.1454937e-13
89	0x3d4dbd6d	0.05022948
90	0x3d02f552	0.031972237
91	0x32885c70	1.587452e-08
92	0x3c915b26	0.017743658
93	0x3db52675	0.08845226
94	0x00000000	0.0
95	0x3c128e19	0.0089450115
96	0x00000000	0.0
97	0x00000000	0.0
98	0x2f839f5a	2.3941987e-10
99	0x00000000	0.0
100	0x00000000	0.0
101	0x297764aa	5.493233e-14
102	0x2db1a47f	2.0195621e-11
103	0x00000000	0.0
104	0x00000000	0.0
105	0x2db2cefe	2.032818e-11
106	0x00000000	0.0
107	0x2a490ca5	1.7856773e-13
108	0x45bf3876	6119.0576
109	0x3c3f9227	0.01169256
110	0x4336fb89	182.98256
111	0x438d6e59	282.8621
112	0x2a8976df	2.4418572e-13
113	0x4304a30b	132.63689
114	0x443f7374	765.80396
115	0x3343cdcb	4.5589143e-08
116	0x4324944f	164.57933
117	0x46913e31	18591.096
118	0x44e691dd	1844.5582
119	0x451c3361	2499.2112
120	0x43147df6	148.49203
121	0x3cc1cdc2	0.023657683
122	0x4225427c	41.314926
123	0x425305fd	52.755848
124	0x297a2f98	5.5552432e-14
125	0x41bfd491	23.978792
126	0x42e25f25	113.18583
127	0x33b9767b	8.636285e-08
128	0x41f9306d	31.148645
129	0x431ac87b	154.78313
130	0x3fdd3176	1.7280719
131	0x430b1aac	139.10419
132	0x43d107d9	418.0613
133	0x3af5c5b2	0.0018750934
134	0x40f2c8ac	7.586996
135	0x40f61d58	7.691082
136	0x276f7f33	3.3236868e-15
137	0x411e63f9	9.899407
138	0x41a0f3b3	20.118994
139	0x3290d579	1.6860882e-08
140	0x4097e1db	4.7463202
141	0x44b4c7d9	1446.2452
142	0x43170535	151.02034
143	0x42c2a12a	97.31477

momentum_buffer f4 [12, 12]
0	0xbfa8f2d9	-1.3199111
1	0xc1cf3230	-25.899506
2	0x3e44f49c	0.19233936
3	0x401630f2	2.3467374
4	0x00000000	0.0
5	0xc0fb0266	-7.844043
6	0x414824d6	12.508993
7	0x406ee1f4	3.732541
8	0x4119b090	9.605606
9	0xc03a4186	-2.9102492
10	0xbe258782	-0.16164973
11	0xc0a85e10	-5.2614822
12	0x4046c7fe	3.1059566
13	0x4160a83e	14.041075
14	0xbf89134a	-1.0709012
15	0xc0de6585	-6.9498925
16	0x40665210	3.5987587
17	0x3fdf6512	1.7452719
18	0x401d51d5	2.4581196
19	0xc08242c0	-4.070648
20	0xc0258cda	-2.586722
21	0xc0fdc458	-7.9302177
22	0x4092e675	4.590632
23	0xbff4f93a	-1.9138558
24	0x40789ce4	3.8845758
25	0x3cc632af	0.02419409
26	0x405f3724	3.4877405
27	0x40b6148a	5.690007
28	0xc0663b72	-3.5973783
29	0x3f00ca26	0.50308454
30	0x40299f83	2.6503608
31	0x411a7d28	9.655556
32	0xc033b34a	-2.807818
33	0x40deeeed	6.9666657
34	0x00000000	0.0
35	0x41a546e6	20.659618
36	0x41125e80	9.148071
37	0x408a2909	4.317509
38	0xc091c4de	-4.5552816
39	0xc07e11cb	-3.969836
40	0xc06673e5	-3.6008236
41	0x40108939	2.2583754
42	0xc09ea9c0	-4.9582214
43	0x40cd9507	6.424442
44	0xc086d260	-4.2131805
45	0x412eacb5	10.917165
46	0x418c2beb	17.521444
47	0x4089b8bc	4.3038006
48	0x40f6d3ee	7.7133703
49	0xc05e4847	-3.4731615
50	0x41379c6b	11.475688
51	0xc0b0e1d2	-5.527566
52	0x405eb0c5	3.4795392
53	0x40e8a953	7.2706695
54	0x40e9f9e6	7.311755
55	0x3e977970	0.29584837
56	0xc0a380e8	-5.1094856
57	0x408885ba	4.266324
58	0x00000000	0.0
59	0x41608d3a	14.034479
60	0x411eb377	9.918815
61	0xc15d943f	-13.848693
62	0xc06dc1dc	-3.7149572
63	0xc0f30f21	-7.595597
64	0xc062d065	-3.5439694
65	0xc1348d89	-11.2845545
66	0xc00102c9	-2.015795
67	0x40e1efe8	7.0605354
68	0xc0c448fb	-6.1339087
69	0x41152859	9.3223505
70	0x402b5328	2.6769505
71	0xc0227e03	-2.5389411
72	0x40ad5689	5.4168134
73	0x406c2b89	3.6901572
74	0x40ff3e2f	7.976341
75	0x40ad369e	5.412917
76	0x40671731	3.6107905
77	0x4109b096	8.605612
78	0x40ea92e3	7.3304305
79	0x3d87686a	0.06611712
80	0x403f1f23	2.9862754
81	0x40b0b1ea	5.521718
82	0x40ad4f9f	5.4159694
83	0x40a84e6a	5.259572
84	0x41979ebf	18.952513
85	0xbfdbf0e1	-1.7182885
86	0xbeb4eb00	-0.3533554
87	0xc00a7636	-2.163465
88	0xc0673d90	-3.6131325
89	0xbfaa135a	-1.3287156
90	0xc0989d83	-4.7692275
91	0x40e3d247	7.1194186
92	0xc0bb6a8c	-5.856756
93	0x41815378	16.165756
94	0x00000000	0.0
95	0x412f6498	10.962059
96	0x00000000	0.0
97	0x00000000	0.0
98	0x406eec4c	3.7331724
99	0x00000000	0.0
100	0x00000000	0.0
101	0x4068f190	3.6397438
102	0x406eb15b	3.729575
103	0x00000000	0.0
104	0x00000000	0.0
105	0x406eb19e	3.729591
106	0x00000000	0.0
107	0x406b9c28	3.681406
108	0x3edf1a57	0.43574783
109	0xc07835e0	-3.8782883
110	0xc01b9686	-2.4310622
111	0x40058a92	2.0865827
112	0x40676d71	3.6160548
113	0x40fa1d35	7.8160653
114	0x3fa42828	1.2824755
115	0x3fd6d03c	1.6782298
116	0xc10d3fdc	-8.828091
117	0xc0d67533	-6.7018065
118	0x4052a969	3.29159
119	0x40927061	4.576218
120	0xbead4a4d	-0.3384575
121	0x40c0da98	6.026684
122	0xc0ffb30e	-7.9906073
123	0x40270a4b	2.6100032
124	0xc06465ed	-3.568721
125	0xc005fd31	-2.0935786
126	0xc0bdd235	-5.93191
127	0xc0926791	-4.5751424
128	0x40d74a51	6.727822
129	0x41801cf9	16.014147
130	0xc191eb45	-18.239878
131	0xc0a4dfbe	-5.1523123
132	0x3fc546ba	1.5412209
133	0xbef9accf	-0.48764655
134	0x4141ff93	12.124896
135	0xc09525d6	-4.6608686
136	0x4054030f	3.3126867
137	0x404b877f	3.180145
138	0x3e61da6f	0.22055982
139	0xbfd5415c	-1.6660571
140	0xc1ecd25c	-29.602715
141	0xc0b38b41	-5.610749
142	0x41164838	9.392632
143	0x3f2258df	0.63416857

square_avg f4 [12]
0	0x39e1bfdd	0.00043058294
1	0x399a4e64	0.00029431575
2	0x37808701	1.5321655e-05
3	0x37b7f400	2.1928921e-05
4	0x31ab2ff4	4.9822066e-09
5	0x37a0829b	1.9134304e-05
6	0x31a31c9f	4.747178e-09
7	0x3691f467	4.349789e-06
8	0x2e950ad5	6.77766e-11
9	0x3a134788	0.0005618264
10	0x39ab7e61	0.0003270982
11	0x393d094a	0.00018027905

momentum_buffer f4 [12]
0	0x41b43dbd	22.530146
1	0xc1b75d05	-22.92042
2	0x41afc4df	21.971128
3	0x41025fbd	8.148374
4	0x40f66a21	7.700455
5	0xc06a2fdf	-3.6591718
6	0x40914702	4.539918
7	0x402600c1	2.593796
8	0x406ed70e	3.731876
9	0x4193601a	18.421925
10	0x4135aa4a	11.3540745
11	0xc190ebe7	-18.115187

square_avg f4 [3, 1]
0	0x00000000	0.0
1	0x00000000	0.0
2	0x00000000	0.0

momentum_buffer f4 [3, 1]
0	0x00000000	0.0
1	0x00000000	0.0
2	0x00000000	0.0

square_avg f4 [3, 1]
0	0x00000000	0.0
1	0x00000000	0.0
2	0x00000000	0.0

momentum_buffer f4 [3, 1]
0	0x00000000	0.0
1	0x00000000	0.0
2	0x00000000	0.0

square_avg f4 [4, 2]
0	0x00000000	0.0
1	0x00000000	0.0
2	0x00000000	0.0
3	0x00000000	0.0
4	0x00000000	0.0
5	0x00000000	0.0
6	0x00000000	0.0
7	0x00000000	0.0

momentum_buffer f4 [4, 2]
0	0x00000000	0.0
1	0x00000000	0.0
2	0x00000000	0.0
3	0x00000000	0.0
4	0x00000000	0.0
5	0x00000000	0.0
6	0x00000000	0.0
7	0x00000000	0.0

square_avg f4 [2, 2]
0	0x00000000	0.0
1	0x00000000	0.0
2	0x00000000	0.0
3	0x00000000	0.0

momentum_buffer f4 [2, 2]
0	0x00000000	0.0
1	0x00000000	0.0
2	0x00000000	0.0
3	0x00000000	0.0

square_avg f4 [2]
0	0x00000000	0.0
1	0x00000000	0.0

momentum_buffer f4 [2]
0	0x00000000	0.0
1	0x00000000	0.0

square_avg f4 [2, 2]
0	0x00000000	0.0
1	0x00000000	0.0
2	0x00000000	0.0
3	0x00000000	0.0

momentum_buffer f4 [2, 2]
0	0x00000000	0.0
1	0x00000000	0.0
2	0x00000000	0.0
3	0x00000000	0.0

square_avg f4 [2]
0	0x00000000	0.0
1	0x00000000	0.0

momentum_buffer f4 [2]
0	0x00000000	0.0
1	0x00000000	0.0

square_avg f4 [2, 2]
0	0x00000000	0.0
1	0x00000000	0.0
2	0x00000000	0.0
3	0x00000000	0.0

momentum_buffer f4 [2, 2]
0	0x00000000	0.0
1	0x00000000	0.0
2	0x00000000	0.0
3	0x00000000	0.0

square_avg f4 [2]
0	0x00000000	0.0
1	0x00000000	0.0

momentum_buffer f4 [2]
0	0x00000000	0.0
1	0x00000000	0.0

square_avg f4 [3, 1]
0	0x00000000	0.0
1	0x00000000	0.0
2	0x00000000	0.0

momentum_buffer f4 [3, 1]
0	0x00000000	0.0
1	0x00000000	0.0
2	0x00000000	0.0

square_avg f4 [3, 1]
0	0x00000000	0.0
1	0x00000000	0.0
2	0x00000000	0.0

momentum_buffer f4 [3, 1]
0	0x00000000	0.0
1	0x00000000	0.0
2	0x00000000	0.0

square_avg f4 [3, 1]
0	0x00000000	0.0
1	0x00000000	0.0
2	0x00000000	0.0

momentum_buffer f4 [3, 1]
0	0x00000000	0.0
1	0x00000000	0.0
2	0x00000000	0.0

square_avg f4 [3, 1]
0	0x2a588a16	1.9232562e-13
1	0x00000000	0.0
2	0x00000000	0.0

momentum_buffer f4 [3, 1]
0	0xc0dd6426	-6.918475
1	0x00000000	0.0
2	0x00000000	0.0

square_avg f4 [185, 50]
0	0x00000000	0.0
1	0x00000000	0.0
2	0x3fb105c4	1.3829885
3	0x3f4acc50	0.79218006
4	0x4494cc05	1190.3756
5	0x3f27ee91	0.655984
6	0x455413f4	3393.247
7	0x3f0d62e6	0.5522903
8	0x3c4a8c32	0.012362527
9	0x449e4f01	1266.4689
10	0x342accfb	1.5907055e-07
11	0x42fe527a	127.16109
12	0x00000000	0.0
13	0x00000000	0.0
14	0x00000000	0.0
15	0x3c6ff664	0.014646146
16	0x3b93cebc	0.0045107286
17	0x3efdef9e	0.49596876
18	0x44f9addc	1997.4331
19	0x3c39e57e	0.011346219
20	0x00000000	0.0
21	0x2cca09b4	5.7422626e-12
22	0x446e2e50	952.72363
23	0x00000000	0.0
24	0x3e4fc955	0.20291646
25	0x3902987d	0.00012454572
26	0x00000000	0.0
27	0x3bd209e4	0.0064098705
28	0x00000000	0.0
29	0x3e205285	0.15656479
30	0x3f966326	1.1749008
31	0x4386c85d	269.56534
32	0x00000000	0.0
33	0x00000000	0.0
34	0x3dafde4f	0.08587324
35	0x00000000	0.0
36	0x3c23c261	0.009995074
37	0x4343b493	195.70537
38	0x00000000	0.0
39	0x00000000	0.0
40	0x3c7bf657	0.015378556
41	0x00000000	0.0
42	0x00000000	0.0
43	0x00000000	0.0
44	0x00000000	0.0
45	0x00000000	0.0
46	0x00000000	0.0
47	0x00000000	0.0
48	0x00000000	0.0
49	0x3c0b857d	0.008515713
50	0x00000000	0.0
51	0x3f4b6e10	0.7946482
52	0x00000000	0.0
53	0x00000000	0.0
54	0x40dbaeee	6.8651037
55	0x40266ad3	2.60027
56	0x00000000	0.0
57	0x38a9987c	8.0869504e-05
58	0x3b3375a7	0.0027383359
59	0x00000000	0.0
60	0x00000000	0.0
61	0x00000000	0.0
62	0x00000000	0.0
63	0x00000000	0.0
64	0x3c023374	0.007946838
65	0x00000000	0.0
66	0x00000000	0.0
67	0x00000000	0.0
68	0x3a724740	0.00092421845
69	0x00000000	0.0
70	0x386ab9d8	5.5963028e-05
71	0x00000000	0.0
72	0x00000000	0.0
73	0x00000000	0.0
74	0x00000000	0.0
75	0x00000000	0.0
76	0x00000000	0.0
77	0x3a2e3d67	0.0006646723
78	0x00000000	0.0
79	0x00000000	0.0
80	0x00000000	0.0
81	0x00000000	0.0
82	0x3eaf3779	0.3422201
83	0x00000000	0.0
84	0x3ffdae1f	1.9818763
85	0x39795654	0.0002377865
86	0x405bdfd0	3.4355354
87	0x3faf4b2a	1.3694813
88	0x00000000	0.0
89	0x00000000	0.0
90	0x40bcf669	5.9050794
91	0x00000000	0.0
92	0x3f9dd54e	1.233072
93	0x3e41be0e	0.18920156
94	0x00000000	0.0
95	0x00000000	0.0
96	0x3bbcd3b1	0.0057625403
97	0x00000000	0.0
98	0x3eea9dfc	0.45823658
99	0x00000000	0.0
100	0x355cb5ad	8.222076e-07
101	0x4031aada	2.776053
102	0x29ead789	1.0429077e-13
103	0x00000000	0.0
104	0x3e520ed8	0.20513475
105	0x411596e6	9.34934
106	0x00000000	0.0
107	0x40aaaa85	5.3333154
108	0x400e8684	2.2269602
109	0x40c5832f	6.1722636
110	0x4013ace2	2.307427
111	0x39836cd7	0.0002506736
112	0x00000000	0.0
113	0x00000000	0.0
114	0x3a4cabd9	0.000780759
115	0x34374c4d	1.7070961e-07
116	0x00000000	0.0
117	0x2928f0d7	3.751239e-14
118	0x3d811478	0.06302732
119	0x00000000	0.0
120	0x00000000	0.0
121	0x331d28ac	3.6591402e-08
122	0x00000000	0.0
123	0x00000000	0.0
124	0x00000000	0.0
125	0x00000000	0.0
126	0x00000000	0.0
127	0x00000000	0.0
128	0x29c7a71f	8.866366e-14
129	0x00000000	0.0
130	0x00000000	0.0
131	0x00000000	0.0
132	0x39a883d7	0.00032141685
133	0x00000000	0.0
134	0x00000000	0.0
135	0x40cafb18	6.343151
136	0x3784cb97	1.583043e-05
137	0x00000000	0.0
138	0x00000000	0.0
139	0x3f89082c	1.0705619
140	0x3d8e3f0d	0.0694562
141	0x00000000	0.0
142	0x00000000	0.0
143	0x00000000	0.0
144	0x3ffe549b	1.986957
145	0x00000000	0.0
146	0x3f854c9e	1.0414007
147	0x00000000	0.0
148	0x00000000	0.0
149	0x00000000	0.0
150	0x00000000	0.0
151	0x4280050b	64.00985
152	0x43f1f3fd	483.90616
153	0x00000000	0.0
154	0x3abfa8f5	0.0014622497
155	0x00000000	0.0
156	0x00000000	0.0
157	0x3ce4bdd9	0.027922558
158	0x3a336712	0.0006843667
159	0x00000000	0.0
160	0x33023006	3.031166e-08
161	0x4394ead1	297.8345
162	0x00000000	0.0
163	0x00000000	0.0
164	0x449a0350	1232.1035
165	0x00000000	0.0
166	0x342762bd	1.5589008e-07
167	0x397dde0f	0.00024210683
168	0x00000000	0.0
169	0x39229ed2	0.00015508689
170	0x00000000	0.0
171	0x4280d002	64.406265
172	0x00000000	0.0
173	0x00000000	0.0
174	0x38850bfe	6.344168e-05
175	0x00000000	0.0
176	0x00000000	0.0
177	0x29b9cb3b	8.250905e-14
178	0x4488016f	1088.0448
179	0x3d994ba9	0.07485134
180	0x3a0c910e	0.0005362191
181	0x4312cc74	146.79865
182	0x33cd6925	9.565182e-08
183	0x00000000	0.0
184	0x00000000	0.0
185	0x00000000	0.0
186	0x00000000	0.0
187	0x00000000	0.0
188	0x00000000	0.0
189	0x00000000	0.0
190	0x00000000	0.0
191	0x00000000	0.0
192	0x00000000	0.0
193	0x00000000	0.0
194	0x446a0936	936.1439
195	0x00000000	0.0
196	0x00000000	0.0
197	0x332d60c4	4.036771e-08
198	0x00000000	0.0
199	0x00000000	0.0
200	0x00000000	0.0
201	0x35dc84ab	1.6429889e-06
202	0x00000000	0.0
203	0x3f875d64	1.0575376
204	0x00000000	0.0
205	0x00000000	0.0
206	0x00000000	0.0
207	0x00000000	0.0
208	0x00000000	0.0
209	0x3ece57bd	0.40301314
210	0x00000000	0.0
211	0x3ec93381	0.39297107
212	0x3d84369a	0.06455727
213	0x00000000	0.0
214	0x00000000	0.0
215	0x00000000	0.0
216	0x3e1eebfd	0.1551971
217	0x25aca3c9	2.994823e-16
218	0x00000000	0.0
219	0x00000000	0.0
220	0x00000000	0.0
221	0x00000000	0.0
222	0x00000000	0.0
223	0x3dce750b	0.10080918
224	0x2c89b2e2	3.913634e-12
225	0x00000000	0.0
226	0x00000000	0.0
227	0x368e6394	4.243522e-06
228	0x39305991	0.00016818034
229	0x359fd92b	1.1909627e-06
230	0x3de7a8ab	0.11311468
231	0x00000000	0.0
232	0x36f3fb68	7.271232e-06
233	0x00000000	0.0
234	0x39114445	0.0001385371
235	0x00000000	0.0
236	0x3c808aa6	0.015691113
237	0x3d9ef0d9	0.07760782
238	0x357ebf25	9.4900525e-07
239	0x00000000	0.0
240	0x3ddcba7e	0.10777758
241	0x3b715abc	0.0036827764
242	0x292c3605	3.8238527e-14
243	0x3cd598ab	0.026073774
244	0x00000000	0.0
245	0x00000000	0.0
246	0x00000000	0.0
247	0x00000000	0.0
248	0x35095fd9	5.1175954e-07
249	0x00000000	0.0
250	0x00000000	0.0
251	0x00000000	0.0
252	0x00000000	0.0
253	0x29c62ba4	8.800537e-14
254	0x00000000	0.0
255	0x3f1b8742	0.6075326

momentum_buffer f4 [185, 50]
0	0x00000000	0.0
1	0x00000000	0.0
2	0x40b30f05	5.5955834
3	0x41260098	10.375145
4	0x40132bc4	2.2995462
5	0x413cd903	11.802981
6	0xc11c10be	-9.754087
7	0x40c5ace8	6.1773567
8	0x415acb68	13.67466
9	0x40cf01dc	6.468977
10	0x40e999ad	7.3000093
11	0x40ad988d	5.424872
12	0x00000000	0.0
13	0x00000000	0.0
14	0x00000000	0.0
15	0x41506484	13.02454
16	0x4167e377	14.493033
17	0x410c3335	8.762502
18	0xc1a2799c	-20.30938
19	0x41469cab	12.413249
20	0x00000000	0.0
21	0x4069abc4	3.6511087
22	0xc02ae262	-2.6700673
23	0x00000000	0.0
24	0x4119e522	9.618441
25	0x40e54323	7.1644454
26	0x00000000	0.0
27	0x40da81ae	6.82833
28	0x00000000	0.0
29	0x40947df9	4.6403775
30	0x4112e666	9.18125
31	0xc0fe8002	-7.953126
32	0x00000000	0.0
33	0x00000000	0.0
34	0x41648bb4	14.284107
35	0x00000000	0.0
36	0x40e00ecd	7.0018067
37	0x40694a6d	3.6451676
38	0x00000000	0.0
39	0x00000000	0.0
40	0x4143a046	12.226629
41	0x00000000	0.0
42	0x00000000	0.0
43	0x00000000	0.0
44	0x00000000	0.0
45	0x00000000	0.0
46	0x00000000	0.0
47	0x00000000	0.0
48	0x00000000	0.0
49	0x4160ad97	14.04238
50	0x00000000	0.0
51	0x3f5a3176	0.8523172
52	0x00000000	0.0
53	0x00000000	0.0
54	0xc11bf0fb	-9.746333
55	0xc152d398	-13.176659
56	0x00000000	0.0
57	0x40fd3491	7.912667
58	0x417df9c5	15.873479
59	0x00000000	0.0
60	0x00000000	0.0
61	0x00000000	0.0
62	0x00000000	0.0
63	0x00000000	0.0
64	0x4186f2d2	16.868565
65	0x00000000	0.0
66	0x00000000	0.0
67	0x00000000	0.0
68	0x4043cca7	3.059366
69	0x00000000	0.0
70	0x414f1e47	12.944892
71	0x00000000	0.0
72	0x00000000	0.0
73	0x00000000	0.0
74	0x00000000	0.0
75	0x00000000	0.0
76	0x00000000	0.0
77	0x40e1ba77	7.054012
78	0x00000000	0.0
79	0x00000000	0.0
80	0x00000000	0.0
81	0x00000000	0.0
82	0xc0dac645	-6.836703
83	0x00000000	0.0
84	0xc1252645	-10.321843
85	0x41554f97	13.331931
86	0xc1af7eca	-21.936909
87	0xc11e544f	-9.895583
88	0x00000000	0.0
89	0x00000000	0.0
90	0xc127851f	-10.47
91	0x00000000	0.0
92	0xc18e4f6d	-17.788782
93	0x4184fa98	16.62236
94	0x00000000	0.0
95	0x00000000	0.0
96	0x40b3f53c	5.623686
97	0x00000000	0.0
98	0xbf730bab	-0.9493968
99	0x00000000	0.0
100	0x3fdf49b0	1.7444363
101	0x409fff6a	4.9999285
102	0x4065f3f5	3.593015
103	0x00000000	0.0
104	0x416c98ad	14.787274
105	0xc1391c5f	-11.569427
106	0x00000000	0.0
107	0xc09b3390	-4.8500443
108	0x403ba901	2.9321902
109	0xc194831c	-18.564018
110	0xc14dd3ac	-12.864178
111	0x3f98131f	1.1880835
112	0x00000000	0.0
113	0x00000000	0.0
114	0x414657d0	12.396439
115	0x4130e8ab	11.056804
116	0x00000000	0.0
117	0x40632a36	3.5494514
118	0x411c37aa	9.76359
119	0x00000000	0.0
120	0x00000000	0.0
121	0x416a51ad	14.64494
122	0x00000000	0.0
123	0x00000000	0.0
124	0x00000000	0.0
125	0x00000000	0.0
126	0x00000000	0.0
127	0x00000000	0.0
128	0x40659889	3.587435
129	0x00000000	0.0
130	0x00000000	0.0
131	0x00000000	0.0
132	0x3fcdcdf1	1.6078473
133	0x00000000	0.0
134	0x00000000	0.0
135	0xc1ab96c8	-21.448624
136	0x404daee5	3.2137997
137	0x00000000	0.0
138	0x00000000	0.0
139	0xc1701702	-15.005617
140	0x416784db	14.469935
141	0x00000000	0.0
142	0x00000000	0.0
143	0x00000000	0.0
144	0xc0d52957	-6.6612964
145	0x00000000	0.0
146	0x41849c3c	16.576286
147	0x00000000	0.0
148	0x00000000	0.0
149	0x00000000	0.0
150	0x00000000	0.0
151	0xc1a11f45	-20.140268
152	0x4140303d	12.011777
153	0x00000000	0.0
154	0x41485402	12.52051
155	0x00000000	0.0
156	0x00000000	0.0
157	0x411ecfea	9.92576
158	0x412a5fb7	10.648368
159	0x00000000	0.0
160	0x40a1daf1	5.0579762
161	0xc177b063	-15.480563
162	0x00000000	0.0
163	0x00000000	0.0
164	0xc207af3a	-33.92112
165	0x00000000	0.0
166	0x3fa5ea7b	1.2962183
167	0x4109dc51	8.616288
168	0x00000000	0.0
169	0x40f71078	7.7207603
170	0x00000000	0.0
171	0xc1ace290	-21.610626
172	0x00000000	0.0
173	0x00000000	0.0
174	0x412491a2	10.285555
175	0x00000000	0.0
176	0x00000000	0.0
177	0x40656db8	3.5848217
178	0x40c62a75	6.1926827
179	0x41824333	16.282812
180	0x40f1c563	7.555345
181	0xc1230f78	-10.191277
182	0x409c2a8b	4.880193
183	0x00000000	0.0
184	0x00000000	0.0
185	0x00000000	0.0
186	0x00000000	0.0
187	0x00000000	0.0
188	0x00000000	0.0
189	0x00000000	0.0
190	0x00000000	0.0
191	0x00000000	0.0
192	0x00000000	0.0
193	0x00000000	0.0
194	0xc13c9af6	-11.787832
195	0x00000000	0.0
196	0x00000000	0.0
197	0x40e5cfa9	7.181599
198	0x00000000	0.0
199	0x00000000	0.0
200	0x00000000	0.0
201	0x40aa8d3f	5.329742
202	0x00000000	0.0
203	0xc0d3ca95	-6.6184793
204	0x00000000	0.0
205	0x00000000	0.0
206	0x00000000	0.0
207	0x00000000	0.0
208	0x00000000	0.0
209	0xc0f161b5	-7.543177
210	0x00000000	0.0
211	0x3d2ef4b0	0.04271382
212	0xc12d97cd	-10.849561
213	0x00000000	0.0
214	0x00000000	0.0
215	0x00000000	0.0
216	0x40db74f0	6.8580246
217	0x402d93e2	2.712151
218	0x00000000	0.0
219	0x00000000	0.0
220	0x00000000	0.0
221	0x00000000	0.0
222	0x00000000	0.0
223	0xc187d6cd	-16.979883
224	0x412a2979	10.635125
225	0x00000000	0.0
226	0x00000000	0.0
227	0x40bc9997	5.8937488
228	0x41442bb8	12.2606735
229	0x40d4e751	6.653237
230	0x40f64351	7.6957173
231	0x00000000	0.0
232	0x4106afea	8.417948
233	0x00000000	0.0
234	0x408fed27	4.4976993
235	0x00000000	0.0
236	0x4111e584	9.118534
237	0xc0949b98	-4.6439934
238	0x40f31de7	7.5974
239	0x00000000	0.0
240	0x411779c0	9.467224
241	0x40937b93	4.6088347
242	0x40c8e5ae	6.278037
243	0x4185ef7b	16.741934
244	0x00000000	0.0
245	0x00000000	0.0
246	0x00000000	0.0
247	0x00000000	0.0
248	0x4109ec97	8.620261
249	0x00000000	0.0
250	0x00000000	0.0
251	0x00000000	0.0
252	0x00000000	0.0
253	0x4065942d	3.587169
254	0x00000000	0.0
255	0x411419d6	9.256308
