Multistate Intensity Models/SDDR_outputs/best_estimator_nn_event_10.pth (torch, 551877 bytes, 222 tensors)

square_avg f4 [4, 1]
00000000: 1613 1a36 a566 3738 161a c833 a784 4235
2.2958898e-06 4.3726195e-05 9.317971e-08 7.2463666e-07

momentum_buffer f4 [4, 1]
00000000: c918 33bf dd0c 25bf 98e6 c1bf b089 6f3f
-0.69959694 -0.6447275 -1.5148497 0.9356947

square_avg f4 [4]
00000000: 4f2d 3a34 9487 1534 254f b931 5f1e 1732
1.7339083e-07 1.392603e-07 5.3932063e-09 8.796262e-09

momentum_buffer f4 [4]
00000000: 9b9e a0bf 6ca0 76be d1e9 a9bf f004 44be
-1.2548403 -0.24084634 -1.327448 -0.19142509

square_avg f4 [4, 4]
00000000: 0000 0000 0000 0000 0000 0000 0000 0000
00000010: 29a1 9735 4037 0032 836d b935 ee61 ad33
00000020: 5b59 102b 921f 4e29 6c33 b42a 63d6 de28
00000030: 41c5 1e33 60bf 7030 1d9f 9635 c099 dd33
0.0 0.0 0.0 0.0 1.129728e-06 7.463143e-09 1.3815446e-06 8.0737536e-08
5.128308e-13 4.576857e-14 3.2010104e-13 2.4739927e-14 3.6966643e-08 8.758345e-10 1.1222179e-06 1.03190814e-07

momentum_buffer f4 [4, 4]
00000000: 0000 0000 0000 0000 0000 0000 0000 0000
00000010: 403d a03f ac0a a73e 8090 453f c8e1 5d3f
00000020: 97a4 7636 5cc5 7236 c832 7636 4ad4 7036
00000030: fc66 0040 d6f7 c8b7 6ff9 b43f 9bdb b93f
0.0 0.0 0.0 0.0 1.2518692 0.3262533 0.77173615 0.8667264
3.675266e-06 3.6175688e-06 3.6686415e-06 3.5886355e-06 2.0062857 -2.3957266e-05 1.4138621 1.4520143

square_avg f4 [4]
00000000: 0000 0000 e127 5233 1d2f a029 54f0 7034
0.0 4.8930705e-08 7.1136e-14 2.2439173e-07

momentum_buffer f4 [4]
00000000: 0000 0000 aeef b7be e7d9 73b6 6006 ad3f
0.0 -0.3592505 -3.6336658e-06 1.351757

square_avg f4 [4, 4]
00000000: 0000 0000 f0e9 5c35 85c9 1c2a 2e0a c230
00000010: 0000 0000 9468 9134 665c 352a 233d 3a31
00000020: 0000 0000 13f3 8b37 a21c 0029 56b4 e330
00000030: 0000 0000 64b7 5030 88e6 8929 8c27 882e
0.0 8.229681e-07 1.39255e-13 1.4118251e-09 0.0 2.7084445e-07 1.6108087e-13 2.7101315e-09
0.0 1.6683282e-05 2.8446544e-14 1.6567678e-09 0.0 7.5930573e-10 6.124013e-14 6.191589e-11

momentum_buffer f4 [4, 4]
00000000: 0000 0000 18a6 01be c71c 7536 8ddd a3bf
00000010: 0000 0000 b4e4 043e e655 75b6 395f 0340
00000020: 0000 0000 7e26 9cbf 1b52 71b6 ceed 10c0
00000030: 0000 0000 1daf 2437 7482 7336 b72a 0b38
0.0 -0.12661016 3.6524596e-06 -1.2801987 0.0 0.12977868 -3.6557844e-06 2.052687
0.0 -1.2199247 -3.595959e-06 -2.2645144 0.0 9.8159335e-06 3.6285755e-06 3.3179964e-05

square_avg f4 [4]
00000000: 0849 0733 4216 0434 86c9 e934 8927 9a30
3.149856e-08 1.2301555e-07 4.354626e-07 1.1216211e-09

momentum_buffer f4 [4]
00000000: d221 f43e de88 99bf 48d9 99bf 2b7f 8237
0.47682053 -1.1994894 -1.2019434 1.5556425e-05

square_avg f4 [5, 4]
00000000: a7bd ba2f f868 6d31 edde ae2e f78c d72d
00000010: 914b cc32 4ddf 1732 e2f7 3033 4d42 d92d
00000020: 5ac8 e330 c423 0833 59a4 3c2e 9ed7 6d2d
00000030: ecb9 3e33 1023 1935 9d0a bd30 83a6 ff2d
00000040: 0e89 632c 09a3 3b2b 2d9f 032a 59fe d927
3.396796e-10 3.4547707e-09 7.9522035e-11 2.4505271e-11 2.378309e-08 8.8401295e-09 4.120364e-08 2.4699487e-11
1.6573367e-09 3.1697496e-08 4.289222e-11 1.3519767e-11 4.4406917e-08 5.7047964e-07 1.3754576e-09 2.906409e-11
3.233472e-12 6.6662e-13 1.1690362e-13 6.0505363e-15

momentum_buffer f4 [5, 4]
00000000: ed9d b13a 0b29 393b a7e2 9037 6f4d afb7
00000010: 4a6d 3abf 7007 23c0 6987 c6be f5d8 8cb7
00000020: 9f84 763b 2700 f83b 219b 2038 9bd4 a1b7
00000030: 4a9c 13bf 3034 fabe e1e1 0dc0 19b4 8437
00000040: cda7 7736 5cd9 7636 80d2 7436 f49d 69b6
0.0013551094 0.0028253223 1.7271681e-05 -2.0897683e-05 -0.7282301 -2.547329 -0.38775185 -1.6790329e-05
0.003761567 0.0075683775 3.8291448e-05 -1.9291698e-05 -0.57660353 -0.4886794 -2.2169116 1.581949e-05
3.690354e-06 3.6783376e-06 3.648136e-06 -3.4811646e-06

square_avg f4 [5]
00000000: bff4 3130 c717 4633 1b97 2131 9e6b 3433
00000010: 9897 d62b
6.474003e-10 4.6122093e-08 2.3514477e-09 4.2007393e-08 1.524769e-12

momentum_buffer f4 [5]
00000000: fd93 883a 6a74 a4bf a17f 233b 51cf 47bf
00000010: 5259 7736
0.001042008 -1.2848027 0.00249479 -0.78050715 3.685786e-06

square_avg f4 [20, 12]
00000000: 6b6c fc36 df52 5a37 ded1 6337 6ddd 7f37
00000010: 7a98 4237 49e1 0037 36a1 a637 8ef5 dd37
00000020: a4ac 3d35 1a6f 8135 b46f 2e2e c453 e233
00000030: 9e8c 8a36 73c9 4238 5376 c535 2e68 b837
00000040: e679 3f37 b96b 2f37 ebd3 1b37 93bf 9636
00000050: 7c2a ae36 5fba 1e37 690c 1135 fcdb 3e32
00000060: b0cc d036 643e 6b37 c68d 2a37 da87 3537
00000070: 802b b436 b601 8d37 27d5 fc36 040e 2238
00000080: 1469 e036 db1a a736 e61d a734 d2d6 8c34
00000090: e581 e937 2cd4 1c38 62ae 1d37 aa27 9638
000000a0: 09e1 2637 3f21 0438 cafd 0c38 0a27 1638
000000b0: 4d31 c435 78f2 9336 b16d 2035 f341 2d34
000000c0: 408a 2337 ff3a 9937 77c3 de34 d275 ea37
000000d0: 109a ab36 ded8 c236 8442 5836 4903 4137
000000e0: 18e0 0d36 d01f b535 cd84 1231 a634 8634
000000f0: 6dea ce37 3d65 d737 b6cf dc35 d75e e837
00000100: 3b71 5e37 7893 c437 e02d 6e38 aaed 0639
00000110: 860f 7832 1424 1937 9daf 8535 bad3 a530
00000120: 742a 7b36 8819 a336 9434 c437 1695 e536
00000130: ff53 4336 deba 2437 49ee 0238 3560 9438
00000140: e856 6d35 d03a 0e36 a3b9 4b33 45c6 3e33
00000150: 490c 6738 6dc3 c336 925d 0536 6b6c a837
00000160: bdb7 da36 596e 1d38 55d1 8537 263a 9537
00000170: fb58 4636 5b73 bb36 0caf 022f 2884 462f
00000180: 0e25 4537 1e99 a037 db05 9935 59d7 7d38
00000190: 8515 2f37 3023 bd37 9c5d 8837 ae02 ce37
000001a0: 3561 c333 09b3 0937 ea63 0e33 beda a832
000001b0: 0c16 0b37 7386 a636 be64 8834 bbc6 be36
000001c0: a3af 2836 7e9b b836 bbd7 df36 4b84 e736
000001d0: 87da 1134 8c80 f935 8c23 2d33 d047 0631
000001e0: e2ac 2d38 fe4e cb37 85f3 8038 cc18 8238
000001f0: 97c8 0738 da8e 7438 d7af de37 848f 9238
00000200: 22eb 9935 7d34 f535 d6a8 2c24 7998 c32d
00000210: f18f 8137 359d ca37 923f fa36 7d9d 1237
00000220: 748b 8636 6bd3 c136 d690 d536 8132 8836
00000230: 2cf5 fe35 4b70 3b36 f364 b432 b694 a134
00000240: ce25 8637 928f 9f37 1e74 a537 f41f be37
00000250: 93b2 c237 8d9f ca37 9b7a c037 4b60 a836
00000260: 15a6 c535 2cc3 c136 dd32 ca34 9726 bc33
00000270: 206d bb37 f41b 4e37 8c92 e636 dda1 7c37
00000280: e876 b136 675d 1337 bfd5 cd37 114d a136
00000290: 26ac a835 4d4d 5336 e330 7032 d3b4 ea32
000002a0: 0a58 d738 3fb1 f637 9df3 4e36 1c0e 3b38
000002b0: eb62 1237 07cd 9c38 06a5 0e38 07b1 3738
000002c0: fd52 6036 a4c7 9137 a3c6 8932 c65d d533
000002d0: e941 2437 a05a 6c37 bf7e 2838 b40f 3137
000002e0: a63a 9036 5291 0e37 2430 bc37 99b0 1f38
000002f0: a4f9 9435 e1c4 1235 9c25 9731 93ae b634
00000300: 3609 c637 e573 7738 2637 8d36 1b0d e738
00000310: c188 9c37 26c5 6f38 a9bd 7b38 2483 0139
00000320: 04e1 0436 072d 0238 aa13 b034 d350 3b33
00000330: b320 d736 f167 3637 5cdf f736 3e0e ed37
00000340: b29d a936 605f f736 f52e aa37 1996 1138
00000350: f4b9 df34 3040 ba35 1cce 1634 bd19 8c32
00000360: cf65 bb38 59ed d637 5751 6938 7da5 1038
00000370: e297 3b38 5ae7 a337 fdd0 1938 c3ee 6738
00000380: 1e2a 0234 1e65 8637 4a07 c334 8805 a330
00000390: a3f1 0237 73ff 4237 4156 3736 ac01 0e38
000003a0: b897 6536 a958 c836 864b 8637 b739 7037
000003b0: 3845 d734 1a71 d336 c4b7 7133 a5ff 1233
7.5228068e-06 1.30131075e-05 1.3579118e-05 1.5250739e-05 1.1598802e-05 7.681848e-06 1.9863812e-05 2.6459598e-05
7.065921e-07 9.643584e-07 3.9662232e-11 1.0539182e-07 4.1290905e-06 4.644082e-05 1.4712081e-06 2.1983022e-05
1.1412869e-05 1.0455894e-05 9.288061e-06 4.4926505e-06 5.19055e-06 9.460927e-06 5.403477e-07 1.1109474e-08
6.222712e-06 1.4021618e-05 1.0165799e-05 1.0820071e-05 5.369482e-06 1.6809307e-05 7.5349994e-06 3.8636863e-05
6.687953e-06 4.980114e-06 3.1127928e-07 2.6233334e-07 2.7836251e-05 3.73909e-05 9.398531e-06 7.1599454e-05
9.946766e-06 3.1502215e-05 3.361496e-05 3.5799145e-05 1.4617486e-06 4.4091685e-06 5.9764267e-07 1.6135873e-07
9.747746e-06 1.8266493e-05 4.1492942e-07 2.7949838e-05 5.1141324e-06 5.806897e-06 3.2225225e-06 1.1504461e-05
2.1141077e-06 1.349481e-06 2.1321285e-09 2.4997752e-07 2.4666277e-05 2.567714e-05 1.6451729e-06 2.7700718e-05
1.3258595e-05 2.3433691e-05 5.6786346e-05 0.00012867773 1.44390295e-08 9.127911e-06 9.960382e-07 1.2065506e-09
3.7426626e-06 4.860751e-06 2.3389504e-05 6.8420877e-06 2.9106156e-06 9.81867e-06 3.1216336e-05 7.07511e-05
8.8415845e-07 2.1193882e-06 4.7433456e-08 4.4418147e-08 5.5086133e-05 5.8342034e-06 1.987301e-06 2.0077647e-05
6.5182962e-06 3.7534486e-05 1.5952313e-05 1.7789262e-05 2.9556093e-06 5.5864634e-06 1.188562e-10 1.8054946e-10
1.17507425e-05 1.9144787e-05 1.1401092e-06 6.052046e-05 1.0435823e-05 2.2546941e-05 1.6256054e-05 2.4558361e-05
9.098077e-08 8.207521e-06 3.3152823e-08 1.9657246e-08 8.290179e-06 4.9628375e-06 2.5405274e-07 5.6855765e-06
2.5136185e-06 5.501729e-06 6.671032e-06 6.8997374e-06 1.3583677e-07 1.8589358e-06 4.031203e-08 1.9540387e-09
4.1407424e-05 2.423627e-05 6.148875e-05 6.203502e-05 3.2373322e-05 5.8307174e-05 2.6546344e-05 6.9885544e-05
1.1467821e-06 1.8269199e-06 3.7439564e-17 2.2236645e-11 1.5445026e-05 2.4153482e-05 7.457981e-06 8.738946e-06
4.0097457e-06 5.7764605e-06 6.364756e-06 4.0589953e-06 1.8995829e-06 2.7930535e-06 2.1000664e-08 3.0096788e-07
1.5991649e-05 1.9021132e-05 1.9723604e-05 2.2664644e-05 2.3209757e-05 2.4154573e-05 2.2945276e-05 5.018e-06
1.472598e-06 5.774569e-06 3.766244e-07 8.761452e-08 2.2342952e-05 1.2285065e-05 6.8715945e-06 1.5058057e-05
5.2888536e-06 8.78363e-06 2.4537438e-05 4.8071456e-06 1.2567077e-06 3.1486445e-06 1.3980954e-08 2.7323415e-08
0.000102683975 2.9408022e-05 3.0838194e-06 4.4597415e-05 8.725309e-06 7.476849e-05 3.400913e-05 4.379547e-05
3.3426907e-06 1.7378312e-05 1.6039229e-08 9.935643e-08 9.790508e-06 1.4087796e-05 4.0172363e-05 1.0553678e-05
4.298362e-06 8.497695e-06 2.2433764e-05 3.8073023e-05 1.1099514e-06 5.4675735e-07 4.398954e-09 3.402716e-07
2.3607729e-05 5.8997324e-05 4.2085476e-06 0.000110173794 1.866033e-05 5.716565e-05 6.0019698e-05 0.00012351252
1.980051e-06 3.103635e-05 3.2796862e-07 4.361284e-08 6.411306e-06 1.0872246e-05 7.387176e-06 2.8259234e-05
5.0549506e-06 7.3722767e-06 2.0287445e-05 3.4710483e-05 4.1672286e-07 1.3876761e-06 1.4044821e-07 1.630985e-08
8.935818e-05 2.5621312e-05 5.5627283e-05 3.44864e-05 4.4725726e-05 1.9538846e-05 3.6672678e-05 5.5297056e-05
1.2122516e-07 1.6021131e-05 3.6326884e-07 1.1861383e-09 7.804864e-06 1.16227775e-05 2.7319331e-06 3.3856995e-05
3.421197e-06 5.970786e-06 1.6009213e-05 1.43185525e-05 4.0097234e-07 6.301457e-06 5.627932e-08 3.422578e-08

momentum_buffer f4 [20, 12]
00000000: 13aa 0740 0ee6 1840 0e16 613f a860 0f40
00000010: d06f 8a3d b0e4 c83e 7801 773f 50b9 e43d
00000020: 7ae0 26bf fdb7 bcbf f8bd d8bf 9c8b 4640
00000030: d08b 36bd 87c9 cabe f5b1 0140 242b 21be
00000040: 5aab e73f 7c13 f03f fca5 3a3f 8087 6fbd
00000050: 7ef5 2b3e 94d9 4ebe 286b 183f c079 1ec0
00000060: a688 c9be 8e66 503f 6951 8d3f 54cb 1b3f
00000070: 5275 9ebf 374b 553f a70c 8b3e fde4 1240
00000080: 8c59 d4bf 706e a2bf 8aa1 89c0 00af a13c
00000090: c06e 193f 6c1c 6e3f 94e6 96be c2cf 393f
000000a0: aab0 efbf 2c6c fa3e d08c 23bf 7723 94bf
000000b0: ee7e 203f 8064 1ac0 f4d5 5cc0 13b1 32bf
000000c0: 78e8 3140 e5ac 3a3f b009 b5be 2727 65bf
000000d0: e67e 83c0 a7b2 1240 082e 813e ef36 ed3f
000000e0: a810 573f c4a6 803f 2eec a83f 9ad8 28c0
000000f0: 00c4 5fbd 082e 823e b276 243f b3b4 3c3f
00000100: 90d5 2b3e fd32 803f 2002 83bf 8a64 8a3f
00000110: e5b4 513f 04ea a03e da04 253f 83fe 5f40
00000120: a062 0dc0 eab3 883f af11 73be 00c3 2e3c
00000130: 0a0e 14c0 b8ac c1bf 8030 08bf fcfa 74bf
00000140: aa89 403f 7462 15bf b340 0ac0 8e08 4c3f
00000150: 3c0b 49bf 18aa a8be 1c8d abbf f4a2 c83e
00000160: 8497 3b3f 8e80 8abf 8cb0 f83e 046b c0bf
00000170: e4ab ad3f 30ce 663e 3454 c3be 932b 013c
00000180: 220e eebe cef1 1fbf a067 a8bf e435 9bbf
00000190: 6cc9 aa3f e86d a8be 2a48 e0be 25a5 1b3e
000001a0: b634 adbf 9c03 f23f 607e bf3e ccce b83f
000001b0: 04d2 8abe 9887 443f 32c5 3ebe 28c9 f0bd
000001c0: e575 94bf c5b2 05be a8ce 43bf e786 12c0
000001d0: ae0a 15bf 3ad3 c73f 3b63 0340 98e9 343f
000001e0: c453 883f c418 3bbf 0a10 bcbe cc49 47bf
000001f0: d4e8 3a3f 34fb 983f 9999 3cbf 59b7 9cbf
00000200: c81b 2e3d b6c8 ab3e a7e9 0936 3ca7 943b
00000210: bbb3 9abf 7f1b 86be 7278 2240 fed7 01bf
00000220: 391e cb3f 7896 a43f 2853 c0bf 2873 eebf
00000230: 3233 5c3e d10f 79bf e928 9a3f 0a55 e73f
00000240: a90a 08c0 4cf0 82bf f879 b8bc dafe aa3e
00000250: 4705 1440 fd9b 1cbf 3ed2 56bf eba5 e63f
00000260: cee6 2dbe 80c1 4fbf 8420 bf3e ba0f 29c0
00000270: be6e 1b3f 6c0b 753e c767 43be e40d 8cbe
00000280: afe4 31c0 b143 8e3f 981c cd3e dedf 0abf
00000290: 003f eebf d881 15be bc21 7cbf edb3 763f
000002a0: d30a 42bf c219 c0bf f0ad 883e 9886 b63e
000002b0: fe9a b83f de1a 96bf cafe ed3f 0a95 30be
000002c0: 7282 3440 e435 2340 5462 0d41 a3cd 8440
000002d0: 229a 14c0 68cd 10c0 fd81 09bf 3849 1fc0
000002e0: a6ad 2840 dc2c fb3e 542f e33e c20e 82bd
000002f0: 80b0 debe 8604 ffbf 3438 b3bf 7fff 8bc0
00000300: 5841 bd3e 9efd ae3f 1e99 32bf 00e5 153d
00000310: 3074 703d 7dbd 5abf dbd0 a7be 0219 1cbf
00000320: 6ae5 9c3f 8c41 bebe e064 723e 3a40 94c0
00000330: b45e 04c0 8ceb 223e 5576 22bf 9fbf 803f
00000340: 8a57 1340 9026 c33f a237 103f 9425 303f
00000350: 79aa 5cbf 0a58 a53f 46a0 963e 62dc 3540
00000360: 39e2 6e3f e1de 843f 1462 d23d c025 dabd
00000370: bcce a33f 2ff2 11bf f10c 60bf 40ec a63b
00000380: f4f1 463f 8aed 0cc0 9ccd 7dbf df96 bf40
00000390: c2c5 e33f 9473 bfbf 7630 35bf c666 043f
000003a0: 405e f63b f0ff 52bf d6fc 273f f0a7 9dbd
000003b0: f81f 27c0 7064 d9bf f43d 88c0 5277 acc0
2.1197555 2.3890414 0.8792428 2.2402744 0.06759608 0.39236975 0.96486616 0.11168158
-0.65186274 -1.4743649 -1.6932974 3.102271 -0.04456693 -0.39606878 2.0264866 -0.15739113
1.8099167 1.8755946 0.7290952 -0.058478832 0.16792867 -0.20200187 0.5953851 -2.476181
-0.39362067 0.81406486 1.104047 0.6085713 -1.2379553 0.83317894 0.2715809 2.2952263
-1.6589828 -1.2689953 -4.300969 0.019736767 0.59934616 0.9301212 -0.29472792 0.7258264
-1.8725789 0.48910654 -0.6388674 -1.1573323 0.6269368 -2.412384 -3.4505587 -0.69801444
2.7798138 0.72920066 -0.35358953 -0.89512867 -4.1092405 2.292154 0.25230432 1.8532389
0.8400979 1.0050893 1.3197076 -2.6382203 -0.05463028 0.25425744 0.64243615 0.73713225
0.16780686 1.001556 -1.0235023 1.0811932 0.8191665 0.3142854 0.6446053 3.4999092
-2.2091446 1.0679905 -0.23737215 0.010666609 -2.3133569 -1.5130835 -0.53199005 -0.9569547
0.7521006 -0.5835335 -2.160199 0.79700553 -0.7853277 -0.3294227 -1.3402438 0.39186823
0.7327807 -1.0820482 0.48572195 -1.5032659 1.3568082 0.22539592 -0.3815018 0.007883924
-0.46495157 -0.6247834 -1.3156624 -1.2125821 1.3342719 -0.32896352 -0.43805057 0.15199716
-1.3531711 1.8907351 0.37401104 1.4438109 -0.27113354 0.767694 -0.18629912 -0.117571175
-1.1598479 -0.13056476 -0.7648721 -2.2894838 -0.5821942 1.5611336 2.0529315 0.70668936
1.0650563 -0.73084664 -0.36730987 -0.7784698 0.7301152 1.1951661 -0.7367187 -1.2243453
0.042506963 0.33551568 2.0550594e-06 0.0045365375 -1.2086099 -0.26192853 2.5386014 -0.507202
1.5868598 1.285842 -1.5025377 -1.8628893 0.21503904 -0.9728976 1.2043735 1.8072827
-2.1256506 -1.0229583 -0.022519097 0.3339756 2.312822 -0.6117552 -0.83914554 1.8019384
-0.16982576 -0.8115463 0.37329495 -2.6415849 0.60715854 0.23930138 -0.19082557 -0.27354348
-2.7795827 1.1114408 0.40060878 -0.54247844 -1.8612976 -0.14600313 -0.98488975 0.96368295
-0.75797766 -1.5007861 0.26695204 0.35649562 1.44223 -1.1726949 1.859338 -0.17244354
2.8204618 2.5501642 8.836506 4.150102 -2.3219075 -2.262537 -0.5371397 -2.488844
2.6355987 0.49057662 0.44372046 -0.06350471 -0.43494034 -1.9923255 -1.4001527 -4.3749385
0.36963916 1.3671148 -0.6976489 0.036595345 0.058704555 -0.85445386 -0.32776532 -0.6097566
1.2257512 -0.37159383 0.23671293 -4.63284 -2.0682802 0.15910167 -0.6346181 1.0058478
2.302218 1.5246143 0.5633489 0.6880734 -0.8619762 1.2917492 0.29419154 2.841576
0.9331394 1.0380517 0.10272613 -0.106517315 1.2797465 -0.5701017 -0.87519747 0.005094081
0.7771294 -2.2019982 -0.9914186 5.987167 1.7794726 -1.4957147 -0.7077707 0.5171932
0.0075185597 -0.8242178 0.6562017 -0.07698047 -2.6113262 -1.6983776 -4.2575626 -5.3895655

square_avg f4 [20]
00000000: 3b45 9337 c52a 8137 9b92 0d38 4185 ec38
00000010: ae70 bb37 ab15 a438 3cb3 9637 9ea1 7638
00000020: 33f1 6438 e78c 7237 bf66 aa38 0577 5037
00000030: 500a e737 7681 ce37 3c32 3739 f1b3 a137
00000040: 3d80 3739 1921 7c37 3a83 9738 4a2f b237
1.7556004e-05 1.5397914e-05 3.3753557e-05 0.000112781774 2.2344608e-05 7.8241654e-05 1.7964856e-05 5.880149e-05
5.458407e-05 1.445713e-05 8.12537e-05 1.24254775e-05 2.7542148e-05 2.4617399e-05 0.00017470954 1.9276487e-05
0.00017500012 1.5028077e-05 7.224684e-05 2.1241274e-05

momentum_buffer f4 [20]
00000000: de5f c03e 60a8 9c3d 9ed2 92bf 691f b8bf
00000010: 2340 203f a0ab 8fbf c198 173f 96c9 7f3f
00000020: 93d1 ba3f a026 aa3e 90fd 3bbf 401b cabf
00000030: 8ce5 93be bf8b ac3f 5e48 b23f ce79 57bf
00000040: 6a05 5a3f 3771 0fbf 267e 84bf cfd9 90bf
0.3757314 0.076493025 -1.1470525 -1.4384586 0.62597865 -1.1224251 0.5921746 0.9991697
1.4595207 0.33232594 -0.7343378 -1.5789566 -0.28886068 1.3480147 1.3928335 -0.84170234
0.8516451 -0.5603213 -1.0350997 -1.131647

square_avg f4 [20, 20]
00000000: 4e12 1836 fe11 b534 1653 9334 2682 7936
00000010: 0340 9f34 1469 b636 eae4 5e37 a715 5e36
00000020: a774 3c38 ddeb 7738 dc0c 1537 f125 1d36
00000030: a35c da34 8e68 7036 950e a338 af63 f836
00000040: df0a ad36 0fbd 2137 f336 5836 41a1 1237
00000050: 8994 2634 f649 c634 8a06 0b35 d54a 1237
00000060: 4610 9d34 7538 9435 e570 a635 a481 3135
00000070: 2202 8436 bee0 0c35 4aab f933 b4d7 0f36
00000080: d341 0835 0601 7936 5ac1 d335 de01 d233
00000090: e8d0 5636 23a2 f936 59ce 3836 dbec 3037
000000a0: ed4e 0332 89aa d62f 99c5 692d de15 c830
000000b0: f4bd fd2e bbbb e030 77da 1f2f 6b59 1930
000000c0: a422 7530 0d63 c32f d701 df2f 5a56 d431
000000d0: 310d 972f d61c ba30 49a5 8431 5534 8f31
000000e0: c9d1 6730 c420 a42e 4aec 2930 beec 0831
000000f0: 7622 4036 fe49 b934 3324 4c35 4b7a cb35
00000100: b1b0 8635 7eec 7b36 063a d236 b779 2a36
00000110: eab6 0137 da28 8537 e030 ca35 fd2f 3f37
00000120: 17ca 5034 e850 c635 8399 c337 79d2 0037
00000130: b984 5e36 87bf a136 7416 5b36 98cf 2f36
00000140: df6f 8137 4a07 5d35 7b22 4636 d264 8037
00000150: 77e2 bf36 05b7 8637 e09d ca37 9e1d e437
00000160: bbe2 ab38 a2da 6638 a70e 0737 f1ba 9038
00000170: 2ddc 9635 e0c8 9237 1343 ca38 7206 ca37
00000180: d36e 9a37 e099 de37 e34a 7837 3060 c637
00000190: da1c b82b b125 162d d70f ef28 8ab8 812d
000001a0: def3 2c2d f54f 952b 3fda 922a 0000 0000
000001b0: 702a bb2a b73e 9328 460f 6827 dc6a 7a28
000001c0: fe5d a320 7bb9 bc2d b986 dc2a f093 1d2a
000001d0: 1ef6 322e 19b5 6d2e ae96 5c29 17ff c12e
000001e0: f28c 2036 71a0 e733 618f a234 8fb8 6236
000001f0: 0874 2932 c4bd 6236 65df 1d36 0e70 8237
00000200: 10fd 2639 5bc0 c237 039a 8a36 66ed a932
00000210: f11e 1b37 79c2 2838 c9c2 b138 5c98 2736
00000220: e738 9637 ae72 4d34 615f 0135 c325 1835
00000230: 5fef ec36 e222 3335 a996 e635 60ed 0d37
00000240: 2ea5 1236 cf13 b636 4fcf 0837 fa9b 0037
00000250: 2cef f037 7a10 b637 7453 9736 bb67 f137
00000260: dad7 b335 b1d5 0d37 a389 1e38 17c0 2237
00000270: 03c4 b136 f5f6 0437 9f28 c936 3bc4 c636
00000280: a07f 3037 65a5 0235 ec85 ab36 6bca 9837
00000290: 5689 1837 fc3e 9b36 8537 2237 8da8 b737
000002a0: a1e6 5138 ae4c c337 5efc ac36 9eb9 aa38
000002b0: 4c67 4535 b252 7f37 c1b3 7d38 fc46 8f37
000002c0: 5121 0237 6ab3 5b35 91f5 f036 73fd 1d36
000002d0: 465c d536 e61e 9334 3932 4f35 9b3d 5d36
000002e0: 69bb c235 3988 c936 2a88 7e37 fb74 1c37
000002f0: 1299 8838 7a12 6638 971f 3937 d328 9137
00000300: 6498 8535 06d6 e236 7f22 be38 c26b 3637
00000310: 796b d336 a550 1c37 9cc7 b836 f140 f836
00000320: 26b9 f335 efc1 fe34 4520 ef34 2391 ff35
00000330: 49b4 e034 b973 1c36 1980 3836 60f0 c135
00000340: 060d 0637 96f1 3736 4620 ea34 4e93 de36
00000350: b87e 1134 69ee e035 5ad9 ed36 2c39 f335
00000360: 0a32 3336 875c 3137 f684 fc35 1125 ce36
00000370: 1a8a b836 ed8d 9d35 2ca3 c935 947b a236
00000380: c8c7 aa35 47af 3b37 5fd9 3637 848c d236
00000390: 1da7 0338 53e9 bf37 6f28 2c36 876e 8d37
000003a0: 3828 cb34 13ca a736 024e 1938 634d 0337
000003b0: de8d 1537 007f e837 e411 c636 1d58 7b37
000003c0: 82fe 0b34 4763 9134 f17d 2235 db1e 9136
000003d0: c2da f634 4701 2335 5b67 2533 bf56 7d36
000003e0: 2c53 8736 0b36 9736 0541 6e34 5957 ab37
000003f0: 493e 3b33 d5d5 2436 6a53 ce35 6a45 f833
2.266042e-06 3.3726968e-07 2.7441337e-07 3.7179648e-06 2.9662633e-07 5.4362554e-06 1.3285529e-05 3.3093181e-06
4.4931334e-05 5.9109054e-05 8.884086e-06 2.3416908e-06 4.0673066e-07 3.5823646e-06 7.775162e-05 7.4025806e-06
5.1570673e-06 9.640366e-06 3.2218493e-06 8.739823e-06 1.5513992e-07 3.6934188e-07 5.179105e-07 8.719701e-06
2.925537e-07 1.104329e-06 1.240082e-06 6.612629e-07 3.934155e-06 5.2481107e-07 1.1626123e-07 2.1434216e-06
5.0759735e-07 3.7104487e-06 1.5776998e-06 9.779227e-08 3.2010084e-06 7.4396535e-06 2.7538247e-06 1.0545565e-05
7.643149e-09 3.9047546e-10 1.3288392e-11 1.455813e-09 1.15388504e-10 1.6351501e-09 1.453858e-10 5.5788146e-10
8.917971e-10 3.5540673e-10 4.056477e-10 6.179829e-09 2.7476113e-10 1.3541477e-09 3.8604964e-09 4.167797e-09
8.4335433e-10 7.463677e-11 6.181763e-10 1.9925177e-09 2.8630288e-06 3.4512772e-07 7.60486e-07 1.516027e-06
1.0035202e-06 3.7539571e-06 6.2652425e-06 2.5402821e-06 7.731587e-06 1.5873859e-05 1.5064397e-06 1.139566e-05
1.944503e-07 1.4775696e-06 2.3317296e-05 7.678399e-06 3.3157833e-06 4.8204706e-06 3.2646612e-06 2.6197868e-06
1.5430092e-05 8.233952e-07 2.952437e-06 1.5305737e-05 5.7186076e-06 1.605927e-05 2.4153793e-05 2.719351e-05
8.196147e-05 5.503989e-05 8.050039e-06 6.9012756e-05 1.123995e-06 1.7498096e-05 9.644604e-05 2.4083278e-05
1.8409837e-05 2.6536116e-05 1.4799388e-05 2.364823e-05 1.3081994e-12 8.534882e-12 2.65412e-14 1.4747554e-11
9.8312174e-12 1.0609279e-12 2.6086249e-13 0.0 3.324732e-13 1.6347477e-14 3.2204747e-15 1.3900959e-14
2.7675473e-19 2.1455495e-11 3.9173333e-13 1.3995727e-13 4.069111e-11 5.4048408e-11 4.8980507e-14 8.821937e-11
2.39239e-06 1.078596e-07 3.0279173e-07 3.3784052e-06 9.863477e-09 3.3787082e-06 2.3524856e-06 1.5549387e-05
0.00015925267 2.3216175e-05 4.13065e-06 1.9782146e-08 9.245924e-06 4.0235438e-05 8.476299e-05 2.4973624e-06
1.790789e-05 1.9133833e-07 4.819504e-07 5.6679363e-07 7.0612145e-06 6.673346e-07 1.7180183e-06 8.459523e-06
2.1851843e-06 5.4263287e-06 8.1544995e-06 7.665711e-06 2.8721603e-05 2.1703763e-05 4.509866e-06 2.8777742e-05
1.339936e-06 8.454009e-06 3.779832e-05 9.700677e-06 5.29783e-06 7.925312e-06 5.9949957e-06 5.923704e-06
1.05201325e-05 4.8669455e-07 5.1117877e-06 1.821407e-05 9.091882e-06 4.6266923e-06 9.668879e-06 2.1893788e-05
5.0044273e-05 2.3281518e-05 5.155379e-06 8.1408056e-05 7.3538536e-07 1.5218438e-05 6.048731e-05 1.7079983e-05
7.756361e-06 8.184494e-07 7.181145e-06 2.354235e-06 6.3586367e-06 2.7403365e-07 7.718659e-07 3.2967425e-06
1.450867e-06 6.006125e-06 1.5171283e-05 9.325561e-06 6.513497e-05 5.485348e-05 1.1034214e-05 1.7304357e-05
9.953624e-07 6.7602405e-06 9.0663314e-05 1.0873135e-05 6.3008015e-06 9.317101e-06 5.506865e-06 7.398536e-06
1.8158796e-06 4.7452292e-07 4.4540698e-07 1.9041221e-06 4.1854426e-07 2.331317e-06 2.74927e-06 1.4449579e-06
7.990055e-06 2.7409747e-06 4.3609379e-07 6.633264e-06 1.3550277e-07 1.6758687e-06 7.0884535e-06 1.812155e-06
2.6702205e-06 1.0571565e-05 1.881416e-06 6.1435935e-06 5.4997045e-06 1.1738717e-06 1.5023156e-06 4.8423626e-06
1.2724131e-06 1.11868785e-05 1.0898656e-05 6.274846e-06 3.138847e-05 2.2877624e-05 2.5653533e-06 1.6859978e-05
3.784096e-07 5.0005124e-06 3.6550693e-05 7.8262265e-06 8.914123e-06 2.7715694e-05 5.9029426e-06 1.4981281e-05
1.3037973e-07 2.7080588e-07 6.053297e-07 4.324929e-06 4.5980238e-07 6.072409e-07 3.8511057e-08 3.775043e-06
4.032996e-06 4.506442e-06 2.2189131e-07 2.0425463e-05 4.359598e-08 2.456237e-06 1.5372473e-06 1.1561026e-07

momentum_buffer f4 [20, 20]
00000000: d071 0e3d 40b8 af3e eefa 98bf 5f65 5240
00000010: fc4e 5340 cf5c 2f3f d4c8 193f 145e a53e
00000020: 9ae9 d43f 59a5 8d3f 9026 83be 7abc dd3f
00000030: ace1 5940 8646 8140 dcbb 6c3f 942a a3be
00000040: 5286 1140 63da 87bf 2eb6 3b3f b5a6 1b40
00000050: b348 2840 11bb b23f e679 3dc0 d406 be3e
00000060: 5ea3 fe3d 6c25 4c40 50bc 47be fbfd 5340
00000070: 60d6 aa3d 5abc 003f 78bd 163e 5999 ca3f
00000080: 8aad bd40 f80b bd3f a091 4f3f 78ef 58be
00000090: 40a8 a73e 684a abbe 042f 293f 6e4b 0340
000000a0: cc03 8636 17e1 e8b4 606b 6f37 f149 9637
000000b0: a5a3 3237 9f05 9537 e913 73b7 d183 6737
000000c0: 4a83 87b6 4cd1 9f37 8371 9e37 2470 edb5
000000d0: 1f9c e037 3bc2 1637 8dc5 8b37 7985 92b4
000000e0: 4754 b437 f1f9 6c37 2043 a137 e8ba c537
000000f0: 68f0 88bf 4cf4 62c0 70ce 08bf c090 6bbf
00000100: 0d37 21c0 60ee 8b3d 82c3 99bf e82d aebf
00000110: d8d1 84be 430a eabf 76d7 f8bf 4548 a5bf
00000120: 43d9 f23f 0c10 4abe f685 d6bf f457 0fc0
00000130: 70e6 063f d36b 0cc0 bae2 76c0 5651 23c0
00000140: 704a 5bbe de1e 5fc0 433d b7bf 8472 ffbf
00000150: 79fb a6bf 1c93 8bbf cec0 edbe e65a 8fbf
00000160: 0f71 e1bf ffc7 18c0 b49b edbe 8f95 9ebf
00000170: 361b 28c0 3742 bcbf f026 03bf 133f dcbe
00000180: 8de6 80bf 98e2 b4bf 386c 09c0 3f75 49c0
00000190: 42dc 8236 6290 f936 55b1 2037 0515 dd36
000001a0: 546e 7ab5 652d 1337 06e6 67b6 0000 0000
000001b0: 4d1f b036 f44c dfb6 5990 4936 d740 3e37
000001c0: 61a6 c0b4 a4cb e936 0b77 f7b5 fb7f 2737
000001d0: b0ce 0837 74e5 b335 9d4d 9fb6 42b9 b936
000001e0: f2ce 0040 e2d2 8d40 1dee ae40 8ebf 2040
000001f0: df06 a33f 0036 5fbf e6a4 a53f 9071 193f
00000200: 55e3 963f acf7 2d3f 2252 0240 6aa8 72bf
00000210: 74b3 e33e 3a87 8b3f 3160 8e3f c043 943c
00000220: d099 ef3e d4b5 c03f 1019 173f c828 043f
00000230: e774 5fbf 226e c33f ca0b c43f e814 a03f
00000240: bbe9 923e a636 82bf 6393 6b3f e036 d8bd
00000250: 87a0 a43e a460 e33f 44fb 903e 2bed 38bf
00000260: 6822 5ebe 044d 12be 7cfa dc3f f4af 503d
00000270: 082d debf b86e 783e 8ab0 80bd 85a0 f73f
00000280: a755 453f d6f1 c03f 623d 9b3f 2478 ca3e
00000290: c0e9 1e40 3452 fa3f 16ad af3f 3c95 233f
000002a0: 2806 193f 34aa c33f 7d85 0e40 f959 ad3f
000002b0: 7cdf 01bf 3ddf a53f ceb8 c23f cbc8 853f
000002c0: c918 b93f 3c6f eb3e 5a01 5d3f 1ca0 a33f
000002d0: 2862 d8bd d9b8 85bf be74 a63f c3cf d0bf
000002e0: c7f6 e1bf e099 10bd 4233 673f 076f 79bf
000002f0: d74e ad3e 9634 1c3f c836 66be c482 05bf
00000300: 418c 5ec0 143b 943e 5826 4f3f 78d4 343e
00000310: cc01 d3bf 4697 e53f d408 00bf d079 4abe
00000320: db6c 07c0 f15f a6bf 510f b0bf e0e3 62be
00000330: bcbf d4be 144c 83bf ce82 18bf 4022 bebe
00000340: d935 95bf 4162 763f 27df 08c0 bbb0 cabf
00000350: 9b86 1ac0 509d cbbd 68b1 74be 688d c13f
00000360: 64d7 52be de7c 39bf c607 dbbf f086 b33e
00000370: 44df a93e a0b6 1e3f 4610 8ebf b00e 9a3d
00000380: c29b 3b3d fc80 1d3f 38d7 afbd 0c0f 6e3e
00000390: e454 363f d045 18bd 9904 ba3e 9bbf a1be
000003a0: eafa 4440 f844 533e e4e1 77be a4f9 77bf
000003b0: 5d49 8d3f 3cb8 973e 9e32 1440 c047 f9bd
000003c0: 27df 26bf 2f4b 1c40 a889 55be c3b2 abbe
000003d0: 34d0 7a3f 79ab ea3f 8b64 23c0 cc43 62bf
000003e0: c2c6 d8bf 06c0 26bf a48d 8e3e 4a63 dcbe
000003f0: 58a5 a7be b88f 2a3e 9c44 5cbf 3d27 fb3f
0.03477651 0.3432026 -1.1951578 3.2874372 3.3016958 0.6850099 0.60072064 0.32298338
1.663379 1.1066085 -0.25615358 1.7323143 3.404399 4.039859 0.9247415 -0.31868422
2.2738233 -1.0613521 0.7332486 2.43205 2.6294372 1.3963338 -2.960565 0.37114584
0.124335036 3.189784 -0.1950543 3.3123767 0.0834167 0.502874 0.14720714 1.5828048
5.927434 1.4769278 0.8108158 -0.211851 0.32745552 -0.33455205 0.66087365 2.0514789
3.993953e-06 -4.3377142e-07 1.427051e-05 1.7915825e-05 1.0647728e-05 1.7764802e-05 -1.4488564e-05 1.3799364e-05
-4.0385976e-06 1.9051738e-05 1.8887926e-05 -1.7690513e-06 2.677558e-05 8.9859195e-06 1.6662083e-05 -2.7291733e-07
2.1496917e-05 1.412489e-05 1.9223953e-05 2.3571265e-05 -1.0698366 -3.5461607 -0.5344 -0.92017746
-2.518985 0.06832576 -1.2012789 -1.360776 -0.25941348 -1.8284382 -1.9440753 -1.291268
1.8972553 -0.19732684 -1.6759632 -2.2397432 0.5269537 -2.194081 -3.8575883 -2.5518394
-0.21415114 -3.486259 -1.431557 -1.9956822 -1.3045493 -1.0904269 -0.4643616 -1.1199615
-1.7612628 -2.3872068 -0.46407855 -1.2389392 -2.6266608 -1.4707707 -0.5123129 -0.43016872
-1.0070359 -1.4131651 -2.1472301 -3.1477811 3.8999433e-06 7.4375866e-06 9.5780315e-06 6.5887602e-06
-9.3292806e-07 8.772452e-06 -3.4555574e-06 0.0 5.2488526e-06 -6.6548764e-06 3.0035355e-06 1.1339979e-05
-3.5883843e-07 6.967648e-06 -1.843758e-06 9.983773e-06 8.154355e-06 1.3403319e-06 -4.7476046e-06 5.5349965e-06
2.012631 4.4319925 5.4665666 2.5116916 1.2736472 -0.8719177 1.2940948 0.5993891
1.1788126 0.6795604 2.036263 -0.9478823 0.4447285 1.0900643 1.1123105 0.018098712
0.46797037 1.505549 0.5902262 0.5162473 -0.87287754 1.5267985 1.5316098 1.250638
0.28693947 -1.0172927 0.9202177 -0.105573416 0.32153723 1.7763867 0.283167 -0.7223689
-0.21692812 -0.14287192 1.7263942 0.050949052 -1.7357492 0.24260986 -0.06283672 1.9345862
0.7708382 1.5073802 1.2128108 0.39544785 2.483017 1.9556336 1.3724697 0.6389959
0.5977502 1.5286317 2.2268975 1.3543082 -0.50731635 1.2958752 1.5212648 1.0451902
1.4460689 0.45983303 0.8633019 1.2783237 -0.10565597 -1.0447036 1.3004377 -1.6313404
-1.7653435 -0.035302997 0.9031259 -0.9743504 0.33849213 0.6101774 -0.22481835 -0.5215266
-3.4773104 0.28951323 0.8091788 0.17659175 -1.6484923 1.793679 -0.5001347 -0.1977303
-2.116019 -1.2998029 -1.3754674 -0.2215724 -0.41552532 -1.0257592 -0.5957459 -0.37135506
-1.1657058 0.96243674 -2.1386201 -1.5835184 -2.4144657 -0.09942114 -0.238958 1.5121279
-0.20589978 -0.7245616 -1.7111747 0.35063887 0.3317815 0.61997414 -1.1098716 0.07522333
0.04580284 0.6152494 -0.085859716 0.23247927 0.7122328 -0.037175953 0.36331633 -0.31591496
3.0778146 0.20631778 -0.24207264 -0.96865296 1.1038014 0.29632747 2.3155894 -0.12171888
-0.65184253 2.4420888 -0.20853293 -0.33534822 0.9797394 1.8333579 -2.5530117 -0.883847
-1.6935656 -0.65136755 0.27842438 -0.43044502 -0.32743335 0.16656387 -0.8604219 1.962135

square_avg f4 [20]
00000000: d7c0 9737 17e6 9736 41c2 5132 0ed9 1237
00000010: bc86 a238 6ff4 992d 5bdc 3638 7910 af37
00000020: caf6 6438 8b7c db37 9bd6 b936 5ff6 cf37
00000030: f086 db36 df48 c22b fe39 0637 cffd fb36
00000040: 2a4c e22a 42dc 0b38 150e 3038 f045 6a37
1.80904e-05 4.5269367e-06 1.2209569e-08 8.752815e-06 7.749858e-05 1.7502636e-11 4.3597403e-05 2.0869296e-05
5.4589276e-05 2.616483e-05 5.538413e-06 2.4791048e-05 6.5424174e-06 1.3804755e-12 8.000525e-06 7.50993e-06
4.0198514e-13 3.3345314e-05 4.1974785e-05 1.39637705e-05

momentum_buffer f4 [20]
00000000: 5a44 9e3f 986e 90bf 6e4d 8f37 c249 97bf
00000010: 84cc c3bf f786 d636 dc29 a73f 6cb1 00bf
00000020: f8e0 8e3f 4b22 6fbf 1c69 ed3e 1a24 bb3e
00000030: a1f9 7ebf 5bbf ce3d 1ce6 87be 3e49 5e3f
00000040: 9053 8d36 f1f2 4a3f c772 0c3f 9656 973f
1.2364609 -1.128375 1.7082984e-05 -1.1819384 -1.5296788 6.393409e-06 1.305965 -0.50270724
1.1162405 -0.934117 0.46369255 0.3655098 -0.99599653 0.10095092 -0.26542747 0.8683051
4.2118554e-06 0.7927695 0.54862636 1.1823299

square_avg f4 [20, 20]
00000000: 2f6d 0032 a1c9 5b32 5650 ae2e c51e a332
00000010: 591c 9431 b639 022a 5b34 c42e 514e 4030
00000020: 8576 c930 9d8b bd32 1190 ab32 fe95 2732
00000030: fc47 6731 0000 0000 a09e 4d2f 1105 6432
00000040: fa6c e522 9944 2330 e85f d12f e938 3e2f
00000050: 7005 4a38 a6d5 2537 8378 732f 7e08 0738
00000060: f0c1 0239 ebd9 d229 8883 b335 43d7 8138
00000070: 88d8 d638 e46a 4b39 4f62 7438 97ed a738
00000080: c445 9537 0000 0000 dbc1 5e34 c7f5 5837
00000090: 0000 0000 8b27 a738 5f56 3938 24f5 d934
000000a0: b079 8932 9840 5d32 729e a32e fae0 c931
000000b0: d3c5 0831 ee04 7329 75ba 182e 6847 6031
000000c0: f521 1431 f7fc bb32 ed16 ae32 5829 4431
000000d0: 98d9 dd31 0000 0000 ac1c ea30 be67 cf31
000000e0: 0000 0000 5221 aa30 52d4 0731 c42e 5b2f
000000f0: 8dd4 902b ae7f 8726 85f4 bf27 7525 0b30
00000100: b395 a22f 0000 0000 5896 4026 a8d2 f42b
00000110: 060f 272f c44d 5930 cc82 ee2d c150 e42f
00000120: 4802 2e2d 0000 0000 3606 332b 9255 0c2a
00000130: 1a8d 3d23 e95d 682a 1931 042c 0000 0000
00000140: bc67 1a38 b0d8 6531 7f48 6030 d244 d335
00000150: d5a3 9b36 bd92 bf28 87b4 7537 9c38 7238
00000160: fe37 b938 9d0b 5238 fe9d 9633 977b 6937
00000170: d867 0a32 0000 0000 3d30 e837 cff7 3c32
00000180: 56ea 4c29 f7b6 a739 9bd9 9d34 8708 cf2d
00000190: ce4f d22d 7e0e 562c e0fc 5f2c 438d 1a2d
000001a0: 1560 102e 0000 0000 f62a 542c e4b9 2d2e
000001b0: 6e9a 412e 918d 0f2f d53e a42e e680 ef2c
000001c0: af3d ac2d 0000 0000 0995 882e e7b3 a72c
000001d0: 0000 0000 9a5f 112f 5dd7 272d c16d 812a
000001e0: 901f 9530 af25 e02f 5e96 3a2d 051b c130
000001f0: 3d3e 3631 27e5 4728 d1f6 052f d987 da2f
00000200: 4b62 6c31 90f7 9b31 c17b 1431 b5e8 3e31
00000210: 965f 7d30 0000 0000 6230 7830 ffbd a430
00000220: aac8 8129 cb95 1632 8a24 0630 a8f5 a62d
00000230: 92e9 1a33 a40e 3233 884b a42f 67f9 3233
00000240: c937 9831 681c 8a2a 4b54 e52f bc92 d931
00000250: b579 e931 41e9 a533 8de6 9033 aecc 8132
00000260: ea2e 3932 0000 0000 4902 b530 4662 e432
00000270: 9842 4e24 4bb2 3231 de41 a531 b45c 1630
00000280: 80ed 6036 e0a1 8a35 f587 1330 f79c a337
00000290: 9669 5f38 a3fc 422a 566d 3932 bb20 9b36
000002a0: 19d0 b235 2e5d 1638 45ac 6838 05d5 3e38
000002b0: f2ef b736 9dde 3222 76fd e130 097d 9d36
000002c0: 86f6 e227 5e69 f433 a890 7735 cbad b333
000002d0: b8c3 3138 7130 1533 423f 462f 24c4 2d36
000002e0: 93ff 7d38 32a2 f628 051c 8f37 8753 c138
000002f0: 6dc7 1639 43d7 0e39 f711 0338 3e27 0f38
00000300: 606c 7737 0000 0000 d347 2238 5914 d633
00000310: 5197 1a29 1b00 ca39 9ee4 7437 6b00 392e
00000320: 3482 2e31 2972 5730 ba24 7f2f 31cf e530
00000330: 37c5 9c30 4260 7124 ff07 db2f 5bd0 4530
00000340: 7468 3f32 e8e9 2432 f2a8 db31 d534 9230
00000350: 1e21 6c31 0000 0000 e71c d231 4f14 0730
00000360: 5078 4c27 ac37 8c32 4f91 1631 3daa c52d
00000370: 7ccb 032e eec5 542e 8625 ba2c c1b7 952d
00000380: ec7b 2d2e e7cf 8d21 5b54 062d a91f 092e
00000390: b22b 0f2f 47ec 032f b88d 6e2e 387e f32b
000003a0: 67b8 0f2e 0000 0000 063d f82e 6db0 1d2d
000003b0: 03f5 1b25 bb02 5b2f 0d1b 562e 5558 992c
000003c0: d568 d036 58ef 4735 df60 112e 837d 8437
000003d0: 9748 0138 ed6a cd28 3cc6 1d36 7c22 1837
000003e0: 089b 9537 35fa 1c38 3e1b bd37 f1b1 b137
000003f0: 82c3 a436 91d7 0822 f38b 8936 d2fd 1136
7.475406e-09 1.2793323e-08 7.9268744e-11 1.898969e-08 4.3105897e-09 1.1566342e-13 8.922348e-11 6.996049e-10
1.465836e-09 2.2065985e-08 1.9972534e-08 9.754784e-09 3.3655843e-09 0.0 1.8700996e-10 1.3272499e-08
6.2185958e-18 5.939654e-10 3.8085024e-10 1.7300618e-10 4.8165617e-05 9.88451e-06 2.2143536e-10 3.2194417e-05
0.00012470013 9.363676e-14 1.337482e-06 6.191295e-05 0.00010244647 0.00019399408 5.826569e-05 8.007435e-05
1.7794671e-05 0.0 2.0745885e-07 1.2931828e-05 0.0 7.970546e-05 4.4187876e-05 4.0597763e-07
1.6004236e-08 1.287858e-08 7.4405274e-11 5.875447e-09 1.9903055e-09 5.3961115e-14 3.4726406e-11 3.263688e-09
2.1556137e-09 2.18847e-08 2.0266691e-08 2.8545255e-09 6.456684e-09 0.0 1.703389e-09 6.036287e-09
0.0 1.2378598e-09 1.9765776e-09 1.9934548e-10 1.029081e-12 9.402114e-16 5.327826e-15 5.0621135e-10
2.9573996e-10 0.0 6.6817135e-16 1.7395712e-12 1.5193899e-10 7.905465e-10 2.7115553e-11 4.1530338e-10
9.891261e-12 0.0 6.3602194e-13 1.2464186e-13 1.027559e-17 2.0638321e-13 1.8785583e-12 0.0
3.681307e-05 3.3447058e-09 8.159375e-10 1.5740754e-06 4.6384325e-06 2.1268897e-14 1.464517e-05 5.7750018e-05
8.831917e-05 5.0078717e-05 7.013658e-08 1.3916658e-05 8.0562685e-09 0.0 2.7679018e-05 1.0999385e-08
4.5500353e-14 0.00031989042 2.9401858e-07 2.3536962e-11 2.3909676e-11 3.0419274e-12 3.183058e-12 8.785253e-12
3.2827147e-11 0.0 3.015086e-12 3.950075e-11 4.402028e-11 1.3056069e-10 7.469018e-11 6.807099e-12
1.9581529e-11 0.0 6.211038e-11 4.7663986e-12 0.0 1.3221638e-10 9.540671e-12 2.299116e-13
1.0850147e-09 4.0772138e-10 1.0606264e-11 1.4050278e-09 2.6519864e-09 1.1096409e-14 1.2183966e-10 3.9750495e-10
3.4398393e-09 4.5392383e-09 2.160718e-09 2.7780918e-09 9.21767e-10 0.0 9.029063e-10 1.1986571e-09
5.7635605e-14 8.765208e-09 4.880084e-10 1.8981108e-11 3.606835e-08 4.145717e-08 2.9885094e-10 4.1670685e-08
4.4301243e-09 2.4533435e-13 4.171475e-10 6.332213e-09 6.795029e-09 7.72584e-08 6.7474595e-08 1.5110654e-08
1.0779084e-08 0.0 1.3170133e-09 2.6587383e-08 4.4725537e-17 2.6003757e-09 4.8096203e-09 5.470142e-10
3.3516844e-06 1.0328913e-06 5.3671495e-10 1.9504207e-05 5.3265678e-05 1.7318312e-13 1.0793277e-08 4.6231703e-06
1.3322598e-06 3.5849567e-05 5.547355e-05 4.549792e-05 5.4817583e-06 2.4241349e-18 1.6442943e-09 4.6935206e-06
6.2994882e-15 1.13813016e-07 9.2225173e-07 8.36695e-08 4.2382366e-05 3.4735823e-08 1.8030469e-10 2.5893178e-06
6.0557923e-05 2.7381827e-14 1.7059976e-05 9.218515e-05 0.00014379407 0.00013622367 3.1249565e-05 3.4130404e-05
1.474758e-05 0.0 3.86907e-05 9.968853e-08 3.4326115e-14 0.0003852852 1.4596762e-05 4.20645e-11
2.5394344e-09 7.8378776e-10 2.3205163e-10 1.672083e-09 1.1406546e-09 5.2340078e-17 3.984155e-10 7.1964273e-10
1.1141413e-08 9.5992405e-09 6.3929457e-09 1.0637914e-09 3.4361345e-09 0.0 6.11509e-09 4.9141574e-10
2.8375909e-15 1.6323462e-08 2.1910471e-09 2.2471908e-11 2.9966682e-11 4.8379016e-11 5.290604e-12 1.7020942e-11
3.944571e-11 9.609563e-19 7.635749e-12 3.1178313e-11 1.3021298e-10 1.1998323e-10 5.4240806e-11 1.7301221e-12
3.2678218e-11 0.0 1.1288574e-10 8.963591e-12 1.352712e-16 1.9918904e-10 4.8681992e-11 4.3583284e-12
6.211087e-06 7.448157e-07 3.3055222e-11 1.5794072e-05 3.08236e-05 2.2805944e-14 2.351021e-06 9.067935e-06
1.7834376e-05 3.742632e-05 2.2543241e-05 2.1182905e-05 4.910341e-06 1.8545557e-18 4.0992104e-06 2.1754427e-06

momentum_buffer f4 [20, 20]
00000000: d221 b536 1ab9 c9b5 e854 42b7 a3dc 8db5
00000010: 96b1 7837 d3f4 a436 fbcc b8b6 5b18 0138
00000020: 6f01 5637 d939 1a37 b916 8135 dcde ae37
00000030: d283 3737 0000 0000 1727 81b6 c6dd ccb6
00000040: 2089 a735 2327 0a37 43ae 43b4 3c9b 4136
00000050: aeb9 a2bf aaf8 1ac0 3835 75b7 8895 cf3e
00000060: 2c49 2cbe 1b55 2836 d44e 84bf c65d e4be
00000070: 1089 7f3e 709d bcbe fdb7 523f 86cb 3cbf
00000080: 25a6 e4bf 0000 0000 c2bc 8c40 e9db c23e
00000090: 0000 0000 74a6 be3e fb0a 163e 93da 113f
000000a0: 3240 8936 c5d7 5c37 12b8 4cb6 422b 2537
000000b0: af25 84b5 4a37 8236 b1c4 d3b5 e2d3 1e37
000000c0: 5286 0238 f834 8137 942f f936 2654 3637
000000d0: 42c9 6e37 0000 0000 4760 1ab7 1183 c237
000000e0: 0000 0000 3933 0eb6 2727 c737 4ec5 6b37
000000f0: cab0 733b 43af 3c36 1fc5 1f36 96ce 143b
00000100: 48bf 0b3b 0000 0000 d1ce 2d36 a616 cebb
00000110: fb4c 253b 211c 153b d22f 283b 96f4 133b
00000120: c553 b53b 0000 0000 879f d1bb 18aa ca3b
00000130: a871 c435 b6a4 7a3b 5897 bd3b 0000 0000
00000140: 50c3 89bf 0e04 a340 b505 7636 ce57 3740
00000150: ef66 5dbf 34da 8336 f291 1bbf 7635 adbf
00000160: e881 9ebf 5191 62bf 1be5 f7bf df24 60bf
00000170: 563f 2a38 0000 0000 0f29 c3bf c23e df40
00000180: 83ad 9136 c0c5 8abf 7250 433f a956 4ab6
00000190: 866e 9036 849b 6eb6 9dc2 8f37 219a 7a37
000001a0: fbb5 1a37 0000 0000 d550 3037 1511 ed36
000001b0: 2c72 4937 f9bb e836 982e f436 c016 6d37
000001c0: 28d5 ad36 0000 0000 52ec ee36 ce0d 01b7
000001d0: 0000 0000 6e64 2537 bb15 6737 e8be 35b6
000001e0: 8e15 9837 2a68 37b5 ecc8 3fb7 6f9c d437
000001f0: ea14 af37 28b5 7236 0407 5637 c5cf b037
00000200: 0fdf 5437 5904 b737 df3e 8337 5cb7 aa37
00000210: fe8a 9837 0000 0000 9a82 8737 05b7 5b37
00000220: c935 7e36 69f0 9d37 d52c c435 1154 f735
00000230: 53be 2337 e18f 0537 c84e 75b7 dc41 8636
00000240: e8a9 3c37 e7ba 09b6 fd78 0e37 99cc 7e37
00000250: 2dfd 8037 9993 4137 cdcb 9d36 f53a d737
00000260: 5986 3837 0000 0000 310f 2437 b1ef 5636
00000270: 9e55 0fb6 bc2b c337 5294 f237 2e01 4d37
00000280: f829 debe 95da c8be 95aa 80b6 d7af a83f
00000290: a0ff c83c b45e 1bb6 d0da 3c41 f846 da3d
000002a0: ff73 0abf 23ac 1f3f ade6 303f c4ee 373f
000002b0: d051 aa3f 9a6a 873c 1499 17be a02a 8ebd
000002c0: 94a2 84b6 1af7 0c3f f893 f5be b68c 6e40
000002d0: d743 ec3f 989e 43c0 339e 1837 bb5f fd3f
000002e0: 3ae7 b83f af6b 7936 f832 143f d207 0840
000002f0: 2204 b93f 16f3 883f 80de a7bf 0464 0a40
00000300: 704f 51be 0000 0000 9ff0 be3f 2ec5 053f
00000310: 8545 8036 e408 c43f f90c 853f eea5 2b38
00000320: ad78 9237 1eef 4737 0e70 e134 8385 4237
00000330: bde8 b937 db0c 8436 58cd a5b7 33d8 b437
00000340: 16b1 5bb6 c89a e537 f012 a537 3881 1137
00000350: 9615 b837 0000 0000 15b3 5036 ad47 4b37
00000360: 0385 9936 8879 a8b6 2676 d335 758c 16b6
00000370: 1fb6 3637 8183 b036 bb51 4137 ea63 8937
00000380: 8559 3f37 af68 49b5 f708 cc35 f82f 0037
00000390: 2184 5937 c0f8 2037 ad5c 0c37 f568 5937
000003a0: 334d 1837 0000 0000 3ec0 cf35 4afd 7137
000003b0: ffdd 7db5 39b4 1d36 a648 e235 ac37 d136
000003c0: 3b80 57bf 3c59 0a40 0719 9435 63d5 d0bd
000003d0: d21a 56bf 84db b6b6 a24d 90bf 3ee1 6abf
000003e0: 30d6 1d3d 6b85 a33d c86e b5bf 7e3a 743e
000003f0: b4b4 cd3f 2bd1 71bc 0c0a aabf 435c 8e3f
5.3981576e-06 -1.5029539e-06 -1.158307e-05 -1.0569532e-06 1.4823299e-05 4.916082e-06 -5.50749e-06 3.077868e-05
1.2755728e-05 9.192584e-06 9.617862e-07 2.0846193e-05 1.0938342e-05 0.0 -3.8490502e-06 -6.1054916e-06
1.2482378e-06 8.234553e-06 -1.8224186e-07 2.88496e-06 -1.2712915 -2.4214272 -1.4615529e-05 0.4054377
-0.16824788 2.5083489e-06 -1.0336556 -0.44602793 0.24954629 -0.36838865 0.82311994 -0.7374805
-1.7863203 0.0 4.3980417 0.38058403 0.0 0.3723637 0.14652626 0.5697414
4.0903915e-06 1.316326e-05 -3.0505512e-06 9.844838e-06 -9.845734e-07 3.8807384e-06 -1.577797e-06 9.466867e-06
3.111951e-05 1.5402664e-05 7.426317e-06 1.0867638e-05 1.4232764e-05 0.0 -9.201532e-06 2.3187635e-05
0.0 -2.1189464e-06 2.374088e-05 1.405303e-05 0.0037184232 2.8116199e-06 2.3807586e-06 0.0022706143
0.002132373 0.0 2.5899392e-06 -0.006289321 0.0025222886 0.0022752362 0.0025663269 0.0022576205
0.0055336677 0.0 -0.006397191 0.0061848275 1.4636216e-06 0.0038245148 0.005785864 0.0
-1.076273 5.094245 3.6660178e-06 2.8647342 -0.8648519 3.9295064e-06 -0.6076957 -1.353194
-1.2383394 -0.88502985 -1.9366792 -0.8755626 4.0590145e-05 0.0 -1.5246905 6.976411
4.341536e-06 -1.0841599 0.76294625 -3.0150788e-06 4.304401e-06 -3.5555286e-06 1.7137552e-05 1.4937047e-05
9.221486e-06 0.0 1.0509238e-05 7.065139e-06 1.2007116e-05 6.9360217e-06 7.277191e-06 1.4131598e-05
5.1806164e-06 0.0 7.120464e-06 -7.692213e-06 0.0 9.8581495e-06 1.37737325e-05 -2.7082224e-06
1.812985e-05 -6.832439e-07 -1.1431268e-05 2.5345214e-05 2.0871365e-05 3.6166257e-06 1.2757027e-05 2.1077585e-05
1.268812e-05 2.1817325e-05 1.5645694e-05 2.0350963e-05 1.8184535e-05 0.0 1.615407e-05 1.309603e-05
3.7880257e-06 1.8827808e-05 1.4616186e-06 1.8427401e-06 9.75987e-06 7.960917e-06 -1.4621481e-05 4.0011782e-06
1.1245233e-05 -2.0523382e-06 8.492029e-06 1.5187216e-05 1.5376683e-05 1.1538062e-05 4.70269e-06 2.5657451e-05
1.0998535e-05 0.0 9.778699e-06 3.2028004e-06 -2.1358496e-06 2.3266177e-05 2.8917715e-05 1.2219227e-05
-0.43391395 -0.39229265 -3.8345556e-06 1.3178662 0.024535954 -2.3151924e-06 11.803421 0.106580675
-0.54083246 0.62372035 0.69101983 0.718487 1.3306217 0.016530324 -0.14804488 -0.06941724
-3.952833e-06 0.5506455 -0.47964454 3.7273383 1.8458203 -3.0565548 9.09674e-06 1.979484
1.4445565 3.7166571e-06 0.5789027 2.1254773 1.4454386 1.0699184 -1.3114777 2.1623545
-0.20440459 0.0 1.4917182 0.52254 3.8227904e-06 1.5315213 1.0394584 4.092411e-05
1.746075e-05 1.1916998e-05 4.1991046e-07 1.1594387e-05 2.2162096e-05 3.935403e-06 -1.9765153e-05 2.1558348e-05
-3.273662e-06 2.7371003e-05 1.9678351e-05 8.67276e-06 2.1944561e-05 0.0 3.1098655e-06 1.2116431e-05
4.57524e-06 -5.0209383e-06 1.5755111e-06 -2.2433499e-06 1.0890449e-05 5.260518e-06 1.1522726e-05 1.6378199e-05
1.140533e-05 -7.503067e-07 1.5201794e-06 7.640563e-06 1.2964972e-05 9.59466e-06 8.366228e-06 1.2958645e-05
9.07788e-06 0.0 1.5478652e-06 1.4423693e-05 -9.457289e-07 2.3499726e-06 1.6859456e-06 6.2351664e-06
-0.8418004 2.1616964 1.1034143e-06 -0.1019695 -0.83634675 -5.4495777e-06 -1.1273692 -0.9174994
0.038534343 0.07984432 -1.4174433 0.23850438 1.6070771 -0.014759342 -1.3284316 1.1121906

square_avg f4 [20]
00000000: 5e58 2f32 9ad3 9337 1285 8e32 854e c02e
00000010: 534e fe36 2f42 792f 1872 4b32 1515 0d33
00000020: 40e9 4836 575d 4f37 b929 3833 6db5 0430
00000030: 65b6 5136 fe5e 2a31 9dd8 3237 d51c 9f37
00000040: 1efc 9a36 d017 fe36 8aa7 df37 4175 1f32
1.0206433e-08 1.76223e-05 1.6591489e-08 8.745097e-11 7.578908e-06 2.2669931e-10 1.1842097e-08 3.2848295e-08
2.9938092e-06 1.2359894e-05 4.2878785e-08 4.827914e-10 3.1249594e-06 2.4792253e-09 1.0660061e-05 1.8967703e-05
4.618908e-06 7.572562e-06 2.6661688e-05 9.2816785e-09

momentum_buffer f4 [20]
00000000: 0a38 4436 2480 bebe b094 7e37 bed7 4f3b
00000010: d43a 65bf eacc ff36 0c0f ce36 5627 1837
00000020: 0ab3 5c3f ee97 863f 3bdd a136 0690 2737
00000030: 809c 833f d768 8c36 307b b23d 3129 dfbf
00000040: f495 4c3e 3ea1 ebbf dab1 89bf a807 4137
2.9238895e-06 -0.3720714 1.5174199e-05 0.0031714286 -0.8954289 7.6234473e-06 6.14103e-06 9.069065e-06
0.8621069 1.0515115 4.8239285e-06 9.987509e-06 1.0282135 4.18453e-06 0.087149024 -1.7434446
0.19979078 -1.8408582 -1.0757401 1.1505479e-05
