Multistate Intensity Models/SDDR_outputs/best_estimator_splines_event_12.pth (torch, 353413 bytes, 114 tensors)

square_avg f4 [2, 1]
1.3150218e-07 0.0
00000000: 0b33 0d34 0000 0000

momentum_buffer f4 [2, 1]
-8.593289 0.0
00000000: 1d7e 09c1 0000 0000

square_avg f4 [2]
3.4776754e-08 0.0
00000000: 725d 1533 0000 0000

momentum_buffer f4 [2]
-9.012692 0.0
00000000: fd33 10c1 0000 0000

square_avg f4 [2, 2]
7.3908785e-05 0.0 3.9320014e-10 0.0
00000000: 7aff 9a38 0000 0000 002a d82f 0000 0000

momentum_buffer f4 [2, 2]
16.407665 0.0 3.6713104 0.0
00000000: e642 8341 0000 0000 c0f6 6a40 0000 0000

square_avg f4 [2]
8.04969e-07 4.6257487e-11
00000000: 0c15 5835 4d71 4b2e

momentum_buffer f4 [2]
1.4566705 3.6881084
00000000: 2e74 ba3f f809 6c40

square_avg f4 [2, 2]
0.0 0.0 3.100796e-07 2.837441e-13
00000000: 0000 0000 0000 0000 0479 a634 d6bb 9f2a

momentum_buffer f4 [2, 2]
0.0 0.0 5.420561 -3.581137
00000000: 0000 0000 0000 0000 3c75 ad40 5931 65c0

square_avg f4 [2]
0.0 5.7541758e-12
00000000: 0000 0000 0275 ca2c

momentum_buffer f4 [2]
0.0 -3.692254
00000000: 0000 0000 e44d 6cc0

square_avg f4 [2, 2]
0.0 6.46117e-07 0.0 0.0
00000000: 0000 0000 d270 2d35 0000 0000 0000 0000

momentum_buffer f4 [2, 2]
0.0 6.384864 0.0 0.0
00000000: 0000 0000 ce50 cc40 0000 0000 0000 0000

square_avg f4 [2]
2.390193e-17 0.0
00000000: d674 dc23 0000 0000

momentum_buffer f4 [2]
-1.9921551 0.0
00000000: f0fe febf 0000 0000

square_avg f4 [12, 12]
0.27053636 0.09501683 0.0023363242 0.06590027 0.2571151 0.1157951 0.10602099 0.042231523
0.029466374 0.05845599 0.0047388584 5.906111e-06 0.030928561 0.008521135 0.00824237 0.024262944
0.0277524 0.016300661 0.0478805 0.05321504 0.0016915278 0.0051907767 8.061784e-05 4.8865805e-14
0.008165206 0.0058438843 0.0010946371 0.044323046 0.09223832 0.08095105 0.002373047 0.0037508246
1.6443034e-06 0.0075948937 0.0071687447 7.173083e-11 0.29944953 0.07113803 0.004487143 0.1436179
0.30200702 0.18491113 0.16831526 0.05536585 0.029846855 0.07554122 0.01567152 7.5256416e-06
0.0075329095 0.011484634 0.00069498515 0.0099201575 0.12374602 0.025362108 0.009488744 0.0064136083
0.0014204141 0.008337984 0.00081019703 1.0034521e-05 0.03166856 0.13015264 0.005212693 0.039273456
0.033213742 0.025375338 0.019071022 0.013096143 0.019337134 0.006474113 0.00030206697 2.1910502e-05
0.11318345 0.0066154217 0.0025654822 0.006971091 0.0055951625 0.0065603177 0.031881917 0.018000258
0.00040622297 0.014214755 7.896006e-06 1.3875483e-07 0.11563769 0.03156264 0.011159203 0.009942227
0.033834957 0.26338077 0.17160618 0.062426295 0.0158369 0.083072685 0.028704502 1.6907201e-05
0.19531 0.12203946 0.0052092406 0.0793772 0.5648366 0.34320846 0.26182154 0.092028566
0.062342938 0.06228202 0.034839455 5.6336805e-05 0.03009029 0.030249795 0.007831834 0.024692675
0.04880744 0.03593189 0.036793374 0.077600986 0.0046578124 0.008489458 0.0013309631 6.8279023e-06
0.041614838 0.022757675 0.002850566 0.025402525 0.027521448 0.062574685 0.016346965 0.02783582
0.009008658 0.016498093 0.0027220775 7.282947e-06 0.0017188764 0.0016335956 0.0004799539 0.0040114326
0.001092996 0.0012798643 0.0017732666 0.0038071342 2.3112718e-05 0.0001706469 3.0066435e-06 2.6913951e-06
00000000: be83 8a3e 2f98 c23d 041d 193b b9f6 863d
00000010: 97a4 833e fb25 ed3d 8821 d93d f6fa 2c3d
00000020: 7763 f13c 8c6f 6f3d 6d48 9b3b 1b2d c636
00000030: e55d fd3c 3b9c 0b3c 010b 073c 15c3 c63c
00000040: 0059 e33c f788 853c 581e 443d 04f8 593d
00000050: 41b6 dd3a 6417 aa3b 6011 a938 7012 5c29
00000060: 5bc7 053c 0e7e bf3b ed79 8f3a 158c 353d
00000070: 72e7 bc3d aac9 a53d 1f85 1b3b 65d0 753b
00000080: d6b1 dc35 96de f83b cae7 ea3b debc 9d2e
00000090: 7351 993e d1b0 913d e208 933b 9210 133e
000000a0: aaa0 9a3e 5859 3d3e d65a 2c3e 4dc7 623d
000000b0: 6481 f43c 5bb5 9a3d 8f61 803c c584 fc36
000000c0: a0d6 f63b 0c2a 3c3c aa2f 363a 2888 223c
000000d0: 8e6e fd3d 32c4 cf3c ad76 1b3c 3f29 d23b
000000e0: 302d ba3a 0a9c 083c 6763 543a f159 2837
000000f0: e4b6 013d bc46 053e 3dcf aa3b 34dd 203d
00000100: 220b 083d f1df cf3c d53a 9c3c 3491 563c
00000110: e968 9e3c cc24 d43b be5e 9e39 72cc b737
00000120: bacc e73d 2ec6 d83b a621 283b c06d e43b
00000130: a057 b73b eff7 d63b 9d96 023d 4775 933c
00000140: 53fa d439 01e5 683c 1679 0437 a3fc 1434
00000150: 74d3 ec3d d447 013d 17d5 363c b9e4 223c
00000160: 8696 0a3d d8d9 863e 88b9 2f3e b7b2 7f3d
00000170: 63bc 813c 0322 aa3d b425 eb3c f0d3 8d37
00000180: 58ff 473e d3ef f93d 47b2 aa3b 8390 a23d
00000190: 2299 103f 05b9 af3e 790d 863e 7979 bc3d
000001a0: 4f5b 7f3d 6e1b 7f3d d1b3 0e3d 2f4b 6c38
000001b0: e97f f63c 6bce f73c 1851 003c 4b48 ca3c
000001c0: 4fea 473d 512d 133d a6b4 163d 44ed 9e3d
000001d0: 90a0 983b 5e17 0b3c b673 ae3a 3c1b e536
000001e0: 5274 2a3d 4e6e ba3c 90d0 3a3b f518 d03c
000001f0: a974 e13c 2827 803d 12ea 853c f207 e43c
00000200: 0d99 133c 0227 873c e264 323b 0a60 f436
00000210: ec4b e13a 5f1e d63a 52a2 fb39 5672 833b
00000220: dc42 8f3a 1fc1 a73a f46c e83a 1d81 793b
00000230: 2fe2 c137 aeef 3239 bec5 4936 d19d 3436

momentum_buffer f4 [12, 12]
-6.08455 -3.2662113 9.661823 -8.102451 -8.468891 12.569201 -14.692301 -22.08635
3.5655534 5.9031954 5.8541317 5.1756773 -8.000659 -5.920519 1.3050287 2.2664382
-4.082917 -5.523397 -1.5527246 24.474596 1.8069154 -4.554306 -14.211668 -0.09739358
-0.84695166 -6.4921284 -18.261856 5.776454 10.700659 -2.8278902 -3.693943 5.2280574
14.154956 -0.689287 20.030958 9.320971 -4.8813233 -4.09126 -13.655658 8.284486
-3.8587694 2.0242314 -7.445402 3.2811015 -15.470495 5.056084 -1.7999555 -7.4940414
7.7232385 -0.78423095 -12.588641 6.445522 0.37153712 -1.5727328 8.368522 -6.072235
5.81259 7.86432 2.1624246 14.455495 4.509694 -17.237547 -25.635693 4.1535597
-3.3229136 0.7735297 3.3221166 -12.313429 -0.31268686 -5.182189 8.260639 -14.548807
30.705921 -5.382698 -14.301335 -11.922987 1.1102444 14.791309 -17.94946 7.124827
3.072628 -20.289534 -8.580185 12.347021 -6.0109243 13.26839 -7.6611567 7.6863475
-24.109404 -20.360786 -19.684908 -14.377568 8.899874 5.757568 -12.765854 -10.882214
1.4156029 29.040657 44.072834 -3.0893538 26.616385 6.6963506 -4.442983 9.270945
-8.635443 -23.678556 -25.604544 -9.493409 3.0264606 17.939327 -13.498881 10.386563
2.0700538 4.549833 24.413172 16.698374 2.9362218 -9.028255 22.333323 -9.848126
-3.9508846 11.556494 -15.608652 4.2708592 -21.919678 -9.895676 -10.628772 -25.032564
-3.2475512 -19.541882 4.3915334 -12.43815 -2.147882 -5.317767 6.280341 -5.3673353
-21.569193 6.120702 -17.532434 -3.7820892 16.945696 23.654615 -2.606836 6.3734746
00000000: a2b4 c2c0 9b09 51c0 d496 1a41 a4a3 01c1
00000010: 9480 07c1 731b 4941 aa13 6bc1 d8b0 b0c1
00000020: 0732 6440 fae6 bc40 0c55 bb40 269f a540
00000030: b302 00c1 e474 bdc0 2e0b a73f 530d 1140
00000040: 42a7 82c0 abbf b0c0 aebf c6bf f9cb c341
00000050: 0149 e73f e0bc 91c0 fe62 63c1 4976 c7bd
00000060: d3d1 58bf 84bf cfc0 4818 92c1 b6d8 b840
00000070: e635 2b41 27fc 34c0 9069 6cc0 3f4c a740
00000080: b37a 6241 1d75 30bf 673f a041 b222 1541
00000090: cd33 9cc0 9aeb 82c0 937d 5ac1 418d 0441
000000a0: 14f6 76c0 028d 0140 bc40 eec0 91fd 5140
000000b0: 2687 77c1 71cb a140 f164 e6bf 30cf efc0
000000c0: c524 f740 5cc3 48bf 136b 49c1 b741 ce40
000000d0: 1d3a be3e 4f4f c9bf 77e5 0541 c04f c2c0
000000e0: bd00 ba40 82a8 fb40 2a65 0a40 b549 6741
000000f0: 6a4f 9040 7fe6 89c1 e615 cdc1 f6e9 8440
00000100: 9eaa 54c0 0b06 463f 8f9d 5440 ce03 45c1
00000110: 7e18 a0be 7ed4 a5c0 942b 0441 eac7 68c1
00000120: baa5 f541 103f acc0 45d2 64c1 8ec4 3ec1
00000130: 7d1c 8e3f 34a9 6c41 7e98 8fc1 95fe e340
00000140: f0a5 4440 f750 a2c1 7048 09c1 668d 4541
00000150: 7e59 c0c0 534b 5441 3228 f5c0 8ff6 f540
00000160: 0fe0 c0c1 e4e2 a2c1 b17a 9dc1 850a 66c1
00000170: e265 0e41 ff3d b840 f040 4cc1 8c1d 2ec1
00000180: 7a32 b53f 4453 e841 954a 3042 f9b7 45c0
00000190: 5bee d441 8148 d640 eb2c 8ec0 ca55 1441
000001a0: c62a 0ac1 af6d bdc1 1bd6 ccc1 01e5 17c1
000001b0: 88b1 4140 be83 8f41 6bfb 57c1 5d2f 2641
000001c0: c37b 0440 3b98 9140 2d4e c341 4596 8541
000001d0: 0feb 3b40 bc73 10c1 a5aa b241 ed91 1dc1
000001e0: 4bdb 7cc0 66e7 3841 0abd 79c1 e1aa 8840
000001f0: 805b afc1 b054 1ec1 730f 2ac1 b142 c8c1
00000200: e1d7 4fc0 c655 9cc1 7187 8c40 aa02 47c1
00000210: e676 09c0 262b aac0 8ef8 c840 36c1 abc0
00000220: b58d acc1 cadc c340 6d42 8cc1 c00d 72c0
00000230: c990 8741 a73c bd41 67d6 26c0 81f3 cb40

square_avg f4 [12]
0.1458298 0.019016735 0.012324927 0.17841373 0.01796635 0.04500342 0.021096522 0.21823454
0.30749738 0.02435678 0.091479205 0.0014859372
00000000: 6854 153e fcc8 9b3c 7eee 493c 17b2 363e
00000010: 2b2e 933c 8255 383d 9dd2 ac3c e078 5f3e
00000020: 4c70 9d3e df87 c73c 7359 bb3d c7c3 c23a

momentum_buffer f4 [12]
-7.4368496 24.546795 25.414223 15.859478 38.97099 7.577821 -3.3061724 -8.106213
-22.172176 -9.684146 -19.574636 15.40529
00000000: acfa edc0 d65f c441 5450 cb41 6cc0 7d41
00000010: 4be2 1b42 827d f240 5498 53c0 0cb3 01c1
00000020: 9e60 b1c1 43f2 1ac1 db98 9cc1 117c 7641

square_avg f4 [12, 12]
1.2043463 0.02091182 0.021220641 0.18034928 0.016138658 0.060642034 0.0044288286 0.03149134
0.08817716 0.21430524 0.016820787 0.0018094361 0.013268763 0.005521834 0.00038313997 0.07621172
0.15688656 0.0018650156 0.00020712029 5.699043e-05 0.0046189222 0.0015986233 1.9142835e-05 1.1849961e-05
7.460573e-12 1.9858353e-11 6.430324e-13 2.3275784e-09 2.720473e-10 5.292203e-09 2.8834819e-08 6.1563615e-10
1.9835815e-11 4.3691085e-11 1.5410949e-11 8.642643e-11 1.8658444e-09 2.9055416e-08 1.0815097e-08 4.0791595e-10
2.9968025e-11 5.691829e-10 4.3505774e-10 4.3137908e-07 5.0485323e-07 1.0456859e-08 3.8196103e-07 1.1665114e-07
4.368718 2.4645236e-05 0.0010818598 0.31663266 0.032782048 0.9334372 2.86982e-05 0.05352675
0.0013109046 0.03534507 0.0188958 0.0003496173 0.015639313 0.35413292 0.025565589 0.029572608
0.009767841 0.0052104746 0.030399648 0.001989786 0.3401948 0.29101408 0.0044752993 0.0036448205
0.43920243 1.3802058 0.00043681753 0.2578122 0.01979594 0.003927904 0.12661906 0.13290648
1.3247224 1.0909288 0.048548147 0.021788927 0.0004874417 1.0241532e-05 1.5170774e-06 3.7609962e-06
5.2202195e-06 1.809285e-05 1.389707e-07 7.89603e-06 6.191358e-06 2.8045579e-05 0.0001257978 0.00017553495
5.9310064 0.022108788 0.030520184 0.35943285 0.094663456 0.39276126 0.0027698793 0.26433927
0.004254232 0.057839442 0.07661073 0.0039706645 0.0027364613 0.01350166 3.875326e-05 0.15572661
0.313797 1.913239e-05 0.0004884433 2.486696e-05 0.0023066304 0.007319599 3.753148e-05 8.947518e-06
1.5602611 1.4265073e-07 9.819624e-06 0.00020237612 0.0051277005 0.9428586 2.4539155e-05 0.010598337
3.915064e-05 0.14897688 0.0060339826 0.00011787678 3.153727e-08 1.3609791e-07 1.1335557e-06 1.1295604e-08
7.610152e-12 4.3497617e-13 3.898584e-06 3.2969173e-13 1.4693275e-09 2.2783186e-06 1.6146962e-09 9.314283e-10
00000000: 0528 9a3f 444f ab3c e9d6 ad3c 7bad 383e
00000010: 3835 843c c863 783d b51f 913b 10fd 003d
00000020: 3a96 b43d d572 5b3e bfcb 893c 9a2a ed3a
00000030: 3a65 593c 80f0 b43b 2de0 c839 e414 9c3d
00000040: dfa6 203e 8a73 f43a 6e2e 5939 0209 6f38
00000050: 545a 973b e688 d13a ed94 a037 32cf 4637
00000060: 6f3f 032d 09ad ae2d 5eff 342b 31f3 1f31
00000070: 418f 952f b6d6 b531 70b0 f732 8b39 2930
00000080: 497a ae2d ca27 402e 5f8e 872d c10d be2e
00000090: 4838 0031 8995 f932 4dcd 3932 1141 e02f
000000a0: ffcc 032e b074 1c30 ef2c ef2f 4a98 e734
000000b0: 4085 0735 c1a5 3332 5310 cd34 a481 fa33
000000c0: 8acc 8b40 3ebd ce37 31cd 8d3a ad1d a23e
000000d0: 7846 063d bef5 6e3f eabc f037 de3e 5b3d
000000e0: a9d2 ab3a fec5 103d 5dcb 9a3c d74c b739
000000f0: 041e 803c e950 b53e ed6e d13c 4142 f23c
00000100: 4b09 203c a1bc aa3b af08 f93c 1267 023b
00000110: 032e ae3e ccff 943e 88a5 923b f1dd 6e3b
00000120: 24df e03e 95aa b03f a804 e539 f6ff 833e
00000130: 182b a23c a6b5 803b 6da8 013e a318 083e
00000140: 8190 a93f 8ea3 8b3f 6cda 463d b17e b23c
00000150: 518f ff39 0cd3 2b37 629e cb35 6c65 7c36
00000160: 5829 af36 19c6 9737 fa37 1534 3179 0437
00000170: 5cbf cf36 6c43 eb37 97e8 0339 ce0f 3839
00000180: ceca bd40 7d1d b53c 7705 fa3c 9507 b83e
00000190: eade c13d 0118 c93e dd86 353b 7a57 873e
000001a0: 1667 8b3b 0de9 6c3d 16e6 9c3d 591c 823b
000001b0: 3456 333b 1136 5d3c ff8a 2238 cc76 1f3e
000001c0: 00aa a03e 7f7e a037 e00a 003a 6499 d037
000001d0: d62a 173b 3fd9 ef3b 1f6b 1d38 4c1d 1637
000001e0: a3b6 c73f 892b 1934 f7be 2437 ed34 5439
000001f0: 4506 a83b 2e5f 713f 6fd9 cd37 a6a4 2d3c
00000200: ae35 2438 658d 183e b7b8 c53b 9d34 f738
00000210: 9873 0733 4f22 1234 ad24 9835 970e 4232
00000220: 14e1 052d acde f42a 95d0 8236 9699 b92a
00000230: 5ef1 c930 37e5 1836 12ec dd30 b803 8030

momentum_buffer f4 [12, 12]
-30.651377 23.426489 -9.366977 3.2681751 11.396337 -25.32499 -11.073065 -17.58592
-7.163219 -15.537074 -13.703298 0.14132333 11.0863285 -1.0781829 13.778073 18.769426
-1.1220548 -1.5516915 1.9814066 13.605933 9.460866 16.919872 23.11636 4.7166166
6.7740297 12.193366 5.277611 7.4321637 4.362586 7.4834104 6.7421236 12.870265
6.0959854 8.650482 3.9116552 -0.8435976 5.6374755 1.3808079 -3.9592662 13.913747
7.8039784 15.160561 5.1140656 4.1770396 0.7055614 3.7192369 6.4484663 4.447098
-2.566643 4.9091067 4.6755424 29.869848 6.210725 -3.5008683 4.28269 21.986435
32.36886 10.313085 2.6457503 -16.003605 4.0349207 -0.10191803 2.0467615 5.4496937
-12.065605 7.498076 2.7177074 8.350537 6.3668585 10.540171 7.374739 6.715054
3.8542361 -1.3012137 7.7834764 8.1855545 2.6826766 21.205462 19.618587 4.941638
8.086097 15.407541 16.689753 0.8211818 7.1913567 18.762268 4.7878933 10.017941
11.302571 20.704172 -0.422176 21.036718 17.05484 6.021599 7.2238793 -9.735131
7.5672946 7.565221 -9.198293 -3.170276 1.9851857 19.360144 17.603703 17.356884
29.463366 6.4929056 16.188965 -11.444782 22.461063 0.70629287 27.32172 6.8822637
16.298355 22.448341 11.373835 25.951498 13.47547 7.2411637 2.559013 9.409688
-4.2445574 -4.9958396 5.0936065 10.090546 -1.7084492 -11.031264 -3.1251674 4.266074
18.858728 1.6674445 2.1454875 14.313381 11.887699 10.295761 1.0366265 13.2380085
3.7627401 -1.8904185 -9.656282 5.937224 12.220164 7.5559425 8.933177 1.2014713
00000000: 0536 f5c1 7369 bb41 23df 15c1 c829 5140
00000010: 6557 3641 9499 cac1 462b 31c1 f7af 8cc1
00000020: 1739 e5c0 db97 78c1 b540 5bc1 10b7 103e
00000030: 9a61 3141 e601 8abf fd72 5c41 c927 9641
00000040: 7e9f 8fbf d49d c6bf bb9e fd3f e7b1 5941
00000050: b55f 1741 e65b 8741 4eee b841 86ee 9640
00000060: dac4 d840 0718 4341 30e2 a840 49d4 ed40
00000070: 4e9a 8b40 1978 ef40 7abf d740 9bec 4d41
00000080: 5012 c340 6068 0a41 8f58 7a40 03f6 57bf
00000090: 3366 b440 50be b03f 9e64 7dc0 b59e 5e41
000000a0: 31ba f940 a891 7241 6da6 a340 4faa 8540
000000b0: ac9f 343f fa07 6e40 d659 ce40 a04e 8e40
000000c0: e143 24c0 6717 9d40 0b9e 9540 73f5 ee41
000000d0: 42be c640 3a0e 60c0 cc0b 8940 38e4 af41
000000e0: b679 0142 6502 2541 f953 2940 6207 80c1
000000f0: 121e 8140 66ba d0bd 24fe 0240 e463 ae40
00000100: b80c 41c1 3df0 ef40 ebee 2d40 cd9b 0541
00000110: 4ebd cb40 8aa4 2841 ddfd eb40 b9e1 d640
00000120: ceab 7640 2c8e a6bf 3d12 f940 08f8 0241
00000130: f9b0 2b40 c9a4 a941 def2 9c41 e621 9e40
00000140: a760 0141 4a85 7641 9d84 8541 f838 523f
00000150: 981f e640 2019 9641 6c36 9940 7d49 2041
00000160: 55d7 3441 25a2 a541 7427 d8be 334b a841
00000170: 5070 8841 f0b0 c040 052a e740 19c3 1bc1
00000180: 4727 f240 4a16 f240 352c 13c1 cde5 4ac0
00000190: 911a fe3f 93e1 9a41 62d4 8c41 e6da 8a41
000001a0: f9b4 eb41 e2c5 cf40 0083 8141 d41d 37c1
000001b0: 42b0 b341 9ccf 343f e292 da41 813b dc40
000001c0: 0863 8241 3496 b341 3afb 3541 ab9c cf41
000001d0: 869b 5741 9db7 e740 dec6 2340 158e 1641
000001e0: 6ad3 87c0 ebdd 9fc0 d3fe a240 e072 2141
000001f0: 77ae dabf 0f80 30c1 be02 48c0 ae83 8840
00000200: adde 9641 d26e d53f ab4f 0940 9c03 6541
00000210: 0434 3e41 70bb 2441 2db0 843f e2ce 5341
00000220: bcd0 7040 3cf9 f1bf 2280 1ac1 bdfd bd40
00000230: cb85 4341 48ca f140 4bee 0e41 d0c9 993f

square_avg f4 [12]
0.002295581 0.0006568881 3.7311138e-10 8.921595e-08 0.004899596 0.0003814244 0.0025872919 5.5980254e-06
0.0055595282 0.0014281621 0.0013519321 3.3461657e-08
00000000: 7571 163b 0433 2c3a c21e cd2f fd96 bf33
00000010: ca8c a03b ebf9 c739 8e8f 293b acd6 bb36
00000020: b42c b63b 2b31 bb3a 5033 b13a 7bb7 0f33

momentum_buffer f4 [12]
-9.616033 12.693369 9.949096 11.239899 23.00566 -15.612632 11.911438 6.1031733
1.9754015 26.742971 10.676781 9.981023
00000000: 45db 19c1 0a18 4b41 7f2f 1f41 a0d6 3341
00000010: 970b b841 57cd 79c1 4095 3e41 324d c340
00000020: f5d9 fc3f 9bf1 d541 18d4 2a41 45b2 1f41

square_avg f4 [12, 12]
2.8767874e-06 8.4273644e-11 0.0 0.0 1.9541883e-08 8.9634534e-07 4.60693e-08 4.1461297e-07
3.5932737e-09 0.0 1.422704e-10 0.0 6.089204e-07 9.770656e-09 2.1519588e-11 6.2186882e-09
9.183213e-08 6.048007e-07 4.432988e-08 5.2391576e-09 1.3066662e-09 1.1740652e-12 3.2749702e-11 6.2785844e-13
26.994434 0.0061551374 1.4511579e-11 4.6114913e-08 2.6700656 2.1190457 1.0835252 1.6987968e-06
2.0250955 0.013033656 0.08219322 4.0436454e-10 0.19264793 0.005286588 3.4244947e-11 1.06603174e-07
0.009225412 1.5838348 0.9452205 0.0009721497 0.256982 0.0013556009 0.0021904064 9.989881e-09
0.008093951 0.00040387828 1.6861736e-10 6.672071e-11 1.0011517e-09 0.00039843627 3.0868146e-06 5.8366146e-07
0.0029475086 0.00014837702 0.0035820436 4.058275e-12 61.13825 0.005219305 7.0201946e-07 1.6867808e-08
3.938923 1.3013318 0.34780976 0.0003589707 0.80634475 0.000410235 5.8649454 6.920649e-08
0.0011767484 3.667113e-11 1.577335e-10 9.5061254e-14 3.4762568e-13 6.8857853e-09 2.1805546e-09 1.8263985e-14
2.5012705e-11 3.0169118e-14 0.005459123 2.6747642e-15 1.5927313e-14 0.0 4.3926443e-15 4.371233e-14
6.033509e-15 7.254875e-16 5.3771993e-14 0.0 3.6601585e-05 6.204487e-18 2.4116436e-15 1.0866553e-15
1.6269963e-14 0.0 1.1296115e-15 1.5193694e-14 1.6011477e-14 4.1571766e-16 0.0 5.8771e-18
2.5070695e-15 5.418106e-14 8.883237e-16 0.0 0.020331375 0.010323679 2.8121555e-10 1.7567091e-08
0.010727592 2.0989015 0.9543642 0.00019304086 0.030543117 0.00873338 5.3006137e-05 5.511616e-09
4.6758806e-15 0.0 5.0619533e-17 5.7348196e-15 6.7322577e-15 6.01825e-15 6.76603e-14 0.0
3.3428708e-15 2.892911e-16 0.0 0.0 0.0050349017 0.039915275 2.191301e-12 5.609837e-11
0.030854508 0.10611761 0.4255756 4.528794e-10 0.0018084467 0.037419092 7.531292e-05 6.903178e-12
00000000: d50e 4136 d851 b92e 0000 0000 0000 0000
00000010: 0edd a732 629c 7035 bbdd 4533 f997 de34
00000020: 8aed 7631 0000 0000 8f6d 1c2f 0000 0000
00000030: b174 2335 cddb 2732 ce49 bd2d 29ac d531
00000040: 3f35 c533 9659 2235 3865 3e33 1e04 b431
00000050: 3b96 b330 283c a52b e308 102e f8b9 302b
00000060: 9af4 d741 09b1 c93b 574a 7f2d e20f 4633
00000070: 5be2 2a40 729e 0740 f4b0 8a3f 3702 e435
00000080: 2a9b 0140 1e8b 553c eb54 a83d 404d de2f
00000090: 8045 453e 1d3b ad3b 629c 162e b7ed e433
000000a0: 2f26 173c 19bb ca3f f8f9 713f ddd7 7e3a
000000b0: 2593 833e 6bae b13a ec8c 0f3b f69f 2b32
000000c0: 7e9c 043c a0bf d339 9165 392f 6cb8 922e
000000d0: e598 8930 36e5 d039 1227 4f36 e9ac 1c35
000000e0: fd2a 413b a795 1b39 b8c0 6a3b b1c9 8e2c
000000f0: 918d 7442 b406 ab3b 6972 3c35 b4e4 9032
00000100: 5017 7c40 0a92 a63f 1f14 b23e 3b34 bc39
00000110: 9c6c 4e3f cf14 d739 a2ad bb40 ac9e 9433
00000120: 203d 9a3a 0648 212e 096e 2d2f 150f d629
00000130: 24b2 c32a 0298 ec31 b9d8 1531 e281 a428
00000140: 9b03 dc2d a0de 0729 71e2 b23b b1bc 4027
00000150: e275 8f28 0000 0000 fe42 9e27 e3dc 4429
00000160: 4c61 d927 871b 5126 e32a 7229 0000 0000
00000170: a784 1938 b9e7 e422 f9c6 2d27 819a 9c26
00000180: fb8b 9228 0000 0000 4fcb a226 46da 8828
00000190: f437 9028 19a5 ef25 0000 0000 a4d3 d822
000001a0: 45a7 3427 8202 7429 5c05 8026 0000 0000
000001b0: fc8d a63c a624 293c 9299 9a2f 71e6 9632
000001c0: c8c2 2f3c 6754 0640 3651 743f 036b 4a39
000001d0: 8f35 fa3c 7316 0f3c e852 5e38 b060 bd31
000001e0: 6377 a827 0000 0000 ff70 6924 609e ce27
000001f0: 1e8e f227 8fd4 d827 825b 9829 0000 0000
00000200: 15e1 7027 d5c3 a625 0000 0000 0000 0000
00000210: d1fb a43b 337e 233d f832 1a2c 26b9 762e
00000220: 98c2 fc3c 3154 d93d 0ce5 d93e 1cf9 f82f
00000230: 6709 ed3a c344 193d 51f1 9d38 4de2 f22c

momentum_buffer f4 [12, 12]
3.8617413 3.9801853 0.0 0.0 7.0789866 2.1984622 2.0147436 2.878098
6.8073936 0.0 -0.70084983 0.0 5.315543 9.777077 -4.0762625 0.06428108
0.9874108 8.851924 3.9229317 -3.2678702 16.119612 3.611316 1.5575387 10.011155
5.930972 0.38227987 2.9794257 -1.1371785 -16.563473 4.9247384 7.971145 -2.63013
-9.201648 -5.571386 24.720537 -0.09332171 14.229737 12.4087105 6.169627 2.8016028
4.5932045 4.6040626 9.449086 -6.5114717 -5.513989 -8.012624 11.959145 -10.02018
17.426117 -9.923938 2.991013 0.64400375 3.6469724 2.869922 19.915443 10.448729
0.43039274 -11.67161 6.541915 -6.8664145 15.216065 2.9283717 7.382262 6.5541196
11.366839 -3.6053488 3.919903 4.063117 -9.694149 3.5172534 13.7454815 -13.162557
18.997738 -2.96772 -1.9084097 6.086758 4.330457 2.3746862 2.0991025 -0.87111807
6.590461 6.0011883 9.423623 3.4041655 6.2560043 0.0 -1.741363 1.1285821
3.4288828 4.8199496 3.5419703 0.0 6.1017013 1.0744467 3.2588444 -3.0927122
3.494575 0.0 3.1019466 3.4890733 3.4933026 2.8227367 0.0 -1.0471181
3.2657266 3.5675972 3.042691 0.0 10.4705105 -8.543398 0.12424489 -3.8178785
5.801741 5.2148175 9.945845 -14.410989 8.078305 -2.273785 2.2209535 3.489426
3.3953774 0.0 -1.9935402 3.4224944 3.4422088 3.428568 3.6128438 0.0
3.3454664 -2.7236114 0.0 0.0 8.625577 7.624229 7.365048 7.6970487
-5.9296646 13.243267 8.505586 1.842074 24.003195 -1.2300664 1.2056664 4.6303916
00000000: c526 7740 5bbb 7e40 0000 0000 0000 0000
00000010: 0f87 e240 9bb3 0c40 8ff1 0040 c232 3840
00000020: 2bd6 d940 0000 0000 e56a 33bf 0000 0000
00000030: ee18 aa40 e86e 1c41 be70 82c0 cda5 833d
00000040: f4c6 7c3f 7ba1 0d41 5011 7b40 c924 51c0
00000050: f7f4 8041 cd1f 6740 6e5d c73f b12d 2041
00000060: 86ca bd40 30ba c33e e9ae 3e40 118f 91bf
00000070: fe81 84c1 7597 9d40 9f13 ff40 0d54 28c0
00000080: f339 13c1 cb48 b2c0 a9c3 c541 741f bfbd
00000090: 01ad 6341 148a 4641 966d c540 764d 3340
000000a0: 88fb 9240 7b54 9340 752f 1741 fa5d d0c0
000000b0: 9972 b0c0 b533 00c1 a858 3f41 a852 20c1
000000c0: b068 8b41 73c8 1ec1 c26c 3f40 6edd 243f
000000d0: ff67 6940 cdac 3740 d452 9f41 fe2d 2741
000000e0: 705c dc3e eabe 3ac1 5e57 d140 abb9 dbc0
000000f0: 0175 7341 716a 3b40 7e3b ec40 59bb d140
00000100: 93de 3541 09be 66c0 b1df 7a40 0e05 8240
00000110: 3c1b 1bc1 ae1a 6140 7eed 5b41 d599 52c1
00000120: 5efb 9741 20ef 3dc0 c546 f4bf b9c6 c240
00000130: 1b93 8a40 dcfa 1740 b257 0640 9801 5fbf
00000140: 0ee5 d240 bc09 c040 29c7 1641 d9dd 5940
00000150: 3031 c840 0000 0000 fce4 debf 6175 903f
00000160: d172 5b40 073d 9a40 a4af 6240 0000 0000
00000170: 2341 c340 7887 893f e890 5040 ffee 45c0
00000180: 1ea7 5f40 0000 0000 4b86 4640 fa4c 5f40
00000190: 4592 5f40 b8a7 3440 0000 0000 f707 86bf
000001a0: aa01 5140 8353 6440 73bb 4240 0000 0000
000001b0: 3687 2741 c2b1 08c1 1b74 fe3d 1f58 74c0
000001c0: dda7 b940 c9df a640 2e22 1f41 6993 66c1
000001d0: bd40 0141 b285 11c0 1a24 0e40 c152 5f40
000001e0: dd4d 5940 0000 0000 532c ffbf 260a 5b40
000001f0: 264d 5c40 a86d 5b40 d538 6740 0000 0000
00000200: 1f1c 5640 a64f 2ec0 0000 0000 0000 0000
00000210: 5d02 0a41 aff9 f340 79ae eb40 394e f640
00000220: d0bf bdc0 6ce4 5341 e116 0841 15c9 eb3f
00000230: 8b06 c041 d172 9dbf 4753 9a3f 2b2c 9440

square_avg f4 [12]
7.891648e-09 6.6135617e-09 0.00031439797 8.24486e-05 2.56397e-06 7.4000214e-05 7.3106054e-07 9.946268e-10
1.4499671e-14 6.4033324e-05 4.14153e-14 4.6132183e-05
00000000: d693 0732 813d e331 c8d5 a439 41e8 ac38
00000010: ab10 2c36 9030 9b38 193e 4435 52b3 8830
00000020: f799 8228 a149 8638 9784 3a29 0e7e 4138

momentum_buffer f4 [12]
2.347628 11.442536 -10.326624 -17.850693 9.6748 -4.274001 22.973486 6.708222
3.4852169 22.527088 3.5900352 19.367603
00000000: 8a3f 1640 a114 3741 da39 25c1 38ce 8ec1
00000010: fbcb 1a41 9ec4 88c0 b3c9 b741 c1a9 d640
00000020: cb0d 5f40 7a37 b441 23c3 6540 daf0 9a41

square_avg f4 [12, 12]
1.3060154e-09 6.8145356e-10 3.7006687e-06 1.1384152e-05 0.00036082554 0.0019110657 1.5185466e-11 2.1904424e-14
3.3630168e-15 0.0008764239 4.6712016e-15 0.001327657 7.429676e-08 3.937082e-09 0.48883003 0.1835383
1.5557882e-07 0.6583688 2.0420171e-13 8.759039e-15 1.1208915e-14 0.08765041 1.7577241e-16 8.978771e-06
0.0 1.9552602e-09 3.3782326e-09 0.00012472732 0.0038768018 0.019538093 6.728083e-06 1.341708e-14
1.0004792e-15 1.9394152e-05 0.0 9.009021e-05 1.4235481e-08 1.1547955e-08 0.7352278 0.0046544666
0.0054112813 0.3306788 1.3233321e-05 2.6270472e-11 1.5808879e-14 5.1816556e-07 1.3677956e-16 5.14077e-07
5.4671414e-08 7.173317e-08 0.096095614 1.045253 1.7483457e-05 0.53653765 1.3400697e-08 9.927451e-15
2.6692115e-16 0.18462925 0.0 0.017171755 7.307164e-08 3.4686574e-09 0.004318957 0.14575833
1.9500241e-05 2.412883 2.433154e-11 3.3929887e-14 7.466956e-15 0.0769834 4.756012e-14 0.015354579
0.0 4.814839e-12 9.3759096e-05 5.5706087e-06 0.0027317288 747.19104 4.9163073e-06 2.884017e-15
1.0285901e-15 0.00042435984 0.0 0.00067937246 0.0 0.0 0.0 0.0
0.0 0.0 0.0 0.0 0.0 0.0 0.0 0.0
8.776048e-09 4.5220614e-09 7.130765e-06 0.0018322613 7.8893055e-07 0.0039909254 2.7384773e-11 3.4353568e-15
3.6177654e-15 0.00019446659 5.143262e-16 1.5617733e-08 3.9354825e-07 9.258179e-08 0.3138882 2.7285225
0.000118400436 43.67499 9.347603e-11 1.2634758e-17 0.0 0.5928866 8.4821405e-15 0.04553752
0.0 3.9188154e-12 7.160441e-13 8.291519e-12 5.2299674e-13 1.5092998e-12 3.375639e-17 0.0
0.0 5.3470276e-15 0.0 2.5128033e-13 0.0 1.2750279e-12 7.606634e-12 8.745246e-07
7.838732e-05 2.555376e-05 4.289308e-08 4.436888e-15 3.4909574e-15 1.8986502e-17 1.1046391e-15 1.2486839e-14
00000000: 557f b330 0851 3b30 0159 7836 8ffe 3e37
00000010: 2f2d bd39 b97c fa3a a192 852d 2a4c c528
00000020: b654 7227 d0bf 653a 3b4c a827 c704 ae3a
00000030: 138d 9f33 f146 8731 ee47 fa3e 77f1 3b3e
00000040: 2e0d 2734 dc8a 283f 23e9 652a f0c9 1d28
00000050: ffeb 4928 0f82 b33d dca6 4a25 87a3 1637
00000060: 0000 0000 4d5d 0631 7f26 6831 3cc9 0239
00000070: f111 7e3b 5a0e a03c cbc1 e136 5cb3 7128
00000080: 2b2f 9026 a0b0 a237 0000 0000 d0ee bc38
00000090: 4f90 7432 7164 4632 e437 3c3f 7f84 983b
000000a0: 1e51 b13b bb4e a93e ae04 5e37 d813 e72d
000000b0: cb64 8e28 1118 0b35 33b2 1d25 1aff 0935
000000c0: dbcf 6a33 ba0b 9a33 c7cd c43d daca 853f
000000d0: 70a9 9237 885a 093f e438 6632 49d6 3228
000000e0: 9cde 9925 730f 3d3e 0000 0000 c8ab 8c3c
000000f0: 8feb 9c33 445d 6e31 0a86 8d3b ac41 153e
00000100: 7394 a337 ad6c 1a40 c205 d62d 7fce 1829
00000110: 4283 0628 79a9 9d3d 1631 5629 c691 7b3c
00000120: 0000 0000 3768 a92c 88a0 c438 2aeb ba36
00000130: ce06 333b 3acc 3a44 c2f6 a436 b9d0 4f27
00000140: 473c 9426 9d7c de39 0000 0000 ea17 323a
00000150: 0000 0000 0000 0000 0000 0000 0000 0000
00000160: 0000 0000 0000 0000 0000 0000 0000 0000
00000170: 0000 0000 0000 0000 0000 0000 0000 0000
00000180: 78c5 1632 7960 9b31 ce44 ef36 7d28 f03a
00000190: e5c6 5335 4fc6 823b 07e1 f02d 268b 7727
000001a0: ff57 8227 bae9 4b39 933e 1426 c227 8632
000001b0: dc48 d334 61d1 c633 f4b5 a03e 1da0 2e40
000001c0: c04d f838 31b3 2e42 548e cd2e f511 6923
000001d0: 0000 0000 6bc7 173f f8cc 1828 8d85 3a3d
000001e0: 0000 0000 8de1 892c 6a8c 492b afdd 112d
000001f0: e335 132b 426a d42b 83ac 1b24 0000 0000
00000200: 0000 0000 a0a5 c027 0000 0000 5075 8d2a
00000210: 0000 0000 b971 b32b 3cd1 052d dfc0 6a35
00000220: df63 a438 485c d637 7139 3833 12db 9f27
00000230: cc8c 7b27 9c1e af23 fd31 9f26 61f1 6028

momentum_buffer f4 [12, 12]
1.7401204 -5.8226967 4.133966 17.318176 8.349678 13.906152 2.378171 -6.609107
-3.314532 2.14329 -3.3952365 -17.380478 -2.5027153 4.943725 16.569515 14.710687
7.276502 14.979573 -6.0273185 -3.8151302 -3.4624655 18.76484 -2.5347672 -3.235052
0.0 3.9218946 2.3898587 12.987419 9.912737 7.316717 28.096653 -6.2315664
-3.0726151 0.086388774 0.0 -18.749052 -5.297536 2.528787 -10.694785 14.029055
22.18439 13.337928 11.836556 2.451423 -3.4922848 13.589731 -2.4325714 -12.7691965
-2.3125365 -1.2169334 -1.9098368 -3.120416 10.0474 12.229988 13.465822 5.8072443
2.6711628 3.1323543 0.0 -8.742987 2.9361656 -5.252334 26.46976 6.185088
2.2891455 3.4077945 2.2155008 6.690024 3.4208207 10.403853 3.5970073 -2.7795198
0.0 7.1734533 3.0899866 6.3690634 5.8351946 4.366149 31.939907 0.07011719
3.079419 6.2095137 0.0 1.0683104 0.0 0.0 0.0 0.0
0.0 0.0 0.0 0.0 0.0 0.0 0.0 0.0
-5.01233 4.3114142 3.0519958 10.441882 3.7244396 10.859652 6.1655254 2.2685628
3.3257973 10.048657 -2.9155838 -0.9414523 0.9612474 -1.0474421 5.223156 -1.5469346
7.0920386 24.76982 -0.27012566 -1.3639951 0.0 -1.810649 3.4683144 4.9562435
0.0 3.6859794 3.6709204 3.6895103 3.666473 3.6790907 1.8065922 0.0
0.0 3.4134557 0.0 3.6529891 0.0 7.478623 7.2961526 4.80228
3.1775508 7.014493 -23.459663 1.6075597 3.3203332 1.5434569 -3.1254907 2.9775312
00000000: 44bc de3f 8853 bac0 7349 8440 a08b 8a41
00000010: 4898 0541 997f 5e41 f433 1840 ce7d d3c0
00000020: 4b21 54c0 aa2b 0940 8e4b 59c0 380b 8bc1
00000030: 7d2c 20c0 ff32 9e40 5e8e 8441 f95e 6b41
00000040: 1bd9 e840 55ac 6f41 cbdf c0c0 182b 74c0
00000050: 0999 5dc0 641e 9641 a039 22c0 180b 4fc0
00000060: 0000 0000 5200 7b40 72f3 1840 78cc 4f41
00000070: 929a 1e41 8c22 ea40 f2c5 e041 fe68 c7c0
00000080: baa5 44c0 99ec b03d 0000 0000 0ffe 95c1
00000090: 6a85 a9c0 a5d7 2140 d71d 2bc1 0277 6041
000000a0: a179 b141 2768 5541 8962 3d41 1de4 1c40
000000b0: 9881 5fc0 8a6f 5941 40af 1bc0 a14e 4cc1
000000c0: 9900 14c0 79c4 9bbf 8875 f4bf e5b4 47c0
000000d0: 27c2 2041 08ae 4341 0274 5741 f2d4 b940
000000e0: 55f4 2a40 7e78 4840 0000 0000 46e3 0bc1
000000f0: 23ea 3b40 1f13 a8c0 12c2 d341 3eec c540
00000100: 5c81 1240 4e19 5a40 c4ca 0d40 ad14 d640
00000110: baee 5a40 2f76 2641 5e35 6640 a7e3 31c0
00000120: 0000 0000 ee8c e540 57c2 4540 5ecf cb40
00000130: eab9 ba40 7eb7 8b40 ee84 ff41 9a99 8f3d
00000140: 3315 4540 56b4 c640 0000 0000 65be 883f
00000150: 0000 0000 0000 0000 0000 0000 0000 0000
00000160: 0000 0000 0000 0000 0000 0000 0000 0000
00000170: 0000 0000 0000 0000 0000 0000 0000 0000
00000180: 0265 a0c0 1bf7 8940 e653 4340 f311 2741
00000190: 385d 6e40 22c1 2d41 fc4b c540 2230 1140
000001a0: ddd9 5440 4dc7 2041 ed98 3ac0 0503 71bf
000001b0: 4f14 763f 9512 86bf 1824 a740 f401 c6bf
000001c0: fbf1 e240 9728 c641 e94d 8abe 6497 aebf
000001d0: 0000 0000 59c3 e7bf ddf8 5d40 8c99 9e40
000001e0: 0000 0000 16e7 6b40 5cf0 6a40 f020 6c40
000001f0: 7ea7 6a40 3976 6b40 6a3e e73f 0000 0000
00000200: 0000 0000 0f76 5a40 0000 0000 93ca 6940
00000210: 0000 0000 e150 ef40 157a e940 47ac 9940
00000220: fe5c 4b40 ba76 e040 64ad bbc1 84c4 cd3f
00000230: 5780 5440 ff8f c53f 0a08 48c0 df8f 3e40

square_avg f4 [12]
0.0030055272 3.1649736e-06 1.9941517e-07 5.701286e-07 6.7989354e-06 1.4643329e-05 3.4482324e-05 0.0
2.9913897e-06 1.1903929e-05 1.4876048e-11 3.0308829e-09
00000000: 61f8 443b d565 5436 d31e 5634 f00a 1935
00000010: 6922 e436 9fac 7537 1da1 1038 0000 0000
00000020: afbf 4836 fcb6 4737 e2d9 822d db47 5031

momentum_buffer f4 [12]
50.54454 27.089632 12.449031 2.9884863 31.008299 40.566437 21.885159 0.0
3.1411088 -27.398264 3.6914802 22.66328
00000000: 9c2d 4a42 91b7 d841 3b2f 4741 5c43 3f40
00000010: ff10 f841 0844 2242 ce14 af41 0000 0000
00000020: ed07 4940 a52f dbc1 3641 6c40 664e b541

square_avg f4 [3, 1]
0.0 0.0 0.0
00000000: 0000 0000 0000 0000 0000 0000

momentum_buffer f4 [3, 1]
0.0 0.0 0.0
00000000: 0000 0000 0000 0000 0000 0000

square_avg f4 [3, 1]
0.0 0.0 132.41661
00000000: 0000 0000 0000 0000 a76a 0443

momentum_buffer f4 [3, 1]
0.0 0.0 10.874917
00000000: 0000 0000 0000 0000 a9ff 2d41

square_avg f4 [5, 2]
0.0 0.0 0.0 0.0 0.0 0.0 0.0 0.0
0.0 0.0
00000000: 0000 0000 0000 0000 0000 0000 0000 0000
00000010: 0000 0000 0000 0000 0000 0000 0000 0000
00000020: 0000 0000 0000 0000

momentum_buffer f4 [5, 2]
0.0 0.0 0.0 0.0 0.0 0.0 0.0 0.0
0.0 0.0
00000000: 0000 0000 0000 0000 0000 0000 0000 0000
00000010: 0000 0000 0000 0000 0000 0000 0000 0000
00000020: 0000 0000 0000 0000

square_avg f4 [2, 2]
0.0 0.0 0.0 0.0
00000000: 0000 0000 0000 0000 0000 0000 0000 0000

momentum_buffer f4 [2, 2]
0.0 0.0 0.0 0.0
00000000: 0000 0000 0000 0000 0000 0000 0000 0000

square_avg f4 [2]
0.0 0.0
00000000: 0000 0000 0000 0000

momentum_buffer f4 [2]
0.0 0.0
00000000: 0000 0000 0000 0000

square_avg f4 [2, 2]
0.0 0.0 0.0 0.0
00000000: 0000 0000 0000 0000 0000 0000 0000 0000

momentum_buffer f4 [2, 2]
0.0 0.0 0.0 0.0
00000000: 0000 0000 0000 0000 0000 0000 0000 0000

square_avg f4 [2]
0.0 0.0
00000000: 0000 0000 0000 0000

momentum_buffer f4 [2]
0.0 0.0
00000000: 0000 0000 0000 0000

square_avg f4 [2, 2]
0.0 0.0 0.0 0.0
00000000: 0000 0000 0000 0000 0000 0000 0000 0000

momentum_buffer f4 [2, 2]
0.0 0.0 0.0 0.0
00000000: 0000 0000 0000 0000 0000 0000 0000 0000

square_avg f4 [2]
0.0 0.0
00000000: 0000 0000 0000 0000

momentum_buffer f4 [2]
0.0 0.0
00000000: 0000 0000 0000 0000

square_avg f4 [3, 1]
0.0 0.0 0.0
00000000: 0000 0000 0000 0000 0000 0000

momentum_buffer f4 [3, 1]
0.0 0.0 0.0
00000000: 0000 0000 0000 0000 0000 0000

square_avg f4 [3, 1]
0.0 0.0 0.0
00000000: 0000 0000 0000 0000 0000 0000

momentum_buffer f4 [3, 1]
0.0 0.0 0.0
00000000: 0000 0000 0000 0000 0000 0000

square_avg f4 [3, 1]
0.0 0.0 0.0
00000000: 0000 0000 0000 0000 0000 0000

momentum_buffer f4 [3, 1]
0.0 0.0 0.0
00000000: 0000 0000 0000 0000 0000 0000

square_avg f4 [3, 1]
1.3789486e-12 0.0 0.0
00000000: dc11 c22b 0000 0000 0000 0000

momentum_buffer f4 [3, 1]
-3.6415658 0.0 0.0
00000000: 6a0f 69c0 0000 0000 0000 0000

square_avg f4 [313, 50]
0.0 3.508427 0.0 0.0 0.0 17.350374 33.37326 12.816997
0.38631257 0.0 0.0 13.690284 6.8024035 25.143084 0.0 0.0
0.0 0.0 20.076532 26.335209 5.601875 0.0 0.0 0.0
0.054546498 0.0 0.0 0.0 8.411574 3.7624226 20.346687 7.7551556
0.0 0.0 0.0 0.0 0.0 0.0 4.3860106e-05 6.132563
0.0 14.220668 0.027867133 0.64868355 6.516024 8.019734 8.674048 0.0
12.154224 0.2559022 0.0 4.8206467e-10 6.0199787e-09 0.0 0.0 0.0
0.0 0.0 0.00035239896 0.0 0.0 0.0 0.0 0.00066479476
0.0 0.00060210144 0.0012608506 0.0002577472 0.00017621425 0.0003193076 0.0 1.914442e-09
3.7299788e-11 0.0 0.0018346801 0.00033417516 2.213489e-05 0.0004492059 0.0 0.0005579095
0.0 0.0 5.4863104e-08 2.7313716e-08 0.0 0.00038639465 0.0 0.0
0.0 1.2485738e-15 3.6255078e-05 0.0 0.0 0.0 3.0861913e-09 0.0
0.00041882464 0.0 0.0 5.5671543e-09 0.0 0.0 0.017944632 0.01005681
4.0828585e-15 0.009170494 0.022143979 0.007438013 0.0003461285 0.0 0.00895524 0.0
0.0018038752 0.0 0.02158711 0.0 1.5936399e-06 0.0 1.0620014e-13 0.0
3.1220924e-13 3.7876924e-10 0.0 0.019408312 0.012304202 0.012678698 0.0 0.00015347579
0.009015709 0.0 0.0 0.0 2.2859322e-06 1.4641484e-13 0.0 4.4756733e-14
0.016507167 0.010216038 0.0 6.078261e-07 0.00083542644 0.026119258 2.7828362e-05 0.0
0.0 0.0024469346 0.0 6.451059e-05 0.0 0.00010027348 0.0020503055 4.8071794e-08
0.0 0.0017236433 0.00038471905 9.046113e-06 0.0 0.0 0.0 0.000640246
0.0011438027 0.00010808612 0.0 0.0017727059 0.0 5.68836e-06 0.0 0.00073135743
0.0 0.0 0.0 0.0005488218 0.0 0.0 0.0025244683 3.2077837e-15
0.0 0.001326806 1.327064e-13 0.00046540724 0.0 0.00028422836 0.0 0.006952207
1.2737435e-15 3.955513e-06 0.0 0.0 7.46175e-06 0.0 0.0003454674 0.0
0.00052167353 0.0 9.337943e-16 0.0 0.0 0.0 0.0 0.0
0.0034503648 0.0 2.3427889e-05 0.0 3.2266495e-11 0.0 8.175283e-07 0.0
6.2604683e-12 0.0 0.0 0.0025627995 0.0 0.012181478 0.018248102 2.5003726e-07
0.0 0.0 2.5377753e-16 0.0 1.8847324e-08 0.0 0.0149904825 1.715828e-06
0.0 0.0 0.0014833066 0.005462862 0.0019080238 0.0 0.0 0.0
0.0046066884 2.8552557e-05 0.00974967 3.2621243e-11 0.0029514446 0.0 4.6445262e-08 0.0037604931
0.00045986383 0.003106695 0.001918001 2.045418e-11 0.0018948856 0.0002563442 0.0008145005 0.010603548
0.0 7.086718e-05 0.0 0.0005929675 0.0 0.00015981919 0.0 0.0015013098
00000000: 0000 0000 118a 6040 0000 0000 0000 0000
00000010: 0000 0000 91cd 8a41 387e 0542 6b12 4d41
00000020: c3ca c53e 0000 0000 0000 0000 670b 5b41
00000030: 4aad d940 0925 c941 0000 0000 0000 0000
00000040: 0000 0000 0000 0000 bd9c a041 82ae d241
00000050: 8f42 b340 0000 0000 0000 0000 0000 0000
00000060: 266c 5f3d 0000 0000 0000 0000 0000 0000
00000070: cf95 0641 88cb 7040 04c6 a241 3c2a f840
00000080: 0000 0000 0000 0000 0000 0000 0000 0000
00000090: 0000 0000 0000 0000 6ef6 3738 f53d c440
000000a0: 0000 0000 db87 6341 9d49 e43c 2010 263f
000000b0: 4583 d040 d550 0041 e7c8 0a41 0000 0000
000000c0: b477 4241 9d05 833e 0000 0000 4982 0430
000000d0: 4bd8 ce31 0000 0000 0000 0000 0000 0000
000000e0: 0000 0000 0000 0000 30c2 b839 0000 0000
000000f0: 0000 0000 0000 0000 0000 0000 9f45 2e3a
00000100: 0000 0000 58d6 1d3a 2043 a53a 3e22 8739
00000110: 27c6 3839 be68 a739 0000 0000 388f 0331
00000120: d40b 242e 0000 0000 a679 f03a 3b34 af39
00000130: 50ae b937 6583 eb39 0000 0000 ac40 123a
00000140: 0000 0000 0000 0000 9fa2 6b33 7f9f ea32
00000150: 0000 0000 0395 ca39 0000 0000 0000 0000
00000160: 0000 0000 3ef0 b326 9810 1838 0000 0000
00000170: 0000 0000 0000 0000 da14 5431 0000 0000
00000180: b195 db39 0000 0000 0000 0000 3549 bf31
00000190: 0000 0000 0000 0000 9f00 933c 52c5 243c
000001a0: b919 9327 d73f 163c 4a67 b53c 93ba f33b
000001b0: 9578 b539 0000 0000 00b9 123c 0000 0000
000001c0: 0270 ec3a 0000 0000 73d7 b03c 0000 0000
000001d0: 0de5 d535 0000 0000 3624 ef29 0000 0000
000001e0: 18c2 af2a 083b d02f 0000 0000 2efe 9e3c
000001f0: 9097 493c 50ba 4f3c 0000 0000 58ee 2039
00000200: a0b6 133c 0000 0000 0000 0000 0000 0000
00000210: 0468 1936 34d9 242a 0000 0000 0091 4929
00000220: 0a3a 873c 2b61 273c 0000 0000 7e29 2335
00000230: 8500 5b3a 0ef8 d53c f470 e937 0000 0000
00000240: 0000 0000 c05c 203b 0000 0000 dc49 8738
00000250: 0000 0000 ea49 d238 6b5e 063b 7f77 4e33
00000260: 0000 0000 dfeb e13a 1eb4 c939 c2c4 1737
00000270: 0000 0000 0000 0000 0000 0000 2fd6 273a
00000280: a6eb 953a 4bac e238 0000 0000 245a e83a
00000290: 0000 0000 a4de be36 0000 0000 91b8 3f3a
000002a0: 0000 0000 0000 0000 0000 0000 cfde 0f3a
000002b0: 0000 0000 0000 0000 8d71 253b 2a25 6727
000002c0: 0000 0000 39e8 ad3a 046a 152a e701 f439
000002d0: 0000 0000 7c04 9539 0000 0000 57cf e33b
000002e0: d790 b726 99b9 8436 0000 0000 0000 0000
000002f0: f25f fa36 0000 0000 d91f b539 0000 0000
00000300: ebc0 083a 0000 0000 ee92 8626 0000 0000
00000310: 0000 0000 0000 0000 0000 0000 0000 0000
00000320: 841f 623b 0000 0000 0287 c437 0000 0000
00000330: d8e8 0d2e 0000 0000 1e74 5b35 0000 0000
00000340: 4945 dc2c 0000 0000 0000 0000 a4f4 273b
00000350: 0000 0000 d294 473c 0b7d 953c dc3c 8634
00000360: 0000 0000 0000 0000 f44a 9225 0000 0000
00000370: b4e5 a132 0000 0000 a49a 753c 674b e635
00000380: 0000 0000 0000 0000 836b c23a cf01 b33b
00000390: a816 fa3a 0000 0000 0000 0000 0000 0000
000003a0: b4f3 963b 2684 ef37 14bd 1f3c 4178 0f2e
000003b0: 066d 413b 0000 0000 1b7b 4733 9b72 763b
000003c0: e119 f139 b199 4b3b 6f65 fb3a b8ea b32d
000003d0: cf5d f83a f065 8639 3484 553a 81ba 2d3c
000003e0: 0000 0000 879e 9438 0000 0000 6071 1b3a
000003f0: 0000 0000 2395 2739 0000 0000 99c7 c43a

momentum_buffer f4 [313, 50]
0.0 -8.123719 0.0 0.0 0.0 -7.1178665 -1.4473906 8.046002
6.543131 0.0 0.0 -4.7207017 6.9845657 11.290128 0.0 0.0
0.0 0.0 -3.1277065 -4.4031615 5.2848773 0.0 0.0 0.0
4.7127905 0.0 0.0 0.0 8.912895 7.3400216 -6.6752687 -2.6897178
0.0 0.0 0.0 0.0 0.0 0.0 10.281563 -4.527156
0.0 -0.6576258 9.950217 7.31318 10.288755 5.7528453 7.421126 0.0
5.873735 4.272775 0.0 2.7817144 10.184865 0.0 0.0 0.0
0.0 0.0 22.148842 0.0 0.0 0.0 0.0 6.9477515
0.0 -13.100916 -6.133915 -3.9011457 -7.173187 19.908676 0.0 13.651634
5.3208566 0.0 -8.449089 -7.5947833 17.096037 -13.3592005 0.0 8.865283
0.0 0.0 6.7741785 6.1241207 0.0 -12.56777 0.0 0.0
0.0 3.1252286 4.7416334 0.0 0.0 0.0 7.925478 0.0
6.0016727 0.0 0.0 4.4120374 0.0 0.0 0.52034134 -0.5623366
3.3437266 -3.9015515 0.2612599 0.28560707 0.86249095 0.0 4.47941 0.0
-8.253181 0.0 -5.0716786 0.0 7.363792 0.0 3.5936108 0.0
7.016313 10.545507 0.0 -1.8536912 3.7034514 0.3128445 0.0 12.560066
-5.90497 0.0 0.0 0.0 9.064591 6.893898 0.0 3.6855507
-7.3854284 -9.457053 0.0 4.6330814 3.8741498 -8.191406 5.591802 0.0
0.0 8.123053 0.0 14.744735 0.0 7.921642 12.993999 7.7053676
0.0 -4.7027793 1.8939438 10.103612 0.0 0.0 0.0 -10.683107
10.787001 6.705993 0.0 -13.027088 0.0 11.922443 0.0 2.5759199
0.0 0.0 0.0 4.844004 0.0 0.0 -10.394133 5.92253
0.0 -7.2990413 6.7097855 -0.10557197 0.0 14.4644375 0.0 -6.111031
3.1297712 10.462613 0.0 0.0 13.878953 0.0 -4.292605 0.0
4.060489 0.0 3.0554006 0.0 0.0 0.0 0.0 0.0
10.743291 0.0 4.7018614 0.0 5.9280124 0.0 10.870225 0.0
5.385939 0.0 0.0 -6.2613587 0.0 5.177823 -6.7109995 4.7885237
0.0 0.0 2.652831 0.0 3.6295197 0.0 3.8820755 6.638236
0.0 0.0 4.1629786 -14.897306 12.085822 0.0 0.0 0.0
1.4561511 10.031218 -2.600069 7.721676 4.111437 0.0 6.291811 -14.27362
6.5856476 5.6232247 10.894649 6.077657 1.1224109 8.009619 8.667333 13.37916
0.0 5.359525 0.0 0.119770475 0.0 7.8835425 0.0 -13.467472
00000000: 0000 0000 c1fa 01c1 0000 0000 0000 0000
00000010: 0000 0000 90c5 e3c0 1844 b9bf 6dbc 0041
00000020: 5461 d140 0000 0000 0000 0000 fd0f 97c0
00000030: 9081 df40 5da4 3441 0000 0000 0000 0000
00000040: 0000 0000 0000 0000 582c 48c0 b3e6 8cc0
00000050: b71d a940 0000 0000 0000 0000 0000 0000
00000060: 2ecf 9640 0000 0000 0000 0000 0000 0000
00000070: 389b 0e41 75e1 ea40 cd9b d5c0 5624 2cc0
00000080: 0000 0000 0000 0000 0000 0000 0000 0000
00000090: 0000 0000 0000 0000 4881 2441 76de 90c0
000000a0: 0000 0000 2a5a 28bf 1734 1f41 9205 ea40
000000b0: be9e 2441 4f17 b840 dd79 ed40 0000 0000
000000c0: a3f5 bb40 93ba 8840 0000 0000 9c07 3240
000000d0: 35f5 2241 0000 0000 0000 0000 0000 0000
000000e0: 0000 0000 0000 0000 d430 b141 0000 0000
000000f0: 0000 0000 0000 0000 0000 0000 fb53 de40
00000100: 0000 0000 5a9d 51c1 0849 c4c0 5fac 79c0
00000110: bf8a e5c0 f844 9f41 0000 0000 186d 5a41
00000120: 7544 aa40 0000 0000 782f 07c1 7708 f3c0
00000130: afc4 8841 49bf 55c1 0000 0000 33d8 0d41
00000140: 0000 0000 0000 0000 12c6 d840 ccf8 c340
00000150: 0000 0000 9615 49c1 0000 0000 0000 0000
00000160: 0000 0000 bf03 4840 76bb 9740 0000 0000
00000170: 0000 0000 0000 0000 849d fd40 0000 0000
00000180: b40d c040 0000 0000 0000 0000 692f 8d40
00000190: 0000 0000 0000 0000 1735 053f 4bf5 0fbf
000001a0: 9eff 5540 05b3 79c0 dcc3 853e 173b 923e
000001b0: 35cc 5c3f 0000 0000 5457 8f40 0000 0000
000001c0: 080d 04c1 0000 0000 314b a2c0 0000 0000
000001d0: 2fa4 eb40 0000 0000 b8fd 6540 0000 0000
000001e0: a385 e040 66ba 2841 0000 0000 c145 edbf
000001f0: 5905 6d40 282d a03e 0000 0000 08f6 4841
00000200: 84f5 bcc0 0000 0000 0000 0000 0000 0000
00000210: 9108 1141 d09a dc40 0000 0000 10e0 6b40
00000220: 6e55 ecc0 1750 17c1 0000 0000 3442 9440
00000230: 12f2 7740 0010 03c1 0bf0 b240 0000 0000
00000240: 0000 0000 06f8 0141 0000 0000 6fea 6b41
00000250: 0000 0000 177e fd40 6be7 4f41 5f92 f640
00000260: 0000 0000 2b7d 96c0 c06c f23f 65a8 2141
00000270: 0000 0000 0000 0000 0000 0000 02ee 2ac1
00000280: 8e97 2c41 7f97 d640 0000 0000 f46e 50c1
00000290: 0000 0000 54c2 3e41 0000 0000 dfdb 2440
000002a0: 0000 0000 0000 0000 0000 0000 1502 9b40
000002b0: 0000 0000 0000 0000 5e4e 26c1 5e85 bd40
000002c0: 0000 0000 bf91 e9c0 90b6 d640 1e36 d8bd
000002d0: 0000 0000 566e 6741 0000 0000 918d c3c0
000002e0: 2c4e 4840 dd66 2741 0000 0000 0000 0000
000002f0: 3110 5e41 0000 0000 055d 89c0 0000 0000
00000300: 87ef 8140 0000 0000 af8b 4340 0000 0000
00000310: 0000 0000 0000 0000 0000 0000 0000 0000
00000320: 85e4 2b41 0000 0000 a675 9640 0000 0000
00000330: 47b2 bd40 0000 0000 71ec 2d41 0000 0000
00000340: 9d59 ac40 0000 0000 0000 0000 0d5d c8c0
00000350: 0000 0000 bab0 a540 82c0 d6c0 963b 9940
00000360: 0000 0000 0000 0000 fcc7 2940 0000 0000
00000370: 0d4a 6840 0000 0000 ed73 7840 6e6c d440
00000380: 0000 0000 0000 0000 1f37 8540 5e5b 6ec1
00000390: 875f 4141 0000 0000 0000 0000 0000 0000
000003a0: 2963 ba3f de7f 2041 8867 26c0 f817 f740
000003b0: e490 8340 0000 0000 8456 c940 bf60 64c1
000003c0: a0bd d240 75f1 b340 7b50 2e41 2b7c c240
000003d0: 29ab 8f3f 6627 0041 65ad 0a41 0a11 5641
000003e0: 0000 0000 3b81 ab40 0000 0000 394a f53d
000003f0: 0000 0000 fb45 fc40 0000 0000 c47a 57c1

square_avg f4 [50, 50]
0.000671263 0.007024561 0.00080562296 0.0011655135 0.022977116 0.008088945 0.0237569 0.033898663
0.0008065347 0.033465073 0.031916913 0.21372615 0.079707116 0.09084857 0.0021053017 0.008646617
0.0013517323 0.00040877544 0.07351938 0.036493234 0.11817123 0.0003038774 0.0063620685 0.00090690155
0.0006363918 0.0025750678 0.00040850494 0.0043219747 2.8658376 0.025002928 0.0681166 0.03571959
0.0041751 0.003312841 0.0041018343 8.187739e-05 0.0109135825 0.0032797216 0.0055152895 1.3583953
0.0008860973 0.11689673 0.0017667159 0.012750289 0.18418337 0.5202183 0.085482195 0.0024702535
0.037661377 0.0077923373 0.006302372 0.014735921 0.0010882594 0.008018425 0.0013056288 0.02271844
0.0042627095 0.09979244 0.007881301 0.025966052 0.012647368 0.03448373 0.0035150184 0.008634827
0.009322891 0.0013383135 0.0026653674 0.0031733774 0.01874292 0.028412636 0.011982662 0.0047605243
0.0066569257 0.002152369 0.0031212394 0.010446996 0.009209826 0.0056435103 0.63448775 0.0008615195
0.009807427 0.0061561475 0.0021499644 0.000647985 0.0010298566 0.003440334 0.0061048614 0.0045325896
0.01699589 0.2910059 0.0014865603 0.010583264 0.0044935793 0.009431798 0.052360807 0.48384643
0.027670542 0.001144652 0.15917262 0.0022861802 0.8087939 1.2587409 0.11867119 0.79344857
0.13272212 0.2627356 0.98617196 0.33752134 0.9667026 0.7935484 0.059463575 7.1275063
3.2981312 1.2526175 0.162886 0.2599133 0.3712466 0.15538798 3.662953 1.7239529
2.458735 0.21136299 0.21948202 0.53367776 0.07303822 3.779474 0.096583076 0.2579891
0.31704178 0.43427858 3.9256554 2.544219 0.018054731 0.034186263 0.04451335 0.1497024
0.11034914 0.09648806 1.8908589 2.5599918 0.1758445 4.3616085 0.78731567 1.1909019
2.709772 0.74562204 3.915113 0.1081687 0.22153746 0.056526385 1.1019805e-09 8.553385e-12
4.200237e-10 7.101096e-10 4.8874394e-11 7.4147105e-10 2.1401525e-09 1.1908328e-08 5.869276e-09 1.2306495e-09
2.756691e-11 3.3197337e-11 1.0609033e-08 3.451482e-08 5.4959853e-10 9.34819e-09 3.840319e-11 3.3564325e-09
1.3439131e-09 4.8546176e-09 4.840677e-09 8.964941e-11 9.881523e-10 2.4383826e-10 1.1290786e-09 1.15237986e-10
8.5063484e-10 2.9983703e-11 1.3256984e-09 2.321017e-11 1.2759824e-10 5.8210975e-10 1.4174727e-08 2.2174164e-11
1.9906174e-08 1.3783623e-09 9.1267036e-11 1.3627632e-09 3.5576048e-10 3.3044505e-09 3.3744854e-09 9.350112e-09
3.3171041e-09 1.0482996e-09 2.9535117e-08 1.6585171e-09 4.2592037e-09 4.9593325e-09 8.1948354e-10 1.7092662e-08
1.0306668 0.03548544 0.060297824 0.047568493 0.02128988 0.0025906498 0.003470318 0.018744212
0.008987227 0.8128136 0.005118618 0.05306761 0.0027237595 0.08427923 0.051620938 0.28110716
0.07965146 0.08400702 0.3843158 0.16194516 0.011011093 0.008619005 0.01312941 0.555492
0.039764676 0.0073131067 0.0058706105 0.050644808 0.00092196127 0.007566819 0.015971545 0.013761041
0.004199403 0.00228742 0.012507778 0.02920466 0.0041022343 0.059798297 0.088398725 0.0711373
0.031546466 0.07325209 0.026254108 0.5125678 0.0019935458 0.02354569 0.014455866 0.012435337
0.0035975366 0.0051855245 0.10276155 5.0951 0.01443798 0.46319222 0.72804624 1.5338297
00000000: b3f7 2f3a 4a2e e63b 7130 533a 25c4 983a
00000010: 813a bc3c 7f87 043c d59d c23c 53d9 0a3d
00000020: a16d 533a ac12 093d 4fbb 023d 07db 5a3e
00000030: 7c3d a33d d10e ba3d 1af9 093b 8aaa 0d3c
00000040: 9c2c b13a e950 d639 5491 963d ee79 153d
00000050: c203 f23d bc51 9f39 e678 d03b 22bd 6d3a
00000060: 88d3 263a 78c2 283b 9b2c d639 5a9f 8d3b
00000070: e269 3740 f1d2 cc3c b780 8b3d b44e 123d
00000080: 47cf 883b 401c 593b ae68 863b 97b5 ab38
00000090: e2ce 323c 99f0 563b 9ab9 b43b e6df ad3f
000000a0: fc48 683a 8e67 ef3d 2691 e73a 97e6 503c
000000b0: 919a 3c3e 072d 053f 4a11 af3d fae3 213b
000000c0: d142 1a3d dd56 ff3b 2184 ce3b ef6e 713c
000000d0: eda3 8e3a b65f 033c a221 ab3a 061c ba3c
000000e0: 33ae 8b3b fb5f cc3d 9320 013c c2b6 d43c
000000f0: e836 4f3c d03e 0d3d 395c 663b 1779 0d3c
00000100: 0abf 183c 596a af3a 72ad 2e3b 70f8 4f3b
00000110: c18a 993c 9ec1 e83c ed52 443c 2cfe 9b3b
00000120: 5722 da3b c20e 0d3b b58d 4c3b e129 2b3c
00000130: cfe4 163c 32ed b83b ca6d 223f 98d7 613a
00000140: 55af 203c 82b9 c93b 6be6 0c3b 8add 293a
00000150: 41fc 863a 3a77 613b 4a0b c83b 1e86 943b
00000160: f73a 8b3c bafe 943e b0d8 c23a 6d65 2d3c
00000170: e03e 933b d487 1a3c 4978 563d b8ba f73e
00000180: 55ad e23c 2608 963a 26fe 223e bdd3 153b
00000190: 1e0d 4f3f 6c1e a13f e209 f33d 721f 4b3f
000001a0: 4fe8 073e 4885 863e c475 7c3f 99cf ac3e
000001b0: d279 773f fd25 4b3f 1490 733d 8814 e440
000001c0: 9514 5340 c555 a03f 96cb 263e 5b13 853e
000001d0: 0914 be3e 071e 1f3e d26d 6a40 7daa dc3f
000001e0: ea5b 1d40 8a6f 583e e5bf 603e 1b9f 083f
000001f0: 1095 953d e7e2 7140 59cd c53d 2617 843e
00000200: 4d53 a23e c359 de3e f03d 7b40 7cd4 2240
00000210: 84e7 933c e506 0c3d a153 363d 964b 193e
00000220: bbfe e13d 889b c53d aa07 f23f e8d6 2340
00000230: 9510 343e 4c92 8b40 858d 493f 796f 983f
00000240: e86c 2d40 16e1 3e3f 3691 7a40 8d87 dd3d
00000250: b7da 623e 3688 673d 7e74 9730 0679 162d
00000260: 15e9 e62f 8531 4330 adf3 562e 63d0 4b30
00000270: f611 1331 6195 4c32 b3aa c931 a123 a930
00000280: 2a7b f22d e100 122e 0543 3632 723d 1433
00000290: 8f12 1730 c699 2032 26e6 282e fca6 6631
000002a0: bdb4 b830 abcd a631 0c53 a631 2224 c52e
000002b0: 85cf 8730 2f0d 862f ec2d 9b30 3869 fd2e
000002c0: 1bd2 6930 a6de 032e de33 b630 a828 cc2d
000002d0: b64b 0c2f 5502 2030 1c85 7332 c70b c32d
000002e0: 24fe aa32 d070 bd30 c6b2 c82e f84b bb30
000002f0: d694 c32f 8214 6331 93e4 6731 3aa2 2032
00000300: 1df3 6331 c313 9030 69b4 fd32 e2f1 e330
00000310: 5a58 9231 c066 aa31 0742 6130 29d3 9232
00000320: e4ec 833f 2e59 113d dafa 763d 2ed7 423d
00000330: 1d68 ae3c e4c7 293b 466e 633b 768d 993c
00000340: 2a3f 133c 8d14 503f 14ba a73b 6c5d 593d
00000350: 1a81 323b 979a ac3d 7a70 533d 47ed 8f3e
00000360: 4e20 a33d df0b ac3d 0ac5 c43e f4d4 253e
00000370: df67 343c ba36 0d3c bd1c 573c b934 0e3f
00000380: 49e0 223d c9a2 ef3b 405e c03b ee70 4f3d
00000390: c6af 713a 14f3 f73b c2d6 823c fd75 613c
000003a0: 259b 893b 8ae8 153b 6ced 4c3c 9c3e ef3c
000003b0: 096c 863b 0fef 743d 640a b53d 6fb0 913d
000003c0: de36 013d 3105 963d db12 d73c a537 033f
000003d0: 26a6 023b e4e2 c03c 4cd8 6c3c 95bd 4b3c
000003e0: a6c4 6b3b 55eb a93b a674 d23d 0f0b a340
000003f0: 478d 6c3c 8827 ed3e 3d61 3a3f 8854 c43f
