Multistate Intensity Models/SDDR_outputs/best_estimator_nn_event_23.pth (torch, 349125 bytes, 222 tensors)

square_avg f4 [3, 1]
0	0x36761edb	3.6674817e-06
1	0x3693ea88	4.4082444e-06
2	0x00000000	0.0

momentum_buffer f4 [3, 1]
0	0xbdf32b00	-0.11873436
1	0xbdfbe4e0	-0.12299514
2	0x00000000	0.0

square_avg f4 [3]
0	0x337e57ef	5.921896e-08
1	0x339927ae	7.1318354e-08
2	0x00000000	0.0

momentum_buffer f4 [3]
0	0x3f8c3d2c	1.0956168
1	0x3f87bdb2	1.0604765
2	0x00000000	0.0

square_avg f4 [3, 3]
0	0x2e50e93e	4.7500885e-11
1	0x2c946317	4.217414e-12
2	0x00000000	0.0
3	0x3751c6fa	1.2503699e-05
4	0x361500b3	2.2203137e-06
5	0x00000000	0.0
6	0x30577077	7.8376367e-10
7	0x2e7eeedc	5.7965063e-11
8	0x00000000	0.0

momentum_buffer f4 [3, 3]
0	0x3929955d	0.00016172738
1	0x392940a1	0.00016141172
2	0x00000000	0.0
3	0xbec917a0	-0.39275837
4	0xbd723700	-0.059134483
5	0x00000000	0.0
6	0x38e786cd	0.00011040047
7	0x390bd741	0.00013336261
8	0x00000000	0.0

square_avg f4 [3]
0	0x289dae2d	1.7506038e-14
1	0x34c0e92c	3.5932442e-07
2	0x2d4f3d70	1.178023e-11

momentum_buffer f4 [3]
0	0xb922af73	-0.00015514884
1	0x3f60fb33	0.878833
2	0x39161e27	0.00014316347

square_avg f4 [3, 3]
0	0x2952735b	4.6729422e-14
1	0x3893f8a4	7.055819e-05
2	0x2faa52e3	3.0981714e-10
3	0x00000000	0.0
4	0x00000000	0.0
5	0x00000000	0.0
6	0x00000000	0.0
7	0x3564ad1a	8.5188515e-07
8	0x2c9f86b1	4.5340055e-12

momentum_buffer f4 [3, 3]
0	0x39255879	0.00015768585
1	0xbf04ddbc	-0.5190084
2	0x36cb2bfb	6.0549914e-06
3	0x00000000	0.0
4	0x00000000	0.0
5	0x00000000	0.0
6	0x00000000	0.0
7	0xbda4c360	-0.08045077
8	0x39a57a04	0.0003156216

square_avg f4 [3]
0	0x35891ef6	1.0216306e-06
1	0x00000000	0.0
2	0x35299f50	6.3189236e-07

momentum_buffer f4 [3]
0	0xbfde03e5	-1.7344939
1	0x00000000	0.0
2	0xbfafc175	-1.3730913

square_avg f4 [3, 3]
0	0x3520a32b	5.9842085e-07
1	0x00000000	0.0
2	0x304e0a55	7.4957046e-10
3	0x35296d77	6.31167e-07
4	0x00000000	0.0
5	0x30af5fee	1.2760191e-09
6	0x37d7ddfc	2.5733367e-05
7	0x00000000	0.0
8	0x30cd0e21	1.4919729e-09

momentum_buffer f4 [3, 3]
0	0xbe026f5f	-0.12737797
1	0x00000000	0.0
2	0xc0cc9427	-6.393085
3	0x40e99d07	7.3004184
4	0x00000000	0.0
5	0x408fd42e	4.494651
6	0xc0453621	-3.0814288
7	0x00000000	0.0
8	0xbedbb9a4	-0.4291507

square_avg f4 [3]
0	0x33531eec	4.915539e-08
1	0x358eb82c	1.0633426e-06
2	0x3636ac90	2.7220558e-06

momentum_buffer f4 [3]
0	0xbad4b5ae	-0.0016228461
1	0x3f80c696	1.0060604
2	0xc09001be	-4.5002127

square_avg f4 [14, 12]
0	0x3a04a3dd	0.0005059818
1	0x38eab4f2	0.00011191693
2	0x37b466b2	2.1505493e-05
3	0x39860c36	0.0002556757
4	0x38afd1e9	8.383749e-05
5	0x38f93ae2	0.00011884213
6	0x38e6bbb0	0.00011002214
7	0x399b96f9	0.00029676387
8	0x35a6c2f9	1.2424708e-06
9	0x38b70475	8.72695e-05
10	0x36a2fb20	4.857211e-06
11	0x33a69a43	7.7580374e-08
12	0x39dc596e	0.000420283
13	0x3916e7f1	0.0001439152
14	0x38971b36	7.2053095e-05
15	0x38f7d72f	0.00011817959
16	0x38ca13e6	9.635817e-05
17	0x38eb4d01	0.00011220016
18	0x38c3efba	9.342977e-05
19	0x38932f3c	7.018304e-05
20	0x3797b863	1.8086464e-05
21	0x37c79d9f	2.3796047e-05
22	0x36d96867	6.479258e-06
23	0x3571dfa7	9.0104953e-07
24	0x37d52d8f	2.5412794e-05
25	0x384c8938	4.8765185e-05
26	0x35f46c37	1.8210911e-06
27	0x382ac5df	4.071544e-05
28	0x383bdd39	4.4790304e-05
29	0x37b91e08	2.2067703e-05
30	0x38348618	4.304023e-05
31	0x37e75730	2.7577946e-05
32	0x37225105	9.674816e-06
33	0x372b2925	1.0201974e-05
34	0x3380efe2	6.004099e-08
35	0x34a4323f	3.058394e-07
36	0x38d5b2b0	0.000101899146
37	0x38b0c479	8.42893e-05
38	0x37ad378f	2.0649079e-05
39	0x3812a7a6	3.4965247e-05
40	0x38e15632	0.00010744891
41	0x38091c80	3.2689888e-05
42	0x38591d28	5.1763986e-05
43	0x38a029b3	7.6371616e-05
44	0x372b2ea5	1.02032545e-05
45	0x37f3aca3	2.9048248e-05
46	0x354f274d	7.71707e-07
47	0x34cb15c1	3.7827525e-07
48	0x390d50fe	0.0001347698
49	0x38cbbfc4	9.7155134e-05
50	0x38070f70	3.2200885e-05
51	0x381ae53f	3.6929963e-05
52	0x38ab445e	8.16665e-05
53	0x38adf9c3	8.2958046e-05
54	0x389380ae	7.033475e-05
55	0x38ccfb02	9.774232e-05
56	0x37e374e2	2.7114937e-05
57	0x39028749	0.00012448164
58	0x369ada24	4.6149526e-06
59	0x33e74c24	1.07706256e-07
60	0x39a46660	0.00031356793
61	0x3968c09c	0.00022196997
62	0x3977ad33	0.00023620277
63	0x38140e39	3.5299196e-05
64	0x39524c74	0.00020055642
65	0x391cd155	0.00014955302
66	0x38c9950a	9.6121876e-05
67	0x38db0200	0.00010443106
68	0x35d01c8a	1.5505514e-06
69	0x38d683bb	0.00010228852
70	0x371903ba	9.120378e-06
71	0x3558ded7	8.0790545e-07
72	0x398047f9	0.00024467686
73	0x388c1227	6.679101e-05
74	0x36969aa0	4.488349e-06
75	0x38d8b25c	0.00010332905
76	0x39762d69	0.00023477305
77	0x38a06099	7.647387e-05
78	0x388f78e5	6.84129e-05
79	0x388a8f97	6.6070985e-05
80	0x34c23443	3.617334e-07
81	0x382675c7	3.9687173e-05
82	0x2c5d2f43	3.1432224e-12
83	0x31431456	2.8387794e-09
84	0x38f04d3c	0.00011458478
85	0x38848e63	6.320772e-05
86	0x38968e36	7.179046e-05
87	0x3817d70e	3.620149e-05
88	0x39073ba3	0.0001289682
89	0x391f1216	0.00015170159
90	0x387edfe8	6.0766848e-05
91	0x389186a8	6.9392205e-05
92	0x37eb6c4f	2.8064618e-05
93	0x385f37eb	5.321942e-05
94	0x36a16a37	4.810539e-06
95	0x339c2b67	7.272211e-08
96	0x38b9317e	8.830706e-05
97	0x39829d4a	0.00024912722
98	0x3911b5d1	0.0001389601
99	0x3838ea59	4.408727e-05
100	0x38dff365	0.000106788044
101	0x392b419f	0.00016332277
102	0x388971ac	6.553842e-05
103	0x387a11fe	5.96214e-05
104	0x378166c8	1.542586e-05
105	0x38539a36	5.044994e-05
106	0x36f8b8cb	7.4124887e-06
107	0x35d5b6d7	1.592295e-06
108	0x3a1d6ac4	0.0006004984
109	0x38b62df1	8.6869935e-05
110	0x37ace948	2.0612628e-05
111	0x39284ec8	0.00016051077
112	0x3866c6bf	5.502137e-05
113	0x388f6d01	6.839075e-05
114	0x3860ea4c	5.3623968e-05
115	0x3946403f	0.00018906685
116	0x372484d5	9.806089e-06
117	0x38d58d2f	0.00010182929
118	0x360dd835	2.1136486e-06
119	0x3024a504	5.9897354e-10
120	0x3924d571	0.00015719772
121	0x3976261d	0.00023474586
122	0x397e4863	0.00024250294
123	0x38ee8d0d	0.00011374997
124	0x39c6ce0b	0.00037919017
125	0x398668a3	0.00025636432
126	0x389abd23	7.378522e-05
127	0x391414a5	0.0001412207
128	0x37d6b2c4	2.5594032e-05
129	0x38d54b51	0.0001017066
130	0x373522ec	1.0796572e-05
131	0x36b276fc	5.318665e-06
132	0x39a44ac5	0.00031336225
133	0x38f86be3	0.00011845657
134	0x374d940b	1.2253421e-05
135	0x390fbbe5	0.00013707539
136	0x396022c8	0.00021375262
137	0x384a09e7	4.8169775e-05
138	0x384ecd55	4.9305458e-05
139	0x38375aa5	4.371502e-05
140	0x386cbee9	5.6444584e-05
141	0x3911d72d	0.00013908437
142	0x36412461	2.8780416e-06
143	0x31e48241	6.6504815e-09
144	0x3920b1f0	0.00015325076
145	0x38c71147	9.4922776e-05
146	0x36f3e43d	7.268535e-06
147	0x38bd9689	9.040262e-05
148	0x383edca6	4.5505025e-05
149	0x3884db8a	6.335143e-05
150	0x38a6110f	7.918674e-05
151	0x38b0bb13	8.427179e-05
152	0x37a0d571	1.9172878e-05
153	0x38096faf	3.276736e-05
154	0x35350dcc	6.744783e-07
155	0x35f0279a	1.7892919e-06
156	0x395847b8	0.00020626083
157	0x39bfbb4b	0.00036569903
158	0x37295be0	1.0094576e-05
159	0x390fbe6f	0.00013708485
160	0x389604d5	7.1534574e-05
161	0x3907e853	0.00012961151
162	0x38a4563c	7.836192e-05
163	0x39ee30d9	0.00045431292
164	0x38617a84	5.3758282e-05
165	0x38bb9f07	8.946476e-05
166	0x32fc66e8	2.9383457e-08
167	0x341b5ee3	1.447002e-07

momentum_buffer f4 [14, 12]
0	0x3e2ffcc0	0.1718626
1	0x3fd0477d	1.6271816
2	0xbf2e48f2	-0.68080056
3	0x3db767c0	0.089553356
4	0x3d4042f2	0.046938844
5	0xbf3e8475	-0.74420863
6	0x3dfacf08	0.12246519
7	0x3fbb1f09	1.4618846
8	0x3f87f5ce	1.0621889
9	0x3fa37efc	1.2773128
10	0x3f854096	1.0410335
11	0xbdbcf120	-0.092256784
12	0xbda5a708	-0.08088499
13	0xbfa61251	-1.297434
14	0x3ffcb7a6	1.9743545
15	0x3f0f9521	0.5608693
16	0xbf766a90	-0.9625635
17	0xbe268230	-0.162606
18	0x3e78ab28	0.24284041
19	0x3f30b31c	0.690233
20	0xbef8937c	-0.48550022
21	0xbf7fa8bc	-0.99866843
22	0xbf9d2c8e	-1.2279222
23	0x3f06cb6b	0.5265414
24	0xc01bb4a6	-2.432901
25	0xbf3bd7a0	-0.7337589
26	0x3f967b02	1.1756289
27	0x3f830aec	1.0237708
28	0xbeb7364c	-0.35783613
29	0x4029f048	2.6552906
30	0xbf8726ce	-1.0558717
31	0xc0096918	-2.1470394
32	0x3ea3760e	0.31926006
33	0xbf8c5f82	-1.0966647
34	0x3ed62c92	0.4183088
35	0x3fb02dab	1.3763937
36	0xbe10dc58	-0.14146554
37	0x3f490bff	0.7853393
38	0x3fbfce82	1.4984896
39	0xc00e0bd5	-2.2194722
40	0xbef06273	-0.4695011
41	0xbfabfecd	-1.3437134
42	0x4015fe7c	2.3436575
43	0xbf483e32	-0.782199
44	0xc059f26f	-3.405422
45	0xc03bb11d	-2.9326851
46	0xc0a4ba8c	-5.147772
47	0xc09b7656	-4.8581953
48	0x3fc91745	1.5710226
49	0x3f3586d9	0.70908886
50	0xbf0d7c90	-0.5526819
51	0x3f606b7b	0.87664
52	0xc00f7bb6	-2.2419257
53	0x3ff14608	1.8849497
54	0xc0c69292	-6.205392
55	0xbfd77be9	-1.6834689
56	0xbea5712a	-0.323129
57	0xbf76eda9	-0.9645639
58	0x3f55383e	0.83288944
59	0xbf271dfa	-0.65280116
60	0x3ff382a7	1.9024247
61	0x3fc6a1a8	1.5518084
62	0xc01e9067	-2.4775636
63	0x3fd97ca9	1.6991168
64	0x402541b2	2.5821347
65	0xbe921fd0	-0.28539896
66	0xbf383173	-0.71950454
67	0x3f8c628f	1.0967578
68	0xbf7072f5	-0.9392541
69	0x3fb72732	1.4308836
70	0x40b9f69a	5.8113527
71	0xbf566dc2	-0.8376123
72	0xc001a006	-2.025392
73	0x3f8a0602	1.0783083
74	0x3fae4748	1.3615503
75	0x40216075	2.5215123
76	0x40a0a2dd	5.019881
77	0xbf893a62	-1.0720942
78	0x3fcf6772	1.6203444
79	0x3d72a690	0.059240878
80	0xbffb9bb2	-1.965689
81	0x3eb153d4	0.34634268
82	0xb93a6522	-0.00017776017
83	0x40074309	2.1134665
84	0xbfbb05a3	-1.4611095
85	0x3fff941a	1.9967072
86	0xbf9661b8	-1.1748571
87	0x4061cc40	3.5280914
88	0x3fa2c8c0	1.2717514
89	0xbf648c80	-0.89276886
90	0x4052ad3a	3.291823
91	0x3f177526	0.5916313
92	0x405903e2	3.390862
93	0x40084501	2.1292117
94	0x3ff1ee02	1.8900759
95	0x3e35eb44	0.17765528
96	0xc0128ec9	-2.289965
97	0x3ec96898	0.3933761
98	0x3fff3e30	1.9940853
99	0xc0a439ed	-5.132071
100	0xbce243e0	-0.027620256
101	0x3f71cde9	0.9445482
102	0xbe3f6938	-0.18692482
103	0xbd4fea40	-0.050760508
104	0x4014de7d	2.3260796
105	0xbfd27807	-1.644288
106	0xbf27d0ee	-0.65553176
107	0xc00a6c38	-2.1628551
108	0xbefb87c8	-0.4912703
109	0xbfb2dd34	-1.3973756
110	0x3fa1bffd	1.2636715
111	0xbe89fd28	-0.26950955
112	0xbfb1f658	-1.3903303
113	0x3fa70e94	1.3051324
114	0xbf175974	-0.5912087
115	0x3f19b5f8	0.6004329
116	0x3de3cda0	0.11123204
117	0xbf11f0e4	-0.57008195
118	0x40fd6589	7.9186444
119	0xbf042805	-0.51623565
120	0xbf9e5ee9	-1.2372714
121	0xbfb33249	-1.3999721
122	0xbfe2f965	-1.7732359
123	0xbe536eb0	-0.20647693
124	0x3f6b108e	0.91822135
125	0x3f51f271	0.8201056
126	0xbff04e1a	-1.8773835
127	0x40007f09	2.0077536
128	0xbf49d6c3	-0.78843325
129	0x3fba837e	1.4571378
130	0x403e5949	2.9741995
131	0x3fabc367	1.3419007
132	0xbf3e7877	-0.74402565
133	0x40139a89	2.306307
134	0xbdf17520	-0.11789918
135	0x3f576856	0.8414358
136	0xbf921a3c	-1.1414256
137	0xbf53f825	-0.82800514
138	0x3f2a679a	0.66564333
139	0x3e404ba0	0.18778849
140	0x3f10b545	0.56526595
141	0xbe9f8af4	-0.311607
142	0xc085768e	-4.170722
143	0xbfa54aca	-1.2913449
144	0x3f6e1e26	0.9301475
145	0xc019babc	-2.4020224
146	0xc00b5ab7	-2.1774118
147	0xbf7fcc03	-0.9992067
148	0xbf84d77e	-1.0378263
149	0x40461c8f	3.095493
150	0xc01ca7fd	-2.4477532
151	0xbfd8ddeb	-1.6942724
152	0x3dd1e040	0.102478504
153	0x404f812c	3.242259
154	0x3e280370	0.16407561
155	0xc0853b4d	-4.163489
156	0x3f928522	1.1446879
157	0xbd345753	-0.04402859
158	0x3f633af7	0.8876185
159	0xbf71b744	-0.94420266
160	0x40070593	2.1097152
161	0x3fa47bae	1.2850244
162	0xbfc91a7a	-1.5711205
163	0x3f0785c7	0.52938503
164	0xbff817b4	-1.9382234
165	0xbfa4fb4a	-1.2889187
166	0xc0c996e6	-6.29967
167	0x411d4abb	9.830745

square_avg f4 [14]
0	0x399c8383	0.00029852623
1	0x3907a0ee	0.00012934554
2	0x388bb78f	6.662227e-05
3	0x39bc412b	0.00035906708
4	0x39ac5fdb	0.00032877814
5	0x39fd4cf6	0.0004831326
6	0x393d334e	0.00018043557
7	0x39199069	0.00014645014
8	0x39825e67	0.00024865867
9	0x398f672d	0.00027351957
10	0x3a13361e	0.0005615669
11	0x3a00f327	0.0004919045
12	0x38e08bc5	0.000107071864
13	0x39c9a52c	0.0003846077

momentum_buffer f4 [14]
0	0xbeeaf490	-0.4588971
1	0xbfa79d89	-1.3094951
2	0xbf376057	-0.7163138
3	0xbf9be27c	-1.2178493
4	0x3f2ab1c4	0.666775
5	0x400c145e	2.188743
6	0xbfae5bc2	-1.3621752
7	0x3f1a0103	0.60157794
8	0xbef2eed0	-0.47447824
9	0x3e3286a0	0.17434168
10	0x3f744c06	0.954285
11	0x3f7810ca	0.9690062
12	0x3ec41b3f	0.38302037
13	0xbf69b8ee	-0.91297805

square_avg f4 [14, 14]
0	0x38d74f0c	0.000102667225
1	0x392bba0e	0.00016377142
2	0x3825eef8	3.9561623e-05
3	0x3997ef2e	0.00028979167
4	0x377f817d	1.5229333e-05
5	0x379c24e6	1.8613831e-05
6	0x380b8521	3.326417e-05
7	0x369238ec	4.3577656e-06
8	0x390d3e90	0.00013470114
9	0x38a72607	7.970264e-05
10	0x38f8fb20	0.00011872337
11	0x37f654cb	2.936497e-05
12	0x392716cc	0.00015934854
13	0x360962d6	2.047212e-06
14	0x3810432f	3.4394845e-05
15	0x385dec7a	5.2910742e-05
16	0x3746b602	1.1844097e-05
17	0x388bacf1	6.660249e-05
18	0x38357b88	4.326881e-05
19	0x37ca0933	2.408456e-05
20	0x375519b8	1.2701777e-05
21	0x371b3a36	9.252273e-06
22	0x38657ef0	5.4716074e-05
23	0x3805b339	3.1876585e-05
24	0x37db2858	2.6125621e-05
25	0x37154053	8.896069e-06
26	0x3849dc2a	4.8127178e-05
27	0x35f1a7e8	1.8004766e-06
28	0x36372749	2.7291992e-06
29	0x389ef0ab	7.578855e-05
30	0x389410c2	7.060311e-05
31	0x39389efb	0.00017606832
32	0x391fca2b	0.00015238735
33	0x37a8e6cd	2.0134636e-05
34	0x35fdbb04	1.8904398e-06
35	0x3703cea4	7.856321e-06
36	0x38e8b950	0.00011097139
37	0x369afb72	4.6188297e-06
38	0x37f2be48	2.8937255e-05
39	0x378ea03b	1.7002332e-05
40	0x382265f6	3.871877e-05
41	0x36de2941	6.620918e-06
42	0x39134a99	0.00014046802
43	0x38a6c363	7.9518904e-05
44	0x34bb4ae9	3.488597e-07
45	0x376e338c	1.4197907e-05
46	0x37ffa8cd	3.0476973e-05
47	0x384c834d	4.8759674e-05
48	0x38434419	4.6555044e-05
49	0x37b76735	2.186336e-05
50	0x38233f1a	3.8920996e-05
51	0x3942b77f	0.0001856964
52	0x36c77f09	5.945451e-06
53	0x39181526	0.00014503728
54	0x3a60cf52	0.0008575815
55	0x3656b474	3.1993522e-06
56	0x3a7106ec	0.0009194452
57	0x382e5b65	4.156995e-05
58	0x36e3d2c3	6.789663e-06
59	0x378d041d	1.6810425e-05
60	0x392114ed	0.00015361952
61	0x3819968a	3.6618243e-05
62	0x39e54990	0.00043733092
63	0x37d44bc1	2.5307645e-05
64	0x36808b0f	3.830886e-06
65	0x3a2f75ef	0.00066932937
66	0x372a8bfb	1.0165381e-05
67	0x3981d4ba	0.0002476329
68	0x3b01f871	0.001983192
69	0x372ff4f6	1.0487847e-05
70	0x38147a48	3.5399833e-05
71	0x3822f596	3.885253e-05
72	0x366ab3a4	3.4973282e-06
73	0x38bfba4e	9.142292e-05
74	0x38087f51	3.25435e-05
75	0x383682bf	4.351395e-05
76	0x36500055	3.0994609e-06
77	0x3755dc8d	1.274714e-05
78	0x38b8b12f	8.806807e-05
79	0x376d45d3	1.4142558e-05
80	0x39109d38	0.00013791479
81	0x37975354	1.8039405e-05
82	0x378416cc	1.5746242e-05
83	0x353beae0	7.0004717e-07
84	0x378423b0	1.5752245e-05
85	0x39dc75fd	0.00042049578
86	0x388a2aa7	6.5882974e-05
87	0x399a8c76	0.0002947782
88	0x395da6a8	0.00021138287
89	0x3828db44	4.025853e-05
90	0x3706c10c	8.03197e-06
91	0x37e0ac41	2.6783093e-05
92	0x3958d24c	0.00020677707
93	0x3833d4cd	4.2875112e-05
94	0x38729bb8	5.784232e-05
95	0x388cd1a8	6.714772e-05
96	0x3981fb86	0.00024792197
97	0x37837342	1.5670088e-05
98	0x3810eaef	3.4551074e-05
99	0x3788018d	1.6213186e-05
100	0x3718c428	9.105577e-06
101	0x3747372a	1.1874168e-05
102	0x3803dad0	3.143662e-05
103	0x375ad658	1.3043718e-05
104	0x3738190a	1.09730845e-05
105	0x3676a7c5	3.6754511e-06
106	0x37470036	1.1861373e-05
107	0x37ff0e2a	3.0404964e-05
108	0x371e1839	9.423174e-06
109	0x37a56ae9	1.9719317e-05
110	0x38c2db1c	9.291453e-05
111	0x36df3ff0	6.653361e-06
112	0x3a04091e	0.0005036759
113	0x39390375	0.00017644263
114	0x38695cfd	5.563813e-05
115	0x391db97a	0.00015041782
116	0x3866027b	5.4838583e-05
117	0x375c0001	1.3113023e-05
118	0x3958f189	0.00020689344
119	0x3523a0fa	6.0956484e-07
120	0x36db76d9	6.5405443e-06
121	0x39e1e49f	0.0004308568
122	0x38b88c5e	8.799949e-05
123	0x3905749c	0.00012727309
124	0x3a92a2b5	0.0011187406
125	0x36eba0c0	7.0222595e-06
126	0x3186791c	3.913682e-09
127	0x39c7ccb4	0.00038108754
128	0x3a2dbd13	0.00066276005
129	0x3a82d6f4	0.0009982274
130	0x3ac1d1ef	0.0014787297
131	0x350fe4f4	5.360482e-07
132	0x36176362	2.2558602e-06
133	0x3623022b	2.4290155e-06
134	0x39fc3da5	0.00048111114
135	0x348cd55f	2.623228e-07
136	0x3766aa7e	1.3748764e-05
137	0x32d8265f	2.5163159e-08
138	0x340522f5	1.2399308e-07
139	0x38453ed0	4.702696e-05
140	0x3880bf73	6.139176e-05
141	0x39c6a866	0.0003789097
142	0x39bca9be	0.00035984622
143	0x3a8ed3f3	0.0010896906
144	0x39f14fdc	0.00046026602
145	0x37ea4c9b	2.7930646e-05
146	0x38274a9a	3.988538e-05
147	0x378077a2	1.5314497e-05
148	0x39cb9d4c	0.00038836373
149	0x380213a6	3.1012714e-05
150	0x38d3c655	0.00010098206
151	0x34ca9d6b	3.773997e-07
152	0x35f497d6	1.8223607e-06
153	0x3788e12f	1.6317323e-05
154	0x39a756c4	0.00031917368
155	0x3802716d	3.110005e-05
156	0x36d1e891	6.2557597e-06
157	0x37a2db01	1.9413887e-05
158	0x37ee3630	2.8397044e-05
159	0x377d104e	1.5083771e-05
160	0x38e625fb	0.00010974329
161	0x35a0532d	1.1945136e-06
162	0x3707eb6b	8.10144e-06
163	0x395f1c98	0.00021277589
164	0x3825e78d	3.9554714e-05
165	0x38aa3ea9	8.117903e-05
166	0x3a1043ca	0.00055032654
167	0x370c1e7f	8.351751e-06
168	0x372b1453	1.0197126e-05
169	0x39303cbc	0.00016807293
170	0x378466e0	1.5783531e-05
171	0x37948fed	1.7709996e-05
172	0x39181545	0.00014503773
173	0x38aac511	8.142938e-05
174	0x37257c10	9.863652e-06
175	0x37ad813e	2.068339e-05
176	0x38560984	5.1030438e-05
177	0x363c6cf5	2.8077604e-06
178	0x390234f7	0.00012417497
179	0x3691926c	4.3383825e-06
180	0x38843bb5	6.305372e-05
181	0x3655217c	3.1758964e-06
182	0x3957b6c4	0.00020572083
183	0x398512cf	0.0002538175
184	0x37eb4e4c	2.8050643e-05
185	0x3921c496	0.0001542739
186	0x391fdf93	0.0001524671
187	0x38279ac7	3.996005e-05
188	0x38a9f9d0	8.105079e-05
189	0x373aa353	1.1124491e-05
190	0x38e3299b	0.00010831953
191	0x393d8ae4	0.00018076185
192	0x38a7aa3c	7.994889e-05
193	0x38b8cb32	8.811652e-05
194	0x3a0c258e	0.0005346172
195	0x37118f52	8.676043e-06

momentum_buffer f4 [14, 14]
0	0xbe652a1d	-0.22379346
1	0xbe499068	-0.19683993
2	0x3f659174	0.8967507
3	0x3e9f9560	0.31168652
4	0xc050d1ea	-3.2628121
5	0x4062a992	3.5415998
6	0x3e9bc3af	0.30422732
7	0xbf85bc7e	-1.0448148
8	0xbfac87e3	-1.3478969
9	0xbe0870ea	-0.13324323
10	0xc0213eac	-2.5194502
11	0xbfd10ec1	-1.6332628
12	0x3cbb9b60	0.022901237
13	0xbf26d41a	-0.6516739
14	0xbf4af0e4	-0.7927382
15	0xbf9b44cf	-1.2130374
16	0xc01dac34	-2.4636354
17	0xbf3f7fbf	-0.748043
18	0xbed4342c	-0.41446054
19	0x3f7edb18	0.9955306
20	0xbcb17e40	-0.021666646
21	0xbfbc46e4	-1.4709134
22	0x3fd01ab8	1.6258154
23	0x3fed2fb4	1.8530183
24	0x4052996a	3.2906137
25	0x405b7883	3.4292305
26	0x3de16ae0	0.11006713
27	0x3fdced5a	1.7259934
28	0x4074c315	3.8244069
29	0x3f25314c	0.64528346
30	0x3f12d8da	0.5736214
31	0x3f02a336	0.5103029
32	0xbef533e0	-0.4789114
33	0x40355dae	2.8338428
34	0xc0b4e923	-5.653459
35	0x3f919714	1.137423
36	0x3d6899a0	0.056787133
37	0xbe1c5570	-0.15266967
38	0xbf649957	-0.8929648
39	0xc018a052	-2.3847852
40	0xbfef1e8e	-1.86812
41	0xbee1d4c4	-0.4410764
42	0x401085da	2.2581697
43	0x3dc9d8e0	0.09855819
44	0xbf7b9e20	-0.98288155
45	0xc086f28e	-4.2171087
46	0x40061882	2.0952458
47	0xbf89d108	-1.0766916
48	0x3d3160a0	0.04330504
49	0x40621fa8	3.5331821
50	0xbf4cd364	-0.80010056
51	0xbf8604c1	-1.0470201
52	0x3f27edfc	0.6559751
53	0x3fc4983b	1.5358957
54	0xbf9e0dee	-1.2348001
55	0x3f3b7bc4	0.73235726
56	0xbe2f4598	-0.17116392
57	0xc047752a	-3.1165261
58	0xbf6e24da	-0.9302498
59	0xbffba92c	-1.9661002
60	0xbf00362e	-0.5008267
61	0xbf7a4d1c	-0.9777391
62	0xbed32684	-0.41240323
63	0x3e88a032	0.2668472
64	0x4010293f	2.2525175
65	0xbf5bdf48	-0.85887575
66	0xbfd971f6	-1.6987903
67	0x3eb3a482	0.35086447
68	0xbf18555c	-0.5950525
69	0x40882cc4	4.2554646
70	0xc07b72e8	-3.9288883
71	0xbf80eb2c	-1.0071769
72	0x405eae8a	3.479403
73	0xbf4ce456	-0.80035913
74	0x4005588e	2.08353
75	0x3e92c17c	0.28663242
76	0xbf9a81e7	-1.2070893
77	0xbff237d3	-1.8923286
78	0xbf7a1711	-0.97691447
79	0xc016f782	-2.3588567
80	0xbf1e5040	-0.618412
81	0xc095ac03	-4.6772475
82	0xbf837cc3	-1.0272449
83	0xbf722e63	-0.9460203
84	0xbed33300	-0.41249847
85	0xbf76b580	-0.963707
86	0xbeef351f	-0.46720216
87	0xbf3277a6	-0.6971382
88	0xbfbe56ad	-1.4870201
89	0x3d491cc0	0.049099684
90	0xbfc98a01	-1.574524
91	0x3fe47be2	1.7850306
92	0xbf23632b	-0.63823193
93	0x3fc9cfd3	1.5766548
94	0xc00910d9	-2.1416533
95	0x3f4b11e8	0.793242
96	0xbfb8e4bd	-1.4444805
97	0xc0ce9d36	-6.456691
98	0xbf9c449c	-1.2208438
99	0x40143c71	2.316189
100	0x3eec0278	0.46095634
101	0xc074992c	-3.8218489
102	0x3f6432ca	0.8914
103	0xbda37780	-0.07981777
104	0x3f2460ce	0.6421021
105	0xc0484198	-3.1290035
106	0xc0a71f24	-5.2225513
107	0x3fb2c5d6	1.3966625
108	0xbfd6f1be	-1.6792524
109	0xbff2b496	-1.896136
110	0xbf2dbc9e	-0.6786593
111	0x3fe15824	1.7605023
112	0xbf629a92	-0.88517106
113	0xbf36fec2	-0.7148248
114	0xbf153f66	-0.58299863
115	0xbfcbfcbf	-1.5936507
116	0xc033a094	-2.806676
117	0x3f426be7	0.75945896
118	0x3dc71b90	0.09722054
119	0x3dd9ab68	0.10628396
120	0xc01b2d37	-2.4246347
121	0xbec40453	-0.3828455
122	0xbf5af517	-0.8553023
123	0xbf8f8a80	-1.1214142
124	0x3cebcc40	0.028783917
125	0xc0496814	-3.1469774
126	0xbfa0ce20	-1.2562904
127	0x3f5b359a	0.85628664
128	0xbf26a4ba	-0.650951
129	0xbecaccb3	-0.39609298
130	0x3eaef660	0.34172344
131	0x4138c329	11.5476465
132	0x3fe89492	1.817034
133	0x40be7a2e	5.9524145
134	0x3ee095ec	0.4386438
135	0x40883f30	4.2577133
136	0xbf040cf5	-0.5158227
137	0x40c45713	6.135629
138	0x40a44346	5.133212
139	0xc056dd1f	-3.3572462
140	0xbdef95c0	-0.116984844
141	0xbe82d2b3	-0.25551376
142	0x3f3a784a	0.72839797
143	0xbe7331d8	-0.23749483
144	0xbed05368	-0.40688634
145	0x3f6b2d92	0.9186641
146	0xbf0ff5fa	-0.56234705
147	0xbfde201b	-1.7353548
148	0x3e942d56	0.2894084
149	0xbe4aa870	-0.19790816
150	0xc0453a94	-3.0817003
151	0x4062160a	3.5325952
152	0xbf320700	-0.6954193
153	0xbfa559bd	-1.2918011
154	0x3f2be016	0.67138803
155	0xbf51f2e1	-0.8201123
156	0x3f806b65	1.0032774
157	0x3fe881dc	1.816463
158	0xc01b8f3f	-2.430618
159	0x406fe8d9	3.748587
160	0x3f864e09	1.0492564
161	0x409d8d66	4.9235106
162	0xbf84ebc4	-1.038445
163	0xbaefc700	-0.001829356
164	0xbef54d4e	-0.4791054
165	0x3e88059d	0.26566783
166	0x3f2928ac	0.66077685
167	0xbc4f9020	-0.012668639
168	0x3fdcca0a	1.7249157
169	0x3fbe45d7	1.4865063
170	0x3fc55bca	1.5418637
171	0x401b4b3f	2.4264677
172	0x400f0dad	2.2352097
173	0x3f33df8e	0.7026299
174	0x408be5b8	4.371792
175	0xbfb5554b	-1.4166654
176	0x400f6ed2	2.241139
177	0xbff924f9	-1.9464408
178	0x3fc9863c	1.574409
179	0x401556ee	2.3334308
180	0x4022e488	2.5451984
181	0x4096fcfb	4.7183814
182	0x3e2fb97c	0.171606
183	0x4013d2c6	2.3097396
184	0x3f06faaf	0.5272626
185	0x401e15f0	2.470089
186	0x400954ae	2.1457934
187	0x3ffb3f0a	1.9628613
188	0xbedb45fc	-0.4282683
189	0x401fcd84	2.4969187
190	0x3f851986	1.0398414
191	0xbfb7b2f1	-1.4351484
192	0x3fa876ca	1.3161252
193	0xbf23e3d0	-0.6401949
194	0x3f888efe	1.0668638
195	0x3fe8dee8	1.8193026

square_avg f4 [14]
0	0x390bb772	0.00013324412
1	0x38580646	5.1504256e-05
2	0x38755117	5.8488073e-05
3	0x388faa65	6.85051e-05
4	0x39bddea9	0.00036214784
5	0x38573392	5.1308023e-05
6	0x395c0cf4	0.0002098566
7	0x377f8eb5	1.5232411e-05
8	0x3995d13b	0.00028575383
9	0x39dad220	0.00041736756
10	0x39b3a069	0.00034261055
11	0x39173b71	0.00014422626
12	0x390fcc37	0.00013713619
13	0x397c6fe8	0.00024074281

momentum_buffer f4 [14]
0	0x3eddf010	0.43347216
1	0xc020f811	-2.5151408
2	0xbe41c448	-0.18922532
3	0xbf440dbc	-0.76583457
4	0xbe9c9f88	-0.30590463
5	0xbf8465c9	-1.0343562
6	0xbf26a9a6	-0.6510261
7	0xc07b7d70	-3.929531
8	0xbfd8838a	-1.6915143
9	0x3da65ea8	0.08123523
10	0x3e9ef605	0.31047073
11	0x3f73319e	0.94997585
12	0x3fa7a33b	1.3096689
13	0x4008a666	2.1351562

square_avg f4 [14, 14]
0	0x36d84618	6.4454616e-06
1	0x387de2a0	6.053096e-05
2	0x39967136	0.00028694578
3	0x309ee3a9	1.1560718e-09
4	0x3082bed4	9.512982e-10
5	0x324c8270	1.1904021e-08
6	0x389232e2	6.9713e-05
7	0x38a39df6	7.801868e-05
8	0x353064bc	6.5711697e-07
9	0x36b47f46	5.3792346e-06
10	0x381cd199	3.73885e-05
11	0x31e101b7	6.548557e-09
12	0x364b62e4	3.030692e-06
13	0x36f644ec	7.339395e-06
14	0x38d96259	0.00010365685
15	0x3a685121	0.0008862187
16	0x3a0f599a	0.0005468369
17	0x36df8b7b	6.6621556e-06
18	0x37313922	1.0563324e-05
19	0x37248d1a	9.8080145e-06
20	0x3925aedf	0.00015800771
21	0x3a1a5a9d	0.0005888136
22	0x3812800f	3.4928376e-05
23	0x369477aa	4.4246744e-06
24	0x38b70eba	8.728863e-05
25	0x384fdb87	4.9557097e-05
26	0x3651959f	3.1230518e-06
27	0x39fb6bb8	0.00047954707
28	0x00000000	0.0
29	0x2bba5f77	1.3242592e-12
30	0x2d2874a2	9.575592e-12
31	0x00000000	0.0
32	0x2b8e9bc7	1.0132944e-12
33	0x2c33393e	2.5469206e-12
34	0x00000000	0.0
35	0x00000000	0.0
36	0x00000000	0.0
37	0x00000000	0.0
38	0x00000000	0.0
39	0x00000000	0.0
40	0x2c64cbfa	3.2513978e-12
41	0x00000000	0.0
42	0x351e8c83	5.906406e-07
43	0x379d3796	1.8741743e-05
44	0x3759ada8	1.297464e-05
45	0x30d14f42	1.5229278e-09
46	0x2f73bc7c	2.2167684e-10
47	0x327a95cd	1.4585976e-08
48	0x37844076	1.5765643e-05
49	0x361f688a	2.3753696e-06
50	0x346a2546	2.1806508e-07
51	0x35b1cabf	1.3246535e-06
52	0x36db413f	6.5343042e-06
53	0x331b72c7	3.619314e-08
54	0x366ab74f	3.4975417e-06
55	0x33faf54e	1.1686153e-07
56	0x37b54af5	2.1611786e-05
57	0x392caa91	0.00016466739
58	0x39169180	0.00014359318
59	0x366db191	3.541911e-06
60	0x36f46b56	7.284262e-06
61	0x36783f12	3.6991592e-06
62	0x38456c88	4.7069538e-05
63	0x39089765	0.0001302637
64	0x37982c41	1.814042e-05
65	0x358375e9	9.794577e-07
66	0x37844fad	1.5772728e-05
67	0x37e4725a	2.7232967e-05
68	0x35c9cb70	1.5034875e-06
69	0x386c0dde	5.62797e-05
70	0x388939cb	6.543434e-05
71	0x39b0e7cf	0.00033742047
72	0x38471daf	4.7472942e-05
73	0x342d4d3f	1.6139983e-07
74	0x3733e007	1.0721392e-05
75	0x36814e3f	3.8536086e-06
76	0x37321b26	1.0615948e-05
77	0x3969e928	0.00022307469
78	0x385997bc	5.1878145e-05
79	0x342ccb4d	1.6092709e-07
80	0x3724d88d	9.825581e-06
81	0x3833dcf3	4.28827e-05
82	0x343529df	1.6872171e-07
83	0x3937954b	0.00017507856
84	0x32fabf6c	2.9190879e-08
85	0x339ddb64	7.350789e-08
86	0x3564dedd	8.526093e-07
87	0x31145ffa	2.159139e-09
88	0x331a71b2	3.5959324e-08
89	0x32c734bd	2.3190632e-08
90	0x335a83c2	5.0876913e-08
91	0x3497ba5b	2.8261533e-07
92	0x3392e172	6.839663e-08
93	0x3174b836	3.5611385e-09
94	0x3436aa1e	1.7011959e-07
95	0x3240145f	1.1180503e-08
96	0x33720dab	5.6357447e-08
97	0x34cd6982	3.8260993e-07
98	0x37ef7cc5	2.854912e-05
99	0x395e8c42	0.0002122382
100	0x373bea3f	1.1200608e-05
101	0x37386607	1.099101e-05
102	0x38085601	3.2505024e-05
103	0x359d382e	1.1713762e-06
104	0x36f62e05	7.3367287e-06
105	0x398d9a07	0.00027008375
106	0x38308f68	4.2095227e-05
107	0x32098070	8.003653e-09
108	0x36a5a256	4.9362816e-06
109	0x38a48b7b	7.84611e-05
110	0x3504ef16	4.952175e-07
111	0x3957a7d4	0.00020566519
112	0x3772a4e0	1.4462712e-05
113	0x394f04ad	0.000197428
114	0x393d352b	0.00018044251
115	0x38142924	3.5324265e-05
116	0x3899cdd4	7.333947e-05
117	0x36ea621d	6.9851653e-06
118	0x36c09dd8	5.7404213e-06
119	0x39ca0f69	0.00038539924
120	0x37a5659d	1.971685e-05
121	0x3499b13f	2.8627434e-07
122	0x36b0089c	5.246211e-06
123	0x38f66691	0.000117492986
124	0x36846e0d	3.946718e-06
125	0x3a11c7d1	0.0005561086
126	0x36f4033e	7.272144e-06
127	0x3844cc21	4.692015e-05
128	0x3915cffc	0.00014287228
129	0x330fc743	3.347601e-08
130	0x33105f67	3.361438e-08
131	0x34bda741	3.5325687e-07
132	0x37bec07f	2.2739403e-05
133	0x382320f7	3.889293e-05
134	0x3529dec1	6.3281556e-07
135	0x364a2fec	3.012824e-06
136	0x3769f552	1.3945e-05
137	0x34e9bf60	4.3538876e-07
138	0x36359afb	2.7061312e-06
139	0x35214078	6.007099e-07
140	0x368492c7	3.9509937e-06
141	0x37e7473f	2.7570522e-05
142	0x36a3654f	4.8695724e-06
143	0x36d3b67d	6.3095345e-06
144	0x3787bbbb	1.6180673e-05
145	0x339934a1	7.134191e-08
146	0x347cc062	2.3539317e-07
147	0x38dc7007	0.00010511284
148	0x377ac009	1.4945873e-05
149	0x2d2c4e0c	9.794398e-12
150	0x33d119dd	9.7370254e-08
151	0x3837e883	4.3847143e-05
152	0x34a95589	3.1540938e-07
153	0x39167740	0.00014349539
154	0x37695a82	1.3908955e-05
155	0x38bac545	8.9059155e-05
156	0x38f3aa51	0.00011618867
157	0x381a526c	3.6793223e-05
158	0x38941c8a	7.062506e-05
159	0x349b8b08	2.8972158e-07
160	0x360e0b33	2.1166168e-06
161	0x3a035d6b	0.0005011174
162	0x37c9e1dd	2.4066243e-05
163	0x2d484d61	1.1385865e-11
164	0x33e1fc91	1.05233205e-07
165	0x3935a2b2	0.00017322114
166	0x341e627e	1.4750728e-07
167	0x3a0b3aa0	0.0005311165
168	0x333b0529	4.3544023e-08
169	0x359f39bf	1.186323e-06
170	0x37203a7a	9.550358e-06
171	0x32c1f8de	2.2581329e-08
172	0x35c8cd0e	1.496084e-06
173	0x32e93057	2.7146752e-08
174	0x2ffdd828	4.617402e-10
175	0x38ce3379	9.832433e-05
176	0x34692875	2.1714534e-07
177	0x29c55858	8.7638826e-14
178	0x310269e0	1.8977673e-09
179	0x3480d97b	2.4000096e-07
180	0x32f25c18	2.8214387e-08
181	0x39b85594	0.00035158976
182	0x38ce2a96	9.830778e-05
183	0x3a58fedb	0.00082777225
184	0x3999624e	0.00029255677
185	0x382fd33f	4.191999e-05
186	0x38ec696e	0.00011272995
187	0x36b7e2d0	5.4802294e-06
188	0x38bf5e03	9.125101e-05
189	0x3a984813	0.001161816
190	0x388af6bc	6.626311e-05
191	0x36ab4f11	5.1054017e-06
192	0x388ba2e4	6.658377e-05
193	0x39656c1f	0.0002187942
194	0x36432f1f	2.9084692e-06
195	0x3aabbb9b	0.0013102175

momentum_buffer f4 [14, 14]
0	0x3f3605fe	0.71102893
1	0x3f081262	0.5315305
2	0x3ec62bca	0.38705283
3	0xbf4d37c3	-0.8016321
4	0x40a2ab64	5.0834217
5	0x40d2ef65	6.591723
6	0xbf6296c5	-0.88511306
7	0x3e28c424	0.16481072
8	0xbf363b68	-0.71184397
9	0xbf0800d5	-0.5312627
10	0x3fa28a44	1.2698445
11	0x4097afe1	4.7402196
12	0xbfc721ec	-1.5557227
13	0x4058f098	3.3896847
14	0xbed4827a	-0.41505796
15	0x3d267a60	0.04064405
16	0xbe42ce78	-0.19024074
17	0xbf17fb20	-0.5936756
18	0x40796328	3.896677
19	0xbe324258	-0.1740812
20	0x3e6ecbc8	0.23319924
21	0x3e893eb0	0.2680564
22	0x400efd24	2.2342005
23	0x3fe1cb8e	1.7640245
24	0xc081653a	-4.0436068
25	0xbe9d8718	-0.3076713
26	0xc0412fb2	-3.018536
27	0xbf6d3408	-0.9265752
28	0x00000000	0.0
29	0x391ae53b	0.0001477198
30	0x3924cece	0.000157173
31	0x00000000	0.0
32	0x391d7011	0.00015014435
33	0x391ef6c8	0.00015159987
34	0x00000000	0.0
35	0x00000000	0.0
36	0x00000000	0.0
37	0x00000000	0.0
38	0x00000000	0.0
39	0x00000000	0.0
40	0x392568dc	0.0001577469
41	0x00000000	0.0
42	0xbe980b28	-0.29696012
43	0xbfd99629	-1.699895
44	0xbfc6cf2e	-1.5531976
45	0xbe45b90e	-0.19308874
46	0x3f7f48c4	0.99720407
47	0xc1291be8	-10.569313
48	0xbebfb920	-0.37445927
49	0x3f8f0680	1.1173859
50	0xc06ebb35	-3.7301762
51	0xbf2f6a70	-0.68521786
52	0xbf87dcc4	-1.0614247
53	0xbdd21016	-0.102569744
54	0xbf0c95ab	-0.54915875
55	0x3fd7eaeb	1.6868566
56	0x3edfab7b	0.43685517
57	0xbfa5578c	-1.2917342
58	0x3fc98ac0	1.5745468
59	0xbfb2c594	-1.3966546
60	0x3f862907	1.048127
61	0x3ea4a2e0	0.32155514
62	0x3f661b01	0.89884955
63	0x3f0c4e1e	0.548067
64	0x3f3d0edc	0.738508
65	0x3f34084a	0.7032515
66	0x3ee3ad23	0.4446803
67	0xbf11e5ec	-0.5699146
68	0xbf76cafb	-0.96403474
69	0x3f328035	0.6972688
70	0xbfff79ca	-1.9959042
71	0xc010366e	-2.2533221
72	0x4018071d	2.3754342
73	0xc14042b6	-12.016287
74	0x40533e14	3.300664
75	0x4045e8cd	3.092334
76	0x3fd8ea91	1.6946584
77	0x3e869c29	0.26291016
78	0xbe328b44	-0.17435938
79	0xc0f92e72	-7.7869196
80	0xbfec46a3	-1.8459057
81	0x3f92a097	1.1455258
82	0xc02daadc	-2.7135534
83	0xbfbf02be	-1.4922712
84	0xb825d105	-3.953373e-05
85	0x394b31d8	0.00019378157
86	0x3a9987b7	0.001171342
87	0x3ab43655	0.0013749102
88	0xb8a2bcba	-7.759915e-05
89	0x39096775	0.00013103879
90	0x3a4d78d6	0.00078381354
91	0x3930eb0d	0.00016872231
92	0x38d4e042	0.00010150719
93	0x3a22f59e	0.00062164094
94	0x3a1fb54d	0.00060923846
95	0x3981c30c	0.0002475012
96	0x385c9ba7	5.259705e-05
97	0x39bcea6d	0.00036032815
98	0xbf975b0c	-1.182466
99	0xbf3e399e	-0.74306667
100	0x3ffdd183	1.9829563
101	0x404e93b7	3.2277658
102	0x403495f8	2.8216534
103	0x4080b22c	4.0217495
104	0xc0378a68	-2.8678226
105	0x3e936114	0.28785002
106	0xbfad2b8e	-1.3528917
107	0x40a7043a	5.219266
108	0xc03571a6	-2.8350616
109	0x3fcd1458	1.6021833
110	0x4093140f	4.5961986
111	0xbe4caf9c	-0.19988865
112	0x404be2c3	3.1857154
113	0x4009b541	2.1516879
114	0x3f01337e	0.50469196
115	0xbf7cb552	-0.9871417
116	0xbeee1abc	-0.46504772
117	0xbf95da2d	-1.1707207
118	0x3ff56df9	1.9174186
119	0xbd7de130	-0.061982334
120	0xbed67255	-0.41884103
121	0xc0f1dee1	-7.558457
122	0xbdccfae0	-0.10008788
123	0x3f5839c0	0.8446312
124	0x3e7d1a80	0.2471714
125	0xbf8937c4	-1.0720143
126	0xbfd81c12	-1.6883566
127	0x3f9ce432	1.225714
128	0x400034c1	2.0032198
129	0x4095a780	4.676697
130	0x407a5ac4	3.91179
131	0x403497a8	2.8217564
132	0xbf25f562	-0.6482755
133	0x3f139864	0.57654405
134	0x40cfe580	6.496765
135	0xbf97a915	-1.1848475
136	0x3c94ef00	0.01818037
137	0xc02af75b	-2.6713474
138	0xc0ab77f1	-5.3583913
139	0x411571b4	9.34026
140	0xbf82a78d	-1.0207382
141	0x401c5a05	2.4429944
142	0x3e94df01	0.29076388
143	0xbf2a1f06	-0.6645359
144	0x3df5cd90	0.120020986
145	0x40842ed7	4.1307178
146	0xbf8a98ed	-1.0827919
147	0x403f1b91	2.9860575
148	0xc0505af5	-3.2555516
149	0xbd8c9da4	-0.06866005
150	0x40d2e53c	6.5904827
151	0xbe85c8ce	-0.26129764
152	0xbf9e73e3	-1.2379116
153	0x4038ed28	2.8894749
154	0x4058c9f0	3.3873253
155	0x3fc78aee	1.5589273
156	0x40352051	2.8300974
157	0x40024c2b	2.035899
158	0x3fb30996	1.39873
159	0x40345905	2.8179333
160	0x405b7105	3.4287732
161	0x3fcc80b2	1.5976775
162	0x3f592542	0.84822476
163	0xb8e3871b	-0.00010849369
164	0x4067852f	3.617504
165	0xbed19d10	-0.40940142
166	0x4041df6f	3.0292623
167	0x3fef8ed1	1.8715459
168	0x4089ec6c	4.31011
169	0x4050d1a0	3.2627945
170	0x3fe78d94	1.8090081
171	0x3f557282	0.8337785
172	0xc083f590	-4.123726
173	0xc0840b8f	-4.126411
174	0xba9ebfef	-0.0012111644
175	0xc00518fc	-2.07965
176	0xc0008c12	-2.0085492
177	0xba388f01	-0.0007040352
178	0x411e3742	9.888491
179	0xc1764a0a	-15.393076
180	0xc0d967e8	-6.793934
181	0xbfb43c42	-1.4080889
182	0xbf255050	-0.6457567
183	0xbf721dac	-0.94576526
184	0xbfa9f3ba	-1.3277504
185	0xc0944016	-4.632823
186	0xc03375b1	-2.8040583
187	0x3afeba00	0.0019434094
188	0x3e895710	0.26824236
189	0xbfca5182	-1.5806124
190	0x3fa127a2	1.259022
191	0xbfee19aa	-1.8601582
192	0x3ec11e2c	0.37718332
193	0xbec09a98	-0.37617946
194	0x40f97a70	7.796196
195	0xbfd8efe1	-1.6948205

square_avg f4 [14]
0	0x37f218e3	2.8860237e-05
1	0x394aa33c	0.00019325031
2	0x2bac63e4	1.224906e-12
3	0x365dc75c	3.3047609e-06
4	0x37f4b72a	2.9172359e-05
5	0x38813799	6.161555e-05
6	0x3584dc7c	9.898936e-07
7	0x37fdd63b	3.025971e-05
8	0x38cd0f1e	9.7779775e-05
9	0x377cc4ba	1.50661745e-05
10	0x36c71765	5.9333856e-06
11	0x380297c0	3.1135743e-05
12	0x37678dc7	1.3801683e-05
13	0x39165194	0.00014335505

momentum_buffer f4 [14]
0	0xbe520c6c	-0.20512551
1	0xbed9fd1c	-0.4257592
2	0x391ab1a5	0.00014752762
3	0x3fcc1f87	1.5947121
4	0x3fe19ac8	1.762536
5	0xbfe16628	-1.7609301
6	0x39f2ec6e	0.0004633399
7	0xc044a4f0	-3.072567
8	0x3e77eca0	0.24211359
9	0x4037047a	2.8596482
10	0x405a7fa4	3.4140406
11	0x40662a91	3.596348
12	0x3f81adf9	1.0131217
13	0xbfecf174	-1.8511186

square_avg f4 [18, 14]
0	0x33fb6178	1.1705828e-07
1	0x348f49d5	2.6689546e-07
2	0x2920bf28	3.569294e-14
3	0x3331f7a9	4.143627e-08
4	0x35a4e006	1.2284152e-06
5	0x3387f396	6.3307354e-08
6	0x310dbdc4	2.062607e-09
7	0x33dcf7a6	1.0289595e-07
8	0x34dee445	4.151681e-07
9	0x3389e5da	6.4213694e-08
10	0x343bf51c	1.7504902e-07
11	0x3493b8e2	2.7515404e-07
12	0x32abf438	2.0018078e-08
13	0x34c083d3	3.5858702e-07
14	0x30367572	6.6378114e-10
15	0x32007247	7.476564e-09
16	0x00000000	0.0
17	0x3081a0c3	9.431677e-10
18	0x335bf63d	5.1213863e-08
19	0x30750adf	8.914593e-10
20	0x2d2bf846	9.775352e-12
21	0x30368ff8	6.6415806e-10
22	0x3162b915	3.2992535e-09
23	0x2ea3a446	7.4415626e-11
24	0x318abda0	4.0378865e-09
25	0x31a25830	4.7248463e-09
26	0x2fbae31b	3.399457e-10
27	0x3229af72	9.876986e-09
28	0x35486faf	7.4668327e-07
29	0x35ad1b5f	1.289747e-06
30	0x2a879fad	2.4091615e-13
31	0x347220fc	2.2550006e-07
32	0x36aaf005	5.0943368e-06
33	0x35202ce9	5.967e-07
34	0x33643c3d	5.3140173e-08
35	0x3565686f	8.546112e-07
36	0x35fcf959	1.8848033e-06
37	0x35483c69	7.4593714e-07
38	0x3557a0ad	8.0327555e-07
39	0x35a15391	1.2019756e-06
40	0x33c6c81b	9.2564925e-08
41	0x36126b38	2.1818105e-06
42	0x34684a89	2.16338e-07
43	0x34d96dd8	4.0499322e-07
44	0x2980b36d	5.715467e-14
45	0x33c62503	9.226826e-08
46	0x35fbcaf1	1.8760021e-06
47	0x343b69b9	1.7454194e-07
48	0x32546b0f	1.2364366e-08
49	0x34900a99	2.68298e-07
50	0x35221baf	6.038999e-07
51	0x3479f448	2.3278801e-07
52	0x34bcbec4	3.515653e-07
53	0x3510483b	5.374929e-07
54	0x332ca1ce	4.019403e-08
55	0x353c3ad4	7.0121064e-07
56	0x34b1b230	3.3098468e-07
57	0x3615e7b1	2.2337592e-06
58	0x2897a0f7	1.6834175e-14
59	0x320dd399	8.255392e-09
60	0x37aea585	2.0819492e-05
61	0x33d848c8	1.00715226e-07
62	0x300d8d67	5.1496446e-10
63	0x35c84f31	1.4924209e-06
64	0x3605b5cb	1.9924362e-06
65	0x33c36c27	9.100068e-08
66	0x3594c884	1.1085217e-06
67	0x35df0798	1.6617005e-06
68	0x33fb3162	1.1697081e-07
69	0x37591afc	1.2940491e-05
70	0x34116740	1.354174e-07
71	0x34e83646	4.3252857e-07
72	0x00000000	0.0
73	0x332eb54a	4.0677413e-08
74	0x362b805b	2.5555698e-06
75	0x344d4bbc	1.9119665e-07
76	0x31af7882	5.1068705e-09
77	0x34972e82	2.815978e-07
78	0x3566c18b	8.596332e-07
79	0x34291d15	1.5749931e-07
80	0x34b2041a	3.3158068e-07
81	0x34f77255	4.6090523e-07
82	0x331d1ad3	3.6578808e-08
83	0x355133d2	7.7933976e-07
84	0x00000000	0.0
85	0x2bb91519	1.3150896e-12
86	0x00000000	0.0
87	0x2b968965	1.0696276e-12
88	0x28971861	1.677494e-14
89	0x2c944ce5	4.21495e-12
90	0x00000000	0.0
91	0x2cc3e9fc	5.568211e-12
92	0x275d71f9	3.0731696e-15
93	0x2bf4e26f	1.7400091e-12
94	0x00000000	0.0
95	0x2b11dd6e	5.1821644e-13
96	0x00000000	0.0
97	0x2caf2e97	4.9789717e-12
98	0x34faa2ea	4.6684664e-07
99	0x35a0b273	1.1972865e-06
100	0x2a1f589a	1.4152777e-13
101	0x34085088	1.2695284e-07
102	0x36d65b48	6.3883235e-06
103	0x350bded7	5.210581e-07
104	0x3340655f	4.479568e-08
105	0x354a3163	7.532273e-07
106	0x35ec3a47	1.7600331e-06
107	0x355214ea	7.826153e-07
108	0x355aed7f	8.155693e-07
109	0x35c8ed0a	1.4970149e-06
110	0x3328d594	3.9309796e-08
111	0x35f0a678	1.7929842e-06
112	0x30403b39	6.9933354e-10
113	0x32094281	7.989571e-09
114	0x00000000	0.0
115	0x31503464	3.0297764e-09
116	0x3286c2a6	1.5688169e-08
117	0x32625564	1.3174347e-08
118	0x2d698b74	1.3275481e-11
119	0x32f57f52	2.8579652e-08
120	0x33a3e7ea	7.632464e-08
121	0x319bdd0f	4.536225e-09
122	0x31dc4f0a	6.4118284e-09
123	0x319723b0	4.3987356e-09
124	0x30983dbc	1.1077002e-09
125	0x32cb6bb1	2.3681283e-08
126	0x3638c5ae	2.7533201e-06
127	0x36cc0c00	6.0810708e-06
128	0x00000000	0.0
129	0x3363eb81	5.3066746e-08
130	0x3861c3ae	5.382642e-05
131	0x348693b4	2.5066913e-07
132	0x31c7b0b8	5.811753e-09
133	0x3676a152	3.6750757e-06
134	0x36939039	4.397731e-06
135	0x34873476	2.518388e-07
136	0x363a56d6	2.7766705e-06
137	0x368cffc1	4.202099e-06
138	0x349d8031	2.93368e-07
139	0x37e87658	2.7711663e-05
140	0x32b1478f	2.0638053e-08
141	0x33291980	3.937157e-08
142	0x00000000	0.0
143	0x2b24d191	5.8555336e-13
144	0x36d1804f	6.2436225e-06
145	0x3257c5e2	1.255964e-08
146	0x00000000	0.0
147	0x33c4ef6e	9.170513e-08
148	0x35b662cb	1.3588809e-06
149	0x325bf321	1.2802759e-08
150	0x351f00a1	5.923303e-07
151	0x35be60c8	1.418427e-06
152	0x31ae9e06	5.0820317e-09
153	0x3603e179	1.9651764e-06
154	0x228453bd	3.5867333e-18
155	0x295d9e54	4.9209185e-14
156	0x00000000	0.0
157	0x26f2610b	1.6818427e-15
158	0x2b6ee468	8.4871563e-13
159	0x2b22d200	5.7845395e-13
160	0x2a0ba37c	1.24024e-13
161	0x2a0cc421	1.2502544e-13
162	0x2b9402b8	1.0516787e-12
163	0x2913947b	3.2769343e-14
164	0x00000000	0.0
165	0x2a0b4a5d	1.237148e-13
166	0x2936646e	4.0499227e-14
167	0x2c385864	2.619704e-12
168	0x336f77d9	5.5755525e-08
169	0x33840e54	6.149335e-08
170	0x00000000	0.0
171	0x3178c117	3.6198509e-09
172	0x36c36863	5.823605e-06
173	0x3338744b	4.2946606e-08
174	0x3119acf7	2.236275e-09
175	0x34c4b347	3.6638286e-07
176	0x357554d6	9.1393065e-07
177	0x3164f4dc	3.3317553e-09
178	0x35618be2	8.402259e-07
179	0x356a394d	8.7255177e-07
180	0x33dfc191	1.0419456e-07
181	0x346fe2aa	2.234107e-07
182	0x35cf15be	1.542903e-06
183	0x366aa9f9	3.4967654e-06
184	0x00000000	0.0
185	0x330a2f47	3.2173627e-08
186	0x37f7d692	2.9544612e-05
187	0x34533782	1.96711e-07
188	0x3156b9c5	3.1246696e-09
189	0x361687a8	2.2430704e-06
190	0x3638e838	2.7553306e-06
191	0x3402788e	1.2151051e-07
192	0x35c0ba27	1.4359292e-06
193	0x360bfe6d	2.086071e-06
194	0x341f43d4	1.4832705e-07
195	0x378bce10	1.6666047e-05
196	0x3619a084	2.289221e-06
197	0x36b38521	5.350114e-06
198	0x00000000	0.0
199	0x32ff8634	2.9746936e-08
200	0x383af241	4.4571472e-05
201	0x3482956d	2.4323109e-07
202	0x319c123f	4.542272e-09
203	0x365a5d68	3.25389e-06
204	0x36701a6b	3.5778164e-06
205	0x345bdd0f	2.0476385e-07
206	0x35fcaa20	1.8824976e-06
207	0x363907f9	2.757179e-06
208	0x3459f2fa	2.0298094e-07
209	0x37ceec66	2.4667195e-05
210	0x3479988f	2.3245433e-07
211	0x35137772	5.4935583e-07
212	0x00000000	0.0
213	0x33a8c5ba	7.859076e-08
214	0x3679f030	3.72437e-06
215	0x3437cf19	1.7118545e-07
216	0x2d901ca2	1.638362e-11
217	0x34946e11	2.7647232e-07
218	0x35b3dff0	1.3401714e-06
219	0x34412cac	1.7990777e-07
220	0x35105b5b	5.377712e-07
221	0x35633e21	8.46545e-07
222	0x33894f5c	6.393995e-08
223	0x357983ca	9.2951507e-07
224	0x35c7f85e	1.489894e-06
225	0x36524544	3.1332756e-06
226	0x00000000	0.0
227	0x32b56244	2.111586e-08
228	0x37d17c54	2.4972636e-05
229	0x341725a1	1.407666e-07
230	0x30864c86	9.771532e-10
231	0x35ec209e	1.7592863e-06
232	0x360017fd	1.908745e-06
233	0x33f3fda6	1.1361708e-07
234	0x35a32d83	1.2157692e-06
235	0x35ec6801	1.7613639e-06
236	0x33ec21af	1.09957334e-07
237	0x3781cb5a	1.5472691e-05
238	0x352bb8a1	6.3971135e-07
239	0x3581cd41	9.670986e-07
240	0x00000000	0.0
241	0x34716482	2.2481439e-07
242	0x36981741	4.53266e-06
243	0x3511e5f4	5.4351335e-07
244	0x332dddf0	4.0481552e-08
245	0x355db0ff	8.258648e-07
246	0x35d4648a	1.5824492e-06
247	0x354a48a3	7.5356564e-07
248	0x352c6522	6.422216e-07
249	0x35864c51	1.0005989e-06
250	0x338184a8	6.0311606e-08
251	0x35f86558	1.8506935e-06

momentum_buffer f4 [18, 14]
0	0x403089ad	2.758403
1	0x403b61ba	2.9278398
2	0x38539412	5.044422e-05
3	0xc0949bf6	-4.644038
4	0xc021deec	-2.529231
5	0xbe98eac0	-0.298666
6	0xbaa019ba	-0.0012214698
7	0xbfe6ed0d	-1.8041092
8	0x3fb67bb4	1.4256501
9	0xc0362316	-2.8458915
10	0xc04a4a6f	-3.160793
11	0x3f396a16	0.724275
12	0x3faf0766	1.3674133
13	0x3ef5e218	0.48024058
14	0x3ac60a88	0.001510934
15	0x3da950a8	0.08267337
16	0x00000000	0.0
17	0x3c83feb8	0.01611267
18	0x3e3cc28f	0.18433593
19	0xbdd543cf	-0.10413324
20	0xba0d3adc	-0.0005387494
21	0xbc883be8	-0.016630128
22	0xbe660e64	-0.22466427
23	0x3b1b3fc9	0.0023689142
24	0x3f4d30e6	0.8015274
25	0x3f28177c	0.65660834
26	0xb831eef6	-4.242264e-05
27	0x3f371df8	0.71530104
28	0x402a76ab	2.663493
29	0x3fd57bcd	1.6678406
30	0xb90c8790	-0.00013401941
31	0xc025b1f8	-2.5889874
32	0xbf7580c2	-0.95899594
33	0xbeee389e	-0.4652757
34	0x39d006ab	0.0003967782
35	0xc0178038	-2.3672009
36	0xbe964e7c	-0.29356754
37	0xc00b9e1b	-2.181525
38	0xbfe1a99d	-1.7629887
39	0xbf51cb9f	-0.81951326
40	0x4044511c	3.0674505
41	0x3ea8a2c4	0.3293668
42	0x3fc22505	1.5167547
43	0x3fcdd657	1.6081036
44	0xb9036b0f	-0.00012533016
45	0xc09ae352	-4.840249
46	0xc00863fe	-2.131103
47	0x3fb03537	1.376624
48	0x39cfbc75	0.00039622528
49	0xbf9f0a02	-1.2424929
50	0x3f5fff1e	0.8749865
51	0xc01e1493	-2.4700058
52	0xbf2dd2a2	-0.67899525
53	0x3f051a71	0.5199347
54	0x3fab888f	1.3401049
55	0x3f565e00	0.8373718
56	0xc0464a4a	-3.0982842
57	0x3e9e8c64	0.30966485
58	0x3901422f	0.00012327054
59	0x40bea24a	5.9573107
60	0x3e8c7518	0.27433085
61	0x40ad54cf	5.4166026
62	0x3a0c1cde	0.0005344878
63	0x402a98ad	2.6655686
64	0x401e3db0	2.472515
65	0xc0113290	-2.268711
66	0x4027c357	2.6212976
67	0x3e67380c	0.22579974
68	0xc00a6a1b	-2.1627262
69	0x3f34be5e	0.7060298
70	0x4125f7a1	10.372956
71	0xc076a915	-3.85407
72	0x00000000	0.0
73	0xc095c56c	-4.6803493
74	0x3fb782fa	1.4336846
75	0xc01ff569	-2.4993536
76	0x3a35671e	0.0006919968
77	0xc0af4e07	-5.478275
78	0x400055df	2.0052412
79	0xc02933ec	-2.643794
80	0xbfd75b84	-1.6824803
81	0xc00982f3	-2.1486175
82	0x40d9fb08	6.8118935
83	0xc05bd8e6	-3.4351134
84	0x00000000	0.0
85	0x38fab43a	0.00011954499
86	0x00000000	0.0
87	0x38fa920a	0.00011948131
88	0x38f16ce3	0.00011512057
89	0x38fb3f22	0.00011980372
90	0x00000000	0.0
91	0x38fb5609	0.00011984638
92	0x38e4ace3	0.0001090409
93	0x38fadd39	0.00011962135
94	0x00000000	0.0
95	0x38f9fa7e	0.00011919903
96	0x00000000	0.0
97	0x38fb4d35	0.000119829936
98	0x40f9c61b	7.805433
99	0x3ff85903	1.9402164
100	0xb90c79bc	-0.0001339679
101	0xc01a642d	-2.4123642
102	0xc0ad789f	-5.4209743
103	0x3dcd2d20	0.100183725
104	0x39a3dcc5	0.0003125427
105	0xc00b51b6	-2.1768622
106	0xbf822c46	-1.0169761
107	0xbd46b87c	-0.04851578
108	0xc036c723	-2.8559043
109	0xbfdcca17	-1.7249173
110	0x408d1f90	4.410103
111	0x3f280a70	0.65640926
112	0x3fec43fc	1.8458247
113	0x404b9aa8	3.1813145
114	0x00000000	0.0
115	0x397fa09f	0.00024378531
116	0xbfceb67d	-1.6149441
117	0x3f24fffb	0.64453095
118	0x39138c46	0.00014071268
119	0x4017ccd5	2.371877
120	0xbf1f10ec	-0.62135196
121	0xbda76e83	-0.08175375
122	0xc009bc06	-2.152101
123	0x3f3e22ce	0.7427186
124	0x3e8a4b6c	0.27010667
125	0x40889516	4.268199
126	0x3e8db1d8	0.27674747
127	0x40349a0a	2.8219018
128	0x00000000	0.0
129	0x3e66599c	0.22495121
130	0x3eb0587a	0.34442502
131	0x3f9b9de4	1.2157559
132	0x39afeb60	0.0003355397
133	0x3f8403c9	1.0313655
134	0x402fe04e	2.7480655
135	0x3edd848c	0.43265188
136	0x3ff9aa5e	1.9505117
137	0xc01bccb9	-2.4343703
138	0x3f13e1cf	0.5776643
139	0xbfe819ec	-1.8132911
140	0x40d48818	6.641613
141	0x3fc4f7c2	1.538811
142	0x00000000	0.0
143	0x3b35c94f	0.0027738397
144	0xc00d54b2	-2.2082944
145	0xc18b015d	-17.375666
146	0x00000000	0.0
147	0x3fc5bcc2	1.5448229
148	0xc1073bba	-8.452082
149	0xbfcf7e08	-1.6210337
150	0x3f21d3b7	0.63213676
151	0xbfe8d844	-1.8190999
152	0x4125c689	10.3609705
153	0xc0800ae6	-4.0013304
154	0x382cd2a8	4.1204185e-05
155	0x39599254	0.00020749244
156	0x00000000	0.0
157	0x3911ad9f	0.00013892956
158	0x39826deb	0.00024877427
159	0x390bee43	0.00013344832
160	0x396b8d95	0.0002246409
161	0x3924d6c2	0.00015720262
162	0x39cdc109	0.0003924447
163	0x3986e6bb	0.0002573038
164	0x00000000	0.0
165	0xb8354afb	-4.3223594e-05
166	0x39a0fc2f	0.0003070547
167	0x39116218	0.0001386482
168	0xc0b0aebc	-5.52133
169	0xbf953ec7	-1.1659783
170	0x00000000	0.0
171	0xbf86d25a	-1.0532944
172	0x3faad34f	1.3345736
173	0x4102a895	8.166158
174	0xb7e7d8fe	-2.763839e-05
175	0x4052cc18	3.293707
176	0x40bc362e	5.8816137
177	0x40195f48	2.3964405
178	0x3e370140	0.1787157
179	0xc08c762d	-4.3894258
180	0x3febd441	1.842415
181	0x405691f1	3.3526576
182	0xbe3565c0	-0.17714596
183	0x4012c2e8	2.2931461
184	0x00000000	0.0
185	0x3e620958	0.22073877
186	0xbe083250	-0.13300443
187	0x4092aaa0	4.5833282
188	0xb864e8eb	-5.4576358e-05
189	0x40456907	3.0845354
190	0x402c7190	2.6944313
191	0xc0464c39	-3.0984023
192	0x3f44e270	0.76908016
193	0xc01e1cd5	-2.4705098
194	0xc03c27ff	-2.9399412
195	0xbf83b8de	-1.0290792
196	0xbbef9400	-0.007311344
197	0x3fa55386	1.2916114
198	0x00000000	0.0
199	0xc02c2056	-2.6894736
200	0x3ee67453	0.45010623
201	0x407ea5a0	3.978859
202	0xb7fa2828	-2.9821022e-05
203	0x4035590b	2.8335598
204	0x3eeb2c90	0.45932436
205	0x3fb26fd5	1.3940378
206	0xbfb2b77d	-1.3962246
207	0xbf3b74ac	-0.732249
208	0xc08b1e2a	-4.347432
209	0x4011b2b9	2.2765334
210	0xbf924d98	-1.142993
211	0xc0f319ec	-7.5969143
212	0x00000000	0.0
213	0xc1926261	-18.298037
214	0x3fca3653	1.5797828
215	0x4012091c	2.281806
216	0x39aec66d	0.00033335705
217	0x3f2a17fa	0.66442835
218	0x40afc477	5.4927325
219	0xc0a5be95	-5.1795144
220	0x3f3878ab	0.72059125
221	0x3fe15074	1.7602677
222	0x40c9b21e	6.302993
223	0x3e285e30	0.1644218
224	0x3f7e1c74	0.99262166
225	0x401587fc	2.3364248
226	0x00000000	0.0
227	0x3fc9dbae	1.5770166
228	0xbd97acb0	-0.074059844
229	0x40b06169	5.511891
230	0x38865c58	6.406818e-05
231	0x4058fdbf	3.3904874
232	0x3fd2fa42	1.6482623
233	0xc039a340	-2.900589
234	0x3fda4f8c	1.7055526
235	0xbe7ef0e9	-0.24896587
236	0xc027243c	-2.6115866
237	0x3fb2a524	1.3956647
238	0x3e502160	0.20325232
239	0xbe43fe94	-0.19140083
240	0x00000000	0.0
241	0xc08559bd	-4.1672044
242	0xbfcf8106	-1.621125
243	0xbdefe450	-0.11713469
244	0x3a0c107e	0.00053430337
245	0xbffe36bf	-1.9860457
246	0x3eb7feef	0.35936686
247	0xbfd62b36	-1.6731937
248	0xc02295db	-2.5403965
249	0x3f25315f	0.6452846
250	0x3f7d364c	0.98910975
251	0x3f54849f	0.83014864

square_avg f4 [18]
0	0x322aef13	9.9496615e-09
1	0x3221ef3c	9.425829e-09
2	0x338e3d3f	6.623531e-08
3	0x320b8585	8.121224e-09
4	0x361b039f	2.3098908e-06
5	0x3347bdf5	4.6506063e-08
6	0x2ba73527	1.1880816e-12
7	0x33f16975	1.12416195e-07
8	0x33073053	3.1476088e-08
9	0x36d91e71	6.470648e-06
10	0x353099c1	6.578885e-07
11	0x2c484c94	2.8464219e-12
12	0x35b0dc89	1.3177206e-06
13	0x3671daf3	3.6039244e-06
14	0x36a689bc	4.96322e-06
15	0x3350a43e	4.857815e-08
16	0x364591bc	2.9440116e-06
17	0x319a7d37	4.496225e-09

momentum_buffer f4 [18]
0	0x402ff611	2.7493937
1	0x3ea05d5e	0.31321234
2	0x3fb6497d	1.4241177
3	0xb9700c89	-0.00022892853
4	0x3fc407ec	1.5314918
5	0xbd28d640	-0.04121995
6	0x38faa3d8	0.00011951447
7	0xc0b9b032	-5.802758
8	0x3f1b61f2	0.6069633
9	0x3f849597	1.0358151
10	0xbf7ccad2	-0.9874698
11	0x39011e0f	0.00012313596
12	0x40058b9e	2.0866466
13	0x40585234	3.3800173
14	0x400244a1	2.0354388
15	0x409f74cd	4.983008
16	0x404fc7e9	3.2465765
17	0xbe218d14	-0.15776473

square_avg f4 [3, 1]
0	0x00000000	0.0
1	0x00000000	0.0
2	0x00000000	0.0

momentum_buffer f4 [3, 1]
0	0x00000000	0.0
1	0x00000000	0.0
2	0x00000000	0.0

square_avg f4 [2, 1]
0	0x00000000	0.0
1	0x00000000	0.0

momentum_buffer f4 [2, 1]
0	0x00000000	0.0
1	0x00000000	0.0

square_avg f4 [2]
0	0x00000000	0.0
1	0x00000000	0.0

momentum_buffer f4 [2]
0	0x00000000	0.0
1	0x00000000	0.0

square_avg f4 [2, 2]
0	0x00000000	0.0
1	0x00000000	0.0
2	0x00000000	0.0
3	0x00000000	0.0

momentum_buffer f4 [2, 2]
0	0x00000000	0.0
1	0x00000000	0.0
2	0x00000000	0.0
3	0x00000000	0.0

square_avg f4 [2]
0	0x00000000	0.0
1	0x00000000	0.0

momentum_buffer f4 [2]
0	0x00000000	0.0
1	0x00000000	0.0

square_avg f4 [2, 2]
0	0x00000000	0.0
1	0x00000000	0.0
2	0x00000000	0.0
3	0x00000000	0.0

momentum_buffer f4 [2, 2]
0	0x00000000	0.0
1	0x00000000	0.0
2	0x00000000	0.0
3	0x00000000	0.0

square_avg f4 [2]
0	0x1f9d69c6	6.6667074e-20
1	0x1df5275d	6.489166e-21

momentum_buffer f4 [2]
0	0x3d4aedbe	0.049543135
1	0x39a42c20	0.00031313393

square_avg f4 [3, 1]
0	0x00000000	0.0
1	0x00000000	0.0
2	0x00000000	0.0

momentum_buffer f4 [3, 1]
0	0x00000000	0.0
1	0x00000000	0.0
2	0x00000000	0.0

square_avg f4 [2, 1]
0	0x00000000	0.0
1	0x00000000	0.0

momentum_buffer f4 [2, 1]
0	0x00000000	0.0
1	0x00000000	0.0

square_avg f4 [2]
0	0x00000000	0.0
1	0x00000000	0.0

momentum_buffer f4 [2]
0	0x00000000	0.0
1	0x00000000	0.0

square_avg f4 [2, 2]
0	0x00000000	0.0
1	0x00000000	0.0
2	0x00000000	0.0
3	0x00000000	0.0

momentum_buffer f4 [2, 2]
0	0x00000000	0.0
1	0x00000000	0.0
2	0x00000000	0.0
3	0x00000000	0.0

square_avg f4 [2]
0	0x2f505b30	1.8949886e-10
1	0x00000000	0.0

momentum_buffer f4 [2]
0	0x38b29e2d	8.517164e-05
1	0x00000000	0.0

square_avg f4 [2, 2]
0	0x2ac14c44	3.4336607e-13
1	0x00000000	0.0
2	0x00000000	0.0
3	0x00000000	0.0

momentum_buffer f4 [2, 2]
0	0xb89402a5	-7.0576825e-05
1	0x00000000	0.0
2	0x00000000	0.0
3	0x00000000	0.0

square_avg f4 [2]
0	0x2018af01	1.2932805e-19
1	0x00000000	0.0

momentum_buffer f4 [2]
0	0x3dba32c2	0.090917125
1	0x00000000	0.0

square_avg f4 [5, 2]
0	0x3476f5ea	2.2999998e-07
1	0x312d0f1f	2.5183409e-09
2	0x00000000	0.0
3	0x2987e09b	6.034167e-14
4	0x00000000	0.0
5	0x2fed4249	4.3157147e-10
6	0x35b78f45	1.3676259e-06
7	0x00000000	0.0
8	0x364b38f2	3.0282504e-06
9	0x364bcb97	3.0367862e-06

momentum_buffer f4 [5, 2]
0	0xc0dd62a8	-6.918293
1	0x3a8e7e38	0.0010871356
2	0x00000000	0.0
3	0x391c843d	0.00014926582
4	0x00000000	0.0
5	0x3b6e0446	0.0036318465
6	0xc0525855	-3.2866414
7	0x00000000	0.0
8	0x3fa7c585	1.3107153
9	0x3f914a96	1.1350887

square_avg f4 [3, 2]
0	0x36594d28	3.238043e-06
1	0x35fdfae8	1.8922992e-06
2	0x34535238	1.9680817e-07
3	0x340ea59c	1.3285029e-07
4	0x36676fb9	3.4486714e-06
5	0x36d2a7ce	6.2780227e-06
