Multistate Intensity Models/SDDR_outputs/best_estimator_splines_event_21.pth (torch, 261637 bytes, 114 tensors)

square_avg f4 [2, 1]
0	0x28902ac3	1.6005756e-14
1	0x27c9f57a	5.6054853e-15

momentum_buffer f4 [2, 1]
0	0xc05f91d0	-3.4932747
1	0xc058bf01	-3.386658

square_avg f4 [2]
0	0x26ca6dc1	1.4046315e-15
1	0x26125138	5.0764e-16

momentum_buffer f4 [2]
0	0xc049b369	-3.1515753
1	0xc038ac0e	-2.8855014

square_avg f4 [2, 2]
0	0x292957ce	3.7601697e-14
1	0x2988f70a	6.082468e-14
2	0x298ff7ed	6.393484e-14
3	0x29efb2cd	1.0644749e-13

momentum_buffer f4 [2, 2]
0	0xc0632c50	-3.5495796
1	0xc064a6dd	-3.5726845
2	0xc064c969	-3.574793
3	0xc065fef9	-3.5936873

square_avg f4 [2]
0	0x281520a2	8.278238e-15
1	0x2864c274	1.2698708e-14

momentum_buffer f4 [2]
0	0xc05ba7a0	-3.432106
1	0xc05e531f	-3.4738233

square_avg f4 [2, 2]
0	0x00000000	0.0
1	0x00000000	0.0
2	0x297898b3	5.5199507e-14
3	0x255bb171	1.9055342e-16

momentum_buffer f4 [2, 2]
0	0x00000000	0.0
1	0x00000000	0.0
2	0xc0646142	-3.5684361
3	0xc022e034	-2.5449343

square_avg f4 [2]
0	0x00000000	0.0
1	0x2961544d	5.0033155e-14

momentum_buffer f4 [2]
0	0x00000000	0.0
1	0xc0641771	-3.5639307

square_avg f4 [2, 2]
0	0x00000000	0.0
1	0x2a6d0206	2.105053e-13
2	0x00000000	0.0
3	0x00000000	0.0

momentum_buffer f4 [2, 2]
0	0x00000000	0.0
1	0x40673644	3.612687
2	0x00000000	0.0
3	0x00000000	0.0

square_avg f4 [2]
0	0x2b45e475	7.030551e-13
1	0x00000000	0.0

momentum_buffer f4 [2]
0	0x40689533	3.6341064
1	0x00000000	0.0

square_avg f4 [12, 12]
0	0x42dbbbba	109.86665
1	0x41df64a7	27.924147
2	0x402edb2f	2.732128
3	0x429be139	77.93989
4	0x417ffab1	15.998704
5	0x42060b8d	33.51128
6	0x42ebfb37	117.990654
7	0x42a93c46	84.61772
8	0x40a42426	5.1294127
9	0x41a39b8e	20.450954
10	0x3c8e58e8	0.017376378
11	0x3ec3b67f	0.3822517
12	0x3f4d0d2b	0.8009822
13	0x3ee800e0	0.45313168
14	0x3d4f63ad	0.050632168
15	0x403960d9	2.896536
16	0x3f5e5f0e	0.8686379
17	0x3f2a6774	0.66564107
18	0x3f95ba3b	1.1697458
19	0x3fe9a43e	1.8253248
20	0x3dab49c7	0.08363681
21	0x3c9bb795	0.019008437
22	0x3799e25e	1.8344432e-05
23	0x29968037	6.68358e-14
24	0x41223ec4	10.140324
25	0x40521206	3.28235
26	0x40517640	3.2728424
27	0x41126914	9.150654
28	0x3ff6024e	1.9219453
29	0x40602084	3.5019846
30	0x4161ff20	14.124786
31	0x418ec3aa	17.84554
32	0x3f1544ed	0.583083
33	0x40da6455	6.8247476
34	0x3d714b93	0.058909964
35	0x38c3919d	9.325447e-05
36	0x41c0a41a	24.080128
37	0x42b5c8c9	90.89216
38	0x40173289	2.3624594
39	0x434125d1	193.14772
40	0x439a89a9	309.07547
41	0x42135ce4	36.840714
42	0x42856d6d	66.71372
43	0x42714659	60.3187
44	0x4256e6ff	53.725582
45	0x418acb8e	17.349392
46	0x3e1b4213	0.15161924
47	0x3f7a54c5	0.977856
48	0x406b83b7	3.6799142
49	0x4112bb96	9.170797
50	0x3deb3252	0.11484207
51	0x40982302	4.7542734
52	0x40168642	2.3519444
53	0x4080f4a8	4.0298653
54	0x40558190	3.3360329
55	0x40335139	2.8018324
56	0x3e3bee34	0.18352586
57	0x3efebfb0	0.4975562
58	0x3ca444a6	0.020052265
59	0x2af94f23	4.4286197e-13
60	0x416a5836	14.646536
61	0x419a7d81	19.311281
62	0x3f304c68	0.68866587
63	0x4270072c	60.007004
64	0x420042da	32.065285
65	0x41d0aa87	26.083265
66	0x41db1c47	27.388807
67	0x42ba825f	93.25463
68	0x40bf08b0	5.9698105
69	0x40887a38	4.2649193
70	0x3f55422d	0.833041
71	0x3d2d4dc4	0.04231049
72	0x41945084	18.539314
73	0x4204c02e	33.187675
74	0x3ed0f026	0.4080822
75	0x42107fb3	36.124706
76	0x411f3a1b	9.951686
77	0x418d0abd	17.630243
78	0x41d40225	26.501047
79	0x42026aa4	32.60414
80	0x40d3f09c	6.6231213
81	0x411210a8	9.129066
82	0x3d0207e9	0.031745825
83	0x3d85723f	0.06515931
84	0x4289b33b	68.85006
85	0x422517bb	41.273174
86	0x3f8b07e8	1.0861788
87	0x42190b65	38.261127
88	0x41f49d23	30.576727
89	0x420cba71	35.18207
90	0x42d8bd1b	108.36935
91	0x42d4c57d	106.38572
92	0x412673bc	10.403255
93	0x40eff1b0	7.498253
94	0x3c8e5dc2	0.017378692
95	0x3f088bd7	0.5333838
96	0x4106c2b4	8.422535
97	0x4132e86c	11.181744
98	0x3f14ab1a	0.5807358
99	0x41e88889	29.066668
100	0x41bfbc07	23.96681
101	0x417a9c9f	15.663238
102	0x41cb0ec5	25.382212
103	0x42ca58ae	101.1732
104	0x4028f8c2	2.640183
105	0x3f437266	0.76346433
106	0x3a795e99	0.00095126923
107	0x00000000	0.0
108	0x4257cd86	53.950706
109	0x42049d65	33.153706
110	0x4148ca0b	12.549327
111	0x4311a424	145.64117
112	0x426ca341	59.159428
113	0x41e31c99	28.388964
114	0x4274b591	61.17731
115	0x4281ba11	64.86341
116	0x412e38ae	10.888838
117	0x41d78119	26.938036
118	0x3eda55c4	0.4264356
119	0x3e32576b	0.1741616
120	0x4180486d	16.035364
121	0x4227cac3	41.94801
122	0x3f11af79	0.56908375
123	0x41a50f00	20.632324
124	0x417b529f	15.707671
125	0x413da65d	11.853116
126	0x415d0b9e	13.815336
127	0x414ba631	12.728074
128	0x411efdb3	9.936938
129	0x40aa3276	5.31866
130	0x35691ceb	8.6841345e-07
131	0x3ed00eb6	0.40636224
132	0x41c3724e	24.430813
133	0x42a6835e	83.25658
134	0x40786c53	3.8816116
135	0x4406271a	536.61096
136	0x4494f555	1191.6666
137	0x42060c92	33.512276
138	0x432c7087	172.43956
139	0x429aed2c	77.46323
140	0x43235f8b	163.37321
141	0x41001c74	8.006947
142	0x3ee06782	0.4382897
143	0x3fc11eff	1.5087584

momentum_buffer f4 [12, 12]
0	0xbeedc19e	-0.4643678
1	0xc0ec0f21	-7.376847
2	0xc221ccb8	-40.44992
3	0x410e2978	8.885124
4	0xc19f1fbd	-19.890497
5	0x41966d13	18.803259
6	0x40da4254	6.8205967
7	0x417ebeb2	15.921556
8	0xc05d176a	-3.454554
9	0xc1026d42	-8.151674
10	0xc14a2fed	-12.636701
11	0xbe29a4b0	-0.1656673
12	0x41037a99	8.217431
13	0xc11dad0a	-9.854746
14	0x40902dfe	4.5056143
15	0xbf8bf1c0	-1.0933151
16	0xc1245e2b	-10.27299
17	0x41263761	10.38852
18	0x406c2058	3.689474
19	0xc0c59732	-6.1747065
20	0x40e7e000	7.2460938
21	0x412cea8a	10.8072605
22	0x418e9672	17.82346
23	0x3fb9ddb8	1.4520788
24	0xc046d65c	-3.1068335
25	0xc095ffd8	-4.687481
26	0xc1a095b1	-20.073092
27	0x417fe84f	15.994216
28	0xc0dce913	-6.9034514
29	0xc09d4adf	-4.9153895
30	0x40733e4e	3.8006778
31	0x40734477	3.8010538
32	0x41c3b032	24.461033
33	0xc105dd9b	-8.366603
34	0x416ef9e2	14.936007
35	0x415ae1f1	13.680161
36	0xc21476c6	-37.11599
37	0x408692e6	4.205432
38	0xc0b76dd4	-5.7321568
39	0xc0f55450	-7.666542
40	0x4163fa68	14.248634
41	0x40dc99fc	6.893797
42	0xc142f928	-12.185829
43	0xc1f66917	-30.801313
44	0x413e0ec7	11.878608
45	0x3cc45fe0	0.023971498
46	0xc2597992	-54.36872
47	0xc16ce120	-14.804962
48	0xbeddc4e1	-0.4331427
49	0xc1a59b28	-20.70076
50	0xc1902cbc	-18.021843
51	0xc0742056	-3.8144736
52	0xc0b22093	-5.5664763
53	0xc05b897e	-3.4302669
54	0x40159191	2.3370097
55	0x4052ccb5	3.2937443
56	0x41a5ba8f	20.716093
57	0x4209b6f7	34.428677
58	0x41d05b5b	26.044607
59	0xc026054b	-2.594073
60	0x3fb34262	1.4004633
61	0xc189e19d	-17.235163
62	0xc061ed0e	-3.5300937
63	0x4152dd06	13.178961
64	0x419d50e6	19.664501
65	0xc17e34f4	-15.887928
66	0x41d6cec2	26.850956
67	0xc02f01c3	-2.7344825
68	0xc0b35235	-5.603785
69	0x41b394ff	22.447752
70	0x41ad3a98	21.65361
71	0x4062f0f5	3.5459569
72	0x40f7a1ad	7.738486
73	0x4079d622	3.9036946
74	0x40325eea	2.787043
75	0xc0e02332	-7.0042963
76	0x40e84348	7.258213
77	0x4116320b	9.3872175
78	0x41025255	8.145101
79	0x41fb905d	31.44549
80	0x4156a73b	13.415828
81	0x401be78a	2.436007
82	0xc1892fa3	-17.14826
83	0x40fad015	7.8379006
84	0xc0b221c2	-5.566621
85	0x40da73db	6.8266425
86	0x412f2864	10.947361
87	0xc08e6945	-4.4503503
88	0xc0e769f1	-7.2316823
89	0x40abde2c	5.3708706
90	0xc136d6df	-11.427459
91	0x41c42619	24.518602
92	0xc06793ec	-3.6184034
93	0x41922889	18.269793
94	0x40b6da2c	5.7141323
95	0x413db0fa	11.855707
96	0x408dcec5	4.4314904
97	0xc12751de	-10.457487
98	0xc0f93bfe	-7.7885733
99	0x41349db5	11.288503
100	0x40fa953b	7.8307166
101	0xc197d1fe	-18.977535
102	0x413957bb	11.583919
103	0x412b969a	10.724268
104	0x4111d3d2	9.114214
105	0x416221cf	14.133254
106	0x40bdd3a2	5.932084
107	0x00000000	0.0
108	0xbf439807	-0.7640385
109	0xc1e97fba	-29.187366
110	0x4139d9a9	11.61564
111	0x413e50c7	11.894721
112	0xc11114ca	-9.067575
113	0xc1db03d6	-27.376873
114	0x41a178d3	20.183996
115	0xc13e1e2b	-11.882365
116	0xc1debcb6	-27.842144
117	0x3fe872ad	1.8159996
118	0xc229dc21	-42.46497
119	0xbf429a43	-0.76016635
120	0xc14143e8	-12.079079
121	0x40a8b6a4	5.272295
122	0xc123c26e	-10.234968
123	0x40eecf47	7.4628024
124	0xc0d194c8	-6.549412
125	0x411aca33	9.674365
126	0x410b4ee4	8.70676
127	0x40e6ca16	7.2121687
128	0xc0f2cf10	-7.587776
129	0x41338782	11.220583
130	0x40f5c1d2	7.6799097
131	0x40cbdbf6	6.3706007
132	0x407342ba	3.8009477
133	0x4179b3d4	15.606403
134	0xc07d7f82	-3.9609075
135	0x3fb1e0f4	1.3896775
136	0x4177d4ae	15.489424
137	0xbeeba416	-0.46023625
138	0x40cf976e	6.487235
139	0xc20b7358	-34.86264
140	0xc1e06c8f	-28.053007
141	0x41a11e98	20.139938
142	0x4264e310	57.22174
143	0xc1f93bdb	-31.154226

square_avg f4 [12]
0	0x4225aefb	41.42088
1	0x3f260620	0.64853096
2	0x40d9bbd8	6.80418
3	0x42a749ce	83.64415
4	0x40963002	4.6933603
5	0x42062e2f	33.5451
6	0x41c27d47	24.31117
7	0x42813bb4	64.61661
8	0x41e8fa56	29.122234
9	0x424186f0	48.381775
10	0x41cb3f1c	25.405815
11	0x434173f6	193.45297

momentum_buffer f4 [12]
0	0x4008d100	2.1377563
1	0x41e2aad1	28.333406
2	0x41f4f240	30.618286
3	0xc091ef2c	-4.560446
4	0x41c547ef	24.660124
5	0x41383149	11.5120325
6	0xc09f28bc	-4.9737225
7	0x402a49ed	2.660762
8	0x41db4fa8	27.413895
9	0x4182b722	16.33942
10	0x41ee0ca6	29.756176
11	0x4108fc0f	8.561538

square_avg f4 [12, 12]
0	0x422cd6dc	43.209824
1	0x3db97b68	0.09056741
2	0x40ed0be7	7.407703
3	0x42c75cc9	99.68122
4	0x402dd404	2.7160654
5	0x4169092a	14.564737
6	0x4317dcd9	151.86269
7	0x43148249	148.50893
8	0x412dd163	10.86362
9	0x4272d174	60.704544
10	0x40a05e2a	5.0114946
11	0x42332789	44.78861
12	0x4296bff8	75.37494
13	0x3dbfe4a3	0.09369781
14	0x3f3d9fae	0.74071777
15	0x428079c0	64.23779
16	0x406a1c9d	3.6579964
17	0x424e9fc6	51.65603
18	0x431dae57	157.68102
19	0x42f412a5	122.036415
20	0x41ee2587	29.768324
21	0x41887d6f	17.061247
22	0x41d606d5	26.753336
23	0x4139200b	11.570323
24	0x2bc726e6	1.4150597e-12
25	0x2b44ee3f	6.996382e-13
26	0x2aee16b2	4.229304e-13
27	0x2cb5df10	5.1690943e-12
28	0x2c7cece4	3.5942855e-12
29	0x29cd6ccd	9.122703e-14
30	0x2cb6fd63	5.2008827e-12
31	0x29f31a3c	1.0795919e-13
32	0x2ad2c823	3.7442366e-13
33	0x2b052111	4.729698e-13
34	0x2bff3540	1.813362e-12
35	0x2b6c08d8	8.3856316e-13
36	0x4215c325	37.44057
37	0x3db26952	0.087114945
38	0x4086fc68	4.2183113
39	0x41c7c274	24.969948
40	0x3ecc83da	0.39944345
41	0x3eeea63f	0.4661121
42	0x4251ffe6	52.4999
43	0x4207cb06	33.948265
44	0x3f810d4a	1.008218
45	0x4052bd34	3.292798
46	0x41257974	10.342152
47	0x410c0090	8.750137
48	0x3e462176	0.19348702
49	0x3b1fe7c7	0.0024399625
50	0x3cf86ecc	0.03032627
51	0x406fd972	3.7476468
52	0x3f10a00d	0.5649422
53	0x3eafc9fb	0.34333786
54	0x45578421	3448.258
55	0x403c53ca	2.942614
56	0x3b2f93fb	0.0026791084
57	0x42e1f05a	112.96944
58	0x40c6a650	6.207802
59	0x41c71019	24.88286
60	0x4130ea62	11.057222
61	0x3dc859e8	0.09782773
62	0x3fec7122	1.8472025
63	0x3fb79870	1.4343395
64	0x3f6f7a33	0.93545836
65	0x407bb7a5	3.9330838
66	0x443e077f	760.1171
67	0x4145a29c	12.3522
68	0x40632ecf	3.549732
69	0x41c2c90d	24.34817
70	0x3eca983f	0.3956928
71	0x40583beb	3.378657
72	0x3caf23a1	0.021379294
73	0x3b29bcd5	0.0025899906
74	0x3a0113cb	0.0004923909
75	0x3e880e8e	0.26573604
76	0x3cb3f19f	0.0219658
77	0x3b7e419c	0.003879643
78	0x3d09330c	0.033495948
79	0x3ebab1e4	0.36463845
80	0x3b27b3c5	0.0025589329
81	0x3f469d14	0.7758343
82	0x402b84be	2.679977
83	0x3dcea542	0.10090114
84	0x40f4c3d7	7.648906
85	0x3c05b5de	0.008161036
86	0x3e8c50a2	0.27405268
87	0x4119128b	9.567027
88	0x3fa5feb7	1.2968358
89	0x43bf13ba	382.1541
90	0x406597b2	3.5873837
91	0x41522a0c	13.135265
92	0x41ed3496	29.650677
93	0x433770c5	183.4405
94	0x41ac2e2d	21.522547
95	0x3fa57275	1.2925555
96	0x41cc3991	25.528109
97	0x3d958f32	0.07302703
98	0x404868f3	3.1314056
99	0x41fd64a3	31.674139
100	0x3f8c04d5	1.0938975
101	0x42adfdbe	86.99559
102	0x430d069a	141.02579
103	0x41b968de	23.176205
104	0x4127cd75	10.48766
105	0x42952f82	74.59279
106	0x40d32555	6.598307
107	0x41a7f180	20.99292
108	0x420d4782	35.31983
109	0x3d4e73f7	0.05040356
110	0x40954789	4.6649823
111	0x4287206d	67.56333
112	0x40b38a40	5.610626
113	0x423b4345	46.815693
114	0x4248d7c6	50.210716
115	0x42b5b810	90.8595
116	0x412c97ff	10.787108
117	0x4233060c	44.755905
118	0x40dcb58a	6.8971605
119	0x41b1aa90	22.208282
120	0x4252d6da	52.709816
121	0x3c843e40	0.016142964
122	0x4038def2	2.8886075
123	0x40ee2fc2	7.44333
124	0x3ef009fc	0.46882617
125	0x4148a17d	12.539426
126	0x43ab3e15	342.48502
127	0x42fd5c1f	126.679924
128	0x413c65d6	11.774862
129	0x423af867	46.74258
130	0x40228d3f	2.539871
131	0x4181afbc	16.210808
132	0x3e73c56e	0.23805782
133	0x3c0b8af9	0.00851702
134	0x3d9f66cc	0.07783279
135	0x41a8dcb9	21.107775
136	0x3e2c879a	0.16848603
137	0x3f6a2b6d	0.9147251
138	0x400f7bf7	2.2419412
139	0x4191e08f	18.234648
140	0x3e1937db	0.14962713
141	0x3f55a8d7	0.83460754
142	0x3fc8d807	1.5690926
143	0x3eecf76f	0.46282527

momentum_buffer f4 [12, 12]
0	0xc14ed921	-12.92801
1	0xc0fe69ca	-7.9504137
2	0x40cb4657	6.3523364
3	0xc0f8b94f	-7.7726207
4	0x4140ab7f	12.041869
5	0x411b95f9	9.724114
6	0xc0b887f2	-5.766595
7	0xc18881e9	-17.063433
8	0xc1eb2877	-29.394758
9	0x40bbf74a	5.8739367
10	0xc11ff70d	-9.997815
11	0x3ffe222b	1.9854177
12	0xc0d452cd	-6.6351075
13	0xc09a21b8	-4.816616
14	0x405caf73	3.4482086
15	0xbff38b73	-1.9026932
16	0x40c2d085	6.087954
17	0xc096d373	-4.7133117
18	0x408bb659	4.366009
19	0x410f113c	8.941708
20	0xc1691857	-14.568442
21	0x41cc4be0	25.537048
22	0x40403fea	3.003901
23	0xc104001a	-8.250025
24	0x40691351	3.641804
25	0x40689423	3.6340415
26	0x40681a0b	3.6265895
27	0x4069a3a7	3.6506135
28	0x4069840a	3.648684
29	0x4065a91c	3.5884466
30	0x4069a417	3.6506402
31	0x40660682	3.5941472
32	0x4067f7a3	3.6244895
33	0x406837cf	3.6284063
34	0x40693691	3.6439555
35	0x4068b932	3.6363034
36	0xc092abdc	-4.583479
37	0x41096a4f	8.588454
38	0xc2075be9	-33.839756
39	0xc18df0d2	-17.742588
40	0xc022fcb9	-2.546675
41	0x41ed0c7b	29.631094
42	0x416d8a59	14.846276
43	0x410abc97	8.671042
44	0xbf25666f	-0.64609426
45	0x418611ab	16.758627
46	0x40a19485	5.04938
47	0x3f970e59	1.1801254
48	0x41f8191a	31.012257
49	0x3f53a2c5	0.8267024
50	0x41bacec9	23.35097
51	0xc0b95c21	-5.792496
52	0x41e6b80c	28.839867
53	0x41a855b8	21.041855
54	0x41445c85	12.272588
55	0x41946055	18.547037
56	0x417ccd7c	15.800167
57	0x40f455ca	7.6354723
58	0x3ff81583	1.9381565
59	0x419084f4	18.064919
60	0xc1924c51	-18.287264
61	0x41e8d586	29.10426
62	0xc19dc740	-19.72229
63	0x401dea9a	2.467444
64	0x4106a49f	8.415191
65	0x41b51216	22.633831
66	0x41363575	11.388051
67	0xc1bacbc3	-23.349493
68	0x41a72eaf	20.897795
69	0xc08f8047	-4.484409
70	0x4217ddfa	37.966774
71	0xc06060fc	-3.5059195
72	0x41e06fbe	28.054562
73	0xc023dc79	-2.5603316
74	0x416910ec	14.566631
75	0x401989f2	2.3990445
76	0x418458cc	16.543358
77	0x419aabf3	19.33396
78	0x419cb222	19.586979
79	0x41b6c32d	22.8453
80	0xc0eb5883	-7.3545547
81	0x4101324a	8.074778
82	0xc0fef16e	-7.9669714
83	0x418e0c23	17.755926
84	0x42171baa	37.777016
85	0x4016d6ac	2.3568525
86	0x413e159f	11.880279
87	0x421ab89f	38.680294
88	0x40ca1f6c	6.3163357
89	0xc0278819	-2.6176817
90	0x419a6918	19.301315
91	0x4195be0b	18.717794
92	0xc02de7f1	-2.7172816
93	0x416f83bd	14.969663
94	0xc0fdd7b2	-7.93258
95	0x4222e133	40.71992
96	0x3f11a667	0.56894535
97	0xc1387ce7	-11.530494
98	0x409425d4	4.6296177
99	0x4082b117	4.0841174
100	0xc0059964	-2.0874872
101	0x41c40f73	24.507544
102	0xc1618170	-14.094101
103	0xc0226bdb	-2.537833
104	0x4134d63a	11.302301
105	0x405a4044	3.4101725
106	0xc1942554	-18.518227
107	0x400e62e6	2.2247863
108	0xc1589e82	-13.538698
109	0xbfc730ca	-1.5561764
110	0xc0e41074	-7.1270084
111	0xc1bfe165	-23.985056
112	0xc196ca15	-18.848673
113	0xc1ef3780	-29.9021
114	0x410808c7	8.502143
115	0x4187320d	16.899439
116	0xc181ea38	-16.239365
117	0x40340f1e	2.8134227
118	0xc15d2f39	-13.824029
119	0xc17fb2ee	-15.981184
120	0xc0ec9684	-7.3933735
121	0x41593ccc	13.577343
122	0xc0f68c2b	-7.7046103
123	0x417a79ec	15.654766
124	0x41a97c04	21.185555
125	0x3e2ca6ce	0.16860506
126	0xc177fc0d	-15.499036
127	0x3ff8ba8d	1.9431931
128	0xc124752e	-10.278608
129	0x40c5574d	6.166907
130	0x41549038	13.28521
131	0xc186e47e	-16.861568
132	0x41aea256	21.829266
133	0xc1430920	-12.189728
134	0xc0bb3cde	-5.85118
135	0xc17e59d5	-15.896932
136	0xc10ecbe8	-8.924782
137	0x41572332	13.446093
138	0x404ad4bc	3.1692343
139	0xc000ec24	-2.0144129
140	0xc148995e	-12.537443
141	0x418d2cfa	17.646961
142	0x40be86b8	5.953945
143	0x419c8c43	19.568487

square_avg f4 [12]
0	0x3ea4e1fe	0.32203668
1	0x3e9a6cfa	0.30161268
2	0x2de924e6	2.650542e-11
3	0x3dabc29a	0.08386727
4	0x3fb4ce18	1.4125395
5	0x3ebe9aa2	0.3722735
6	0x3c2dc7f7	0.010606757
7	0x3e4c8bd1	0.1997521
8	0x3e0be690	0.13662171
9	0x3e040f53	0.1289647
10	0x3e9c8219	0.30568007
11	0x3d024a8a	0.031809367

momentum_buffer f4 [12]
0	0x40744527	3.8167207
1	0x40269b76	2.6032386
2	0x4069fc6e	3.656032
3	0x40596f96	3.3974357
4	0x41176c44	9.463932
5	0x41acbc1f	21.591856
6	0x41858c47	16.693495
7	0x418a63ad	17.29867
8	0xc14da541	-12.852845
9	0x40dcd7e8	6.9013557
10	0x407e287c	3.971221
11	0x40a377e7	5.1083865

square_avg f4 [12, 12]
0	0x4508a0af	2186.0427
1	0x42f28075	121.25089
2	0x28898542	1.5267847e-14
3	0x4336b5b6	182.70981
4	0x433e1244	190.07135
5	0x43c6b9b7	397.4509
6	0x3f039a01	0.51406866
7	0x4299d48a	76.915115
8	0x44e105fa	1800.1868
9	0x44e5ccaa	1838.3958
10	0x449ed32e	1270.5994
11	0x409cba40	4.8977356
12	0x3d3e182d	0.046409775
13	0x3f88d7d5	1.0690867
14	0x2aca24d3	3.590796e-13
15	0x3bb1ba47	0.0054238173
16	0x3e66f529	0.22554459
17	0x3b8ba699	0.0042618033
18	0x3c9a029b	0.01880007
19	0x3ef22922	0.47297007
20	0x40bd0ce1	5.907822
21	0x3df3528c	0.11880979
22	0x3fb4de6f	1.4130381
23	0x3b37f2f9	0.0028068407
24	0x2e8a75fb	6.296471e-11
25	0x2d3cd7bb	1.07344645e-11
26	0x2b4f4dcb	7.364913e-13
27	0x2e770bfe	5.617195e-11
28	0x28946d59	1.6478723e-14
29	0x29115bfc	3.227625e-14
30	0x2f1bd300	1.417213e-10
31	0x2d98c186	1.7366341e-11
32	0x2eef1e4a	1.0873842e-10
33	0x2f3e24c9	1.7293468e-10
34	0x2b8b36b4	9.891727e-13
35	0x2c0f8cf7	2.0399773e-12
36	0x00000000	0.0
37	0x00000000	0.0
38	0x00000000	0.0
39	0x00000000	0.0
40	0x00000000	0.0
41	0x00000000	0.0
42	0x00000000	0.0
43	0x00000000	0.0
44	0x00000000	0.0
45	0x00000000	0.0
46	0x00000000	0.0
47	0x00000000	0.0
48	0x4425ed85	663.71124
49	0x43a82f7c	336.37097
50	0x2af2f0a7	4.3154822e-13
51	0x3fa93914	1.3220544
52	0x3bf92e4e	0.007604397
53	0x435d3436	221.20395
54	0x37a44f54	1.9587264e-05
55	0x3f1db637	0.6160616
56	0x43b357ce	358.68597
57	0x42ad6cea	86.71272
58	0x41fcc2e0	31.595154
59	0x3f3208cc	0.6954467
60	0x25b73b27	3.1785523e-16
61	0x2c08fbb7	1.9466492e-12
62	0x00000000	0.0
63	0x28a82a06	1.8669972e-14
64	0x00000000	0.0
65	0x00000000	0.0
66	0x2a535022	1.8768366e-13
67	0x2858433c	1.2004988e-14
68	0x2c787025	3.5305172e-12
69	0x2b6cee9c	8.417518e-13
70	0x27720c34	3.3590862e-15
71	0x27880eaf	3.7763503e-15
72	0x00000000	0.0
73	0x00000000	0.0
74	0x00000000	0.0
75	0x00000000	0.0
76	0x3380fbed	6.0062895e-08
77	0x00000000	0.0
78	0x32fa326d	2.9126761e-08
79	0x32b70663	2.1306908e-08
80	0x343056c9	1.642285e-07
81	0x31c9486c	5.8581033e-09
82	0x339c5f1f	7.2816185e-08
83	0x00000000	0.0
84	0x3e705e8d	0.23473568
85	0x3c9e6b03	0.019338137
86	0x28d6e777	2.3859155e-14
87	0x3d24207f	0.040070053
88	0x3f86ff38	1.0546637
89	0x3c1b9d14	0.0094979
90	0x3b73987b	0.0037169743
91	0x3a6b08d9	0.0008965857
92	0x3d6ecf59	0.05830321
93	0x3db4adbd	0.088222004
94	0x40a41e4d	5.128699
95	0x3b71ac8f	0.0036876535
96	0x455f3e70	3571.9023
97	0x42d3305a	105.59444
98	0x00000000	0.0
99	0x40f5a8ba	7.6768465
100	0x43fb191f	502.19626
101	0x430b6407	139.39073
102	0x3ecd731e	0.4012689
103	0x40efe2f8	7.496456
104	0x455fdc7a	3581.7798
105	0x43c4af8b	393.37143
106	0x45346ff9	2886.9983
107	0x406b976e	3.6811175
108	0x2c707ac9	3.417421e-12
109	0x2a910d57	2.576643e-13
110	0x28bacf24	2.0739981e-14
111	0x2baf4660	1.2454031e-12
112	0x26ddef00	1.5399737e-15
113	0x2aa98429	3.0112135e-13
114	0x2dd106fb	2.3763649e-11
115	0x2c967d43	4.2771633e-12
116	0x2be9da5e	1.6616255e-12
117	0x2d7e6d9e	1.4462568e-11
118	0x2a326eed	1.5848061e-13
119	0x2c34c9d2	2.5691571e-12
120	0x2d6c0550	1.34162265e-11
121	0x31131b38	2.1406787e-09
122	0x2a213999	1.4319656e-13
123	0x2cd8d5c3	6.1628216e-12
124	0x2df4edae	2.784514e-11
125	0x318f9eda	4.179907e-09
126	0x317d65b8	3.6874166e-09
127	0x2f10eaed	1.3180186e-10
128	0x33fbe3c0	1.1729526e-07
129	0x2fd77ce2	3.9197007e-10
130	0x3515df1f	5.583151e-07
131	0x2e38ccab	4.2018538e-11
132	0x40096be1	2.1472094
133	0x4391ca2d	291.5795
134	0x26a28ff3	1.1280026e-15
135	0x3ede10e0	0.4337225
136	0x364c8565	3.0476015e-06
137	0x3b171063	0.0023050539
138	0x2d4c063d	1.1597443e-11
139	0x3805be85	3.1887106e-05
140	0x431175c3	145.46
141	0x4029f3e8	2.6555119
142	0x3d804bba	0.06264444
143	0x3fe5dde3	1.795834

momentum_buffer f4 [12, 12]
0	0x40f28f93	7.580026
1	0x40dcd167	6.900562
2	0xc05f5382	-3.489472
3	0x40e7f3b2	7.248498
4	0x4160cc98	14.04995
5	0xc0a38243	-5.109651
6	0xbfecc6de	-1.849819
7	0xc0c441d0	-6.1330338
8	0x413c5ce9	11.772683
9	0x40cc77e7	6.3896365
10	0x4132a77a	11.165888
11	0x40260186	2.593843
12	0x40a5b384	5.1781635
13	0x4110b32c	9.043743
14	0x4067eb5c	3.6237402
15	0x411e741b	9.903346
16	0xc075a625	-3.8382657
17	0xbf148726	-0.5801872
18	0x40123103	2.2842414
19	0xc126c1c2	-10.422304
20	0x4111d11a	9.11355
21	0x41567296	13.402975
22	0x41042f7a	8.261591
23	0x418bd8b7	17.480818
24	0x406a1515	3.6575367
25	0x4069d447	3.6535814
26	0x40689efc	3.6347036
27	0x406a1265	3.6573727
28	0xc05fb798	-3.4955807
29	0xc062a108	-3.5410786
30	0x406a2461	3.6584704
31	0x4069ebe0	3.6550217
32	0x406a2008	3.658205
33	0x406a273b	3.6586444
34	0x4068d831	3.6381953
35	0x406945d6	3.6448874
36	0x00000000	0.0
37	0x00000000	0.0
38	0x00000000	0.0
39	0x00000000	0.0
40	0x00000000	0.0
41	0x00000000	0.0
42	0x00000000	0.0
43	0x00000000	0.0
44	0x00000000	0.0
45	0x00000000	0.0
46	0x00000000	0.0
47	0x00000000	0.0
48	0xbfc5c8e9	-1.5451938
49	0xc105d188	-8.363655
50	0x40681f89	3.6269248
51	0x40e388ec	7.110464
52	0xbf283462	-0.6570493
53	0xc0d68570	-6.7037888
54	0x405108bf	3.2661588
55	0xc0fb10df	-7.8458095
56	0xc0665908	-3.599184
57	0xc1975a7d	-18.919184
58	0x41783f46	15.515448
59	0x40c62786	6.1923246
60	0x403072be	2.7570033
61	0x406b99b2	3.6812558
62	0x00000000	0.0
63	0x40628bc0	3.5397797
64	0x00000000	0.0
65	0x00000000	0.0
66	0x40695a1d	3.646125
67	0xc0602f92	-3.5029035
68	0x406bdd2c	3.6853743
69	0x406b11bb	3.6729572
70	0x405628b6	3.3462348
71	0x40575259	3.364401
72	0x00000000	0.0
73	0x00000000	0.0
74	0x00000000	0.0
75	0x00000000	0.0
76	0x407653d0	3.8488655
77	0x00000000	0.0
78	0x40765321	3.8488238
79	0x407652bf	3.8488004
80	0x4076547a	3.848906
81	0x4076504e	3.8486514
82	0x407653f7	3.8488748
83	0x00000000	0.0
84	0x41b31799	22.386522
85	0x41619733	14.099414
86	0xc0616e5f	-3.5223615
87	0x4173ea6c	15.244732
88	0xbf86bbda	-1.0526078
89	0xc0e5dbc5	-7.1830773
90	0xc1a48281	-20.563723
91	0x3fce0d2e	1.6097772
92	0x41352c70	11.323349
93	0x410b794e	8.717115
94	0x4127cffc	10.488277
95	0x4146d752	12.427568
96	0xc1698f1c	-14.597439
97	0xc09acb43	-4.837312
98	0x00000000	0.0
99	0x409f9b49	4.9877057
100	0xc08320f6	-4.0977736
101	0xc0fbe979	-7.87225
102	0x3ffa8488	1.9571695
103	0x40528e10	3.2899208
104	0xc184353d	-16.525995
105	0x4190974a	18.073872
106	0xc1185677	-9.52111
107	0x41b2062b	22.253012
108	0x40697f2c	3.648387
109	0x40678073	3.617215
110	0x4060d0fc	3.5127554
111	0x4068ff6c	3.6405897
112	0xc04af80e	-3.17139
113	0x4067b4cc	3.62041
114	0x4069f870	3.6557884
115	0x406993e6	3.649652
116	0x40692aa7	3.6432283
117	0x4069e38a	3.654513
118	0x4066c109	3.605532
119	0x40696144	3.6465616
120	0xbd9cae35	-0.07650415
121	0x40a1a071	5.050835
122	0xc0669310	-3.602726
123	0x40a161d9	5.0431943
124	0x401f652d	2.4905503
125	0x4132e18a	11.180063
126	0xbff42897	-1.9074887
127	0x404a78ef	3.1636312
128	0x4181fe50	16.249176
129	0x4135a636	11.353079
130	0x40505dcc	3.255725
131	0x40f9a472	7.801324
132	0x42182a83	38.041515
133	0x411af4f4	9.684803
134	0xc04680c4	-3.1016092
135	0x41d1ecae	26.240566
136	0x41855ff6	16.671856
137	0x41948aa2	18.567692
138	0x40511f4c	3.2675352
139	0x4165024a	14.313059
140	0x4122590b	10.146739
141	0x421dd30c	39.4561
142	0x415a59af	13.646895
143	0x4198bd74	19.092506

square_avg f4 [12]
0	0x3c2956b6	0.010335615
1	0x3a758bf6	0.0009366864
2	0x30a6f840	1.2148647e-09
3	0x00000000	0.0
4	0x3b615a22	0.0034385999
5	0x2c98301d	4.3254415e-12
6	0x31ccea2c	5.9638037e-09
7	0x3a257326	0.0006311409
8	0x3c89aa17	0.016804738
9	0x2ecaae21	9.216828e-11
10	0x335a8c3f	5.0884633e-08
11	0x3a72c0e6	0.00092603115

momentum_buffer f4 [12]
0	0x40d7659e	6.7311544
1	0x413288ac	11.158367
2	0x406a3862	3.6596913
3	0x00000000	0.0
4	0x40aacb33	5.3373046
5	0x406beff8	3.6865215
6	0x4076505a	3.8486543
7	0x415b0a34	13.689991
8	0xc1ada9d6	-21.707928
9	0x406a1d03	3.6580207
10	0x4117a4ad	9.477704
11	0x40a82a2b	5.2551475

square_avg f4 [12, 12]
0	0x463af61f	11965.53
1	0x3f186de1	0.5954266
2	0x2c063654	1.9072703e-12
3	0x00000000	0.0
4	0x3f238297	0.6387114
5	0x2cc4b2bd	5.590499e-12
6	0x31935b2d	4.2886286e-09
7	0x3d1fde81	0.039030556
8	0x453154ec	2837.3076
9	0x2d6333c6	1.2914952e-11
10	0x32540655	1.2341464e-08
11	0x2e1f83d9	3.626952e-11
12	0x37a2be73	1.940059e-05
13	0x39860726	0.00025563798
14	0x2dbc9a53	2.144166e-11
15	0x00000000	0.0
16	0x3d105cb8	0.035244673
17	0x2c7110b1	3.4257425e-12
18	0x00000000	0.0
19	0x38905455	6.882163e-05
20	0x3d4b105c	0.04957615
21	0x2ded8ff7	2.7007714e-11
22	0x318da257	4.122096e-09
23	0x39819ca7	0.00024721512
24	0x42ab4d92	85.651505
25	0x3ca3d282	0.019997839
26	0x2b8163a6	9.193659e-13
27	0x00000000	0.0
28	0x43002c33	128.17265
29	0x2aa6a9a3	2.9605233e-13
30	0x2f6aaef3	2.134433e-10
31	0x38f06872	0.00011463546
32	0x434b2ff0	203.18726
33	0x2c36001b	2.5863814e-12
34	0x304e0cd9	7.496062e-10
35	0x40062560	2.0960312
36	0x00000000	0.0
37	0x00000000	0.0
38	0x00000000	0.0
39	0x00000000	0.0
40	0x00000000	0.0
41	0x00000000	0.0
42	0x00000000	0.0
43	0x00000000	0.0
44	0x00000000	0.0
45	0x00000000	0.0
46	0x00000000	0.0
47	0x00000000	0.0
48	0x419bb65f	19.464048
49	0x3e378169	0.1792046
50	0x00000000	0.0
51	0x00000000	0.0
52	0x34bd4378	3.5253083e-07
53	0x00000000	0.0
54	0x00000000	0.0
55	0x3e3679d2	0.17819908
56	0x3e49905a	0.19683972
57	0x00000000	0.0
58	0x2b8623e4	9.531234e-13
59	0x00000000	0.0
60	0x46f2017d	30976.744
61	0x3a11e5a6	0.00055655313
62	0x2aeaebd1	4.173038e-13
63	0x00000000	0.0
64	0x3f66ef13	0.9020855
65	0x2a35ef16	1.6158979e-13
66	0x00000000	0.0
67	0x38104d9d	3.440456e-05
68	0x45e333c7	7270.472
69	0x2c0fd77f	2.0441147e-12
70	0x31149332	2.1620505e-09
71	0x39e09f10	0.0004284312
72	0x42edf7d5	118.98405
73	0x30a52cb8	1.201804e-09
74	0x2999b047	6.825144e-14
75	0x00000000	0.0
76	0x4281551a	64.666214
77	0x00000000	0.0
78	0x00000000	0.0
79	0x2ca06540	4.5587145e-12
80	0x47d232c9	107621.57
81	0x2a0f9841	1.2753775e-13
82	0x2e08a2ac	3.10673e-11
83	0x4290ffb9	72.49946
84	0x420a7ae9	34.62003
85	0x3c931580	0.017954588
86	0x2713ef5d	2.0530107e-15
87	0x00000000	0.0
88	0x43583bf4	216.23419
89	0x2bb6e960	1.2996652e-12
90	0x00000000	0.0
91	0x3dcc3e83	0.09972861
92	0x43a6b1a1	333.38773
93	0x28ea6bf9	2.6026044e-14
94	0x2db0e334	2.0109782e-11
95	0x3f7c3473	0.9851753
96	0x42866c7b	67.211876
97	0x3d2cc3fa	0.042179085
98	0x2d9d95e3	1.7915397e-11
99	0x00000000	0.0
100	0x3cc160a3	0.02360565
101	0x2c474069	2.8315356e-12
102	0x30727e46	8.821853e-10
103	0x3c1b09ec	0.009462815
104	0x4121a81d	10.103543
105	0x2d638c27	1.2934576e-11
106	0x30d488fd	1.5463965e-09
107	0x338393a8	6.1270214e-08
108	0x44822889	1041.2667
109	0x3d03c47e	0.03216981
110	0x2a943358	2.6325708e-13
111	0x00000000	0.0
112	0x42dc3584	110.10452
113	0x2ab934bc	3.2899193e-13
114	0x2fae8c81	3.175025e-10
115	0x3b59b3b6	0.0033218688
116	0x43b4ace5	361.35074
117	0x2c72eee2	3.4522875e-12
118	0x2f52a6c5	1.9158637e-10
119	0x3fc40b96	1.5316036
120	0x3cb88130	0.022522539
121	0x3b7fce91	0.0039033035
122	0x2c1a6f7b	2.19466e-12
123	0x00000000	0.0
124	0x4214127c	37.01805
125	0x29a6902d	7.3968914e-14
126	0x2fbc551f	3.4257483e-10
127	0x397d3811	0.00024148847
128	0x424b11be	50.767326
129	0x2cc525dc	5.60328e-12
130	0x2f308228	1.6053348e-10
131	0x401b3a29	2.4254248
132	0x40ef10a3	7.470781
133	0x39b4e691	0.0003450406
134	0x26d08df7	1.4471379e-15
135	0x00000000	0.0
136	0x42b6c74e	91.38927
137	0x2c15520a	2.1219714e-12
138	0x00000000	0.0
139	0x38cb0262	9.680238e-05
140	0x453f7e55	3063.8958
141	0x2af81393	4.4067232e-13
142	0x319e1ece	4.6019073e-09
143	0x3f0c9b43	0.5492441

momentum_buffer f4 [12, 12]
0	0x4102143d	8.129941
1	0x3fbc6fbe	1.4721601
2	0xc0693d3c	-3.6443624
3	0x00000000	0.0
4	0x40c73fde	6.2265463
5	0x406c0529	3.687815
6	0xc0764f75	-3.8485997
7	0x41bbbaa6	23.466137
8	0x41dacf94	27.351357
9	0xc069ddff	-3.6541746
10	0xbe26467b	-0.16237824
11	0xbf85ca7b	-1.0452417
12	0x4193270d	18.394068
13	0xbf1d729d	-0.6150301
14	0xc069f48a	-3.6555505
15	0x00000000	0.0
16	0x4106c1ec	8.422344
17	0xc06bda37	-3.6851938
18	0x00000000	0.0
19	0xc0aad6ee	-5.3387365
20	0x415083d8	13.032188
21	0xc069fd11	-3.656071
22	0xc0646bdb	-3.569083
23	0x4125ed3b	10.370418
24	0x414d6ad7	12.838584
25	0x402b3e31	2.6756709
26	0x4068caca	3.6373773
27	0x00000000	0.0
28	0xc0312b35	-2.7682621
29	0x406a0318	3.6564388
30	0xc0763ab2	-3.8473325
31	0x4147feb7	12.499686
32	0x414a49ed	12.643048
33	0x4069620a	3.6466088
34	0x409b965d	4.862105
35	0xc0bb5435	-5.854029
36	0x00000000	0.0
37	0x00000000	0.0
38	0x00000000	0.0
39	0x00000000	0.0
40	0x00000000	0.0
41	0x00000000	0.0
42	0x00000000	0.0
43	0x00000000	0.0
44	0x00000000	0.0
45	0x00000000	0.0
46	0x00000000	0.0
47	0x00000000	0.0
48	0x40c4cff3	6.1503844
49	0x409cd3b1	4.900841
50	0x00000000	0.0
51	0x00000000	0.0
52	0x40fd2e17	7.911876
53	0x00000000	0.0
54	0x00000000	0.0
55	0xc0d8b4b9	-6.772061
56	0x41b6016d	22.750696
57	0x00000000	0.0
58	0x406fec1d	3.7487862
59	0x00000000	0.0
60	0xc099bc08	-4.804203
61	0xbf12340d	-0.57110673
62	0x40681658	3.6263638
63	0x00000000	0.0
64	0x41e3ee52	28.491367
65	0xc06919e9	-3.6422064
66	0x00000000	0.0
67	0xbfc4dba6	-1.5379531
68	0x411163b4	9.086842
69	0x40694615	3.6449025
70	0xc04b5cca	-3.1775384
71	0x4147dc3f	12.491271
72	0x41248314	10.2820015
73	0x40ed40a8	7.4141426
74	0xc064f568	-3.5774784
75	0x00000000	0.0
76	0x411784a9	9.469888
77	0x00000000	0.0
78	0x00000000	0.0
79	0x403cbb09	2.9489157
80	0x40867268	4.2014656
81	0x40665bca	3.5993524
82	0xc0e6edfc	-7.216551
83	0xbff59755	-1.9186808
84	0x40803fa8	4.0077705
85	0x415aae4c	13.667553
86	0x404eaa6c	3.2291517
87	0x00000000	0.0
88	0xc06f4665	-3.7386715
89	0xc06b5f32	-3.6776853
90	0x00000000	0.0
91	0xc1361eb8	-11.3825
92	0x40e245b0	7.071007
93	0x4061cb10	3.528019
94	0xc053a202	-3.3067632
95	0x4193067d	18.378168
96	0x4128741f	10.52835
97	0x40ad10ed	5.408316
98	0xc069ed38	-3.6551037
99	0x00000000	0.0
100	0xc0535be8	-3.3024845
101	0x406bc675	3.6839879
102	0xc076483f	-3.8481596
103	0x415ea3ef	13.915023
104	0x419e42d2	19.782627
105	0xc069de19	-3.6541808
106	0xbe84572d	-0.2584776
107	0x4099643c	4.7934856
108	0x40cc2873	6.3799376
109	0x407f2515	3.9866383
110	0xc06787e7	-3.6176698
111	0x00000000	0.0
112	0x403f13a5	2.985574
113	0xc06a251d	-3.6585152
114	0xc0763f77	-3.8476236
115	0x405e858b	3.4769008
116	0x41537fda	13.218714
117	0xc0698024	-3.648446
118	0x3f51f85b	0.82019585
119	0x408e8e26	4.454852
120	0x41813369	16.150103
121	0x410d70db	8.840053
122	0xc0694ed9	-3.6454375
123	0x00000000	0.0
124	0x4093acaf	4.6148295
125	0xc06773dc	-3.6164465
126	0xc076404b	-3.8476741
127	0x400d8a3f	2.2115629
128	0x4191ff25	18.249582
129	0xc069a9e8	-3.6509953
130	0x403ba7d8	2.9321194
131	0xc112137b	-9.129756
132	0x41cb4d68	25.412796
133	0x40bd0e6c	5.9080105
134	0xc04a1dcf	-3.1580694
135	0x00000000	0.0
136	0x41506851	13.025468
137	0xc06ba4c7	-3.6819322
138	0x00000000	0.0
139	0xc0ac81e1	-5.3908544
140	0x4131baa3	11.108066
141	0x40682527	3.6272676
142	0x40122c92	2.2839704
143	0x404e4ed0	3.2235603

square_avg f4 [12]
0	0x39d23473	0.000400934
1	0x370aab7f	8.2653705e-06
2	0x39002a46	0.0001222278
3	0x00000000	0.0
4	0x389577d6	7.127195e-05
5	0x39edc3c0	0.00045350008
6	0x39fb57dd	0.00047939914
7	0x397d44b0	0.00024153548
8	0x37468ad5	1.1834044e-05
9	0x3839b3d3	4.427491e-05
10	0x37e8828b	2.7717344e-05
11	0x384b44a0	4.8462884e-05

momentum_buffer f4 [12]
0	0xbff6bc4c	-1.9276214
1	0x41616468	14.087013
2	0xc1cf4b95	-25.911905
3	0x00000000	0.0
4	0x41c16a38	24.176865
5	0xc0835bb4	-4.104944
6	0xc1c90450	-25.127106
7	0x419550ba	18.664417
8	0x4085ca69	4.1809583
9	0x41065cf2	8.397692
10	0x416b617d	14.711301
11	0x40378d24	2.8679895

square_avg f4 [3, 1]
0	0x00000000	0.0
1	0x00000000	0.0
2	0x00000000	0.0

momentum_buffer f4 [3, 1]
0	0x00000000	0.0
1	0x00000000	0.0
2	0x00000000	0.0

square_avg f4 [3, 1]
0	0x00000000	0.0
1	0x00000000	0.0
2	0x00000000	0.0

momentum_buffer f4 [3, 1]
0	0x00000000	0.0
1	0x00000000	0.0
2	0x00000000	0.0

square_avg f4 [4, 2]
0	0x00000000	0.0
1	0x00000000	0.0
2	0x00000000	0.0
3	0x00000000	0.0
4	0x00000000	0.0
5	0x00000000	0.0
6	0x00000000	0.0
7	0x00000000	0.0

momentum_buffer f4 [4, 2]
0	0x00000000	0.0
1	0x00000000	0.0
2	0x00000000	0.0
3	0x00000000	0.0
4	0x00000000	0.0
5	0x00000000	0.0
6	0x00000000	0.0
7	0x00000000	0.0

square_avg f4 [2, 2]
0	0x00000000	0.0
1	0x00000000	0.0
2	0x00000000	0.0
3	0x00000000	0.0

momentum_buffer f4 [2, 2]
0	0x00000000	0.0
1	0x00000000	0.0
2	0x00000000	0.0
3	0x00000000	0.0

square_avg f4 [2]
0	0x00000000	0.0
1	0x00000000	0.0

momentum_buffer f4 [2]
0	0x00000000	0.0
1	0x00000000	0.0

square_avg f4 [2, 2]
0	0x00000000	0.0
1	0x00000000	0.0
2	0x00000000	0.0
3	0x00000000	0.0

momentum_buffer f4 [2, 2]
0	0x00000000	0.0
1	0x00000000	0.0
2	0x00000000	0.0
3	0x00000000	0.0

square_avg f4 [2]
0	0x00000000	0.0
1	0x00000000	0.0

momentum_buffer f4 [2]
0	0x00000000	0.0
1	0x00000000	0.0

square_avg f4 [2, 2]
0	0x00000000	0.0
1	0x00000000	0.0
2	0x00000000	0.0
3	0x00000000	0.0

momentum_buffer f4 [2, 2]
0	0x00000000	0.0
1	0x00000000	0.0
2	0x00000000	0.0
3	0x00000000	0.0

square_avg f4 [2]
0	0x00000000	0.0
1	0x00000000	0.0

momentum_buffer f4 [2]
0	0x00000000	0.0
1	0x00000000	0.0

square_avg f4 [3, 1]
0	0x00000000	0.0
1	0x00000000	0.0
2	0x3643c262	2.917041e-06

momentum_buffer f4 [3, 1]
0	0x00000000	0.0
1	0x00000000	0.0
2	0xc0ec4b10	-7.384163

square_avg f4 [3, 1]
0	0x00000000	0.0
1	0x00000000	0.0
2	0x00000000	0.0

momentum_buffer f4 [3, 1]
0	0x00000000	0.0
1	0x00000000	0.0
2	0x00000000	0.0

square_avg f4 [3, 1]
0	0x00000000	0.0
1	0x00000000	0.0
2	0x00000000	0.0

momentum_buffer f4 [3, 1]
0	0x00000000	0.0
1	0x00000000	0.0
2	0x00000000	0.0

square_avg f4 [3, 1]
0	0x00000000	0.0
1	0x00000000	0.0
2	0x00000000	0.0

momentum_buffer f4 [3, 1]
0	0x00000000	0.0
1	0x00000000	0.0
2	0x00000000	0.0

square_avg f4 [160, 50]
0	0x4416b3cd	602.8094
1	0x35903458	1.074407e-06
2	0x00000000	0.0
3	0x3b7c4e09	0.003849866
4	0x40082e58	2.1278286
5	0x387d3de3	6.0377537e-05
6	0x4496554a	1202.6653
7	0x00000000	0.0
8	0x00000000	0.0
9	0x00000000	0.0
10	0x00000000	0.0
11	0x00000000	0.0
12	0x3eacfa32	0.33784634
13	0x447c8461	1010.0684
14	0x4489c5ce	1102.1814
15	0x00000000	0.0
16	0x00000000	0.0
17	0x3ee70364	0.45119774
18	0x36159ffd	2.2295856e-06
19	0x00000000	0.0
20	0x3b054032	0.0020332453
21	0x3bc9e508	0.006161336
22	0x43a01947	320.19748
23	0x00000000	0.0
24	0x00000000	0.0
25	0x00000000	0.0
26	0x3ff5194d	1.9148346
27	0x00000000	0.0
28	0x388fba10	6.853428e-05
29	0x4010b765	2.2611935
30	0x00000000	0.0
31	0x38fae3ad	0.00011963337
32	0x4078319f	3.8780286
33	0x3f757e98	0.9589629
34	0x4545d44f	3165.2693
35	0x00000000	0.0
36	0x3af07812	0.0018346331
37	0x4433b75e	718.8651
38	0x4513e598	2366.3496
39	0x00000000	0.0
40	0x4129c57b	10.610713
41	0x44c3368e	1561.7048
42	0x00000000	0.0
43	0x406b57bc	3.67723
44	0x381873a9	3.634734e-05
45	0x00000000	0.0
46	0x3bea3f99	0.0071486947
47	0x41f1c40c	30.220726
48	0x441dd003	631.2502
49	0x44b98024	1484.0044
50	0x00000000	0.0
51	0x00000000	0.0
52	0x2a5f8bd6	1.9854894e-13
53	0x00000000	0.0
54	0x365763a4	3.2095495e-06
55	0x00000000	0.0
56	0x00000000	0.0
57	0x00000000	0.0
58	0x00000000	0.0
59	0x3fa7700a	1.3081067
60	0x2925d933	3.682575e-14
61	0x00000000	0.0
62	0x00000000	0.0
63	0x2f9dd995	2.8712735e-10
64	0x00000000	0.0
65	0x4034a504	2.8225718
66	0x36f36afe	7.25442e-06
67	0x00000000	0.0
68	0x00000000	0.0
69	0x3203e601	7.6775e-09
70	0x38567c49	5.1137325e-05
71	0x26dc7cf6	1.5299437e-15
72	0x00000000	0.0
73	0x3da22511	0.07917226
74	0x40254e21	2.5828936
75	0x3c677902	0.014127972
76	0x3617c9c0	2.2618187e-06
77	0x400a89a1	2.1646502
78	0x00000000	0.0
79	0x3fb8d59a	1.4440186
80	0x00000000	0.0
81	0x3f8a7d29	1.0819446
82	0x406e77b3	3.7260559
83	0x3139fa1e	2.7063218e-09
84	0x410b3d0e	8.702406
85	0x00000000	0.0
86	0x00000000	0.0
87	0x00000000	0.0
88	0x00000000	0.0
89	0x00000000	0.0
90	0x3b875bd8	0.0041308217
91	0x00000000	0.0
92	0x30d026a0	1.514497e-09
93	0x34848858	2.468612e-07
94	0x00000000	0.0
95	0x4076e69d	3.8578255
96	0x3f439ed0	0.76414204
97	0x00000000	0.0
98	0x3cdfe47e	0.027330633
99	0x380dd3ff	3.3814456e-05
100	0x00000000	0.0
101	0x31172957	2.199689e-09
102	0x00000000	0.0
103	0x00000000	0.0
104	0x3eec3961	0.46137527
105	0x3ba7c241	0.0051195924
106	0x4032a711	2.791447
107	0x4092ba9f	4.585281
108	0x40170cfe	2.360168
109	0x2f99e463	2.7992816e-10
110	0x00000000	0.0
111	0x00000000	0.0
112	0x40d13ccc	6.5386715
113	0x4026ab26	2.604196
114	0x419006fc	18.00341
115	0x00000000	0.0
116	0x38ebe657	0.00011248577
117	0x00000000	0.0
118	0x00000000	0.0
119	0x410e3652	8.888262
120	0x41084e35	8.5190935
121	0x4105f5e1	8.372529
122	0x00000000	0.0
123	0x40f9ecf0	7.810173
124	0x3f9cb534	1.2242799
125	0x00000000	0.0
126	0x3fd55098	1.666522
127	0x00000000	0.0
128	0x3c56b673	0.013105023
129	0x00000000	0.0
130	0x307e9553	9.2616864e-10
131	0x00000000	0.0
132	0x253a783b	1.6173664e-16
133	0x24dadb8f	9.4914376e-17
134	0x00000000	0.0
135	0x3f0b8f0b	0.5451514
136	0x40822530	4.0670395
137	0x40d2edc9	6.5915265
138	0x3f290d3c	0.6603582
139	0x3f52c08c	0.82325053
140	0x00000000	0.0
141	0x301f10bc	5.7867644e-10
142	0x3ea68530	0.3252349
143	0x00000000	0.0
144	0x3acd06b5	0.0015642258
145	0x3b5273c8	0.0032112468
146	0x412d9c25	10.850621
147	0x00000000	0.0
148	0x31f6c9fc	7.1825053e-09
149	0x41218380	10.0946045
150	0x3fd10211	1.6328756
151	0x00000000	0.0
152	0x00000000	0.0
153	0x00000000	0.0
154	0x00000000	0.0
155	0x3bba8c91	0.0056930264
156	0x00000000	0.0
157	0x3d844be2	0.06459786
158	0x3e95a039	0.29223803
159	0x3f4b67a1	0.79455
160	0x00000000	0.0
161	0x3ef0bf97	0.4702117
162	0x3e187568	0.14888537
163	0x313881c8	2.6849296e-09
164	0x00000000	0.0
165	0x00000000	0.0
166	0x40423433	3.034436
167	0x00000000	0.0
168	0x00000000	0.0
169	0x00000000	0.0
170	0x3f05cc71	0.5226508
171	0x00000000	0.0
172	0x00000000	0.0
173	0x00000000	0.0
174	0x00000000	0.0
175	0x00000000	0.0
176	0x00000000	0.0
177	0x00000000	0.0
178	0x3e66fb84	0.22556883
179	0x3fc3faf8	1.5310965
180	0x00000000	0.0
181	0x3ef1d8ed	0.47235814
182	0x38c4fa90	9.392679e-05
183	0x00000000	0.0
184	0x00000000	0.0
185	0x41113146	9.07453
186	0x00000000	0.0
187	0x00000000	0.0
188	0x00000000	0.0
189	0x00000000	0.0
190	0x3025a2de	6.02581e-10
191	0x3f7ca600	0.98690796
192	0x00000000	0.0
193	0x3e89cf72	0.2691608
194	0x3d121c93	0.03567178
195	0x00000000	0.0
196	0x2ae77bdf	4.1119796e-13
197	0x3a03b8b5	0.0005024777
198	0x33516672	4.8754778e-08
199	0x2cc1e98b	5.5113184e-12
200	0x39b470be	0.00034416275
201	0x00000000	0.0
202	0x00000000	0.0
203	0x00000000	0.0
204	0x00000000	0.0
205	0x30d29d7d	1.5324272e-09
206	0x00000000	0.0
207	0x00000000	0.0
208	0x00000000	0.0
209	0x00000000	0.0
210	0x2b7d8ac4	9.007623e-13
211	0x2bb32d70	1.2731326e-12
212	0x38c6ccaf	9.479501e-05
213	0x3f2696c2	0.6507379
214	0x3cd94040	0.026519895
215	0x00000000	0.0
216	0x00000000	0.0
217	0x3ae06eb3	0.0017122835
218	0x3d7c6d84	0.06162788
219	0x3e6139dd	0.2199473
220	0x381a8ac3	3.6845693e-05
221	0x3d83627f	0.06415271
222	0x00000000	0.0
223	0x00000000	0.0
224	0x00000000	0.0
225	0x3f01ed3f	0.50752634
226	0x3c194589	0.009354957
227	0x00000000	0.0
228	0x00000000	0.0
229	0x00000000	0.0
230	0x3e302f43	0.17205529
231	0x3ae0d233	0.0017152488
232	0x3cec5b19	0.028852032
233	0x385daecf	5.285331e-05
234	0x00000000	0.0
235	0x00000000	0.0
236	0x00000000	0.0
237	0x3a67eb54	0.00088470173
238	0x272c41f9	2.3905559e-15
239	0x40c36831	6.1064687
240	0x3b0084d1	0.0019610415
241	0x00000000	0.0
242	0x00000000	0.0
243	0x3edff65d	0.43742648
244	0x3fb49ae5	1.410977
245	0x40275c5e	2.6150126
246	0x00000000	0.0
247	0x00000000	0.0
248	0x00000000	0.0
249	0x3f0ea8bf	0.55726236
250	0x00000000	0.0
251	0x00000000	0.0
252	0x00000000	0.0
253	0x00000000	0.0
254	0x41c6623c	24.797966
255	0x00000000	0.0

momentum_buffer f4 [160, 50]
0	0x404938bc	3.1440878
1	0x40eb0f09	7.3455853
2	0x00000000	0.0
3	0x41076a99	8.463525
4	0x40d2d295	6.588206
5	0x413c8575	11.782582
6	0xc05f2416	-3.4865775
7	0x00000000	0.0
8	0x00000000	0.0
9	0x00000000	0.0
10	0x00000000	0.0
11	0x00000000	0.0
12	0x40217967	2.5230348
13	0x409c0749	4.8758893
14	0x407e2558	3.9710293
15	0x00000000	0.0
16	0x00000000	0.0
17	0x4139ebe3	11.62009
18	0x40eb2763	7.348558
19	0x00000000	0.0
20	0x4107bbdc	8.483364
21	0x40e9d72b	7.3075156
22	0x40992052	4.7851954
23	0x00000000	0.0
24	0x00000000	0.0
25	0x00000000	0.0
26	0x4107cab0	8.486984
27	0x00000000	0.0
28	0x406ba617	3.6820123
29	0x410865a0	8.524811
30	0x00000000	0.0
31	0x41490206	12.562994
32	0x40c50847	6.1572604
33	0x40471e4a	3.1112237
34	0x4014ae9e	2.3231578
35	0x00000000	0.0
36	0x412976b9	10.591485
37	0x3f99f545	1.2027975
38	0x40e4e8a4	7.1533985
39	0x00000000	0.0
40	0x40438018	3.0546932
41	0xbfd2e67a	-1.6476586
42	0x00000000	0.0
43	0x410aea5b	8.682216
44	0x406a069b	3.6566532
45	0x00000000	0.0
46	0x40259436	2.587171
47	0x407730e1	3.8623583
48	0xc159f264	-13.621677
49	0x404f2196	3.236425
50	0x00000000	0.0
51	0x00000000	0.0
52	0x40dc004c	6.8750362
53	0x00000000	0.0
54	0x410da27a	8.852167
55	0x00000000	0.0
56	0x00000000	0.0
57	0x00000000	0.0
58	0x00000000	0.0
59	0xc0ec485d	-7.3838334
60	0x406319e3	3.548455
61	0x00000000	0.0
62	0x00000000	0.0
63	0x40afe48e	5.4966497
64	0x00000000	0.0
65	0xc19a408c	-19.281517
66	0x416796f3	14.474353
67	0x00000000	0.0
68	0x00000000	0.0
69	0x40efa869	7.489308
70	0x419437ba	18.52721
71	0x404ae158	3.170004
72	0x00000000	0.0
73	0x410db817	8.857444
74	0x405adbd3	3.419667
75	0x400a0aa5	2.1568997
76	0x411f3812	9.951189
77	0xc185f406	-16.744152
78	0x00000000	0.0
79	0x41e2e76c	28.362999
80	0x00000000	0.0
81	0xc1ff34a2	-31.9007
82	0xc139db96	-11.61611
83	0x40381228	2.8761082
84	0xc10744bd	-8.454282
85	0x00000000	0.0
86	0x00000000	0.0
87	0x00000000	0.0
88	0x00000000	0.0
89	0x00000000	0.0
90	0x4041a05f	3.0254133
91	0x00000000	0.0
92	0x4124f156	10.30892
93	0x40d24447	6.5708346
94	0x00000000	0.0
95	0xc028a4fb	-2.6350696
96	0x415c38ec	13.763897
97	0x00000000	0.0
98	0x40bb41b0	5.8517685
99	0x409b6e44	4.85721
100	0x00000000	0.0
101	0x4094e1fc	4.652586
102	0x00000000	0.0
103	0x00000000	0.0
104	0x40eed5fc	7.463621
105	0x413a402e	11.640669
106	0xc13316d0	-11.193069
107	0x41848d92	16.569126
108	0xc0c871ff	-6.2639155
109	0x411f3bb8	9.95208
110	0x00000000	0.0
111	0x00000000	0.0
112	0x408f1659	4.471478
113	0xc0f7cad6	-7.7435102
114	0xc1986735	-19.050394
115	0x00000000	0.0
116	0x40322285	2.783357
117	0x00000000	0.0
118	0x00000000	0.0
119	0xc18b209a	-17.390919
120	0xc21032c3	-36.049572
121	0x40a1a43f	5.0512996
122	0x00000000	0.0
123	0xc1641bd4	-14.256794
124	0x41252ed9	10.323937
125	0x00000000	0.0
126	0x40a82de3	5.2556014
127	0x00000000	0.0
128	0x4156f758	13.435387
129	0x00000000	0.0
130	0x40bc7fe8	5.8906136
131	0x00000000	0.0
132	0x401ebe2e	2.4803576
133	0x4010841a	2.2580628
134	0x00000000	0.0
135	0x412f2ec0	10.948914
136	0x40e5be0d	7.1794496
137	0xc11da290	-9.852188
138	0x415bcb37	13.737113
139	0x411fce93	9.987933
140	0x00000000	0.0
141	0x4114b5c2	9.294374
142	0x412c0bd0	10.752884
143	0x00000000	0.0
144	0x3f3813c2	0.7190515
145	0x404751ca	3.114367
146	0x41f630ca	30.773823
147	0x00000000	0.0
148	0x4100ef38	8.058403
149	0xc1d51489	-26.635027
150	0x4041c76d	3.027797
151	0x00000000	0.0
152	0x00000000	0.0
153	0x00000000	0.0
154	0x00000000	0.0
155	0x40a76f9c	5.232374
156	0x00000000	0.0
157	0xc0f78aac	-7.7356777
158	0xbf33c31c	-0.7021959
159	0xc118896a	-9.533548
160	0x00000000	0.0
161	0xc145e3e1	-12.3681345
162	0xc10b5f3e	-8.7107525
163	0x40e6af30	7.208885
164	0x00000000	0.0
165	0x00000000	0.0
166	0xc0bc97c9	-5.8935285
167	0x00000000	0.0
168	0x00000000	0.0
169	0x00000000	0.0
170	0xc0db5674	-6.8543034
171	0x00000000	0.0
172	0x00000000	0.0
173	0x00000000	0.0
174	0x00000000	0.0
175	0x00000000	0.0
176	0x00000000	0.0
177	0x00000000	0.0
178	0x41483c67	12.514747
179	0x403a2615	2.9085743
180	0x00000000	0.0
181	0xc0e21646	-7.065219
182	0x4089617a	4.293149
183	0x00000000	0.0
184	0x00000000	0.0
185	0xbfe924d9	-1.821437
186	0x00000000	0.0
187	0x00000000	0.0
188	0x00000000	0.0
189	0x00000000	0.0
190	0x40e92e33	7.2868896
191	0xc1325062	-11.144625
192	0x00000000	0.0
193	0xc166b519	-14.419213
194	0xc0f33a94	-7.6009007
195	0x00000000	0.0
196	0x4068124b	3.6261165
197	0x40973a0e	4.7258368
198	0x408a1cc9	4.316014
199	0x40e6b1a7	7.209186
200	0x416d7f7e	14.843626
201	0x00000000	0.0
202	0x00000000	0.0
203	0x00000000	0.0
204	0x00000000	0.0
205	0x404bbb60	3.1833115
206	0x00000000	0.0
207	0x00000000	0.0
208	0x00000000	0.0
209	0x00000000	0.0
210	0x40ddf216	6.9358015
211	0x40e21fb3	7.0663695
212	0x41124589	9.141976
213	0xbf49d1c2	-0.7883569
214	0x40f688d0	7.7042007
215	0x00000000	0.0
216	0x00000000	0.0
217	0x4154c6b9	13.298516
218	0x4116b1f2	9.418444
219	0x4149cc1d	12.612332
220	0x410d1c3a	8.819391
221	0x4187d7ac	16.980309
222	0x00000000	0.0
223	0x00000000	0.0
224	0x00000000	0.0
225	0x4138b9f4	11.545399
226	0x414ee4fe	12.930906
227	0x00000000	0.0
228	0x00000000	0.0
229	0x00000000	0.0
230	0x4134b849	11.2949915
231	0x404aa7cc	3.1664915
232	0x412e5301	10.895265
233	0x410bf51c	8.747341
234	0x00000000	0.0
235	0x00000000	0.0
236	0x00000000	0.0
237	0x41646263	14.27402
238	0x40507724	3.2572718
239	0xc1568c4c	-13.409252
240	0x410b4c3a	8.70611
241	0x00000000	0.0
242	0x00000000	0.0
243	0xc06e3bb5	-3.7223942
244	0x41a0d2ce	20.102932
245	0xc137cead	-11.487958
246	0x00000000	0.0
247	0x00000000	0.0
248	0x00000000	0.0
249	0xc174eb71	-15.307481
250	0x00000000	0.0
251	0x00000000	0.0
252	0x00000000	0.0
253	0x00000000	0.0
254	0x41ceefe2	25.86713
255	0x00000000	0.0
