Multistate Intensity Models/SDDR_outputs/best_estimator_nn_event_20.pth (torch, 462925 bytes, 282 tensors)

square_avg f4 [3, 1]
0.00036875514 6.260633e-06 2.1825353e-09
00000000: 7a55 c139 6e12 d236 91fb 1531

momentum_buffer f4 [3, 1]
0.5646981 -1.2507374 0.42546102
00000000: 0e90 103f 2a18 a0bf 07d6 d93e

square_avg f4 [3]
1.7072713e-06 9.0289426e-08 5.456338e-10
00000000: 6525 e535 23e5 c133 91fb 1530

momentum_buffer f4 [3]
-0.70200497 -2.8940442 0.43284112
00000000: 99b6 33bf 0538 39c0 5a9d dd3e

square_avg f4 [3, 3]
0.0 0.0 0.0 3.148966e-12 3.1532226e-09 2.431255e-10 0.00015710905 0.0003484887
0.0
00000000: 0000 0000 0000 0000 0000 0000 ba96 5d2c
00000010: 14b0 5831 dfa8 852f a4bd 2439 5db5 b639
00000020: 0000 0000

momentum_buffer f4 [3, 3]
0.0 0.0 0.0 0.34516567 0.43043947 0.4745707 0.98633826 0.6863635
0.0
00000000: 0000 0000 0000 0000 0000 0000 8eb9 b03e
00000010: 9062 dc3e eefa f23e aa80 7c3f 85b5 2f3f
00000020: 0000 0000

square_avg f4 [3]
0.0 2.9484106e-08 8.5997135e-06
00000000: 0000 0000 3c44 fd32 7d47 1037

momentum_buffer f4 [3]
0.0 1.9685565 -0.32181937
00000000: 0000 0000 a9f9 fb3f 82c5 a4be

square_avg f4 [3, 3]
0.0 3.837167e-08 3.5028286e-05 0.0 2.4866756e-08 1.6338585e-05 0.0 0.0
8.183547e-07
00000000: 0000 0000 19ce 2433 56eb 1238 0000 0000
00000010: 939a d532 d80e 8937 0000 0000 0000 0000
00000020: e8ac 5b35

momentum_buffer f4 [3, 3]
0.0 -0.038107708 -0.9399022 0.0 -0.41145858 -0.17520703 0.0 0.0
0.51185614
00000000: 0000 0000 d416 1cbd 6e9d 70bf 0000 0000
00000010: b3aa d2be 7969 33be 0000 0000 0000 0000
00000020: 0109 033f

square_avg f4 [3]
4.5699076e-06 1.2626694e-05 1.0356682e-08
00000000: 3557 9936 3dd7 5337 2bed 3132

momentum_buffer f4 [3]
-0.78691494 0.6670847 0.51461303
00000000: 4273 49bf 10c6 2a3f aebd 033f

square_avg f4 [3, 3]
7.1821484e-07 1.18513306e-07 6.6286016e-10 1.1918933e-06 1.9763542e-07 1.036401e-09 6.037154e-07 1.0052622e-07
3.0705188e-08
00000000: 59cb 4035 6181 fe33 a334 3630 24f9 9f35
00000010: 9c35 5434 1e71 8e30 020f 2235 e0e0 d733
00000020: b6e0 0333

momentum_buffer f4 [3, 3]
0.35778835 0.121527165 -0.5661842 -0.25991043 -0.27077726 -0.73028636 0.14578982 -0.0987213
-0.7677244
00000000: 0930 b73e 3ce3 f83d 73f1 10bf fb12 85be
00000010: 51a3 8abe 0cf4 3abf ed49 153e 652e cabd
00000020: 9689 44bf

square_avg f4 [3]
8.573113e-11 8.0584824e-11 1.9454898e-08
00000000: 5686 bc2e 3935 b12e c61d a732

momentum_buffer f4 [3]
-0.2395902 -0.12630516 -0.23453829
00000000: 2257 75be 2456 01be ce2a 70be

square_avg f4 [5, 3]
5.9414518e-08 2.0512459e-07 1.0857013e-07 1.2271785e-07 4.233103e-07 2.2375569e-07 2.0253958e-07 7.004997e-07
3.705243e-07 7.2840725e-09 2.9041598e-08 1.6315555e-08 7.625836e-08 2.634466e-07 1.384507e-07
00000000: f42e 7f33 3840 5c34 0f27 e933 6dc4 0334
00000010: 5343 e334 7f41 7034 a879 5934 f909 3c35
00000020: 79ec c634 6147 fa31 2677 f932 4926 8c32
00000030: 7ac3 a333 d36f 8d34 0aa9 1434

momentum_buffer f4 [5, 3]
0.11897277 0.020100888 0.4633847 -0.092067644 -0.14890306 -0.17018278 -0.19149008 -0.28352654
-0.31631672 -0.07577281 0.34185353 0.5171622 -0.1882515 -0.27195734 -0.3395823
00000000: ffa7 f33d 9eaa a43c c240 ed3e f68d bcbd
00000010: 0b7a 18be 6544 2ebe fa15 44be 642a 91be
00000020: 44f4 a1be c62e 9bbd 6d07 af3e be64 043f
00000030: 00c5 40be fe3d 8bbe bbdd adbe

square_avg f4 [5]
1.0168242e-09 4.986736e-18 1.3933416e-17 1.9877192e-11 2.957034e-18
00000000: 52c0 8b30 64fa b722 5983 8023 75d7 ae2d
00000010: cb30 5a22

momentum_buffer f4 [5]
-0.18276249 0.26000687 0.34632254 -0.4846186 0.2730965
00000000: 1726 3bbe 9f1f 853e 3051 b13e ee1f f8be
00000010: 4ed3 8b3e

square_avg f4 [17, 12]
8.216992e-06 1.0774946e-05 6.35532e-06 4.0647296e-06 1.1633826e-05 2.0750953e-05 2.9875223e-06 2.234542e-06
9.016472e-07 3.155922e-06 1.28492e-06 2.7603295e-07 1.4543319e-05 9.157882e-06 9.2171456e-07 1.4482218e-05
1.872512e-05 7.2840135e-06 9.943435e-06 1.4186212e-05 5.7522465e-07 6.0171824e-06 2.7355614e-07 5.592109e-09
2.2999368e-05 3.4158045e-05 6.9211376e-07 2.9163217e-05 4.978205e-05 3.450198e-05 1.382978e-05 3.289861e-05
6.543393e-06 9.3100125e-06 3.6942387e-07 4.8200667e-07 3.4617507e-05 8.5795e-05 2.6568368e-05 7.125628e-05
0.00010748161 3.7105154e-05 6.1608385e-05 8.836159e-05 1.7251803e-05 2.2691274e-05 4.5039454e-07 1.4909123e-06
6.88202e-05 6.44796e-05 0.00035756643 0.00016468018 0.00019570757 0.00015897391 6.3171596e-05 0.00012329055
1.9029414e-05 1.956124e-05 1.7687982e-05 3.476092e-07 3.3586653e-05 3.8481594e-05 1.5399744e-05 4.7011905e-05
0.00012844495 2.9014851e-05 6.1645675e-05 0.00010047045 6.606872e-06 6.4993665e-06 1.9098351e-07 2.1492087e-07
2.4510691e-05 1.4819855e-05 0.0005443193 5.2437324e-05 1.955122e-05 0.00016228686 1.2051339e-05 2.6117455e-05
2.0565422e-07 4.515327e-06 9.744586e-06 2.8806633e-09 8.20098e-05 3.5615492e-05 0.00013425406 0.00012277077
6.882574e-05 0.00011451529 8.484509e-05 0.00020170072 5.9711138e-06 2.3368597e-05 3.5142518e-06 1.8482485e-08
6.200201e-05 4.602565e-05 0.00028146882 8.237447e-05 7.4904616e-05 9.8802106e-05 4.1256364e-05 0.00015584567
6.3978036e-06 1.4131785e-05 4.412659e-06 5.619386e-07 1.5719797e-05 6.242214e-05 5.314911e-07 2.6739717e-05
4.1154897e-05 2.899406e-05 2.3370776e-05 1.0663225e-05 1.207298e-05 6.508492e-06 5.7090244e-07 5.2255416e-07
2.9892326e-05 2.220005e-05 0.00050423207 3.323583e-05 3.9177143e-05 0.00011920772 1.6272304e-05 1.3464288e-05
2.5605416e-06 9.962598e-06 5.3530866e-06 2.918094e-07 2.9310554e-06 5.86844e-06 2.1539793e-07 6.1207934e-06
9.325788e-06 6.7244277e-06 1.20994455e-05 3.505299e-05 8.6762e-08 3.6557049e-06 3.4584702e-10 1.7768042e-13
3.8520287e-05 3.5740926e-05 1.2693208e-06 4.3048327e-05 2.939447e-05 4.606364e-05 3.562951e-05 0.00011557731
4.889748e-06 1.6567283e-05 1.3402696e-06 2.421161e-07 1.6380254e-05 1.2876352e-05 0.00020230825 3.022215e-05
1.1942732e-05 6.974206e-05 8.720744e-06 4.2804586e-05 1.0646916e-06 2.6984917e-06 6.41631e-06 7.3233906e-08
2.2580596e-05 2.865819e-05 0.00038813133 2.8939472e-05 8.2905426e-05 0.00012334887 9.817773e-06 1.0466537e-05
2.940719e-06 1.3071929e-05 7.691971e-06 9.217023e-08 2.1634052e-05 2.7140957e-05 0.00013307443 6.203049e-05
6.571425e-05 6.572511e-05 1.2067845e-05 4.8492253e-05 7.1269906e-06 3.2031387e-06 5.7338148e-06 1.0514781e-07
8.943117e-05 7.925237e-05 0.00029743757 0.00010946548 0.00010351512 0.00021047538 2.487174e-05 0.00024207846
1.805217e-05 7.954016e-06 1.792778e-05 5.3904915e-07
00000000: b6db 0937 0ac6 3437 c83f d536 c363 8836
00000010: e72e 4337 5512 ae37 3e7d 4836 24f5 1536
00000020: b908 7235 54ca 5336 8475 ac35 ae31 9434
00000030: 14ff 7337 cea4 1937 be6b 7735 a7f8 7237
00000040: e413 9d37 3369 f436 bad2 2637 5101 6e37
00000050: 2369 1a35 34e7 c936 45dd 9234 b624 c031
00000060: c4ee c037 ec44 0f38 b2c9 3935 88a3 f437
00000070: 12cd 5038 38b6 1038 7406 6837 9dfc 0938
00000080: 518f db36 3332 1c37 3b55 c634 3f63 0135
00000090: 4432 1138 d7ec b338 23df de37 6d6f 9538
000000a0: c067 e138 5ba1 1b38 c033 8138 c44e b938
000000b0: f7b7 9037 2459 be37 c1cd f134 5b1b c835
000000c0: 9053 9038 3939 8738 c177 bb39 00ae 2c39
000000d0: da36 4d39 3cb2 2639 fe7a 8438 8e47 0139
000000e0: 5ba1 9f37 7117 a437 a760 9437 0b9f ba34
000000f0: 65df 0c38 4c67 2138 b32e 8137 a62e 4538
00000100: 2eaf 0639 eb64 f337 c547 8138 aab3 d238
00000110: 99b0 dd36 2215 da36 2611 4d34 00c5 6634
00000120: 4f9c cd37 cba2 7837 a6b0 0e3a 26f0 5b38
00000130: ed01 a437 8c2b 2a39 1b30 4a37 cf16 db37
00000140: cdd1 5c34 5d82 9736 ae7c 2337 2af5 4531
00000150: adfc ab38 d861 1538 8dc6 0c39 07bc 0039
00000160: 8a56 9038 ee27 f038 dcee b138 a07f 5339
00000170: 7a5b c836 ae07 c437 63d6 6b36 6ac3 9e32
00000180: 1307 8238 aa0b 4138 1b92 9339 75c0 ac38
00000190: 1c16 9d38 fa33 cf38 af0a 2d38 816a 2339
000001a0: b7ac d636 8e17 6d37 7410 9436 20d8 1635
000001b0: 02de 8337 a2e8 8238 caab 0e35 1b4f e037
000001c0: bc9d 2c38 4538 f337 5c0c c437 34e6 3237
000001d0: 0e8d 4a37 8563 da36 1e40 1935 a645 0c35
000001e0: 48c1 fa37 3f3a ba37 712e 043a b366 0b38
000001f0: 2352 2438 28ff f938 8280 8837 ade4 6137
00000200: c5d5 2b36 0825 2737 aa9e b336 fba9 9c34
00000210: 26b3 4436 84e9 c436 2248 6734 3761 cd36
00000220: f475 1c37 65a2 e136 b9fe 4a37 dd05 1338
00000230: ea51 ba33 8854 7536 a421 be2f e50c 482a
00000240: d890 2138 87e8 1538 885d aa35 ca8e 3438
00000250: 2594 f637 7534 4138 e570 1538 1962 f238
00000260: 9e12 a436 f8f9 8a37 50e3 b335 2ffc 8134
00000270: 5468 8937 8307 5837 b522 5439 9385 fd37
00000280: a55d 4837 7c42 9238 4f4f 1237 1389 3338
00000290: 86e6 8e35 bc17 3536 af4b d736 c444 9d33
000002a0: 766b bd37 ff66 f037 1b7e cb39 0bc3 f237
000002b0: 83dd ad38 3657 0139 04b7 2437 6f99 2f37
000002c0: 2b59 4536 824f 5b37 c40c 0137 1fef c533
000002d0: c67a b537 c3ac e337 e589 0b39 5e16 8238
000002e0: 12d0 8938 e6d5 8938 0077 4a37 2964 4b38
000002f0: 6224 ef36 81f5 5636 1865 c036 9fcd e133
00000300: fe8c bb38 4b34 a638 65f1 9b39 d590 e538
00000310: 4216 d938 0eb3 5c39 a8a3 d037 71d6 7d39
00000320: bd6e 9737 3d72 0537 9d63 9637 2db3 1035

momentum_buffer f4 [17, 12]
-1.8324599 1.3091624 -1.1950953 -2.1849737 -0.60915804 5.036414 7.8208075 2.82727
2.9677463 0.34328535 1.9451531 1.3713177 -0.5699855 0.5723811 -0.20413843 6.8743715
-0.6254844 0.4761573 1.54231 1.0433347 1.4155587 0.002897799 1.4873452 0.6828514
8.384051 5.2391586 -0.75875604 6.055019 -1.6006075 -5.1666346 2.2815685 1.8383816
4.9667478 4.863332 11.668194 7.709093 -0.31594744 -5.7723365 -0.67982864 -0.8042416
2.1024785 -1.5343412 1.9077886 -0.6049962 -0.7095318 -6.6675506 0.8703427 -14.683718
-1.3839538 8.067156 -6.4957304 4.2816787 0.7501081 -3.2154436 -1.5629277 -0.5195264
0.14310823 1.3773701 -0.022074781 1.317031 4.8110447 -1.6878111 0.49902633 0.6319868
3.1865904 -3.6278722 -4.489948 -2.3233285 -4.9814024 9.353216 1.3881078 13.303939
3.847403 1.4709326 2.1835797 -2.4065573 -2.8526201 1.9639161 3.8913882 6.59928
8.192153 4.728635 11.721259 -0.89084494 -3.261633 4.7706704 -1.238596 -2.0993075
2.817933 0.67272335 -3.0342321 -2.0750809 2.5775688 8.194165 -1.5003566 0.6480281
2.0057163 -3.9525068 1.4077346 -0.5885481 -0.5434162 0.25408638 -2.2155023 2.024704
1.7567708 -3.4133594 5.431974 5.574679 2.4103477 2.3591855 -0.5275342 4.837007
5.5623865 -0.46310934 5.086985 3.8800035 -0.41621673 3.5401797 5.1346917 -11.804136
1.0075877 0.9136478 1.2880007 -8.777054 1.0473406 2.676352 -3.3055608 0.5577107
-5.2586036 3.5839374 6.404691 2.4430997 10.122381 -0.4136519 0.8502029 -1.6568962
-5.3454027 4.999709 0.41995 3.222231 -0.6689709 -2.3383367 0.04132776 -0.21986677
4.4792876 -2.7229114 0.8040848 -7.098412 2.6269255 -0.18244731 -1.1399063 1.4598897
-1.1111788 -4.5254636 -0.5132708 12.464347 -0.9850966 -7.5632305 -4.0206666 2.2762067
-3.4760172 -3.353307 -13.205823 -3.5379815 1.0950369 4.5606413 -6.177447 -0.96745014
2.162623 2.9362874 -1.2023568 -0.5398001 -1.1720963 2.2456827 -3.6999178 3.4365025
-0.27793565 1.8224218 -3.1250212 2.5103307 -4.1748323 -0.08834006 -1.0447258 -0.607563
5.044375 -0.069370314 1.4421493 1.3349686 1.0765091 -6.6704717 -3.3927941 5.9854946
0.9842138 -3.0371792 3.999668 -4.0371847 3.4975336 0.722958 -7.2752957 0.42277774
-0.38625234 4.143195 2.227913 19.969994
00000000: 0c8e eabf a292 a73f e2f8 98bf 9cd6 0bc0
00000010: c8f1 1bbf 4e2a a140 0e44 fa40 fef1 3440
00000020: 8eef 3d40 19c3 af3e c7fa f83f 5787 af3f
00000030: 92ea 11bf 9187 123f aa09 51be dafa db40
00000040: bf1f 20bf e4ca f33e 6a6a c53f fe8b 853f
00000050: 0731 b53f 00e9 3d3b 5461 be3f 59cf 2e3f
00000060: 1325 0641 30a7 a740 d63d 42bf b7c2 c140
00000070: b5e0 ccbf 1255 a5c0 3805 1240 1750 eb3f
00000080: 99ef 9e40 6aa0 9b40 ecb0 3a41 e4b0 f640
00000090: ddc3 a1be fbb6 b8c0 4009 2ebf c7e2 4dbf
000000a0: 028f 0640 4b65 c4bf 6b32 f43f 08e1 1abf
000000b0: e0a3 35bf 935c d5c0 c7ce 5e3f 82f0 6ac1
000000c0: 6625 b1bf 1213 0141 06dd cfc0 8303 8940
000000d0: 1607 403f d4c9 4dc0 040e c8bf afff 04bf
000000e0: f78a 123e aa4d b03f 2cd6 b4bc 7994 a83f
000000f0: 14f4 9940 320a d8bf 6180 ff3e e3c9 213f
00000100: 19f1 4b40 0f2f 68c0 a7ad 8fc0 6ab1 14c0
00000110: a667 9fc0 c6a6 1541 84ad b13f efdc 5441
00000120: da3b 7640 8547 bc3f c5bf 0b40 0905 1ac0
00000130: 5491 36c0 9a61 fb3f 810c 7940 4d2d d340
00000140: 0f13 0341 fa50 9740 478a 3b41 6a0e 64bf
00000150: 98be 50c0 55a9 9840 508a 9ebf 0e5b 06c0
00000160: 0459 3440 9937 2c3f dc30 42c0 20ce 04c0
00000170: e3f6 2440 4d1b 0341 af0b c0bf 2be5 253f
00000180: a85d 0040 dff5 7cc0 a630 b43f 17ab 16bf
00000190: 531d 0bbf 9c17 823e caca 0dc0 c094 0140
000001a0: dedd e03f 7b74 5ac0 bbd2 ad40 c563 b240
000001b0: 2343 1a40 e5fc 1640 7b0c 07bf c3c8 9a40
000001c0: 12ff b140 ab1c edbe 95c8 a240 fa51 7840
000001d0: 5c1a d5be 4e92 6240 654f a440 bedd 3cc1
000001e0: a2f8 803f d2e4 693f 35dd a43f d06e 0cc1
000001f0: 420f 863f 5a49 2b40 4f8e 53c0 21c6 0e3f
00000200: 7b46 a8c0 3b5f 6540 3bf3 cc40 bf5b 1c40
00000210: 46f5 2141 2fca d3be e6a6 593f 2d15 d4bf
00000220: 8a0d abc0 9efd 9f40 b003 d73e 0839 4e40
00000230: ad41 2bbf 4fa7 15c0 4c47 293d c124 61be
00000240: 5356 8f40 2e44 2ec0 80d8 4d3f 3126 e3c0
00000250: 8c1f 2840 78d3 3abe 73e8 91bf aadd ba3f
00000260: 1b3b 8ebf 99d0 90c0 b765 03bf f76d 4741
00000270: 4a2f 7cbf fc05 f2c0 4da9 80c0 5fad 1140
00000280: 1177 5ec0 959c 56c0 0d4b 53c1 4a6e 62c0
00000290: 2b2a 8c3f c6f0 9140 a5ad c5c0 d0aa 77bf
000002a0: 6a68 0a40 22ec 3b40 d4e6 99bf 5730 0abf
000002b0: 4007 96bf 44b9 0f40 74cb 6cc0 a8ef 5b40
000002c0: 954d 8ebe 1e45 e93f 5900 48c0 42a9 2040
000002d0: 3a98 85c0 a2eb b4bd 93b9 85bf 4089 1bbf
000002e0: 856b a140 0612 8ebd 5998 b83f 40e0 aa3f
000002f0: 0dcb 893f 8174 d5c0 8a23 59c0 2c89 bf40
00000300: 70f5 7b3f 2561 42c0 8ffa 7f40 9e30 81c0
00000310: 97d7 5f40 c713 393f 39cf e8c0 5376 d83e
00000320: dec2 c5be 0e95 8440 2096 0e40 8cc2 9f41

square_avg f4 [17]
8.082652e-06 2.0064797e-05 3.503278e-05 5.7707013e-05 9.0089576e-05 3.577238e-05 3.355813e-05 9.411415e-05
7.038959e-05 2.6870357e-05 3.39966e-05 1.1145264e-05 5.8179598e-05 2.7085369e-05 3.3303735e-05 4.7628815e-05
0.00012394931
00000000: ba9a 0737 d350 a837 29f0 1238 6f0a 7238
00000010: 79ee bc38 4d0a 1638 c5c0 0c38 265f c538
00000020: 209e 9338 a767 e137 9297 0e38 8bfc 3a37
00000030: de05 7438 6335 e337 9daf 0b38 0dc5 4738
00000040: 64f8 0139

momentum_buffer f4 [17]
3.9631338 2.1104078 0.68601274 7.4483304 -3.771286 2.692356 0.3914743 -2.750843
-1.7844846 1.2203741 1.9772618 0.50464696 -1.7666135 -1.550571 5.32382 -0.19281316
1.239626
00000000: fca3 7d40 ec10 0740 889e 2f3f b958 ee40
00000010: c05c 71c0 904f 2c40 526f c83e d00d 30c0
00000020: fe69 e4bf 3835 9c3f ea16 fd3f 8b30 013f
00000030: 6420 e2bf 1c79 c6bf bc5c aa40 d070 45be
00000040: 11ac 9e3f

square_avg f4 [17, 17]
5.194842e-06 3.5646553e-05 2.8727507e-05 2.928378e-05 0.00052733615 2.420058e-05 0.0002050717 0.00022514835
0.0009751752 6.0431106e-05 0.0008863957 1.7986424e-06 0.00023889463 5.1158422e-05 0.00013087079 0.00027554223
0.00037819607 3.1717923e-06 1.122531e-05 1.3765801e-05 6.675868e-06 0.00049646606 3.93167e-06 0.00017436883
5.903367e-05 0.00010032574 9.331267e-06 2.2031725e-05 1.0351605e-06 1.6182705e-05 2.7841857e-05 0.00015321249
7.0486813e-06 3.502886e-05 6.9760665e-07 6.878884e-07 4.1447356e-06 2.2710476e-06 1.4523746e-07 2.8543246e-07
1.6829998e-07 1.698443e-07 2.2956065e-07 1.6276289e-06 3.044018e-07 1.9302024e-07 2.9451897e-07 2.386911e-07
1.1630043e-06 2.4242266e-07 6.6047505e-07 1.8962469e-08 1.806086e-10 1.7947245e-08 7.449909e-07 7.494766e-05
5.022112e-07 9.061758e-06 1.5538085e-06 2.6539315e-10 8.8036266e-08 1.2646133e-07 5.993518e-11 1.9742236e-11
3.077172e-07 1.0597382e-05 2.714891e-07 7.367278e-08 7.995508e-06 3.1408322e-06 2.0559766e-05 3.4280834e-05
0.00030914551 1.3794719e-05 0.00018159433 4.9560153e-05 6.988544e-05 2.4575213e-05 1.4591161e-05 1.2607117e-06
1.3857084e-06 1.8053686e-05 9.371873e-05 8.594093e-05 3.920496e-06 3.0659887e-08 3.5181722e-06 2.1659956e-05
8.939191e-06 1.4714625e-05 3.1186814e-06 3.9800534e-06 1.0990608e-05 2.289154e-05 2.9996164e-07 2.214191e-05
1.5489185e-06 5.130336e-06 7.8985477e-07 9.86668e-07 6.368189e-06 1.6926302e-05 1.1679631e-05 5.6765834e-06
8.988024e-06 3.9688603e-06 1.8343966e-06 1.3365254e-06 1.4889425e-06 7.090991e-06 5.279087e-06 4.5413264e-05
7.1559502e-06 4.730526e-09 1.34949e-06 1.4601944e-05 8.0475265e-06 1.458355e-05 2.71357e-05 2.522176e-06
9.2108785e-06 8.1617345e-06 5.547954e-06 0.00012359335 4.9507476e-06 4.1904237e-05 3.814421e-05 0.00012304087
1.1483288e-05 4.1188992e-05 4.5755468e-07 2.5358877e-05 7.754932e-06 3.3117554e-05 8.840974e-06 3.9372324e-05
2.4118265e-07 1.3741884e-07 5.604843e-07 4.5197856e-07 1.4032756e-07 3.095636e-08 4.5287425e-08 1.682629e-09
1.2783706e-08 1.03561604e-07 4.579733e-11 4.5026628e-08 2.6770401e-09 1.4862582e-08 4.708405e-07 3.8144057e-09
8.5202805e-09 1.3396085e-07 3.573638e-07 4.045804e-09 3.769164e-08 2.8401817e-07 1.7709825e-08 1.2602223e-08
8.507389e-08 9.1818e-06 7.665041e-06 6.9999173e-06 1.4441855e-11 1.9744023e-06 1.8650228e-07 2.0004345e-08
2.74536e-06 1.0079378e-05 9.621103e-06 1.0408391e-05 4.6964116e-05 2.8050496e-05 0.0003762339 2.3228955e-05
0.00015167057 0.00013296116 0.00012697928 2.4852716e-05 2.03093e-05 3.023705e-06 4.3484713e-05 2.5383863e-05
0.00012085622 2.5682997e-05 5.638481e-06 9.488317e-07 3.9794676e-07 2.3090202e-07 3.1133925e-07 4.1007578e-08
1.2907861e-09 4.1567933e-08 7.973298e-08 5.121579e-08 1.5012579e-07 1.4542603e-08 3.0133105e-09 2.0512397e-07
3.1001647e-08 6.646537e-07 5.1929505e-10 1.5152031e-07 2.1740485e-07 1.6282302e-06 1.4430284e-05 2.8078844e-06
4.059818e-05 6.349608e-06 1.1897116e-05 2.772864e-05 6.9537336e-06 4.21255e-07 4.0393047e-06 1.1368691e-07
2.124798e-06 3.335474e-06 4.34244e-06 5.636838e-06 2.51836e-06 6.3647694e-06 5.3756494e-06 3.849819e-05
1.8458268e-05 0.00011355918 1.7276585e-05 4.458692e-05 9.070997e-05 8.558386e-05 1.4640186e-05 1.8656614e-05
2.2096276e-06 6.187594e-05 6.0111706e-06 2.8972378e-05 3.1663974e-05 9.2399005e-06 4.2882566e-06 2.6450172e-05
3.6194808e-05 2.0787356e-05 0.0001846108 1.3638144e-05 5.2344534e-05 5.0748913e-05 0.00033915395 5.500216e-05
0.00026053755 1.6908564e-06 7.950286e-05 2.3390823e-05 4.293717e-05 0.00010892148 0.00014670027 3.3470108e-06
00000000: 5a4f ae36 3283 1538 dafb f037 70a6 f537
00000010: ee3c 0a3a 5a02 cb37 8408 5739 cd15 6c39
00000020: e6a2 7f3a 6877 7d38 025d 683a e268 f135
00000030: ca7f 7a39 f092 5638 5c3a 0939 a776 9039
00000040: 9e48 c639 fada 5436 5754 3c37 aaf3 6637
00000050: 4501 e036 4625 023a caec 8336 c7d6 3639
00000060: ec9a 7738 f965 d238 7d8d 1c37 c5d0 b837
00000070: d8ef 8a35 18c0 8737 ef8d e937 aaa7 2039
00000080: b683 ec36 f4eb 1238 2a43 3b35 55a7 3835
00000090: 0213 8b36 4d68 1836 92f2 1b34 8a3d 9934
000000a0: f2b5 3434 725e 3634 277d 7634 e774 da35
000000b0: aa6c a334 0041 4f34 611e 9e34 7425 8034
000000c0: 8618 9c35 5126 8234 804b 3135 e9e2 a232
000000d0: cd94 462f 692a 9a32 63fb 4735 382d 9d38
000000e0: b1cf 0635 f407 1837 748c d035 c4e6 912f
000000f0: 730e bd33 6dc9 0734 82cc 832e 90a7 ad2d
00000100: 5434 a534 69cb 3137 2ec1 9134 0a36 9e33
00000110: 7224 0637 16c7 5236 c377 ac37 c4c8 0f38
00000120: cf14 a239 de6f 6737 5b6a 3e39 cfde 4f38
00000130: 768f 9238 de26 ce37 8fcc 7437 b935 a935
00000140: 94fc b935 ff71 9737 dc8a c438 2f3b b438
00000150: ce8c 8336 e7ae 0333 bd19 6c36 67b2 b537
00000160: 88f9 1537 d5de 7637 8a4a 5136 668c 8536
00000170: 4d64 3837 3507 c037 6a0a a134 64bd b937
00000180: 6fe4 cf35 4025 ac36 6806 5435 a86d 8435
00000190: 54ae d536 f5fc 8d37 a2f3 4337 7b79 be36
000001a0: 45cb 1637 402c 8536 6335 f635 aa62 b335
000001b0: add7 c735 26ef ed36 0323 b136 1f7a 3e38
000001c0: 251d f036 268a a231 2020 b535 dffa 7437
000001d0: dd03 0737 dfab 7437 79a1 e337 a742 2936
000001e0: 6c88 1a37 62ee 0837 9028 ba36 d698 0139
000001f0: 991e a636 55c2 2f38 09fd 1f38 8804 0139
00000200: 59a8 4037 58c2 2c38 d6a5 f534 c6b9 d437
00000210: 2e1b 0237 b4e7 0a38 b253 1437 b623 2538
00000220: e47b 8134 678d 1334 3074 1635 76a7 f234
00000230: f2ac 1634 e1f4 0433 0d82 4233 3f42 e730
00000240: 559f 5b32 9865 de33 366b 492e 4d63 4133
00000250: fdf6 3731 5456 7f32 d3c7 fc34 de0f 8331
00000260: 9760 1232 e1d6 0f34 b5db bf34 4503 8b31
00000270: 65e2 2133 297b 9834 5120 9832 2a81 5832
00000280: deb1 b633 880b 1a37 1a99 0037 d5e0 ea36
00000290: 5510 7e2d f97f 0436 5b41 4834 05d6 ab32
000002a0: ed3c 3836 991a 2937 536a 2137 b39f 2e37
000002b0: 56fb 4438 fb4d eb37 4241 c539 cddb c237
000002c0: c209 1f39 7d6b 0b39 be25 0539 cd7a d037
000002d0: e45d aa37 dbea 4a36 5b63 3638 6eef d437
000002e0: 3074 fd38 d171 d737 2f32 bd36 38b3 7e35
000002f0: 63a5 d534 dded 7734 2426 a734 4f20 3033
00000300: 8067 b130 6d88 3233 ab39 ab33 5bf8 5b33
00000310: 4332 2134 0bd7 7932 b812 4f31 0c40 5c34
00000320: ac26 0533 a86a 3235 24be 0e30 96b1 2234
00000330: ca6f 6934 9089 da35 9919 7237 166f 3c36
00000340: f747 2a38 b80e d536 b999 4737 cd9a e837
00000350: 1e54 e936 d928 e234 5d89 8736 0a24 f433
00000360: c097 0e36 02d7 5f36 47b5 9136 1224 bd36
00000370: 1801 2936 f490 d536 7a60 b436 1e79 2138
00000380: d4d6 9a37 9f26 ee38 2fed 9037 d702 3b38
00000390: 8b3b be38 7c7b b338 1f9f 7537 c680 9c37
000003a0: 1d49 1436 64c3 8138 90b3 c936 b509 f337
000003b0: efce 0438 1205 1b37 d8e3 8f36 50e1 dd37
000003c0: e1cf 1738 8260 ae37 1694 4139 62cf 6437
000003d0: 848c 5b38 3bdb 5438 79d0 b139 1fb2 6638
000003e0: c298 8839 62f1 e235 c6ba a638 6937 c437
000003f0: 6f17 3438 c66c e438 8ed3 1939 359d 6036

momentum_buffer f4 [17, 17]
-11.133393 0.77968884 1.2157685 -3.357879 -2.9517186 1.098652 -5.0456715 1.6321151
2.0254078 -2.7829413 2.0032082 8.371546 0.6661209 -2.808978 -3.1770222 -2.413943
0.12193096 2.7360845 1.9455037 -2.332108 2.9999418 -0.31045532 -10.485036 -0.49663407
-0.44022742 2.2093945 -3.5892062 0.97164464 0.0610262 -1.1538944 -0.15466833 -0.066237174
1.3407187 -0.20544535 -0.010392083 0.7017369 0.8646383 -0.78695583 -1.5512494 1.0253092
0.70780486 0.13721113 0.7019573 1.0981857 0.69093007 0.84171915 1.1020507 0.36623985
0.7127416 0.76314163 1.103035 -0.2870348 0.32396853 0.59768957 -0.16307761 0.6808197
0.06437662 0.55993956 1.6865864 0.96569735 0.8037534 0.75225204 0.21316914 0.16421364
1.295781 0.7390898 1.5595706 0.8967398 -3.9983456 2.6741521 2.1613145 3.5584495
-3.8799267 1.5410553 -4.863215 -5.478101 -7.848785 0.45590696 -5.608945 0.25767976
3.2046044 -6.213992 -6.0196476 -3.7420387 -1.2081312 -14.127739 6.538887 -1.5556612
4.7796574 4.168234 0.35950798 -5.8787627 -2.9558666 -1.6657143 -3.0684643 -4.724262
1.8552632 1.2988334 0.85327363 -2.7669897 4.843151 -2.0299575 1.9007583 0.50499994
-2.4366496 -5.764461 -0.750926 1.6647451 0.24814475 0.6196211 7.8872476 -2.4102545
8.545882 0.053035166 2.4878037 -1.3615141 1.210021 -0.31829712 1.2005012 1.0692333
-0.68963504 4.028732 6.6794095 1.8040674 -2.6734185 6.053579 0.48533922 -2.0894513
0.7881217 -1.4611454 1.1078389 -2.0211365 2.1544476 5.9355702 6.1010337 -0.692519
-0.095804885 0.69622326 0.45055422 0.9114351 0.89163554 0.696163 0.5190503 -0.21001889
0.8005798 1.1663141 0.8515458 0.26437756 0.20305037 0.1163626 0.7234333 0.9935868
0.8488805 -1.1996024 0.011973453 -17.805323 -2.4093144 0.29486808 -6.727307 0.77291083
1.076019 -0.48895493 -4.0804777 -1.019881 0.67833316 -0.24464285 -2.358958 0.67002994
-0.059800163 -1.4448674 -1.6550549 2.03011 3.3667793 1.266473 -2.5751147 1.7812501
-1.8730378 -1.7174643 -0.8130902 -2.2820177 3.5357618 6.313322 1.8939079 -4.132896
0.74908483 -3.5534616 5.5339794 4.323955 -3.5030608 -3.0871794 -5.319622 1.3262635
-4.0539474 7.3361425 0.16894001 2.2540855 2.4171367 0.42621052 0.7522119 -2.5944805
0.8760358 -0.6543624 18.165089 4.8659444 -2.7987733 2.7570071 1.4549129 1.5087506
-0.83741105 -3.414844 0.8257052 -3.545355 -1.9026308 -0.2726069 0.89066756 0.50378895
8.272216 3.0563073 2.1370344 -0.41155747 1.2330787 -1.8064104 -0.54528654 0.50056416
-1.871302 -2.4570513 1.3839331 -2.549669 0.7844631 1.3051751 1.3304762 1.2352909
1.1755443 2.279785 -2.9233253 -2.4213603 -3.7583473 1.2147431 3.727402 1.6846918
-0.48592865 3.1062686 0.123950094 -2.5006056 5.229701 -0.48285922 -1.1305822 1.0952947
-1.2964443 0.16602914 0.5456954 0.10914093 1.5190159 1.5459256 0.0026108027 0.14420679
00000000: 6122 32c1 b099 473f 4d9e 9b3f 7de7 56c0
00000010: f5e8 3cc0 a1a0 8c3f 2476 a1c0 26e9 d03f
00000020: 48a0 0140 b61b 32c0 9034 0040 daf1 0541
00000030: e686 2a3f 4cc6 33c0 5554 4bc0 0b7e 1ac0
00000040: f0b6 f93d 021c 2f40 4406 f93f 4241 15c0
00000050: 0cff 3f40 00f4 9ebe b5c2 27c1 d246 febe
00000060: 7d65 e1be b866 0d40 8eb5 65c0 b4bd 783f
00000070: 9cf6 793d d0b2 93bf 6061 1ebe 5ba7 87bd
00000080: ac9c ab3f 4460 52be 8e43 2abc 08a5 333f
00000090: f058 5d3f f075 49bf 578f c6bf 553d 833f
000000a0: b332 353f 1381 0c3e 79b3 333f 5991 8c3f
000000b0: cbe0 303f e87a 573f ff0f 8d3f ca83 bb3e
000000c0: 3c76 363f 405d 433f 4030 8d3f 3af6 92be
000000d0: 34df a53e 2f02 193f d1fd 26be 334a 2e3f
000000e0: e4d7 833d 3358 0f3f 10e2 d73f f137 773f
000000f0: c8c2 4d3f 9793 403f 0349 5a3e 9f27 283e
00000100: 27dc a53f fd34 3d3f 02a0 c73f bd90 653f
00000110: e5e4 7fc0 4f25 2b40 fa52 0a40 a3bd 6340
00000120: b850 78c0 4d41 c53f 759f 9bc0 9a4c afc0
00000130: 3f29 fbc0 a36c e93e 7a7c b3c0 9aee 833e
00000140: 3d18 4d40 06d9 c6c0 f4a0 c0c0 907d 6fc0
00000150: 0ba4 9abf 380b 62c1 903e d140 e81f c7bf
00000160: f4f2 9840 2c62 8540 6e11 b83e d31e bcc0
00000170: eb2c 3dc0 2036 d5bf b861 44c0 282d 97c0
00000180: 4479 ed3f 2c40 a63f 2470 5a3f 5c16 31c0
00000190: 18fb 9a40 d3ea 01c0 0c4c f33f ad47 013f
000001a0: 11f2 1bc0 7776 b8c0 b03c 40bf 5e16 d53f
000001b0: a819 7e3e 7d9f 1e3f 5564 fc40 9c41 1ac0
000001c0: efbb 0841 673b 593d 2d38 1f40 1846 aebf
000001d0: f8e1 9a3f d7f7 a2be 06aa 993f a3dc 883f
000001e0: ec8b 30bf 5feb 8040 b9bd d540 aeeb e63f
000001f0: 4a19 2bc0 ebb6 c140 627e f83e 92b9 05c0
00000200: 58c2 493f d006 bbbf aacd 8d3f 4d5a 01c0
00000210: 78e2 0940 31f0 bd40 ab3b c340 ed48 31bf
00000220: 5a35 c4bd b03b 323f 0baf e63e d053 693f
00000230: 3a42 643f bd37 323f 7be0 043f 310f 57be
00000240: ccf2 4c3f c849 953f e8fe 593f 7f5c 873e
00000250: 70ec 4f3e 844f ee3d ed32 393f b45b 7e3f
00000260: 3c50 593f 928c 99bf 4d2c 443c 4d71 8ec1
00000270: 3532 1ac0 f3f8 963e 1946 d7c0 7cdd 453f
00000280: feba 893f 4d58 fabe 4693 82c0 768b 82bf
00000290: 3ea7 2d3f a883 7abe 2bf9 16c0 1587 2b3f
000002a0: 04f1 74bd 6af1 b8bf d7d8 d3bf 52ed 0140
000002b0: 5079 5740 ca1b a23f aece 24c0 0100 e43f
000002c0: b4bf efbf dfd5 dbbf ae26 50bf 940c 12c0
000002d0: ec49 6240 bc06 ca40 936b f23f af40 84c0
000002e0: 06c4 3f3f ea6b 63c0 5c16 b140 d75d 8a40
000002f0: 2632 60c0 5994 45c0 583a aac0 01c3 a93f
00000300: f0b9 81c0 aec1 ea40 9cfe 2c3e f042 1040
00000310: 5eb2 1a40 4438 da3e f690 403f f80b 26c0
00000320: e243 603f 4b84 27bf 1a52 9141 d1b5 9b40
00000330: 1a1f 33c0 ce72 3040 963a ba3f bd1e c13f
00000340: 9260 56bf ce8c 5ac0 6a61 533f 19e7 62c0
00000350: 6889 f3bf 2293 8bbe ca02 643f 50f8 003f
00000360: ff5a 0441 8a9a 4340 2cc5 0840 a9b7 d2be
00000370: 86d5 9d3f 7538 e7bf e697 0bbf f924 003f
00000380: d386 efbf 5440 1dc0 b824 b13f c72d 23c0
00000390: 93d2 483f fa0f a73f 0b4d aa3f 031e 9e3f
000003a0: 3c78 963f ffe7 1140 c317 3bc0 91f7 1ac0
000003b0: c388 70c0 b47c 9b3f c18d 6e40 fba3 d73f
000003c0: a4cb f8be 1bcd 4640 8cd9 fd3d ec09 20c0
000003d0: b659 a740 5339 f7be ebb6 90bf 9e32 8c3f
000003e0: e3f1 a5bf 8b03 2a3e b2b2 0b3f 4885 df3d
000003f0: 1d6f c23f e4e0 c53f 001a 2b3b f2aa 133e

square_avg f4 [17]
0.00013415999 3.0628573e-05 2.7747053e-06 3.4901294e-07 8.9891355e-06 8.517482e-06 5.033273e-05 1.0029206e-05
3.2062619e-07 1.8607511e-06 1.8916488e-05 4.9201935e-07 1.2043793e-05 2.5217225e-05 3.506403e-05 2.7242397e-05
1.5946098e-05
00000000: 4cad 0c39 2e77 0038 1335 3a36 f95f bb34
00000010: 0bd0 1637 4ee6 0e37 5b1c 5338 1d43 2837
00000020: 8722 ac34 ecbe f935 d9ae 9e37 5013 0435
00000030: b20f 4a37 9489 d337 b711 1338 9a86 e437
00000040: fcc3 8537

momentum_buffer f4 [17]
1.7609072 -0.5400775 -0.0015214616 0.8493541 -0.5551516 0.56554395 -0.061798766 0.9425852
0.94803226 -0.41018635 0.5843667 -0.3310808 -1.0732403 -0.29955065 -2.4610622 0.83417106
-0.17148784
00000000: 6865 e13f 8542 0abf c86b c7ba 456f 593f
00000010: 6a1e 0ebf 7dc7 103f b420 7dbd 434d 713f
00000020: 3eb2 723f f203 d2be 0e99 153f 6c83 a9be
00000030: f05f 89bf b45e 99be 0b82 1dc0 3c8c 553f
00000040: 829a 2fbe

square_avg f4 [17, 17]
0.0 6.945983e-10 0.0 0.0 0.0 8.123553e-12 6.8552566e-11 4.7703064e-10
0.0 0.0 2.3069441e-10 0.0 2.1321135e-10 4.006132e-11 2.7954394e-10 0.0
0.0 2.1043928e-05 9.38837e-06 3.2609208e-07 2.4889418e-14 4.465972e-07 1.1276597e-05 2.9977346e-07
8.159089e-06 1.3564955e-09 3.1518307e-06 2.4235237e-07 4.2274535e-09 7.253192e-08 6.4123776e-07 4.0099847e-05
9.243445e-05 6.8155455e-06 3.6650967e-05 4.10643e-05 5.9920797e-07 1.921853e-08 2.6794158e-05 3.4325442e-06
3.48647e-07 3.6119964e-05 5.1981033e-08 9.1316105e-07 3.9369625e-05 1.2384388e-08 3.4409027e-07 9.34808e-05
0.0002504453 5.8377696e-05 9.7826494e-05 0.0 1.5078105e-12 4.6340046e-12 0.0 0.0
7.034926e-14 0.0 0.0 0.0 1.021763e-14 0.0 0.0 0.0
0.0 6.1083815e-13 3.888587e-12 3.968153e-15 1.971333e-05 4.529619e-05 5.7591005e-06 8.313003e-08
4.889372e-05 3.2357989e-06 1.3361566e-06 4.7735746e-05 3.5346218e-07 1.4711161e-06 8.213603e-05 1.2994707e-08
2.3630412e-06 0.00013397083 5.0685558e-05 6.420523e-05 1.796366e-05 9.143111e-06 0.00012349803 1.3546484e-07
1.9757168e-11 7.655918e-07 5.6542317e-06 9.285504e-07 6.7385496e-05 4.80012e-10 1.6906353e-06 9.891976e-06
2.3059867e-09 5.7510167e-08 2.716061e-05 2.6856407e-05 6.475403e-05 3.682267e-06 5.8846713e-06 0.00023737116
1.2769229e-05 5.0041047e-07 7.8018085e-05 1.9845663e-06 4.699458e-07 0.00029497978 4.5272643e-07 1.3827993e-07
0.0003855413 3.8598472e-08 9.581572e-07 0.00048512232 5.8835034e-05 1.6097583e-05 2.7848118e-05 6.991294e-05
0.00018740213 6.0556295e-06 2.3690568e-07 9.083308e-05 8.387135e-06 1.0182517e-06 0.00019958346 3.2968703e-07
1.9103888e-06 0.0002871387 4.352686e-08 1.6334392e-06 0.00037403323 0.00050427706 0.00014874038 9.830446e-05
1.37352035e-05 0.00022282005 5.9817e-06 4.2286894e-07 0.0001294517 5.738081e-07 8.9334674e-07 0.0002757041
3.135903e-09 6.255875e-09 0.00026859238 1.7813658e-08 1.2893047e-06 0.0006884893 0.0003103347 1.2822922e-05
1.7886729e-05 9.5639356e-05 6.1275015e-05 3.2650283e-07 0.0 5.819796e-06 2.6394794e-06 9.590339e-07
0.0002268018 7.738586e-10 1.0385673e-06 8.730648e-05 2.3855304e-09 1.3677847e-07 0.0001795041 0.0010313935
9.803155e-05 0.00014265999 2.3533369e-06 1.2261307e-05 4.0853402e-07 3.994685e-09 2.3277273e-05 1.2243927e-06
3.3099607e-09 4.5685456e-06 1.1922837e-08 2.7688134e-07 4.583005e-05 3.4879494e-10 7.724814e-09 7.079737e-05
1.1789676e-06 2.4900098e-06 4.3303046e-07 0.0 1.6069167e-16 8.023734e-13 0.0 0.0
1.0767633e-15 0.0 0.0 0.0 3.249743e-14 0.0 0.0 0.0
0.0 4.284761e-13 1.4066437e-12 5.372122e-15 4.0256687e-05 6.888632e-06 1.5355914e-08 1.2300857e-06
0.0001318412 1.9069255e-06 7.7040907e-10 4.369625e-05 2.5053762e-10 5.1964504e-09 7.264164e-05 1.4260827e-09
9.8351286e-08 0.00044075717 0.0005179777 5.111461e-07 8.2425856e-07 6.0055947e-05 1.517212e-05 1.6603339e-09
2.638563e-14 9.009477e-05 1.1411693e-06 2.6796806e-07 7.9154735e-05 6.9457296e-12 2.8502221e-08 2.0851732e-05
2.1884566e-10 7.8145445e-07 0.00063710863 0.0008306225 7.119182e-05 0.00016283484 8.570799e-07 2.3898017e-06
1.09955344e-07 1.5392258e-13 5.6268107e-08 1.7229395e-08 7.076832e-08 2.0121695e-10 5.2174964e-10 1.0693367e-07
3.911608e-08 7.2904766e-10 2.439781e-08 6.725056e-08 6.025981e-07 7.584351e-06 3.8829757e-08 0.00017754185
00000000: 0000 0000 03ee 3e30 0000 0000 0000 0000
00000010: 0000 0000 3be9 0e2d aabf 962e 0c20 0330
00000020: 0000 0000 0000 0000 b4a6 7d2f 0000 0000
00000030: a96d 6a2f 0931 302e 50ae 992f 0000 0000
00000040: 0000 0000 7e87 b037 be82 1d37 c111 af34
00000050: 172f e028 dac3 ef34 9e30 3d37 8df0 a034
00000060: 05e3 0837 716f ba30 0a84 5336 a81c 8234
00000070: 1341 9131 d8c2 9b33 8621 2c35 e230 2838
00000080: 5ed9 c138 17b1 e436 adb9 1938 753c 2c38
00000090: 42d9 2035 ff15 a532 04c4 e037 a95a 6636
000000a0: ae2d bb34 847f 1738 c041 5f33 f31f 7535
000000b0: d020 2538 1dc3 5432 68bb b834 1f0b c438
000000c0: 334e 8339 93da 7438 3328 cd38 0000 0000
000000d0: 9934 d42b 670b a32c 0000 0000 0000 0000
000000e0: 9669 9e29 0000 0000 0000 0000 0000 0000
000000f0: 8010 3828 0000 0000 0000 0000 0000 0000
00000100: 0000 0000 87ef 2b2b 47d1 882c c0f7 8e27
00000110: 0e5e a537 6afc 3d38 4c3e c136 3885 b233
00000120: 3b13 4d38 9a26 5936 fe55 b335 de37 4838
00000130: 79c3 bd34 2a73 c535 7240 ac38 533f 5f32
00000140: bd94 1e36 857a 0c39 3497 5438 eca5 8638
00000150: abb0 9637 5d65 1937 407f 0139 4b74 1134
00000160: 30c9 ad2d 1183 4d35 7bb9 bd36 7f41 7935
00000170: 5051 8d38 d7f1 0330 c9e9 e235 b7f5 2537
00000180: 5977 1e31 1901 7733 f7d6 e337 b249 e137
00000190: 8ecc 8738 de1c 7736 f174 c536 d6e6 7839
000001a0: 6c3b 5637 f253 0635 a49d a338 972e 0536
000001b0: dc4c fc34 84a7 9a39 3f0e f334 197a 1434
000001c0: 7a22 ca39 78c7 2533 089a 8035 0458 fe39
000001d0: a3c5 7638 4c09 8737 619b e937 399e 9238
000001e0: 6081 4439 7631 cb36 2360 7e34 a37d be38
000001f0: 78b6 0c37 ddaa 8835 4747 5139 d7ff b034
00000200: 3b34 0036 1b8b 9639 4af2 3a33 8b3c db35
00000210: e419 c439 7631 043a 31f7 1b39 ce28 ce38
00000220: 4070 6637 cda4 6939 69b6 c836 aa06 e334
00000230: 6dbd 0739 cb07 1a35 52ce 6f35 618c 9039
00000240: 647f 5731 42f3 d631 dcd1 8c39 a604 9932
00000250: 2c0c ad35 bc7b 343a 6bb4 a239 0822 5737
00000260: 750b 9637 fd91 c838 c680 8038 354a af34
00000270: 0000 0000 ab47 c336 e921 3136 27b8 8035
00000280: a5d1 6d39 75b7 5430 e764 8b35 4f18 b738
00000290: b2ee 2331 61dd 1234 4439 3c39 d32f 873a
000002a0: 4a96 cd38 0097 1539 05ee 1d36 eab5 4d37
000002b0: 7d54 db34 9f41 8931 9043 c337 d055 a435
000002c0: 7275 6331 824b 9936 31d5 4c32 48a6 9434
000002d0: a439 4038 86c0 bf2f 17b6 0432 0c79 9438
000002e0: 053d 9e35 0b1a 2736 417b e834 0000 0000
000002f0: cf43 3925 19d9 612b 0000 0000 0000 0000
00000300: 8e2d 9b26 0000 0000 0000 0000 0000 0000
00000310: fc5a 1229 0000 0000 0000 0000 0000 0000
00000320: 0000 0000 ea35 f12a aef7 c52b 148d c127
00000330: 4ad9 2838 e624 e736 03e8 8332 6c19 a535
00000340: da3e 0a39 76f1 ff35 b8c4 5330 7e46 3738
00000350: 09bc 892f 768c b231 2f57 9838 d3ff c330
00000360: 3135 d333 6d15 e739 e5c8 073a b135 0935
00000370: 9e42 5d35 95e4 7b38 c28b 7e37 ce31 e430
00000380: 1fa9 ed28 43f1 bc38 472a 9935 40dd 8f34
00000390: e0ff a538 9261 f42c 0cd5 f432 c1ea ae37
000003a0: 949f 702f 24c5 5135 a303 273a 22be 593a
000003b0: d14c 9538 a5be 2a39 1512 6635 7b60 2036
000003c0: 9720 ec33 2a4d 2d2a 70ab 7133 d7ff 9332
000003d0: 4cf9 9733 893d 5d2f de6a 0f30 68a3 e533
000003e0: 9600 2833 2b66 4830 5a93 d132 636b 9033
000003f0: 3ac2 2135 147d fe36 c5c5 2633 872a 3a39

momentum_buffer f4 [17, 17]
0.0 0.6729736 0.0 0.0 0.0 0.67145866 0.67257214 0.67293555
0.0 0.0 0.6728384 0.0 0.6728257 0.6723918 0.6728677 0.0
0.0 -0.14300926 -0.17392954 -0.6072196 0.08947082 0.31122026 0.24264756 -1.8885405
0.4263202 -0.3757886 0.0043528723 1.0656767 0.23426497 3.0830612 0.6397829 0.5997786
0.21292295 0.04344541 -0.053299636 1.8242488 0.058102775 1.3414537 -0.30688205 -3.9955428
4.977604 6.408406 0.24054758 0.8293711 3.0768666 8.140679 4.2643743 1.0584083
0.3726251 2.2988684 0.053233497 0.0 0.17742841 0.17780863 0.0 0.0
-0.17428005 0.0 0.0 0.0 -0.16810173 0.0 0.0 0.0
0.0 0.17692557 0.17776226 -0.1624743 -0.1383696 1.4512366 0.3316314 0.03137974
0.98503405 0.93420655 2.6543984 -0.6598547 -1.0827 -0.00904065 0.23255982 1.0435892
2.5865684 1.7028979 2.345382 -0.7942851 1.2692903 -1.9485897 -2.4183407 -0.011934288
-0.17300884 0.52109104 0.20523955 -7.741355 -1.5797637 -0.24629755 -0.76090515 1.5239736
-5.2384133 -4.6862864 -0.32058883 1.4584686 -1.2468971 0.8487088 0.6667421 0.21089213
-0.33104384 -0.1369609 -0.0682924 1.5439317 0.8776703 0.04388885 0.93924063 0.06837623
0.4703378 -2.2013595 1.0958128 0.21496327 0.6568755 1.0313575 1.0267698 -1.9760362
1.3440626 0.13753381 0.4384333 -0.055561826 0.42390996 -0.4533543 1.4545267 0.56711453
0.7625454 1.7666992 -0.22750306 6.782983 0.064906664 0.07865366 0.46244356 2.2184355
-0.59422517 1.5271513 -0.84765625 1.43477 1.28407 4.9874296 5.168449 0.33659053
-0.72944474 0.20930146 -1.2744749 4.7239842 -2.479129 0.38869023 1.1636434 4.3577805
-3.8684716 -2.1539006 4.0345974 0.9975301 0.0 6.9578915 -3.598848 -5.7532387
-0.90022564 0.46506557 1.3471537 1.5692956 21.141779 0.31757268 4.55245 0.22505307
-1.498458 -0.4186174 0.24882309 0.95663714 0.56942856 -0.33448243 0.3364253 0.24228436
-0.6795246 0.101736665 0.27860904 0.25801125 0.178748 0.15972908 0.46111956 0.26657012
0.8759349 0.86958504 0.9602768 0.0 0.12011697 0.31170338 0.0 0.0
0.17507443 0.0 0.0 0.0 0.1724407 0.0 0.0 0.0
0.0 0.30357254 0.3213147 0.1645287 0.20884639 5.5709605 0.5238614 0.9632822
0.23525119 -3.0423286 1.3227938 0.03564444 0.6010801 -0.22338669 1.0685844 0.12479565
-3.9541132 0.12613866 1.2462841 2.113356 9.267157 3.2732725 0.25715172 2.4483058
0.1334734 -0.6611102 8.379603 0.52354115 -2.3172815 0.17487001 -5.879427 -9.335973
2.6289897 -2.941723 -0.6031942 0.27611 3.9984283 -1.4352647 -0.48358852 0.54350287
0.3143665 0.14489017 0.46441627 -0.018252682 -0.36899847 0.6974722 -0.03840928 0.4352842
0.5247464 0.56990457 -0.18260811 0.40195233 0.8084013 0.11767148 0.32427895 -0.78916115
00000000: 0000 0000 ff47 2c3f 0000 0000 0000 0000
00000010: 0000 0000 b7e4 2b3f b02d 2c3f 8145 2c3f
00000020: 0000 0000 0000 0000 233f 2c3f 0000 0000
00000030: 4e3e 2c3f de21 2c3f 0f41 2c3f 0000 0000
00000040: 0000 0000 0571 12be 961a 32be be72 1bbf
00000050: 7a3c b73d 4358 9f3e 9a78 783e b2bb f1bf
00000060: a446 da3e 5d67 c0be 8aa2 8e3b 1868 883f
00000070: 28e3 6f3e e050 4540 d0c8 233f 178b 193f
00000080: 7908 5a3e d0f3 313d b850 5abd fc80 e93f
00000090: 2dfd 6d3d c1b4 ab3f a51f 9dbe f9b6 7fc0
000000a0: 8848 9f40 a911 cd40 1b52 763e aa51 543f
000000b0: 62eb 4440 3940 0241 c175 8840 ec79 873f
000000c0: b8c8 be3e a920 1340 5e0b 5a3d 0000 0000
000000d0: cbaf 353e 7713 363e 0000 0000 0000 0000
000000e0: 7876 32be 0000 0000 0000 0000 0000 0000
000000f0: dc22 2cbe 0000 0000 0000 0000 0000 0000
00000100: 0000 0000 fa2b 353e 4f07 363e aa5f 26be
00000110: c3b0 0dbe 1fc2 b93f 97cb a93e 0b88 003d
00000120: 312b 7c3f 2928 6f3f aae1 2940 3dec 28bf
00000130: ea95 8abf 3c1f 14bc 2924 6e3e 5594 853f
00000140: 568a 2540 8ff8 d93f bd1a 1640 4556 4bbf
00000150: 1b78 a23f 636b f9bf 18c6 1ac0 0888 43bc
00000160: 3b29 31be 3966 053f 512a 523e 2eb9 f7c0
00000170: b235 cabf 6d35 7cbe aeca 42bf 9111 c33f
00000180: 15a1 a7c0 0ff6 95c0 3824 a4be 19af ba3f
00000190: 539a 9fbf fb44 593f 9caf 2a3f 1bf4 573e
000001a0: 947e a9be 7a3f 0cbe e3dc 8bbd 8e9f c53f
000001b0: 00af 603f cbc4 333d 1372 703f d608 8c3d
000001c0: 1ed0 f03e 13e3 0cc0 9843 8c3f 551f 5c3e
000001d0: fe28 283f 8603 843f 316d 833f c1ee fcbf
000001e0: 3e0a ac3f aad5 0c3e 547a e03e cc94 63bd
000001f0: ba0a d93e 0e1e e8be ee2d ba3f 6b2e 113f
00000200: 2d36 433f 3323 e23f 90f6 68be 320e d940
00000210: c9ed 843d 2c15 a13d 67c5 ec3e d9fa 0d40
00000220: 241f 18bf b279 c33f 0000 59bf 8ba6 b73f
00000230: 685c a43f 0699 9f40 ef63 a540 9855 ac3e
00000240: e4bc 3abf 1f53 563e fe21 a3bf e12a 9740
00000250: 0daa 1ec0 6802 c73e 44f2 943f f072 8b40
00000260: 0a95 77c0 82d9 09c0 6c1b 8140 225e 7f3f
00000270: 0000 0000 0ca7 de40 8753 66c0 881a b8c0
00000280: 3075 66bf 131d ee3e 886f ac3f aede c83f
00000290: 5d22 a941 e398 a23e acad 9140 5074 663e
000002a0: 79cd bfbf 0555 d6be 7bcb 7e3e 2ce6 743f
000002b0: 12c6 113f 4841 abbe f03f ac3e 6419 783e
000002c0: 53f5 2dbf 505b d03d d8a5 8e3e 0d1a 843e
000002d0: b709 373e 0590 233e dd17 ec3e e17b 883e
000002e0: 453d 603f 209d 5e3f b3d4 753f 0000 0000
000002f0: e3ff f53d 9697 9f3e 0000 0000 0000 0000
00000300: b646 333e 0000 0000 0000 0000 0000 0000
00000310: 4b94 303e 0000 0000 0000 0000 0000 0000
00000320: 0000 0000 dc6d 9b3e 5c83 a43e 367a 283e
00000330: d4db 553e 4f45 b240 c81b 063f aa99 763f
00000340: b0e5 703e 83b5 42c0 4f51 a93f e8ff 113d
00000350: 63e0 193f 7bbf 64be 60c7 883f dd94 ff3d
00000360: 3110 7dc0 7e2a 013e 3d86 9f3f 3a41 0740
00000370: 4646 1441 4c7d 5140 64a9 833e 0bb1 1c40
00000380: 40ad 083e 853e 29bf db12 0641 cb06 063f
00000390: 574e 14c0 2011 333e 4424 bcc0 2560 15c1
000003a0: 5e41 2840 3145 3cc0 ef6a 1abf 4a5e 8d3e
000003b0: 40e6 7f40 c1b6 b7bf ea98 f7be 0123 0b3f
000003c0: a5f4 a03e 175e 143e f8c7 ed3e a686 95bc
000003d0: 5eed bcbe 8a8d 323f 0d53 1dbd 92dd de3e
000003e0: c855 063f 44e5 113f 9ffd 3abe b2cc cd3e
000003f0: 63f3 4e3f bffd f03d e407 a63e 7706 4abf

square_avg f4 [17]
1.9871669e-11 2.940544e-05 4.9395403e-06 1.37873706e-11 1.6046604e-05 2.0674042e-05 1.589644e-05 7.4777904e-06
3.620252e-06 1.2500926e-05 6.19915e-06 1.2243662e-12 2.015702e-06 3.042946e-06 2.1130943e-05 4.025443e-05
5.7216675e-12
00000000: 05cb ae2d b4ab f637 54be a536 cc8c 722d
00000010: d29b 8637 2b6d ad37 5859 8537 bbe9 fa36
00000020: 75f3 7236 11bb 5137 4b02 d036 7150 ac2b
00000030: 7f45 0736 6a35 4c36 5b42 b137 ddd6 2838
00000040: 3350 c92c

momentum_buffer f4 [17]
0.6720702 0.24628717 -0.60633266 0.17802148 0.13622996 -0.66317743 -0.021833299 -4.1270647
0.65659183 -1.7049469 0.08407092 0.32640454 0.33689407 0.14317489 0.22261004 -0.5383975
0.4183235
00000000: cb0c 2c3f b432 7c3e 9e38 1bbf 434b 363e
00000010: de7f 0b3e ffc5 29bf bfdb b2bc ea10 84c0
00000020: 6716 283f b33b dabf 602d ac3d 7f1e a73e
00000030: 617d ac3e 709c 123e e3f3 633e 6bd4 09bf
00000040: 7f2e d63e

square_avg f4 [17, 17]
0.0 0.0 1.5010364e-11 0.0 6.2619804e-13 0.0 0.0 3.1713934e-11
6.827834e-10 1.9158668e-11 0.0 0.0 0.0 4.964005e-14 0.0 5.5011135e-12
0.0 0.0 5.41712e-07 0.0029283694 5.8546547e-16 2.4052193e-05 1.0945765e-06 5.801039e-05
0.003225991 0.000850675 1.1907104e-05 2.059113e-06 2.6728895e-15 7.8665944e-05 0.0002875654 1.0515385e-08
5.046095e-06 6.924615e-12 0.0 1.3048508e-11 1.521604e-15 0.0 1.7109062e-12 4.1038526e-15
2.5959803e-13 1.2594594e-13 3.9917258e-14 3.6498968e-14 0.0 0.0 1.4508055e-13 8.511757e-14
6.081986e-13 1.1584917e-13 1.3411933e-12 0.0 1.6889224e-16 3.6009915e-09 0.0 2.4847338e-09
1.17039414e-17 1.1274247e-14 4.7106628e-11 1.6831199e-09 0.0 0.0 0.0 8.2489706e-16
2.4490108e-12 0.0 2.3707213e-17 2.9929682e-16 8.440903e-15 6.1187563e-07 0.0036033487 8.418117e-17
2.313711e-05 4.188908e-06 9.630828e-06 0.0016163874 0.00039045032 0.0005609573 2.4069448e-07 2.3728964e-16
2.0538213e-05 0.003272149 3.243253e-08 4.3566174e-06 5.785035e-13 0.0 4.920529e-06 2.465727e-05
7.5781105e-16 1.1720197e-05 2.5954084e-06 1.0984897e-07 6.675702e-06 6.68123e-07 1.772415e-05 1.0275078e-08
1.6383815e-15 5.8539766e-12 7.3183756e-08 1.926803e-07 1.4300142e-05 2.2165635e-12 0.0 3.012289e-08
3.695216e-05 3.3104303e-16 9.2003614e-07 1.25051525e-08 1.6714172e-05 7.760618e-05 7.455653e-14 1.7745844e-08
3.4514305e-06 4.9227806e-20 1.6830144e-08 2.1023551e-14 2.8821077e-09 1.24318635e-08 2.4193711e-12 0.0
4.8358247e-06 3.6616552e-06 8.025279e-17 1.0622642e-05 2.1187745e-06 2.7949879e-08 9.4906545e-07 4.262979e-07
8.475719e-07 1.885317e-09 5.5662384e-16 5.854443e-12 3.5140342e-13 1.1526585e-07 7.954477e-06 1.8003589e-12
0.0 3.3864668e-11 8.522813e-11 1.5113541e-17 6.9566514e-12 0.0 1.2776117e-11 8.338615e-11
5.812948e-14 5.082197e-12 1.650654e-12 5.3441506e-16 7.290091e-12 0.0 0.0 1.1730601e-12
0.0 0.0 1.9287636e-09 2.213657e-05 0.0 5.0310734e-07 1.6862511e-09 9.57466e-06
4.509433e-05 4.2340003e-09 3.0196121e-09 1.987864e-06 0.0 1.064874e-08 2.5527754e-14 1.0635866e-09
7.0566636e-10 1.6760578e-12 1.2170022e-13 5.8142023e-06 0.0003989696 2.1436039e-15 1.3907979e-05 1.207905e-05
2.1031165e-07 0.00011286147 0.0015284597 0.00035818588 1.1640552e-08 6.1594567e-15 4.414332e-09 3.1875526e-05
2.596929e-07 6.911645e-05 3.835266e-12 0.0 2.9272662e-06 1.7794573e-06 1.4768817e-15 4.583657e-06
1.1494654e-06 7.9638685e-10 1.6589922e-07 1.972978e-07 2.2587004e-07 3.7227144e-10 3.2928651e-15 9.332087e-13
8.23991e-14 6.91147e-08 3.495839e-06 2.8519225e-13 0.0 1.6713839e-06 4.4530872e-05 4.9198946e-17
7.249655e-06 4.978322e-06 4.055831e-06 4.4359615e-05 1.5823003e-05 1.6281223e-05 7.686666e-07 5.1211622e-17
4.507053e-09 1.11804965e-07 2.6809083e-08 5.8180294e-06 1.4129461e-12 0.0 1.3862145e-10 4.128346e-05
0.0 2.2447693e-07 2.6554859e-12 2.4301755e-05 0.00011741648 1.0127032e-07 9.696722e-11 2.7475749e-06
0.0 2.0242245e-08 0.0 0.0 1.8476971e-10 0.0 0.0 2.3022712e-07
0.0026072373 2.5934321e-15 4.109108e-05 1.1920795e-07 6.667919e-05 0.0021014616 9.22485e-05 0.00055678876
8.152032e-06 7.050035e-15 4.2712516e-05 0.0018943418 1.5115997e-08 8.483465e-06 1.2983976e-11 0.0
00000000: 0000 0000 0000 0000 5608 842d 0000 0000
00000010: 5342 302b 0000 0000 0000 0000 b77a 0b2e
00000020: 9cae 3b30 7c85 a82d 0000 0000 0000 0000
00000030: 0000 0000 158f 5f29 0000 0000 a08d c12c
00000040: 0000 0000 0000 0000 2a6a 1135 e3e9 3f3b
00000050: babf 2826 b1c3 c937 5de9 9235 2f50 7338
00000060: 266b 533b d5ff 5e3a 9fc4 4737 4b2f 0a36
00000070: 1c9a 4027 75f9 a438 60c4 9639 27a7 3432
00000080: a051 a936 63a3 f32c 0000 0000 418d 652d
00000090: 4749 db26 0000 0000 e4c9 f02b 5cdb 9327
000000a0: 0524 922a 72cd 0d2a 77c5 3329 7260 2429
000000b0: 0000 0000 0000 0000 9f58 232a f0aa bf29
000000c0: 5431 2b2b 406f 022a 95c1 bc2b 0000 0000
000000d0: 31b8 4225 5075 7731 0000 0000 e6bf 2a31
000000e0: 4de6 5723 4a19 4b28 592d 4f2e 8453 e730
000000f0: 0000 0000 0000 0000 0000 0000 a9c2 6d26
00000100: 7555 2c2c 0000 0000 13a9 da23 6a88 ac25
00000110: cb0e 1828 c63f 2435 2926 6c3b cb1b c224
00000120: 9116 c237 728e 8c36 1794 2137 f6dc d33a
00000130: 5bb5 cc39 350d 133a cc38 8134 c5c9 8825
00000140: 7a49 ac37 8d71 563b f24b 0b33 0f2f 9236
00000150: 92d5 222b 0000 0000 061b a536 16d7 ce37
00000160: 966c 5a26 dda1 4437 c72c 2e36 1ce6 eb33
00000170: d8ff df36 1059 3335 53ae 9437 4586 3032
00000180: 9c1d ec26 eff7 cd2c 3229 9d33 8fe3 4e34
00000190: a4ea 6f37 0ffa 1b2c 0000 0000 7860 0133
000001a0: 14fd 1a38 54d5 be25 67f8 7635 3ed6 5632
000001b0: 6935 8c37 80c0 a238 eae2 a729 866f 9832
000001c0: 209f 6736 c478 681f e191 9032 025d bd28
000001d0: 930e 4631 ea93 5532 843f 2a2c 0000 0000
000001e0: 6b43 a236 c2ba 7536 e30c b924 e637 3237
000001f0: 4530 0e36 6f16 f032 48c3 7e35 f0dd e434
00000200: b384 6335 d98e 0131 976f 2026 22fc cd2c
00000210: 92d2 c52a 1288 f733 3874 0537 c460 fd2b
00000220: 0000 0000 3af0 142e 2c6b bb2e d765 8b23
00000230: f2c3 f42c 0000 0000 84c2 602d 3b5e b72e
00000240: 5de5 8229 5cd0 b22c 144f e82b df08 1a26
00000250: a73f 002d 0000 0000 0000 0000 f217 a52b
00000260: 0000 0000 0000 0000 2b8b 0431 ecb1 b937
00000270: 0000 0000 460d 0735 b0c1 e730 daa2 2037
00000280: ab23 3d38 a97a 9131 9481 4f31 3e67 0536
00000290: 0000 0000 a7f1 3632 feee e528 a02d 9230
000002a0: dbf8 4130 59e2 eb2b b305 092a 9e17 c336
000002b0: cb2c d139 8376 1a27 5156 6937 20a7 4a37
000002c0: 07d2 6134 0ab0 ec38 9956 c83a e5ca bb39
000002d0: b0fb 4732 f6ea dd27 e0ac 9731 16b2 0538
000002e0: ec6b 8b34 9df2 9038 01f1 862c 0000 0000
000002f0: 0d72 4436 b0d5 ee35 51d7 d426 50cd 9936
00000300: 5547 9a35 bee8 5a30 0822 3234 ced8 5334
00000310: af86 7234 8ca8 cc2f a446 6d27 6356 832b
00000320: d98b b929 356c 9433 0f9a 6a36 898c a02a
00000330: 0000 0000 5054 e035 a9c6 3a38 dde3 6224
00000340: 1042 f336 760b a736 5317 8836 c60e 3a38
00000350: a4bb 8437 a993 8837 5e56 4e35 032c 6c24
00000360: 75dc 9a31 6e19 f033 cc49 e632 7e38 c336
00000370: c0da c62b 0000 0000 786a 182f c727 2d38
00000380: 0000 0000 c007 7134 fbdc 3a2c 9fdb cb37
00000390: 7e3d f638 f279 d933 b13b d52e fa62 3836
000003a0: 0000 0000 2be1 ad32 0000 0000 0000 0000
000003b0: 0d28 4b2f 0000 0000 0000 0000 5934 7734
000003c0: 2fde 2a3b 61e0 3a27 3659 2c38 43ff ff33
000003d0: 1ed6 8b38 adb8 093b 8975 c138 76f5 113a
000003e0: b6c4 0837 1801 fe27 3726 3338 904b f83a
000003f0: 6ed8 8132 3454 0e37 a16a 642d 0000 0000
