Multistate Intensity Models/SDDR_outputs/best_estimator_splines_event_01.pth (torch, 407941 bytes, 114 tensors)

square_avg f4 [2, 1]
00000000: 0000 0000 8425 8d2c
0.0 4.011626e-12

momentum_buffer f4 [2, 1]
00000000: 0000 0000 b368 df40
0.0 6.9815307

square_avg f4 [2]
00000000: 0000 0000 c599 5c2b
0.0 7.83731e-13

momentum_buffer f4 [2]
00000000: 0000 0000 b2d7 1d41
0.0 9.86516

square_avg f4 [2, 2]
00000000: 0000 0000 db44 f22e 0000 0000 883f b829
0.0 1.1017117e-10 0.0 8.1822624e-14

momentum_buffer f4 [2, 2]
00000000: 0000 0000 30f1 7f40 0000 0000 2726 8740
0.0 3.999096 0.0 4.2234073

square_avg f4 [2]
00000000: 354a d82d 0113 952a
2.4589311e-11 2.6480904e-13

momentum_buffer f4 [2]
00000000: f58c 2541 b6c9 2540
10.346913 2.5904365

square_avg f4 [2, 2]
00000000: 0000 0000 0000 0000 d331 4a2e 627b 582a
0.0 0.0 4.5973735e-11 1.9227461e-13

momentum_buffer f4 [2, 2]
00000000: 0000 0000 0000 0000 ef58 3c41 d2f8 fa3f
0.0 0.0 11.771712 1.9607184

square_avg f4 [2]
00000000: 0000 0000 14ef be2c
0.0 5.426668e-12

momentum_buffer f4 [2]
00000000: 0000 0000 925d 8c40
0.0 4.386422

square_avg f4 [2, 2]
00000000: 0000 0000 fe3a 692d 0000 0000 0675 9f2d
0.0 1.32576155e-11 0.0 1.8128176e-11

momentum_buffer f4 [2, 2]
00000000: 0000 0000 9279 4740 0000 0000 0e6b d740
0.0 3.116795 0.0 6.731818

square_avg f4 [2]
00000000: 8de8 a32c 0c8e fe27
4.658557e-12 7.065317e-15

momentum_buffer f4 [2]
00000000: 025e 69c0 3b69 9441
-3.6463628 18.551382

square_avg f4 [12, 12]
00000000: abdf 063c 30a8 a13b ea65 023d 1d2b ac3b
00000010: 595a 0f3c 61c7 d43b bda3 a23c b682 673c
00000020: 515e c43a 63f3 7b3c 502a 6f38 9165 b138
00000030: 4d86 1d3b 7c95 8b3a 574f 733b c929 f73a
00000040: 9d0e 123b b5a3 893b 773f 013c 1a25 e13b
00000050: 96fa d639 f5e1 1a3b 2144 3c39 8050 8335
00000060: 373e 4a3c 0b7a 2c3c 834f 823b 436a 813c
00000070: 5a50 2f3b 0659 0e3c 1945 a93b 831e 933b
00000080: 7c46 113a f40e 253b 6b4b b938 5803 c736
00000090: c2dc 713a 9292 543a 221d af39 8af9 2d3a
000000a0: 9347 3f3a a6a1 7b3a 7378 443a 06fa fa39
000000b0: f7fb 5339 44cb 1a3a a055 9a38 996b 5336
000000c0: c0b1 ba38 9046 143a 2478 af3b b0b6 7c39
000000d0: 067c 6c39 5b9b df39 8e9b 2539 87fa c738
000000e0: 492a 0838 848f 5437 e8fd d337 a079 6234
000000f0: 2709 863b f765 c23a d05e 1039 959f aa3b
00000100: c445 5f3c 9751 883b f4e6 593b 374c a03b
00000110: e572 773a 3d4c 103b b46d 1d39 abef 9133
00000120: bb7a 703c 8806 993a 530b c838 ce59 ed3a
00000130: e49b 9d3b 9612 ef3b 00e5 cd3c 7947 473c
00000140: c265 023a 89ee a03a 13da 0d39 a216 b02f
00000150: dfcd 8e3c 6e62 2e3b 1b7c 2a3b 63b4 923b
00000160: f45f 953b b492 523b 0991 433c ec7e ed3b
00000170: 5786 183a 873e c83a 7c4b ac38 a19f 9a37
00000180: 599d 1c3c 8531 483c fc95 f339 6bf1 aa3b
00000190: 6c81 e73b 1f01 8f3b 66ea 653b 3154 953a
000001a0: 0f4b fc3a e785 9e3a ac01 0c39 4b42 8237
000001b0: 68a5 de39 f8d3 f73a a7c3 3138 7b92 ad3a
000001c0: 26f1 013b 78ca cb39 d5c6 ca3a 8a67 793a
000001d0: 0d1b 3139 4200 2239 edf7 d233 5888 2d36
000001e0: 1d3d 443c 6957 e83c 89e9 b63b d57d 353c
000001f0: 4c2d 923c 629f d13b 2581 b23c aa71 9a3c
00000200: 7596 803b 8348 7c3b f974 ce38 43dd 1738
00000210: 592f 803b bb11 523b 3c85 1139 eeff bc3b
00000220: e138 993a 0a68 e33a 2242 c83b dcce d03a
00000230: ac46 c639 d4b0 a93a af75 0437 d5be be36
0.008232038 0.0049333796 0.031835474 0.005254163 0.008749568 0.0064934944 0.019853467 0.014130285
0.0014981722 0.015377852 5.7021447e-05 8.458936e-05 0.0024036348 0.0010649408 0.0037126148 0.0018857057
0.0022286542 0.0042004236 0.007888666 0.006870878 0.00041003962 0.0023633216 0.00017954457 9.783689e-07
0.012343935 0.010527144 0.0039767637 0.01579774 0.0026750774 0.008688217 0.005165708 0.0044897213
0.0005541814 0.0025185915 8.835535e-05 5.9310514e-06 0.0009226316 0.0008108999 0.00033400307 0.00066366105
0.0007296737 0.00095989776 0.0007494755 0.00047869998 0.00020216392 0.0005904923 7.359241e-05 3.150408e-06
8.90228e-05 0.00056562666 0.005354898 0.00024100649 0.00022552916 0.00042649623 0.00015793575 9.535724e-05
3.2464308e-05 1.26695995e-05 2.5271394e-05 2.1092137e-07 0.0040904465 0.0014831413 0.0001376823 0.005207012
0.013627473 0.004160117 0.003324923 0.004891898 0.0009439423 0.0022018098 0.00015013554 6.795684e-08
0.014677699 0.001167492 9.5388525e-05 0.0018108429 0.0048098434 0.007295917 0.02513361 0.0121630365
0.00049742695 0.001227812 0.00013528047 3.2030295e-10 0.017432151 0.0026608962 0.0026013914 0.00447707
0.0045585576 0.00321309 0.011936435 0.0072477963 0.0005818358 0.0015277424 8.215659e-05 1.8432564e-05
0.009558999 0.012218838 0.0004646032 0.0052167675 0.007064989 0.0043641473 0.003508234 0.0011392889
0.0019248443 0.0012094349 0.00013352063 1.5528078e-05 0.00042466377 0.0018907776 4.2382304e-05 0.0013242507
0.0019827574 0.00038870028 0.0015470634 0.0009514025 0.00016890113 0.0001544962 9.8239845e-08 2.5858371e-06
0.011977461 0.028361993 0.005582039 0.011077364 0.017843865 0.0063971737 0.021790097 0.018853027
0.003924186 0.0038495369 9.844633e-05 3.620727e-05 0.0039118943 0.0032054025 0.00013877911 0.005767814
0.0011689925 0.0017349732 0.0061113993 0.001593079 0.00037818158 0.0012946376 7.8952135e-06 5.684657e-06

momentum_buffer f4 [12, 12]
00000000: ce3c 7a40 d229 45c1 3a99 67c0 ff71 0441
00000010: 088f a740 5ec1 803f ec07 af3f cbbc d83f
00000020: 6392 e4c0 f3f8 1e41 7472 5f41 fdf0 ce40
00000030: c573 2fc0 05cc 2d40 e643 79c1 7f81 4141
00000040: dd83 e7c0 a6c1 f9c0 d4e4 dfc0 a4c2 9340
00000050: f747 6d41 8851 8e40 9310 9dc1 66bf a741
00000060: 5835 3941 32d7 4cc1 11f7 96c0 279c c0bf
00000070: 990f e4bd fdd9 09c1 6651 9c40 584a 1241
00000080: 9a94 dd40 a8fa b041 9a94 8bc1 e643 0341
00000090: b691 94bf a641 e140 de35 3dc1 6f19 a63f
000000a0: a3fa fe40 c076 aac0 dc6d 4141 591d 3741
000000b0: a6a8 323f 5194 0f41 d3e8 1c41 053b 4240
000000c0: fea7 56c0 8613 3840 126c 76c1 d2ca 6341
000000d0: c03a 25c1 02b0 34c1 a04f d840 dcd4 3141
000000e0: 9f15 1640 3cdd 8441 1a44 ccc0 0db4 0241
000000f0: f19f 6ac1 4e5c 0940 a42a a3bf ba5c 9b40
00000100: a3c1 1040 a630 fcbe a56a 3041 1b20 0ec0
00000110: 8fad c540 6da2 79c0 88ac 243f 72fe 2141
00000120: 1a3d c3c0 17aa b93f 6dc9 8240 6148 5640
00000130: 4379 b5c0 1bdb c6c0 7daf 32c1 95bc b5c0
00000140: 613a 0841 514e 6cc1 8174 99c1 a0d1 d040
00000150: fbe6 0a40 f005 2c40 cee3 54c1 9680 90c0
00000160: fdb0 0041 1465 9140 ca83 be40 5b2c ba40
00000170: 9121 9e40 2eeb 8841 44d9 38c1 4bd8 4fc1
00000180: 0c4c 2d41 2ad6 9640 589e 4cc1 9ce7 16c0
00000190: a832 2ec1 6c0b 3ec1 1aa3 b3c1 b151 f03f
000001a0: 770e 3c41 0844 01c0 a3bc dac0 5cc6 5b41
000001b0: bdee cbc0 ddae 91bf 643a 5fc0 ea27 c1c0
000001c0: 7c46 0f41 a848 8240 8966 42c0 485d ff3f
000001d0: 69df 1141 fedf c441 02eb 12c0 171e 4abf
000001e0: b1f4 2ac1 ba06 323f 5e4c 863f 67f3 f840
000001f0: fd28 2e3f 9a39 2341 ce2e d53e 1d32 3bc1
00000200: 2379 10c1 f85b 7bc1 a06a 3941 13df 44c1
00000210: 163e a3c0 e34f 23c1 5acf d240 38ec b0c0
00000220: a58f 5b41 8972 e140 4c83 40c1 a983 56c0
00000230: 509c ab40 4165 7f41 8c15 37c1 1372 10c0
3.9099612 -12.32271 -3.6187272 8.277831 5.23621 1.0059011 1.3674293 1.6932615
-7.1428695 9.935779 13.965443 6.4669175 -2.741441 2.7155774 -15.579077 12.094115
-7.2348466 -7.8048887 -6.996683 4.61751 14.83007 4.4474525 -19.633093 20.968456
11.575523 -12.802538 -4.7176595 -1.5047654 -0.111357875 -8.61572 4.8849363 9.14315
6.92439 22.12239 -17.44756 8.204077 -1.1606967 7.0392637 -11.825651 1.2976512
7.9680953 -5.326996 12.089321 11.444665 0.6978859 8.97371 9.806842 3.0348523
-3.3540034 2.8761916 -15.401384 14.237017 -10.326843 -11.292971 6.75972 11.114468
2.3450696 16.608025 -6.383313 8.168958 -14.664048 2.1462588 -1.2747388 4.855069
2.2618186 -0.49255866 11.026036 -2.2207096 6.1774364 -3.9005387 0.6432576 10.12462
-6.1012087 1.4505032 4.087088 3.3481677 -5.6710525 -6.2142463 -11.167844 -5.6792703
8.514253 -14.76912 -19.181887 6.525589 2.170348 2.6878624 -13.305616 -4.5156965
8.04321 4.5435886 5.9535875 5.8179145 4.9415975 17.114834 -11.553043 -12.990306
10.831066 4.713643 -12.788658 -2.3578863 -10.887367 -11.877789 -22.45464 1.877493
11.753531 -2.0197773 -6.835527 13.735928 -6.372893 -1.1381489 -3.487939 -6.0361223
8.954708 4.071369 -3.0375082 1.9950342 9.1170435 24.609371 -2.2955937 -0.78952163
-10.684739 0.69541514 1.0492055 7.779712 0.68031293 10.201563 0.41637272 -11.699735
-9.029574 -15.709953 11.5885315 -12.3044615 -5.101329 -10.207004 6.5878115 -5.5288353
13.722569 7.0452313 -12.032055 -3.351786 5.362831 15.96222 -11.44276 -2.2569625

square_avg f4 [12]
00000000: ed04 9f3c 664c 7e3b 5b25 243c ef50 303a
00000010: e526 1239 2877 1f3c fb98 823b 1f99 d53b
00000020: 1162 ad3a 136e 323a 445b 433c 763b a43b
0.019411528 0.0038802861 0.010018672 0.0006725927 0.00013938134 0.009732999 0.003985522 0.0065184976
0.0013228079 0.00068065635 0.011923615 0.005011971

momentum_buffer f4 [12]
00000000: 31de 2341 12bc d340 3342 9041 9e1d 2d41
00000010: 2c07 1742 89e7 a540 b25f 3341 fdb6 ab41
00000020: 7dcf 1ac1 167d 9641 ee7b 9e40 16d9 1241
10.241746 6.616708 18.032324 10.819731 37.757004 5.1845136 11.210863 21.46435
-9.675656 18.811077 4.952628 9.1779995

square_avg f4 [12, 12]
00000000: b640 083e 29dc 6a3d ae45 733d 345d 253d
00000010: 1403 6038 3b93 923b 8f10 e13b a294 4d3c
00000020: 99e5 073e 31a4 fe3b d1ed 5b3c 81e1 c83b
00000030: 65f7 d63b 3f9c 1a3b 8f09 6337 3718 073b
00000040: 247c f735 6d4c 8a3a febd 8239 5c62 3b37
00000050: f882 493a 1894 fd38 aa24 d53a 54fe 8639
00000060: 8fd9 7e3c 06d5 633b 4733 363d 615b b63c
00000070: f9cc 9737 ede4 3139 c6f4 cb3a 9a58 143c
00000080: 79dd 963d ccc5 183a a4c2 663b 151c b13b
00000090: 9553 8a3c e8de f23b 6cea 1b3c 3e04 b43c
000000a0: 48fa 3238 e0ab 203b 7840 9e3b e42d 8d3b
000000b0: 7fa6 533d 390f ab3a 4613 3b3b b76a 6a3b
000000c0: e42f ed3b abb9 443b 94e3 803a bee3 bb3a
000000d0: 305d d435 0add 5a39 7111 263b 5c1c 8238
000000e0: c4c7 f339 6da9 6637 7437 4e3b a54d 453a
000000f0: 6900 843b e019 2b3b 8f88 2d3a f343 8438
00000100: c8cb d333 32fc 843a c868 a23b 87ca ab38
00000110: 38b0 9f39 ef92 1939 41e0 253b f65d a039
00000120: 4c3c 7233 c78a c034 0372 0b36 2661 1f34
00000130: 2a38 5d31 b318 d334 a4b3 8536 59c2 8b34
00000140: 5b31 7934 2053 d533 5d67 4a36 b191 a535
00000150: eb23 f13c 69ba 2a3d 7ea3 f239 9cf6 cd39
00000160: 6e58 9036 d184 e03b 8cce 833c 26a4 6539
00000170: 9257 8b3a 01f7 ee39 61d5 d33b 2707 703a
00000180: efd6 6f37 211c 953a 06e6 d737 2329 7e37
00000190: d8ba 1c34 5547 0d3a d2af 153b 6b4b 8a39
000001a0: 3cd6 6636 d79b 9138 519c 6f38 81fc ce37
000001b0: 2522 ac3b 85b1 d63b 0089 6838 4da6 d239
000001c0: 0bd4 9f36 ff57 993a 24c6 6d3a 0bc0 4738
000001d0: cdf1 9839 d4fd 2a39 7a5d 9b39 7674 3539
000001e0: 755a ee3c 3c19 8d3c 9d30 1d3d 5740 313c
000001f0: 6286 5837 a82e 393c 2fc5 ae3c 20e9 773c
00000200: 2808 2a3d 8032 393b 1401 313c dd4f 893b
00000210: f005 c83a adc5 e83b 5f56 4139 ddad 2a3b
00000220: c0f3 4435 9d00 573b 158d c33b 6547 8639
00000230: c956 173b 9c18 6e3a 048a ee3b d5c5 dc3a
0.13305935 0.057338867 0.059392624 0.04037209 5.340863e-05 0.0044731176 0.006868429 0.012547644
0.13271178 0.007771038 0.013423399 0.006130398 0.0065602534 0.0023591665 1.353248e-05 0.0020613798
1.8439064e-06 0.0010551341 0.00024937087 1.116897e-05 0.00076870574 0.00012091565 0.0016261537 0.0002574796
0.0155548 0.0034764423 0.044482496 0.02226037 1.809605e-05 0.00016965317 0.0015560619 0.009054327
0.07366461 0.0005827814 0.003521123 0.005404959 0.016885558 0.0074118264 0.00951634 0.02197468
4.26716e-05 0.0024516508 0.0048294626 0.004308449 0.051672455 0.0013050801 0.0028545423 0.0035769173
0.007238375 0.0030017893 0.0009833449 0.001433484 1.5822352e-06 0.00020872444 0.0025339986 6.2041654e-05
0.0004649741 1.3748516e-05 0.0031466158 0.00075265236 0.004028369 0.0026107952 0.0006619775 6.306907e-05
9.862521e-08 0.0010145961 0.0049563386 8.191639e-05 0.00030458136 0.00014645954 0.0025310668 0.00030587584
5.6399855e-08 3.586376e-07 2.0778978e-06 1.4843371e-07 3.2191658e-09 3.9319784e-07 3.984622e-06 2.6032174e-07
2.3207888e-07 9.933706e-08 3.016051e-06 1.233586e-06 0.029436072 0.04168168 0.00046279648 0.00039284385
4.301829e-06 0.0068517704 0.0160897 0.00021900292 0.0010630956 0.0004557893 0.0064646457 0.0009156339
1.4295553e-05 0.0011376181 2.573711e-05 1.5149158e-05 1.4596606e-07 0.00053893524 0.0022840393 0.00026377602
3.4397372e-06 6.943166e-05 5.712762e-05 2.4674695e-05 0.005253094 0.0065519237 5.54407e-05 0.00040178225
4.7632543e-06 0.0011699199 0.0009070358 4.762415e-05 0.00029171855 0.00016307022 0.0002963355 0.0001730489
0.029095868 0.017223947 0.03837644 0.0108185625 1.2905892e-05 0.011302628 0.021334259 0.015131265
0.041511685 0.002825886 0.01080348 0.0041904286 0.0015260559 0.007103643 0.0001843809 0.0026043572
7.337039e-07 0.0032806762 0.005967746 0.00025611665 0.00230925 0.00090826466 0.0072796363 0.0016843627

momentum_buffer f4 [12, 12]
00000000: 5a0c a5c0 e013 93c0 c3aa 02c0 569a 91be
00000010: ef06 c240 892b e540 f6c5 1ec1 2a8d 09c0
00000020: af72 ebc0 1090 c7c0 57ed 23bf b695 333e
00000030: dc4d e63f 2014 0041 81ca b940 5364 ec40
00000040: 3d22 3441 75cd 8841 bec7 0641 3f59 8241
00000050: 7e97 1941 3a38 6041 3cb2 2641 ff4f 0a41
00000060: 89df 3ac1 48a7 4841 619f 93c1 7d34 b83f
00000070: 0db9 15c1 0653 b340 8066 2041 06b2 cfc0
00000080: 9e70 5fc0 109c 46c0 0057 9240 ad6d e0c0
00000090: b202 5740 d04b 5e40 9a08 fdc0 1393 0741
000000a0: 445c 4141 f504 4f40 95d2 c2c0 36c2 62c0
000000b0: d981 c23f 7340 1140 792e 8041 6b27 9c40
000000c0: 8892 7ec0 cb54 1141 ab53 12bf 96da 6941
000000d0: 1ee5 ef3e c149 c241 a5fd 8fbf b350 4941
000000e0: 8c5d 8641 bb02 a641 e788 25c1 4799 9fc0
000000f0: 4793 bc3f 98de 8a41 52a3 2b41 d117 3c41
00000100: 905b 8f40 d48e 97bf 567a 4840 d505 4a41
00000110: e9db 683f 6646 11be 741c 91c1 2a2d d13e
00000120: 2662 1441 58ec e640 2ddf 9640 487c 4e41
00000130: 8bb2 8ac0 8b85 1841 6606 ab40 ba68 4a41
00000140: 1e08 e240 c4f3 1941 27eb d640 52e3 d540
00000150: 1756 abc0 3177 80bf 1ef0 2f41 d0c2 8740
00000160: 8c53 94c0 2b1e 3dc1 202b 463e 94b1 1341
00000170: 64c8 0740 f026 02c1 1a66 9dc1 182f 85c1
00000180: 0bea 1c41 08e8 55c0 a090 1f41 7b71 3441
00000190: 66a0 b43f d615 82c1 2f79 13c1 521b 2fc0
000001a0: 90c2 9041 dc45 18c1 0cfa 94be b1e3 6440
000001b0: 35c3 5d3f 19f7 bbc0 92c3 e740 70b7 3c41
000001c0: 6e80 1540 8a06 b0c0 5c38 1a41 2716 1c41
000001d0: 8b8b 5f41 da95 2641 9abc 1341 f38d f63f
000001e0: 811a 4740 3a1c 34c1 f259 d040 7a12 87c0
000001f0: 9510 87c1 896b 9dc0 10ce d83e 488c eb3f
00000200: 81f2 67c0 49e8 5140 ec34 6940 2b1b 0a41
00000210: ed1b 0341 5d96 8740 5186 3240 586c 24c1
00000220: 1587 3c41 16b6 d140 1880 2241 fe42 c140
00000230: 6193 11c1 72fc 32c1 228f bbc0 db8c a4c1
-5.1577578 -4.596176 -2.0416725 -0.2843806 6.0633464 7.1615644 -9.92333 -2.149241
-7.3577495 -6.2363358 -0.64034027 0.17537579 1.7992511 8.004913 5.8059697 7.3872466
11.258359 17.10032 8.423765 16.293577 9.599485 14.013727 10.418514 8.64453
-11.679574 12.54084 -18.452822 1.4391018 -9.357678 5.6038847 10.025024 -6.4904814
-3.4912486 -3.1032753 4.57312 -7.013388 3.3595395 3.4733772 -7.9073 8.473407
12.085026 3.2346776 -6.088206 -3.5431037 1.5195876 2.2695587 16.022692 4.879812
-3.9776936 9.083201 -0.5715892 14.615866 0.4685449 24.286013 -1.1249281 12.582202
16.795677 20.751333 -10.345923 -4.9874606 1.4732445 17.358688 10.727373 11.755815
4.479927 -1.1840463 3.1324668 12.626424 0.90960556 -0.14187011 -18.138893 0.4085477
9.273962 7.2163506 4.714743 12.905342 -4.334295 9.532603 5.344531 12.650568
7.063491 9.622013 6.716205 6.683999 -5.354259 -1.0036374 10.996122 4.242531
-4.6351986 -11.819865 0.19352388 9.230854 2.1216059 -8.134506 -19.674854 -16.647995
9.807139 -3.342287 9.972809 11.277705 1.411145 -16.260662 -9.217086 -2.7360425
18.095001 -9.5170555 -0.2909702 3.5763972 0.8662599 -5.8739133 7.2426233 11.794785
2.3359637 -5.500798 9.63876 9.755408 13.971568 10.411585 9.233545 1.926207
3.1109927 -11.256891 6.5109797 -4.2210054 -16.883097 -4.919377 0.42344713 1.8402185
-3.6241763 3.2798026 3.643855 8.631633 8.194318 4.237105 2.789448 -10.276451
11.782979 6.5534773 10.156273 6.0394278 -9.098481 -11.186632 -5.8612223 -20.568777

square_avg f4 [12]
00000000: 8c2b 473a a9f4 8339 2d4e 9c39 c702 6139
00000010: 7294 ec38 9fee 5a38 0495 7034 dedc 0f3a
00000020: e7d6 ba38 81fe d638 4aa6 9c3a ef02 7639
0.00075977365 0.00025168553 0.00029812884 0.00021458707 0.00011281007 5.2197483e-05 2.2405953e-07 0.0005487929
8.9092e-05 0.0001025172 0.0011951413 0.00023461481

momentum_buffer f4 [12]
00000000: 3a2c fcc0 eac3 cb40 a19f d3c0 de47 08c0
00000010: f651 3041 6a31 4541 a30a ee40 6eaf 1c40
00000020: 7977 703f 5075 96c0 8d2b 6a40 2ec1 a340
-7.8803988 6.3676653 -6.613236 -2.1293864 11.02001 12.324564 7.4387984 2.4482074
0.939323 -4.7018204 3.6589081 5.1173315

square_avg f4 [12, 12]
00000000: 1647 583d 55b6 1338 4983 e83a b2b8 633b
00000010: 27a3 ae39 6cc2 1f3c 9d71 8e36 b335 353c
00000020: f635 1a3a c247 4838 28e9 f43e 13a9 9939
00000030: 3a1c 092c db9a 6a2a 03e9 7c2a e097 4728
00000040: d9c4 5529 a991 522b bcc1 ed26 972b a228
00000050: 3949 d02c c358 672a fb4b 122a 491a 7c2c
00000060: 0364 d53d 67c5 7f3b 1d02 1e3c 4106 c23e
00000070: 09f4 5038 2a8b 713b 6f06 9929 ae65 273c
00000080: 5b3f 8c39 7207 4b3b 9637 243e a14c e038
00000090: 7841 0338 fcf0 8333 4970 2c33 d070 3d36
000000a0: c389 c236 efb2 b737 c9db ed33 a6fd 2739
000000b0: 05b0 d038 e23c ac37 abd1 e138 d930 1b38
000000c0: 9690 e43a 1180 f738 cd5d 9f38 3334 a538
000000d0: 05dd e639 25e1 073b 52c5 9734 617c c93a
000000e0: ee10 5439 1a0e 5538 d726 a53b 49c8 b638
000000f0: 622f 273d 26d5 e53a cf81 743a 8a2b 1d3d
00000100: 0eff f83a 0f8f df3b 7b8c 3d34 27de 1e3b
00000110: 257c 0a39 afa3 c238 e671 7a3d 6e71 2638
00000120: 9bb6 033e 6ec9 ed3b f589 c83c 41f4 c43e
00000130: e58c 653a dc2a 453b a218 0936 045f eb3b
00000140: 71e5 8439 e126 183b 71ff 773e de15 f338
00000150: cfad 3936 3aed 9e34 3537 1634 d226 c935
00000160: e974 1b36 9089 1b37 de81 c034 2e95 a037
00000170: 81ab a336 90fd de35 91db 8737 7980 cb35
00000180: b3bc 6239 4a1b c23a 5599 df3a 426b 0a3c
00000190: 378b 3c38 d6f8 6938 968a 3e33 e167 8f39
000001a0: 9370 ac35 7294 083a 80ce e639 880d a536
000001b0: af60 193e c87f e63b b5f2 903b a15b 9e3d
000001c0: d83c 6b3b 93e8 6d3c 3765 8d35 bcaa 773c
000001d0: 1cad b839 68b3 1b3a 8054 703e c9fb 2639
000001e0: 1544 003e 8688 a53b 2639 d73b b5e2 773e
000001f0: 4cde 343c 4998 373c 195b 2d36 5df3 cd3c
00000200: a840 3e3a fc03 013b 21d1 d03e a145 d739
00000210: b904 4e36 75ba a236 bfd0 8636 fb7b dd37
00000220: 8181 ce35 eeed dd36 d6fb d034 af2b dc37
00000230: e7ce dc36 d4e7 3e37 ef14 3938 8c3f c735
0.052802168 3.521734e-05 0.0017739321 0.0034747538 0.00033309424 0.009750944 4.245156e-06 0.011060166
0.00058826746 4.7750545e-05 0.47834134 0.00029308404 1.948454e-12 2.0837101e-13 2.2462938e-13 1.1079652e-14
4.746624e-14 7.480913e-13 1.649769e-15 1.8004517e-14 5.919845e-12 2.0547717e-13 1.2993766e-13 3.5825945e-12
0.10419466 0.0039027573 0.0096440585 0.37895396 4.981834e-05 0.003685663 6.795681e-14 0.010217113
0.00026750084 0.003097978 0.1603683 0.000106954256 3.1293806e-05 6.143998e-08 4.0148993e-08 2.822886e-06
5.797688e-06 2.1898622e-05 1.1076151e-07 0.00016020852 9.950999e-05 2.0532349e-05 0.0001076789 3.7000373e-05
0.001743811 0.00011801732 7.5991826e-05 7.877536e-05 0.0004403369 0.0020733562 2.826951e-07 0.0015372151
0.00020224202 5.079629e-05 0.0050400305 8.715742e-05 0.040816672 0.0017534837 0.00093272043 0.0383716
0.0018996911 0.006822474 1.7653103e-07 0.00242413 0.00013206953 9.281129e-05 0.06114378 3.9683124e-05
0.12862627 0.0072566783 0.024479846 0.384676 0.00087566517 0.003008536 2.042893e-06 0.0071829576
0.0002534795 0.0023216533 0.24218537 0.00011591216 2.7668318e-06 2.9602398e-07 1.3989923e-07 1.4986965e-06
2.316485e-06 9.270749e-06 3.5857278e-07 1.9142954e-05 4.8777442e-06 1.6614085e-06 1.6195498e-05 1.5162069e-06
0.00021623335 0.0014809158 0.0017059246 0.008448424 4.4952347e-05 5.5783275e-05 4.4363865e-08 0.0002735248
1.2847762e-06 0.00052101084 0.00044022873 4.9189584e-06 0.14978288 0.0070342757 0.004423464 0.077323206
0.003589442 0.014520782 1.0534776e-06 0.01511639 0.0003522419 0.00059395144 0.23469734 0.00015924791
0.12525971 0.0050516753 0.006568092 0.24207576 0.011039328 0.011205741 2.5832035e-06 0.025140459
0.00072575593 0.0019686213 0.40784553 0.00041059873 3.069914e-06 4.8496827e-06 4.0178124e-06 2.6402986e-05
1.5385887e-06 6.614012e-06 3.8926254e-07 2.6246385e-05 6.5805975e-06 1.1378859e-05 4.4126933e-05 1.484515e-06

momentum_buffer f4 [12, 12]
00000000: 369c b140 bb75 9141 6c42 c241 9866 0b41
00000010: ca84 c640 d2f5 1cc0 1044 9740 daa0 f0bf
00000020: e516 c1bf ae5d c1bf 1fe1 8bc0 4c0b 9a3d
00000030: 0840 6940 5732 6740 e84e 6740 3387 5d40
00000040: 73ee 6340 34a2 6840 0ce4 4b40 7927 6040
00000050: 0bae 6940 f12c 6740 dc64 6640 b983 6940
00000060: 17bf 0541 906b 3941 93e1 0d41 4fa6 d7c0
00000070: 5f91 2f41 0d7b 6540 90f2 64c0 129f 84bf
00000080: f4e6 13c1 989a 8a40 d10e aac1 89c5 51c0
00000090: 8de7 9e3e eb25 d040 81fc 2e41 622f 5a41
000000a0: 5617 06be 9bca 1141 887a babe 16db 9bc0
000000b0: cb6c a6c0 d621 8840 fcf6 5b41 3d25 b4bf
000000c0: 4e88 0bc0 4774 5cc0 35ba 3541 b92e 4341
000000d0: 2f76 5dc1 893e d4c0 ec62 81c0 7926 b5c0
000000e0: 9d9b 09c1 7aeb 8b40 e6f0 cc40 4882 103f
000000f0: ec0e c7c1 7d05 a6c1 b1c5 b7c1 7156 cdc0
00000100: 58b1 44c1 3995 ffc0 2a60 8cbd 2444 bfc1
00000110: 83ea 3041 8467 9cc1 effb b6c1 3a77 58c1
00000120: ed5a 3240 2315 f840 90a1 9441 2db5 c5bf
00000130: 822a 5440 baba 3140 8eed 1a3e 5ad1 0dc1
00000140: 0680 da3f 8a66 d83d 8e2b 85c0 6abe 78c0
00000150: 3ea2 8fbd 2ea3 bb40 e1cb 3041 4bc7 0541
00000160: cd67 7940 e556 cb40 9c5c 4bc0 c3ef 0cc1
00000170: f79b 323f 3348 e540 8594 b340 7b8b 4d40
00000180: 07c2 af41 e72e b140 39ac d740 b430 2341
00000190: 096e a841 6732 8f40 5b17 eb40 38c3 0941
000001a0: 089e 0441 909e 9340 cba6 7741 b2ad cb40
000001b0: 8837 90c0 18dc 2941 bbc9 4641 4062 8e41
000001c0: a985 2641 a560 1f41 66f5 0ebf d405 3b40
000001d0: 2674 efbe b125 1f41 8402 1d41 caec 7040
000001e0: dfde afc0 ca19 7c40 171d ea40 378e 2440
000001f0: 367c 75c0 bf5d 14c1 55bf 3ec0 5eaf 8640
00000200: 1bd3 b6c1 7729 c93e 4fbf 70c0 dfe1 7dc1
00000210: df9b 8341 3915 c440 2529 1f41 6d39 c340
00000220: 32ca 5041 50fa de40 12fd b740 a951 2840
00000230: a549 9340 c8bc e5bf fb54 2b41 e047 7740
5.5503187 18.182486 24.282433 8.712547 6.2037096 -2.4525037 4.7270584 -1.8799088
-1.5085112 -1.5106714 -4.3712306 0.07521686 3.6445332 3.6124475 3.614191 3.461377
3.5614288 3.6349 3.1857939 3.5024092 3.6512477 3.612118 3.599906 3.6486647
8.359153 11.58876 8.867572 -6.7390513 10.972991 3.5856354 -3.5773048 -1.0361044
-9.243885 4.3313713 -21.257235 -3.2776816 0.31036034 6.5046287 10.936646 13.636568
-0.1309484 9.111964 -0.3642161 -4.870494 -5.2007804 4.2541304 13.747799 -1.4073864
-2.1801944 -3.444597 11.357961 12.198907 -13.841353 -6.6326337 -4.0433254 -5.6609464
-8.600492 4.3724947 6.4044065 0.56448793 -24.882286 -20.75268 -22.971529 -6.416802
-12.293297 -7.9869657 -0.06854279 -23.908272 11.057254 -19.550545 -22.873014 -13.529108
2.7867997 7.75258 18.578888 -1.5445915 3.3150945 2.777022 0.15129682 -8.863611
1.707032 0.10566433 -4.1615667 -3.886622 -0.07013367 5.8636694 11.049775 8.3611555
3.8969605 6.3543572 -3.1775274 -8.808536 0.69769233 7.1650634 5.61188 3.2116382
21.96974 5.5369754 6.7397733 10.19939 21.053728 4.4749026 7.346601 8.610161
8.288582 4.613106 15.478221 6.364953 -4.5067787 10.616234 12.424251 17.797974
10.407632 9.961095 -0.558432 2.9222307 -0.46768302 9.946702 9.813114 3.7644525
-5.495956 3.939074 7.316051 2.57118 -3.8357062 -9.272887 -2.980428 4.208907
-22.853079 0.39289448 -3.7616765 -15.867644 16.451109 6.1275907 9.947545 6.10076
13.049364 6.9680557 5.7496424 2.6299841 4.60274 -1.7948236 10.708247 3.863762

square_avg f4 [12]
00000000: 999c d338 8877 b62d 077f 8c38 15f2 ca36
00000010: 8ead 3837 6c0e 9837 0f31 eb38 4cbb 9634
00000020: acc0 1937 88db b038 a5e7 fc38 c28a 5b35
0.000100904326 2.0744087e-11 6.699381e-05 6.048251e-06 1.10076635e-05 1.8126528e-05 0.00011214811 2.8075954e-07
9.164371e-06 8.433225e-05 0.000120594435 8.1785777e-07

momentum_buffer f4 [12]
00000000: f950 2f41 3ef3 6940 a696 92c1 98e0 8b40
00000010: 2f63 2ac1 1094 01c2 5558 3841 8c80 9c40
00000020: 4e8a e73f 94a2 ba40 1784 a83f 8445 c43f
10.957269 3.6554713 -18.323559 4.371166 -10.649215 -32.394592 11.521565 4.8906918
1.8089082 5.832346 1.3165311 1.5333714

square_avg f4 [12, 12]
00000000: 4b59 e82a bb9b 932b f3a9 c128 36f6 3a2d
00000010: 0716 922c f166 2c2b 0000 0000 3ab4 5426
00000020: 9fe5 832d e68e cf2c b9dd cb22 b4aa 3429
00000030: 5218 9635 6aa3 0a24 d2ee 0227 24bc c236
00000040: ab08 8836 7836 9637 0737 9835 48f5 2f37
00000050: 83f4 5d2c a078 9e31 e9a6 052f 75da 5b36
00000060: b9f8 c936 757f 7225 f8d9 0229 4433 2f38
00000070: da01 db37 abfd fe38 80cf 0c37 d928 8538
00000080: bb59 fc32 0c8f 4f34 502d 6d34 5dc7 d137
00000090: 66b6 ea36 2c72 6a28 d849 643c c4f6 5c38
000000a0: f5cd 8338 54e8 113c 14ed 783b 1d3c 9438
000000b0: 05dd b433 b418 3a37 eb71 5b38 7f6a e437
000000c0: 6b86 7939 1d26 c725 22c5 2538 78a3 7c38
000000d0: 752a fb38 daae ac3a 5219 7738 bc5d 8238
000000e0: be73 d932 abdf eb36 0d33 9639 a11f 9b37
000000f0: e65a 892b 5fcd ca27 00c3 342b 82cf 9f2d
00000100: 8a31 d02b 5f82 a133 fa03 7433 f9cb 9d30
00000110: 02fa d535 623d 2f36 4aca 8a31 23f4 4434
00000120: eec9 053d 0b5a b82c d060 0c3e 79e6 3034
00000130: a3ab a339 ad3d ce3e 1312 6a3d 5548 9434
00000140: 1a5d 103d e40c 893e 70b9 f13d d8a7 b436
00000150: d13a 613e 7fc6 0327 3132 033e 9ef2 8838
00000160: ed99 d039 3a8b d63e e513 343e 93f0 9139
00000170: a0c1 553d f6e3 183f ec75 b03d eaf5 d037
00000180: aafb aa36 7880 5829 f23d f529 ed56 192b
00000190: ca03 832a 3d45 8934 ff50 d536 9144 8d32
000001a0: 0000 0000 6dba 5534 ba92 f436 8318 0d2f
000001b0: d4f3 d23c e1ad dc28 f99f 053d a457 8230
000001c0: 6d6c 7b37 0462 673c 1396 a53c bac2 f634
000001d0: c901 083c 4d79 393d 26ac 423c feb6 b234
000001e0: aa00 8d37 488a e028 b5bd 363b 8186 4135
000001f0: 140d 4136 8324 9e3b afbe 3d3a b1fc 6d37
00000200: 991d 9030 58f7 3035 fa7a 8b38 898d 8135
00000210: 5f8a ca38 0000 0000 4d2a 8c3b 4891 3b36
00000220: da8f 2636 f4e0 6d3c f969 8f3a 4c8a 5e36
00000230: cadc 933b de9c 043d c497 c139 0679 0535
4.1273438e-13 1.0488202e-12 2.1501008e-14 1.0627546e-11 4.152015e-12 6.1249535e-13 0.0 7.379653e-16
1.4994948e-11 5.8991588e-12 5.525802e-18 4.011609e-14 1.1182949e-06 3.0062397e-17 1.8170589e-15 5.803553e-06
4.054125e-06 1.7906757e-05 1.1340898e-06 1.0487922e-05 3.154172e-12 4.6121187e-09 1.2155578e-10 3.2760702e-06
6.019222e-06 2.1033338e-16 2.9054856e-14 4.1770996e-05 2.6107697e-05 0.00012158913 8.392963e-06 6.349543e-05
2.9377466e-08 1.9330417e-07 2.208883e-07 2.5007577e-05 6.9949774e-06 1.30143665e-14 0.013933621 5.2681906e-05
6.284929e-05 0.008905489 0.0037983106 7.068387e-05 8.4221064e-08 1.1092216e-05 5.2319763e-05 2.722931e-05
0.00023796565 3.4546824e-16 3.952266e-05 6.0233724e-05 0.00011976521 0.0013174668 5.891297e-05 6.2163424e-05
2.5314758e-08 7.029584e-06 0.00028648265 1.8492168e-05 9.759665e-13 5.6288927e-15 6.4219463e-13 1.816836e-11
1.4793039e-12 7.520861e-08 5.6814294e-08 1.1481226e-09 1.5942499e-06 2.6112762e-06 4.039326e-09 1.8342739e-07
0.03266328 5.2395913e-12 0.13708806 1.6475123e-07 0.00031217662 0.4028143 0.057146143 2.7619777e-07
0.03524504 0.26767647 0.118029475 5.3839576e-06 0.21995093 1.8287507e-15 0.12812115 6.530176e-05
0.00039787535 0.41903096 0.17585714 0.00027835797 0.05218661 0.5972284 0.08616242 2.4910045e-05
5.0956924e-06 4.8073064e-14 1.08909314e-13 5.4477153e-13 2.3272904e-13 2.5568616e-07 6.357324e-06 1.644574e-08
0.0 1.9904992e-07 7.288848e-06 1.2832584e-10 0.025751032 2.4500314e-14 0.032623265 9.483654e-10
1.4986011e-05 0.01412249 0.020213163 4.5962753e-07 0.008301207 0.045281697 0.011881864 3.3288228e-07
1.6808819e-05 2.4928966e-14 0.002788407 7.209383e-07 2.8766854e-06 0.00482613 0.0007238192 1.4185135e-05
1.0485791e-09 6.592504e-07 6.650943e-05 9.652441e-07 9.657884e-05 0.0 0.0042775036 2.7949736e-06
2.481966e-06 0.014518965 0.0010941616 3.3161077e-06 0.004512404 0.032376163 0.00036924903 4.9722473e-07

momentum_buffer f4 [12, 12]
00000000: 5013 6840 9de2 6840 73fa 6040 b2d3 6940
00000010: 4591 6940 c376 6840 0000 0000 6697 3f40
00000020: 43e5 6940 c8ad 6940 0f1a 83bf 5d64 63c0
00000030: af66 0540 acbd debf 0c25 4dc0 95b7 8b3e
00000040: cd10 5ac0 5bca 9140 d499 d840 cab5 bb3f
00000050: d893 ba3e 2e59 2e41 8770 4cbf 9922 f23f
00000060: 17ce fb40 854d 25c0 2a3b 62c0 a495 23c1
00000070: 4077 22c1 df55 d340 02c5 0041 0af8 8a40
00000080: 3c63 de40 8d82 1d41 3c17 df40 a57b 3840
00000090: fb0a 7c41 8476 5e40 d7d2 e3c0 3b1f 0fc1
000000a0: 408a d6c0 451f 4541 8f6f 3541 592d 7d40
000000b0: 88b7 6dbf a7de b440 b9bc 1341 2097 61c0
000000c0: 1061 d940 cfbb 30c0 102d 1941 cfd6 bcbf
000000d0: b3f5 d1c0 bf3b 0741 f424 2241 b791 9240
000000e0: 2d1b 843f 30fa 0341 6655 f440 e894 3240
000000f0: 3de9 2cc0 adc7 5840 6781 6840 7b32 8c40
00000100: 52ab 5e40 ea71 fb40 d2f9 27bf 18cd 1c41
00000110: 78ac 8940 981f a040 103f 0541 d6f9 4741
00000120: a131 1040 b6a4 6940 d2b0 a93f 75ef 9940
00000130: e6af 6641 55c9 6b41 9dec bf40 1ad5 93bf
00000140: da6e b2c0 7adf 72c0 8062 8ec0 f8b9 a0c0
00000150: 35c2 fbc0 f439 4d40 fef6 e640 be20 55c0
00000160: 0489 f7bf f828 6541 983f 3040 d6b2 19c0
00000170: 9eec 21c1 f0c3 93c0 5e5f 2141 1328 00c0
00000180: 3326 8a40 65f8 6340 2c0b 6640 345b 6840
00000190: 045c 6740 be4e ef40 15e6 8a40 e689 e640
000001a0: 0000 0000 e392 8040 72da 8d40 401b ef40
000001b0: d930 15c1 118b 61c0 3956 acbf ab4d 95bd
000001c0: e2c0 fc40 8dcf ff40 3350 cb3f 538d 8d3f
000001d0: b328 40c0 21db b3c0 5190 2fbf bce8 3fc1
000001e0: 0c25 a540 9e9d 61c0 52bf ddc0 ffc1 0ac1
000001f0: 2e1c c0c0 7c45 db40 acfd 8440 2f1e 8c3e
00000200: 95fb 0641 c93e 3741 44eb 5141 75df 39bf
00000210: 893d 453d 0000 0000 12a9 4e41 5f65 8cbe
00000220: 069a 1240 b37d 1440 f2a7 9440 06c1 973f
00000230: 8843 88bf 1e04 21c1 e2a8 1441 13c8 58c0
3.6261787 3.6388314 3.5152862 3.6535459 3.6494915 3.6322486 0.0 2.9936156
3.654618 3.6512318 -1.0242327 -3.5530007 2.0843923 -1.7401633 -3.2053862 0.272885
-3.4072754 4.5559516 6.768778 1.4664853 0.3644092 10.896772 -0.79859203 1.8916808
7.8689075 -2.5828564 -3.534861 -10.224033 -10.154114 6.6042323 8.048098 4.342778
6.9496136 9.844373 6.971586 2.8825467 15.752681 3.4759836 -7.1194873 -8.945125
-6.704376 12.320134 11.339736 3.9558928 -0.9285817 5.6521792 9.233575 -3.524849
6.7930984 -2.761463 9.573502 -1.4753054 -6.5612426 8.452086 10.134022 4.5802875
1.0320793 8.248581 7.6354246 2.7903385 -2.7017357 3.3871872 3.632898 4.381162
3.4792066 7.8576555 -0.6561557 9.800072 4.3023033 5.0038567 8.327896 12.498495
2.253029 3.6506782 1.3257086 4.8104806 14.417944 14.736653 5.9976335 -1.1549408
-5.5760317 -3.79489 -4.449524 -5.0227013 -7.867457 3.2066622 7.2176504 -3.3301234
-1.9338689 14.322502 2.7538815 -2.4015403 -10.120268 -4.617668 10.085783 -2.002446
4.317163 3.5620358 3.5944319 3.6305666 3.6149912 7.478362 4.340586 7.2043333
0.0 4.0179305 4.4329157 7.4720764 -9.324426 -3.524113 -1.3463813 -0.072902046
7.8985453 7.994086 1.588385 1.1058754 -3.002484 -5.620499 -0.68579584 -11.99432
5.1607723 -3.5252452 -6.9296045 -8.672362 -6.00344 6.852232 4.155966 0.27366778
8.436421 11.452828 13.119938 -0.72606593 0.048154388 0.0 12.916277 -0.2742109
2.2906508 2.320172 4.645501 1.1855781 -1.0645609 -10.063505 9.291231 -3.3872116

square_avg f4 [12]
00000000: 47af 912d a629 e833 8cb8 4735 6397 6c35
00000010: 6f10 2035 6be8 a930 51e8 3236 7d63 4437
00000020: 37cc 8f32 2d93 bd34 0baa 4333 592c 3335
1.656243e-11 1.0810918e-07 7.440183e-07 8.813715e-07 5.962856e-07 1.2362426e-09 2.6659293e-06 1.1705674e-05
1.6740257e-08 3.5311078e-07 4.555663e-08 6.674723e-07

momentum_buffer f4 [12]
00000000: c7e9 6940 e758 cfbf 9ba3 8640 c40b 9cc0
00000010: 3ceb 5bc0 4a00 77c0 01d6 5c41 0f3e d740
00000020: c43b fb40 17b9 c93f 703f 6740 5d73 10c0
3.6548936 -1.6199006 4.2074714 -4.876436 -3.4362326 -3.8593926 13.802247 6.7263255
7.8510456 1.575961 3.613247 -2.2570412

square_avg f4 [3, 1]
00000000: 0000 0000 0000 0000 0000 0000
0.0 0.0 0.0

momentum_buffer f4 [3, 1]
00000000: 0000 0000 0000 0000 0000 0000
0.0 0.0 0.0

square_avg f4 [3, 1]
00000000: 0000 0000 0000 0000 0000 0000
0.0 0.0 0.0

momentum_buffer f4 [3, 1]
00000000: 0000 0000 0000 0000 0000 0000
0.0 0.0 0.0

square_avg f4 [5, 2]
00000000: 1d15 1d2c 6da8 e62b 0000 0000 3ac5 ac2f
00000010: 0000 0000 0000 0000 cd21 392d 39ec 072d
00000020: 0000 0000 9b95 c73d
2.2322762e-12 1.638923e-12 0.0 3.1426756e-10 0.0 0.0 1.0523538e-11 7.7263135e-12
0.0 0.09745332

momentum_buffer f4 [5, 2]
00000000: ec50 69c0 bd28 6940 0000 0000 71f9 3941
00000010: 0000 0000 0000 0000 2ad3 69c0 8ac0 6940
00000020: 0000 0000 bc00 a73f
-3.645564 3.6431115 0.0 11.623399 0.0 0.0 -3.6535134 3.6523767
0.0 1.3047099

square_avg f4 [2, 2]
00000000: 0000 0000 73dc 2335 c679 072e b413 e33f
0.0 6.104303e-07 3.0803603e-11 1.7740388

momentum_buffer f4 [2, 2]
00000000: 0000 0000 edd1 7840 7d01 6a40 109a 2b41
0.0 3.8878129 3.6563408 10.725113

square_avg f4 [2]
00000000: 8ffe 2334 9c50 c43d
1.5273166e-07 0.095856875

momentum_buffer f4 [2]
00000000: 69d1 7840 ec7b ee40
3.8877814 7.452627

square_avg f4 [2, 2]
00000000: 0000 0000 0000 0000 774c 4333 80ee 173e
0.0 0.0 4.547152e-08 0.14837074

momentum_buffer f4 [2, 2]
00000000: 0000 0000 0000 0000 96d0 7840 9e0d 583f
0.0 0.0 3.887731 0.8439578

square_avg f4 [2]
00000000: 0000 0000 4db2 df39
0.0 0.0004266672

momentum_buffer f4 [2]
00000000: 0000 0000 207b d8bf
0.0 -1.6912575

square_avg f4 [2, 2]
00000000: 0000 0000 0000 0000 0000 0000 a564 323e
0.0 0.0 0.0 0.17421205

momentum_buffer f4 [2, 2]
00000000: 0000 0000 0000 0000 0000 0000 2e09 453f
0.0 0.0 0.0 0.7696713

square_avg f4 [2]
00000000: 0000 0000 4d05 8327
0.0 3.636555e-15

momentum_buffer f4 [2]
00000000: 0000 0000 caeb 14c0
0.0 -2.3268914

square_avg f4 [3, 1]
00000000: 0000 0000 0000 0000 0000 0000
0.0 0.0 0.0

momentum_buffer f4 [3, 1]
00000000: 0000 0000 0000 0000 0000 0000
0.0 0.0 0.0

square_avg f4 [3, 1]
00000000: 0000 0000 0000 0000 0000 0000
0.0 0.0 0.0

momentum_buffer f4 [3, 1]
00000000: 0000 0000 0000 0000 0000 0000
0.0 0.0 0.0

square_avg f4 [3, 1]
00000000: 0000 0000 0000 0000 0000 0000
0.0 0.0 0.0

momentum_buffer f4 [3, 1]
00000000: 0000 0000 0000 0000 0000 0000
0.0 0.0 0.0

square_avg f4 [3, 1]
00000000: 1234 4631 0000 0000 dfbb a232
2.884239e-09 0.0 1.8944716e-08

momentum_buffer f4 [3, 1]
00000000: 1c1d 6c40 0000 0000 905f edc0
3.6892767 0.0 -7.4179153

square_avg f4 [404, 50]
00000000: 24ca 2441 0000 0000 0000 0000 ca03 083b
00000010: 005a 3d3e 0000 0000 0000 0000 26f0 b240
00000020: 7df0 5b3f 0000 0000 ff81 3044 b826 c446
00000030: 0000 0000 0000 0000 baf7 1544 19df 483c
00000040: 0000 0000 0000 0000 2556 9840 0000 0000
00000050: bb1e fb40 efd9 a233 d668 0241 0000 0000
00000060: 8099 8445 824e 1b42 0000 0000 c3d3 bd42
00000070: 7ec3 872a 0000 0000 571f 2a40 0000 0000
00000080: 0000 0000 d28d 132c 0000 0000 0000 0000
00000090: 0000 0000 0000 0000 0000 0000 4469 143c
000000a0: 0000 0000 0000 0000 0000 0000 0000 0000
000000b0: 480b cf42 0000 0000 0000 0000 0000 0000
000000c0: 0000 0000 494f 0d45 02a0 2a3c 1f28 ac39
000000d0: 0000 0000 dc6b ce34 0000 0000 ff02 3a38
000000e0: 0000 0000 0000 0000 0000 0000 0000 0000
000000f0: e720 8a33 f47b 3d36 1bb6 d63b d02b 4839
00000100: df37 6c3b e0a4 b736 f467 4339 0000 0000
00000110: 2831 e83b fd1a 2733 0000 0000 2f50 993b
00000120: 0000 0000 4dca 4e36 0000 0000 0000 0000
00000130: 0000 0000 0000 0000 0000 0000 0000 0000
00000140: 3c23 403b 18f5 2238 0000 0000 0000 0000
00000150: 0000 0000 4260 7425 0000 0000 c1c0 dd35
00000160: a657 c632 e25c 203b 18ac 043b a7e0 0035
00000170: f700 2137 39bd 883c 88d0 f53b f483 7d20
00000180: 4e8e 7236 0000 0000 0000 0000 ab9d 983a
00000190: 0000 0000 0000 0000 0b25 bc3a 0000 0000
000001a0: 1dd6 173d 0000 0000 0000 0000 0000 0000
000001b0: 0000 0000 0000 0000 0000 0000 0000 0000
000001c0: 0000 0000 d99e 0e3e 0000 0000 0000 0000
000001d0: 0000 0000 bb2e b32f 0000 0000 0000 0000
000001e0: 3218 8f3c 6f33 ce35 6b2f 453c 0000 0000
000001f0: 48b1 093b 804d 3e3d 0000 0000 0000 0000
00000200: 0000 0000 19d7 a63c 0000 0000 0000 0000
00000210: 0000 0000 0000 0000 0000 0000 0000 0000
00000220: 26b1 7a3d b808 073d 0000 0000 1e04 4e3d
00000230: c812 6825 266f 5c3d 0000 0000 3b8e cd3c
00000240: 0920 093d a0b5 1f3b 0000 0000 8a43 8e3c
00000250: 0000 0000 4cd7 b83c 0000 0000 0000 0000
00000260: 0000 0000 0000 0000 0000 0000 0000 0000
00000270: 0000 0000 0000 0000 0000 0000 bb32 8a37
00000280: 031c 823b 3f7b b23a 0000 0000 c7bc 5d38
00000290: 0000 0000 0000 0000 728e 4533 0000 0000
000002a0: d837 d539 0000 0000 59be 2d3b 6cc3 853a
000002b0: 3eb0 ae36 3751 2e3a f5cf 1c2d 0000 0000
000002c0: 0000 0000 0000 0000 0000 0000 0000 0000
000002d0: 01b3 4f3b a8ce 9a2d 0000 0000 0000 0000
000002e0: 0000 0000 f868 013a 0d56 0f34 0000 0000
000002f0: 9e07 0337 88c7 d53a 0000 0000 0000 0000
00000300: 0000 0000 109d cc3a 5bdd 643a 0000 0000
00000310: 0000 0000 0000 0000 0000 0000 c144 233b
00000320: b05b cb39 3a30 5937 3f6e c239 22eb 2437
00000330: 0000 0000 07d1 7538 7b9b cc24 eff4 0f35
00000340: 0000 0000 0a48 c538 893b 9c33 0000 0000
00000350: 0000 0000 0000 0000 0000 0000 0000 0000
00000360: 294d 3b37 4fa7 c43a 495f 7e3a 0000 0000
00000370: 0000 0000 0000 0000 e3f7 283b 0000 0000
00000380: 0000 0000 0000 0000 0000 0000 0000 0000
00000390: a665 353a 09b0 2b31 5fdb 1b3a e6f3 0939
000003a0: 0000 0000 0000 0000 2d5d 633a 0000 0000
000003b0: 0000 0000 0000 0000 3a08 883a ac5c 3b3a
000003c0: f08e c534 96b9 4d3a 0000 0000 ec6a 423a
000003d0: cc85 173b 6328 e52a 307d 5839 0000 0000
000003e0: bff0 0326 0000 0000 7ecc db37 73c4 f53a
000003f0: 7747 af37 0000 0000 8d7f a83d 50e1 463a
10.299351 0.0 0.0 0.0020754212 0.18491364 0.0 0.0 5.591815
0.8591383 0.0 706.0312 25107.36 0.0 0.0 599.8707 0.012260222
0.0 0.0 4.7605157 0.0 7.8475013 7.583355e-08 8.150595 0.0
4243.1875 38.826668 0.0 94.9136 2.4116467e-13 0.0 2.6581628 0.0
0.0 2.0968683e-12 0.0 0.0 0.0 0.0 0.0 0.0090583
0.0 0.0 0.0 0.0 103.52203 0.0 0.0 0.0
0.0 2260.9553 0.010414125 0.0003283629 0.0 3.8448968e-07 0.0 4.4348646e-05
0.0 0.0 0.0 0.0 6.432111e-08 2.8235345e-06 0.0065524704 0.00019089808
0.0036044044 5.473019e-06 0.00018635375 0.0 0.007085938 3.8907263e-08 0.0 0.004678748
0.0 3.0814147e-06 0.0 0.0 0.0 0.0 0.0 0.0
0.0029317876 3.885207e-05 0.0 0.0 0.0 2.119624e-16 0.0 1.6521882e-06
2.3090092e-08 0.0024469425 0.0020244177 4.801063e-07 9.596572e-06 0.01669179 0.0075016655 2.1473593e-19
3.6143642e-06 0.0 0.0 0.0011643668 0.0 0.0 0.0014354301 0.0
0.03706943 0.0 0.0 0.0 0.0 0.0 0.0 0.0
0.0 0.13927783 0.0 0.0 0.0 3.2593114e-10 0.0 0.0
0.017467592 1.5363165e-06 0.012035231 0.0 0.002101021 0.04646063 0.0 0.0
0.0 0.020366238 0.0 0.0 0.0 0.0 0.0 0.0
0.0612041 0.0329673 0.0 0.050296895 2.0129156e-16 0.053816937 0.0 0.025092235
0.033477817 0.0024369732 0.0 0.01736619 0.0 0.022563599 0.0 0.0
0.0 0.0 0.0 0.0 0.0 0.0 0.0 1.6474505e-05
0.0039706244 0.0013617052 0.0 5.286632e-05 0.0 0.0 4.599719e-08 0.0
0.00040668133 0.0 0.002651116 0.0010205335 5.2061214e-06 0.0006649675 8.913749e-12 0.0
0.0 0.0 0.0 0.0 0.0031692388 1.7599547e-11 0.0 0.0
0.0 0.0004936601 1.3349218e-07 0.0 7.809982e-06 0.0016310075 0.0 0.0
0.0 0.0015610773 0.00087304943 0.0 0.0 0.0 0.0 0.0024912807
0.0003878749 1.29454365e-05 0.00037084703 9.829908e-06 0.0 5.8607224e-05 8.873429e-17 5.3628077e-07
0.0 9.40711e-05 7.2751455e-08 0.0 0.0 0.0 0.0 0.0
1.1164034e-05 0.0015003475 0.00097035296 0.0 0.0 0.0 0.0025782518 0.0
0.0 0.0 0.0 0.0 0.0006919749 2.498384e-09 0.00059454696 0.00013156197
0.0 0.0 0.0008673247 0.0 0.0 0.0 0.0010378428 0.0007147293
3.679811e-07 0.0007847784 0.0 0.00074164453 0.002312052 4.0706596e-13 0.00020646001 0.0
4.5776027e-16 0.0 2.6202059e-05 0.0018750563 2.0894904e-05 0.0 0.082274534 0.0007586675

momentum_buffer f4 [404, 50]
00000000: c6db 4441 0000 0000 0000 0000 5240 ee40
00000010: 2448 8640 0000 0000 0000 0000 295d 3441
00000020: 4976 b740 0000 0000 357e 3d41 31f4 8241
00000030: 0000 0000 0000 0000 b330 8e40 afaf 1141
00000040: 0000 0000 0000 0000 414a ca40 0000 0000
00000050: 710b 0e41 3d72 5f40 4162 4441 0000 0000
00000060: ddfd 85c0 f1f3 0941 0000 0000 e02b 3941
00000070: fb68 6740 0000 0000 82c1 3741 0000 0000
00000080: 0000 0000 4149 6940 0000 0000 0000 0000
00000090: 0000 0000 0000 0000 0000 0000 986c 0741
000000a0: 0000 0000 0000 0000 0000 0000 0000 0000
000000b0: 3822 8641 0000 0000 0000 0000 0000 0000
000000c0: 0000 0000 2396 b8c0 de88 3ac2 49c8 fe40
000000d0: 0000 0000 5594 9940 0000 0000 246e 7a41
000000e0: 0000 0000 0000 0000 0000 0000 0000 0000
000000f0: 8291 8140 6cef 3941 2cf6 89c1 7d2d 6940
00000100: 8c75 89c1 9cad 3641 2460 3d41 0000 0000
00000110: 1c55 b840 d1d2 e640 0000 0000 aacb 4f41
00000120: 0000 0000 739b 1341 0000 0000 0000 0000
00000130: 0000 0000 0000 0000 0000 0000 0000 0000
00000140: 3177 d0c0 3401 ce40 0000 0000 0000 0000
00000150: 0000 0000 857d 2540 0000 0000 0d2a 0740
00000160: 33ad 4d41 b6a5 a5bf d669 04c2 f37a ba40
00000170: 1548 1941 7e79 4441 5419 8741 b054 853e
00000180: adc4 dc40 0000 0000 0000 0000 fd8f 3c41
00000190: 0000 0000 0000 0000 fc81 e740 0000 0000
000001a0: 0946 69c0 0000 0000 0000 0000 0000 0000
000001b0: 0000 0000 0000 0000 0000 0000 0000 0000
000001c0: 0000 0000 2065 4740 0000 0000 0000 0000
000001d0: 0000 0000 c42c 7840 0000 0000 0000 0000
000001e0: 778a 613f a150 993f e79a bc40 0000 0000
000001f0: decd 2441 cb63 2841 0000 0000 0000 0000
00000200: 0000 0000 a2f5 47c1 0000 0000 0000 0000
00000210: 0000 0000 0000 0000 0000 0000 0000 0000
00000220: 2270 2841 7da7 92c1 0000 0000 5524 7641
00000230: 9b3a 2440 0e9d 24c1 0000 0000 45ee 4241
00000240: 3a12 8741 9246 f840 0000 0000 5b50 2640
00000250: 0000 0000 6855 7d3d 0000 0000 0000 0000
00000260: 0000 0000 0000 0000 0000 0000 0000 0000
00000270: 0000 0000 0000 0000 0000 0000 3020 e940
00000280: 5c80 1240 51b3 a440 0000 0000 773f a440
00000290: 0000 0000 0000 0000 04df b740 0000 0000
000002a0: 1964 8ec0 0000 0000 37ec 33c1 a436 04c1
000002b0: 8398 e340 59b9 91c0 461a 1041 0000 0000
000002c0: 0000 0000 0000 0000 0000 0000 0000 0000
000002d0: c82b 09c0 5389 ba40 0000 0000 0000 0000
000002e0: 0000 0000 dccd e73f 6fba 2640 0000 0000
000002f0: 2c66 e140 dc30 dfbf 0000 0000 0000 0000
00000300: 0000 0000 b7e2 2040 4953 b3be 0000 0000
00000310: 0000 0000 0000 0000 0000 0000 391f 4540
00000320: c361 d1c1 f113 9741 15bf 4f41 d607 8a40
00000330: 0000 0000 2ec2 3f41 1fa5 0e40 6283 2a41
00000340: 0000 0000 6c3c 4b41 d843 1e40 0000 0000
00000350: 0000 0000 0000 0000 0000 0000 0000 0000
00000360: 2983 4841 bcb5 bb3f c613 e9c0 0000 0000
00000370: 0000 0000 0000 0000 95c8 7e40 0000 0000
00000380: 0000 0000 0000 0000 0000 0000 0000 0000
00000390: d4c0 07bf bc40 ac40 650d 1141 ffb1 0a41
000003a0: 0000 0000 0000 0000 ce6f 963e 0000 0000
000003b0: 0000 0000 0000 0000 b779 2bc1 9be8 b6be
000003c0: d5bb b340 d317 2341 0000 0000 f008 b440
000003d0: 3a64 c5c1 403a 8b40 e0d5 9a40 0000 0000
000003e0: d89e 3640 0000 0000 7bb4 c040 7b78 e140
000003f0: 0521 0441 0000 0000 b596 b140 9cae 4740
12.303656 0.0 0.0 7.4453516 4.196306 0.0 0.0 11.272744
5.733189 0.0 11.843312 16.369234 0.0 0.0 4.4434447 9.1053915
0.0 0.0 6.321564 0.0 8.877793 3.4913476 12.273988 0.0
-4.187239 8.622056 0.0 11.573212 3.6157825 0.0 11.484743 0.0
0.0 3.645096 0.0 0.0 0.0 0.0 0.0 8.464012
0.0 0.0 0.0 0.0 16.766708 0.0 0.0 0.0
0.0 -5.768327 -46.63366 7.961949 0.0 4.799357 0.0 15.65189
0.0 0.0 0.0 0.0 4.049012 11.620953 -17.245201 3.6434014
-17.182396 11.417385 11.835972 0.0 5.7603893 7.2132344 0.0 12.987223
0.0 9.225451 0.0 0.0 0.0 0.0 0.0 0.0
-6.5145497 6.437647 0.0 0.0 0.0 2.585786 0.0 2.1119416
12.854785 -1.2941196 -33.103355 5.8275084 9.580098 12.279661 16.887367 0.26041174
6.8990083 0.0 0.0 11.785153 0.0 0.0 7.234617 0.0
-3.6448996 0.0 0.0 0.0 0.0 0.0 0.0 0.0
0.0 3.1155472 0.0 0.0 0.0 3.8777323 0.0 0.0
0.88101906 1.1977731 5.893909 0.0 10.300261 10.5243635 0.0 0.0
0.0 -12.497469 0.0 0.0 0.0 0.0 0.0 0.0
10.527376 -18.331781 0.0 15.38387 2.566077 -10.288343 0.0 12.183171
16.8839 7.7586145 0.0 2.5986545 0.0 0.061849028 0.0 0.0
0.0 0.0 0.0 0.0 0.0 0.0 0.0 7.285179
2.2890844 5.146889 0.0 5.132747 0.0 0.0 5.7459736 0.0
-4.449719 0.0 -11.24517 -8.26334 7.112367 -4.5538754 9.006414 0.0
0.0 0.0 0.0 0.0 -2.1432972 5.829263 0.0 0.0
0.0 1.8109698 2.605129 0.0 7.043722 -1.7436786 0.0 0.0
0.0 2.5138376 -0.3502448 0.0 0.0 0.0 0.0 3.0800307
-26.172735 18.884737 12.984151 4.3134565 0.0 11.984907 2.2288282 10.657076
0.0 12.702251 2.4728909 0.0 0.0 0.0 0.0 0.0
12.5320215 1.4664836 -7.2836637 0.0 0.0 0.0 3.9809926 0.0
0.0 0.0 0.0 0.0 -0.5302861 5.382902 9.06577 8.668456
0.0 0.0 0.29382175 0.0 0.0 0.0 -10.717216 -0.3572434
5.6166787 10.193316 0.0 5.626091 -24.673939 4.3508606 4.838608 0.0
2.853445 0.0 6.0220313 7.045957 8.258061 0.0 5.549647 3.1200323

square_avg f4 [50, 50]
00000000: 033d 1128 991b 252b 1d85 042b f55f e829
00000010: 03b2 b731 f03b aa2a 61de 2c33 352c 3c2a
00000020: 6818 e229 e065 ea30 8e96 a830 aead e629
00000030: 7c2b 372b 9f9e 1f29 db7d 0f2b 2d19 9c29
00000040: 6a9d 922a 7faa 642a 5991 232b c215 202c
00000050: 09b8 0e2a 2b57 2628 8877 562b 4d1b a432
00000060: abf1 8233 7264 5b29 fc83 9d2a 2478 9c27
00000070: e0ff 402b c16f 1d34 d2e0 2234 df7d 7628
00000080: b55c 7333 fc08 2328 c1bf 292b bb5a 2529
00000090: 18b1 aa2a 5fea 7728 8f4b 5f2a d617 c82a
000000a0: af4e e033 315c f234 d179 6b29 c513 022b
000000b0: 1a1a 692a 870e 452b c744 a428 949f 0133
000000c0: e651 ff32 e616 0329 507c 1c37 ff42 1837
000000d0: 3bf5 c93f 4bd1 f436 8dc5 ce3a db9b 2738
000000e0: 6fb1 4c41 d030 733e a2a5 4d36 fa75 3436
000000f0: 2159 9e35 d34b e33b c9c2 8337 52c8 2137
00000100: fc67 153d 1170 903c 64d9 423e 90fc db41
00000110: c80b e636 3129 ce36 1d29 d83c 729d c336
00000120: ad63 3b40 ec15 0038 3cd3 7436 3a6c 143b
00000130: 106b 2841 1c51 af36 255e 1637 8d84 0e38
00000140: b06e a837 1e16 0237 230c d036 eeae 273a
00000150: 97b4 fa3f 00cf 4e37 7f5d f437 0b8b 4a38
00000160: 0989 383d 21a9 4037 6817 2a37 9fe4 9f38
00000170: c2e8 e23d f6a1 d63b 7eed cd3d 6e8b ae37
00000180: 8870 7537 8925 193c a6d7 3641 5a48 b338
00000190: f076 613f a253 c53e 5288 323e e97f a03f
000001a0: 1b47 8b3e 941f 893f 8c54 4a3e 9861 fd3e
000001b0: 41f0 f23e 5b46 ab3f 5c31 513e dcba a43f
000001c0: 0ff6 7b3f 3ffb 703f 2145 333f 15e7 513f
000001d0: 8411 123f 0364 9f3f 4acf e73f ff74 153e
000001e0: 0632 3a3f c194 aa3e 4ccb 2a3f b444 d63e
000001f0: f3e3 0340 8b3f 0e3f 0488 313f 544c 8040
00000200: c481 373e 76fb 8d3f 40ce 093f fbb1 5140
00000210: f2fd b13e ccf1 b33f 9672 0a3e 71f7 a23e
00000220: 5896 303f 7b5b 373e 9577 423f f8e6 4e3f
00000230: 789a 6b3f 150b d740 eb68 d03f 26f2 653f
00000240: b82f 3d3f b94f b33e da38 043f 4557 6140
00000250: 95af 193f e963 8f3e 53b0 f53e 43af 023f
00000260: 118f 453d 4844 ab3f 20e2 0940 145e a841
00000270: 82f4 023e 18a2 893d 3165 3f3b c32c eb41
00000280: a307 8b3f 3f6c 653e c3f9 183f 7f83 2840
00000290: d92e 5f3d 0a25 4a3f 1f00 a141 2d12 553e
000002a0: db12 fd3e 47c6 fe3e 934e 283f 1972 aa3e
000002b0: 5df9 773d a2ef b03c 993e ee3f 21af 7a3f
000002c0: fed5 ba3e 0f43 cd40 d72f 0840 f5fe 443f
000002d0: a319 1141 0f06 af40 9fc3 c33f bc93 0d3d
000002e0: bc4f 8440 2ac5 293f c747 353e 141a cd3e
000002f0: 3511 7f40 6898 2e41 dce7 7b3e 482d 8542
00000300: 23fd 9e41 4324 083e 98ce 5140 f47e 8a3b
00000310: 3904 fa3e 914a ee3f 8c63 8a3f fa53 c53d
00000320: 14d2 e640 6999 3340 7528 3c3f 21b4 bd3e
00000330: c49f c63f 7eb0 ab40 2ef3 9c40 50a3 2940
00000340: 6ac9 3c40 56e8 e33e eb78 2342 f241 4543
00000350: c601 9641 8d96 b441 fffb 1f42 020e d840
00000360: 4eed b33f 8001 8240 5216 993f 9bf2 a23e
00000370: ec63 f140 c346 5940 579e 9740 3750 0c40
00000380: dbce b443 579a a73f d632 1b40 268e c240
00000390: a8c3 8b40 74ba 2340 f4c4 5a40 344e cb3d
000003a0: 541c 723e 99ca 8441 bfcd 8540 9b19 4f3f
000003b0: 22cb 7240 d874 cf3f 7b62 853d 42ce 0540
000003c0: 5e6a 0940 2fd3 783e 43a2 a23f c29e ae3f
000003d0: 58ed b441 425c 333f 475f cf3e c691 1e41
000003e0: 4f7c ae3f 9b7c 8842 fae4 c330 bd40 1832
000003f0: 07dd 8132 f316 b232 5c33 3732 19d9 c132
8.062347e-15 5.8658075e-13 4.708055e-13 1.03195156e-13 5.3462386e-09 3.0239656e-13 4.0249123e-08 1.6713092e-13
1.004065e-13 1.7054695e-09 1.2266399e-09 1.02441804e-13 6.5075007e-13 3.5442674e-14 5.0978465e-13 6.932159e-14
2.6044038e-13 2.0309621e-13 5.8110943e-13 2.2749446e-12 1.2675984e-13 9.233753e-15 7.6193956e-13 1.9104528e-08
6.097556e-08 4.871489e-14 2.7980385e-13 4.3428955e-15 6.85672e-13 1.466242e-07 1.5169215e-07 1.3683037e-14
5.6662163e-08 9.050266e-15 6.0306973e-13 3.6716056e-14 3.032095e-13 1.37620755e-14 1.9832593e-13 3.5543676e-13
1.0445125e-07 4.514309e-07 5.228614e-14 4.6212714e-13 2.0703613e-13 7.000862e-13 1.8237485e-14 3.018029e-08
2.972315e-08 2.9107704e-14 9.327268e-06 9.075505e-06 1.5777963 7.2961316e-06 0.0015775427 3.9961054e-05
12.793319 0.23749089 3.0643791e-06 2.6890762e-06 1.1797857e-06 0.006936529 1.570712e-05 9.6429885e-06
0.03647612 0.017631562 0.1902824 27.498322 6.8559057e-06 6.1440737e-06 0.026386792 5.829782e-06
2.9279587 3.0537994e-05 3.6481788e-06 0.0022647516 10.526138 5.224849e-06 8.962616e-06 3.3978886e-05
2.0078704e-05 7.753753e-06 6.200296e-06 0.0006396611 1.9586362 1.2326753e-05 2.9130604e-05 4.8290047e-05
0.045052562 1.148347e-05 1.0138239e-05 7.624295e-05 0.11079551 0.006550069 0.10055064 2.0807343e-05
1.4629339e-05 0.009347328 11.427649 8.548862e-05 0.8807211 0.3854037 0.17434815 1.2539035
0.27202687 1.0712762 0.19758815 0.4948852 0.47448924 1.3380846 0.20428985 1.2869525
0.9842233 0.9413337 0.7002736 0.8199323 0.57057977 1.2452396 1.8110135 0.14595412
0.7273258 0.33316615 0.66716456 0.4184929 2.060788 0.5556571 0.6934817 4.0093174
0.17920595 1.1092365 0.5383034 3.276488 0.34764057 1.4058166 0.13520274 0.31829408
0.68979406 0.17905991 0.7596372 0.8082118 0.92032576 6.720103 1.6282018 0.89822614
0.7390094 0.3502176 0.5164925 3.5209515 0.6003354 0.28005913 0.47986087 0.5104868
0.048232142 1.3380213 2.1544266 21.045937 0.12788585 0.0672037 0.0029204602 29.396856
1.0861706 0.22404574 0.59756106 2.633026 0.054488037 0.7896277 20.12506 0.20807715
0.49428448 0.4976065 0.65744895 0.33290175 0.060540546 0.02159864 1.8612853 0.97923476
0.36491388 6.414436 2.12792 0.76951534 9.068759 5.4694896 1.5294074 0.03456472
4.134733 0.66316473 0.17703162 0.4005896 3.9854252 10.912209 0.24600166 66.58844
19.873602 0.13295083 3.2782345 0.00422656 0.48831347 1.8616506 1.0811629 0.09635158
7.2131443 2.8062384 0.7349923 0.3705149 1.5517507 5.3652945 4.904685 2.6505928
2.9497933 0.44513196 40.868084 197.2576 18.750866 22.573511 39.99609 6.75171
1.4056795 4.062683 1.1959937 0.31825718 7.5434475 3.394944 4.7380786 2.192396
361.61606 1.3093976 2.4249778 6.079852 4.367634 2.5582552 3.418271 0.099270254
0.23643619 16.598925 4.1813655 0.80898446 3.7936482 1.6207533 0.06512924 2.090714
2.1471171 0.2429931 1.2705768 1.3642199 22.61589 0.7006265 0.40502378 9.910589
1.3631686 68.24337 1.4253196e-09 8.862284e-09 1.5118088e-08 2.0732363e-08 1.066368e-08 2.2566882e-08
