Multistate Intensity Models/SDDR_outputs/best_estimator_nn_event_01.pth (torch, 577485 bytes, 282 tensors)

square_avg f4 [3, 1]
00000000: 0000 0000 0000 0000 ff56 0627
0.0 0.0 1.8643396e-15

momentum_buffer f4 [3, 1]
00000000: 0000 0000 0000 0000 558f 3f30
0.0 0.0 6.968908e-10

square_avg f4 [3]
00000000: 0000 0000 0000 0000 ff56 0627
0.0 0.0 1.8643396e-15

momentum_buffer f4 [3]
00000000: 0000 0000 0000 0000 558f 3f30
0.0 0.0 6.968908e-10

square_avg f4 [3, 3]
00000000: 0000 0000 0000 0000 0000 0000 0000 0000
00000010: 0000 0000 0000 0000 0000 0000 0000 0000
00000020: acf1 8825
0.0 0.0 0.0 0.0 0.0 0.0 0.0 0.0
2.3756003e-16

momentum_buffer f4 [3, 3]
00000000: 0000 0000 0000 0000 0000 0000 0000 0000
00000010: 0000 0000 0000 0000 0000 0000 0000 0000
00000020: 489c 2130
0.0 0.0 0.0 0.0 0.0 0.0 0.0 0.0
5.879355e-10

square_avg f4 [3]
00000000: 0000 0000 0000 0000 0e60 4818
0.0 0.0 2.589789e-24

momentum_buffer f4 [3]
00000000: 0000 0000 0000 0000 a2bd 122b
0.0 0.0 5.213279e-13

square_avg f4 [3, 3]
00000000: 0000 0000 0000 0000 0000 0000 0000 0000
00000010: 0000 0000 d323 eb23 0000 0000 0000 0000
00000020: a887 2f24
0.0 0.0 0.0 0.0 0.0 2.5493923e-17 0.0 0.0
3.806198e-17

momentum_buffer f4 [3, 3]
00000000: 0000 0000 0000 0000 0000 0000 0000 0000
00000010: 0000 0000 51b5 0db0 0000 0000 0000 0000
00000020: 3ec6 12b0
0.0 0.0 0.0 0.0 0.0 -5.155317e-10 0.0 0.0
-5.339621e-10

square_avg f4 [3]
00000000: 0000 0000 65de 9918 76ea 1e19
0.0 3.9774134e-24 8.2157576e-24

momentum_buffer f4 [3]
00000000: 0000 0000 9eae 82ab 3329 afab
0.0 -9.285522e-13 -1.2445933e-12

square_avg f4 [3, 3]
00000000: 0000 0000 0000 0000 0000 0000 0000 0000
00000010: 0000 0000 0000 0000 0000 0000 3b96 a724
00000020: 97b6 3a24
0.0 0.0 0.0 0.0 0.0 0.0 0.0 7.2679205e-17
4.048698e-17

momentum_buffer f4 [3, 3]
00000000: 0000 0000 0000 0000 0000 0000 0000 0000
00000010: 0000 0000 0000 0000 0000 0000 5b78 1930
00000020: 0476 1330
0.0 0.0 0.0 0.0 0.0 0.0 0.0 5.583211e-10
5.3646e-10

square_avg f4 [3]
00000000: 0000 0000 0000 0000 c063 781b
0.0 0.0 2.054631e-22

momentum_buffer f4 [3]
00000000: 0000 0000 0000 0000 f589 f9ac
0.0 0.0 -7.092322e-12

square_avg f4 [4, 3]
00000000: 0000 0000 0000 0000 5e34 dc24 0000 0000
00000010: 0000 0000 0000 0000 0000 0000 0000 0000
00000020: 0000 0000 0000 0000 0000 0000 112f 1724
0.0 0.0 9.5498505e-17 0.0 0.0 0.0 0.0 0.0
0.0 0.0 0.0 3.2782772e-17

momentum_buffer f4 [4, 3]
00000000: 0000 0000 0000 0000 5ca4 20b0 0000 0000
00000010: 0000 0000 0000 0000 0000 0000 0000 0000
00000020: 0000 0000 0000 0000 0000 0000 232e 4130
0.0 0.0 -5.844123e-10 0.0 0.0 0.0 0.0 0.0
0.0 0.0 0.0 7.0278555e-10

square_avg f4 [4]
00000000: 3baa 4921 0000 0000 0000 0000 d7bb 6e21
6.8326747e-19 0.0 0.0 8.088614e-19

momentum_buffer f4 [4]
00000000: f78b 253e 0000 0000 0000 0000 4b2f 32be
0.16166674 0.0 0.0 -0.17400853

square_avg f4 [17, 12]
00000000: ce1a b332 784d 5e33 b362 9c30 3360 7734
00000010: 2290 8433 bbdd 4b34 d9a6 9033 fa5a 0934
00000020: 7fc0 f931 705b 1c32 96eb 0331 fbd7 c72d
00000030: 750f 9e34 f817 8335 d379 5933 597e 0736
00000040: 30dc 0134 8707 7835 0739 2434 c6de 0d35
00000050: eb30 a533 9740 ee33 47b9 ea32 dc81 7f2f
00000060: 1d91 1a36 f10a 0834 737d 4f34 9640 ca35
00000070: 9e17 1c36 239d bd34 daca 3836 0c84 0835
00000080: 4fea 2a33 e5c0 9533 eeed 8231 7687 d72f
00000090: 89f7 5936 7775 e533 2051 0533 e118 0636
000000a0: d56d 1236 ad7e 5b36 d2cf bd35 1c9f ef34
000000b0: 8d5f 1934 f753 1c34 2126 2733 9156 6b2f
000000c0: 5ebb 2f36 6765 ad35 db3f 0233 623d e736
000000d0: 1d11 e336 0788 3636 21f7 5936 8a8c b034
000000e0: 866d 8d34 209f 0b34 7d66 4933 aa6f 0f30
000000f0: 1ae8 8f33 4e47 2134 322e 4d31 1bc2 2a35
00000100: faf1 7d34 99dd 9834 5788 6534 6766 0034
00000110: 09e7 4231 ebfe 9032 aedf 8131 be95 dc2c
00000120: 2cb9 0a34 44ce a333 efb9 dd32 85d5 3e33
00000130: 97e5 ad32 ead4 1d33 debf 5733 089e d832
00000140: d333 e431 4d50 7732 8d13 1730 9aab a62e
00000150: 2431 8c34 4664 c632 9df7 da33 3be2 9733
00000160: e57c bb33 3a65 9334 2308 6434 453a c034
00000170: e504 b230 c6ae ac31 b35f 0b30 6551 872e
00000180: f4ad 5d33 8c05 c933 a903 5333 c063 3934
00000190: b466 1a34 d6ee 5834 a74c 2a34 6e2c 2934
000001a0: 5941 3432 25cb 5e32 13e4 7631 1ec5 b02e
000001b0: d450 6534 8ba0 8432 4a68 bb31 16f8 ba33
000001c0: 0f19 fe33 6d2c 8a33 74b2 7f33 ec44 1f34
000001d0: 67ff 792f 0480 6d32 3d67 8731 f649 fa2b
000001e0: dc31 9d33 2a2f e534 e771 6334 7ca5 ef34
000001f0: dd3e b933 6e59 0734 d761 a733 f903 dd33
00000200: f1f3 4433 474e 4833 ed73 5031 371a 8c2f
00000210: b3b8 d334 7be4 be33 45e1 7b33 bcaa a434
00000220: 11fe ec34 f8b9 8b34 2c2b ec35 f404 ef34
00000230: 5941 8b32 754e e932 8948 a030 827a 322f
00000240: d495 9c35 847a 1336 4999 8634 8751 b735
00000250: bf39 ad35 eabc fc34 b761 b634 a659 3835
00000260: 7d24 ad33 c31a 8333 7b03 0730 1c98 9e30
00000270: 2cd0 9e34 b0ff 3e34 e921 f933 fe11 5134
00000280: 0dfc ac34 c8fb d833 42de 8734 5afd 3e33
00000290: 8dd8 f932 db50 8033 2d6b d430 d713 8f2f
000002a0: 6808 ba34 53dd 6f34 c8e1 e233 0ed1 ab34
000002b0: 4dea 3b33 44e4 b933 f75b a434 9fbc 7834
000002c0: 352e b932 f9c0 8d32 5951 7230 506f 102f
000002d0: 1ef3 5235 3f29 2f33 e254 e532 90ff 4e35
000002e0: 20d7 ae35 9a39 6635 edfd b535 7bb6 6f34
000002f0: abdf 3e33 08ec f232 977c 1e32 7431 4d2e
00000300: 36cb 9534 2cc7 0534 62d8 9e33 69d3 d533
00000310: 725b 4d34 e76f 6234 d95b ec33 0222 bb33
00000320: 97f2 3532 c1f8 b432 2eea e230 cd22 222f
2.0850532e-08 5.175886e-08 1.1378546e-09 2.3038665e-07 6.1729466e-08 1.8986513e-07 6.735872e-08 1.2792216e-07
7.268738e-09 9.101186e-09 1.9196924e-09 2.2719595e-11 2.944104e-07 9.767236e-07 5.0635048e-08 2.0190112e-06
1.2094165e-07 9.2398153e-07 1.5294437e-07 5.285077e-07 7.6923094e-08 1.10944875e-07 2.732544e-08 2.323825e-10
2.3032255e-06 1.2669967e-07 1.9324015e-07 1.506897e-06 2.3259558e-06 3.5318325e-07 2.7536212e-06 5.08561e-07
3.9794312e-08 6.9734405e-08 3.8105474e-09 3.9204523e-10 3.2479604e-06 1.068501e-07 3.104026e-08 1.9982037e-06
2.1819626e-06 3.2707278e-06 1.4142081e-06 4.4632986e-07 1.4283997e-07 1.4559178e-07 3.8917396e-08 2.140388e-10
2.6186094e-06 1.2919016e-06 3.032606e-08 6.8914824e-06 6.7671194e-06 2.7199292e-06 3.2479368e-06 3.288481e-07
2.6342985e-07 1.3003273e-07 4.6892172e-08 5.218178e-10 6.7011754e-08 1.5020234e-07 2.9857685e-09 6.3612396e-07
2.3650492e-07 2.847344e-07 2.1376887e-07 1.1958183e-07 2.8362044e-09 1.687973e-08 3.7798236e-09 6.269401e-12
1.2919617e-07 7.6277985e-08 2.5812339e-08 4.4432017e-08 2.0244256e-08 3.6748055e-08 5.023309e-08 2.5217574e-08
6.641565e-09 1.43955505e-08 5.4961263e-10 7.5792886e-11 2.6112787e-07 2.3095833e-08 1.0196457e-07 7.0726365e-08
8.730584e-08 2.7454536e-07 2.1237115e-07 3.5805184e-07 1.2952596e-09 5.0257283e-09 5.07039e-10 6.153548e-11
5.161378e-08 9.360801e-08 4.9130595e-08 1.7265756e-07 1.4379731e-07 2.0203456e-07 1.586037e-07 1.5755515e-07
1.0492237e-08 1.296829e-08 3.5927357e-09 8.0385684e-11 2.1356692e-07 1.5439829e-08 5.4542726e-09 8.7064265e-08
1.1832355e-07 6.434207e-08 5.9534116e-08 1.4833103e-07 2.2737155e-10 1.3824323e-08 3.940754e-09 1.7784097e-12
7.3199516e-08 4.268889e-07 2.118246e-07 4.4637625e-07 8.6261686e-08 1.2605389e-07 7.7943405e-08 1.0291837e-07
4.585667e-08 4.663732e-08 3.033388e-09 2.5484478e-10 3.94362e-07 8.889125e-08 5.8645373e-08 3.0671606e-07
4.4143283e-07 2.6026078e-07 1.7595935e-06 4.4520823e-07 1.6211446e-08 2.7160448e-08 1.1662148e-09 1.6232529e-10
1.1666511e-06 2.197602e-06 2.5070975e-07 1.365829e-06 1.2906311e-06 4.707611e-07 3.397124e-07 6.8675797e-07
8.0625775e-08 6.105031e-08 4.911766e-10 1.1539245e-09 2.9581258e-07 1.7788147e-07 1.1601134e-07 1.9471187e-07
3.2220888e-07 1.01040825e-07 2.5307423e-07 4.4468244e-08 2.9085891e-08 5.975172e-08 1.5455491e-09 2.6025646e-10
3.4651316e-07 2.2339127e-07 1.05650145e-07 3.200334e-07 4.3752426e-08 8.656255e-08 3.0614294e-07 2.316542e-07
2.1557847e-08 1.6502314e-08 8.815469e-10 1.313627e-10 7.858488e-07 4.0782876e-08 2.6697709e-08 7.711287e-07
1.302662e-06 8.57655e-07 1.3559453e-06 2.2324996e-07 4.4441247e-08 2.8279842e-08 9.225139e-09 4.6655527e-11
2.7901268e-07 1.2459049e-07 7.396808e-08 9.957041e-08 1.912538e-07 2.10886e-07 1.10063134e-07 8.714052e-08
1.0590745e-08 2.1067878e-08 1.6510222e-09 1.4746178e-10

momentum_buffer f4 [17, 12]
00000000: 94c0 d9b0 9c7f 0eb1 fc60 0c31 6efe ddb0
00000010: 3637 1cb0 ec1b ca2e b227 bb2e 66b7 1c30
00000020: 24da c430 eb56 f9b0 2bdb d1b0 f72e 69b0
00000030: df53 b2b1 a81c 4bae fad9 10b1 0647 8831
00000040: 197a 89b0 acef b130 01e4 ee31 0df2 3a31
00000050: 48e4 94b0 e644 e8b1 8109 d3b1 8203 7b31
00000060: f316 baae 81f3 0a31 834e 1db1 f724 3eaf
00000070: 3b23 b330 51c6 1530 6173 a7b0 ff9c b230
00000080: 8300 93b0 6a43 8bb1 74ab 3fb1 ff84 b931
00000090: 6340 93af 6f7c 0fb1 9036 772f ef45 f6af
000000a0: 4961 83b0 bd9d c630 fe9b db30 8cde 7331
000000b0: 61ec 0131 a661 1b2f b226 9030 94bc 8230
000000c0: f458 f72e 7f4c 01b0 64c3 73b1 1c33 5eb0
000000d0: c1e3 9eaf d6b5 f3b0 c5db 31b0 826a 55af
000000e0: 4323 8830 7b32 19b1 b0ca 23b1 0b0e e7b0
000000f0: 7228 edb0 ed5b 2eb1 934b 5d30 474a dcb0
00000100: 4740 2eb1 f142 d6b0 c1e2 dfb0 d9ae bf30
00000110: 9384 2131 6f53 49b2 524d 4cb2 dac1 3f31
00000120: ead3 c7ae 3f2b 92b0 9b1a 4331 be7b fcae
00000130: 516a 4d30 2127 34b0 f5e3 2231 3544 0c31
00000140: fee8 8531 5428 c230 c8e2 d430 0d9a a430
00000150: c192 9db0 b52f 9eb0 31dc 7ab1 e3d4 2ab0
00000160: 4a5e fcaf c622 08b1 432f 65b0 c73c d2af
00000170: 05c4 8e31 a772 e530 7ba9 b3b0 f70c 0c30
00000180: 9d70 e630 b227 a030 1610 2a31 c3e8 0ab0
00000190: cfd5 45b1 9ea3 4c30 0ebe 7f30 72c3 3f31
000001a0: 53fe 08b0 6155 fc2f ed36 4531 821b a2b0
000001b0: 15d1 f630 7b97 85b1 fb6a c7b0 d4cd c4b1
000001c0: 3cff 8bb1 44fd e631 8752 65b0 ddc1 d7b0
000001d0: a4e9 bb31 3431 0ab2 17a5 b031 cece af30
000001e0: aa38 19b1 a75d 4bb0 cf3d 2eb1 801e 8ab1
000001f0: e1b9 3bb2 236d 1432 a4a3 e430 0716 7130
00000200: 1bdf b630 4c03 1bb2 4617 a0b1 f285 4e31
00000210: ee97 3731 33f5 4bb1 9030 fc30 2bea 55b1
00000220: fb3d 43b1 f143 a4b1 4537 07b1 0462 22b1
00000230: 2825 adb0 34e0 2831 dda4 adb1 b4af fbb0
00000240: 1ad2 0e31 e6e9 34b0 e09b 66b0 2c24 0230
00000250: 0e9c 39b1 3949 dd2f 8c5f 9530 5f2b 6e31
00000260: a4b9 13b1 996d 8f30 4c10 8b31 f2e1 0131
00000270: 48ec f62e c6e2 8db0 9901 3031 c199 fd2d
00000280: f9c3 3cb1 4e1d 8331 1129 f0b0 c6b5 84b1
00000290: 01e7 69b1 fbea c4b0 57f9 1331 e2d4 e6b1
000002a0: b6c7 9bb0 6689 b7af 0abc 9930 8548 1d2f
000002b0: 7030 2131 b585 9bb0 b5de 1131 88c2 5eb0
000002c0: 1074 3c2f 5731 e931 fa56 29b1 df3e c4b0
000002d0: 0ebe ffb0 75ef ad30 999b 8eb0 122a 9130
000002e0: 96a7 e630 632f a330 64c9 0731 7264 d730
000002f0: 5079 db30 0a03 0631 8f7f 0231 cc75 2930
00000300: 42c0 0031 3aab 57b1 d940 beb0 4f32 ecb1
00000310: 254c 51b1 a73a 032e aa56 05b2 dba3 bb31
00000320: b7da 80b0 a063 cd31 48e7 0332 6455 ceb0
-1.5843562e-09 -2.0736257e-09 2.042781e-09 -1.615218e-09 -5.683093e-10 9.1908564e-11 8.510827e-11 5.7013094e-10
1.4322876e-09 -1.8141838e-09 -1.5269043e-09 -8.483165e-10 -5.190017e-09 -4.6182308e-11 -2.1078663e-09 3.9661954e-09
-1.0002764e-09 1.2946564e-09 6.9526327e-09 2.7204152e-09 -1.0833299e-09 -6.7599215e-09 -6.1419887e-09 3.6527301e-09
-8.462377e-11 2.022006e-09 -2.2891136e-09 -1.7293532e-10 1.3033977e-09 5.448771e-10 -1.2183642e-09 1.2995826e-09
-1.0695803e-09 -4.0530965e-09 -2.7891618e-09 5.3993285e-09 -2.6784894e-10 -2.087997e-09 2.2483904e-10 -4.479683e-10
-9.559155e-10 1.4451228e-09 1.5978683e-09 3.5487657e-09 1.8906336e-09 1.413186e-10 1.0488377e-09 9.512342e-10
1.1248061e-10 -4.7038634e-10 -3.547222e-09 -8.083576e-10 -2.8901861e-10 -1.7732258e-09 -6.4704536e-10 -1.9410076e-10
9.905324e-10 -2.2293125e-09 -2.3834836e-09 -1.6811453e-09 -1.7255515e-09 -2.5372586e-09 8.050673e-10 -1.6028218e-09
-2.535687e-09 -1.5589575e-09 -1.6289833e-09 1.3946774e-09 2.3503943e-09 -1.17187104e-08 -1.1891943e-08 2.790435e-09
-9.087116e-11 -1.0635189e-09 2.8391358e-09 -1.1481614e-10 7.472965e-10 -6.5539224e-10 2.3703681e-09 2.0411453e-09
3.8972976e-09 1.412682e-09 1.5489485e-09 1.1976354e-09 -1.1464963e-09 -1.1509572e-09 -3.6504952e-09 -6.214817e-10
-4.590553e-10 -1.9810371e-09 -8.337688e-10 -3.8241962e-10 4.1550288e-09 1.6694529e-09 -1.3072133e-09 5.095013e-10
1.6766709e-09 1.1652814e-09 2.47474e-09 -5.053488e-10 -2.878881e-09 7.444728e-10 9.3038544e-10 2.7905256e-09
-4.983793e-10 4.5899198e-10 2.8698495e-09 -1.179487e-09 1.795828e-09 -3.888031e-09 -1.4509561e-09 -5.7277507e-09
-4.0744492e-09 6.722674e-09 -8.3426993e-10 -1.5698408e-09 5.468978e-09 -8.043845e-09 5.1410427e-09 1.2791703e-09
-2.229664e-09 -7.398406e-10 -2.5355467e-09 -4.019796e-09 -1.0927097e-08 8.639549e-09 1.6635693e-09 8.770659e-10
1.3305653e-09 -9.022937e-09 -4.6592588e-09 3.0053084e-09 2.6716367e-09 -2.9679768e-09 1.8349215e-09 -3.1128689e-09
-2.8411467e-09 -4.7807522e-09 -1.9676503e-09 -2.3629818e-09 -1.2597967e-09 2.4574662e-09 -5.0537055e-09 -1.8312591e-09
2.0783149e-09 -6.581601e-10 -8.3895024e-10 4.734513e-10 -2.700975e-09 4.0251694e-10 1.0868333e-09 3.4658212e-09
-2.149684e-09 1.0435769e-09 4.047285e-09 1.8900406e-09 1.1228757e-10 -1.0323553e-09 2.561228e-09 2.883105e-11
-2.7468998e-09 3.8159333e-09 -1.747397e-09 -3.862371e-09 -3.4037273e-09 -1.4327662e-09 2.1533049e-09 -6.718083e-09
-1.1334496e-09 -3.3385134e-10 1.1185659e-09 1.4304831e-10 2.3456117e-09 -1.1315736e-09 2.1226871e-09 -8.1039575e-10
1.7139734e-10 6.786802e-09 -2.4642177e-09 -1.4278746e-09 -1.8607709e-09 1.2655464e-09 -1.0376083e-09 1.0562096e-09
1.6782333e-09 1.1873279e-09 1.9759563e-09 1.5671857e-09 1.5968826e-09 1.9501294e-09 1.8989998e-09 6.164924e-10
1.8735737e-09 -3.1383949e-09 -1.384275e-09 -6.8742234e-09 -3.0456786e-09 2.9838045e-11 -7.761324e-09 5.4610445e-09
-9.375388e-10 5.9776113e-09 7.677791e-09 -1.5012742e-09

square_avg f4 [17]
00000000: 7629 dd32 1911 5934 d01b 5434 fd31 9234
00000010: 1134 5d35 e2f4 0d33 5746 8c33 304a ba33
00000020: ed6c 8833 3ecc 7233 2e5d ac33 9a73 7c33
00000030: 6a97 e833 2edc ee33 6ae9 1334 c54f 8433
00000040: 4f84 3533
2.574664e-08 2.021592e-07 1.9754157e-07 2.723099e-07 8.240468e-07 3.305184e-08 6.532053e-08 8.6747946e-08
6.352807e-08 5.6530773e-08 8.0263234e-08 5.877846e-08 1.0830884e-07 1.1122789e-07 1.3775357e-07 6.161239e-08
4.226268e-08

momentum_buffer f4 [17]
00000000: 6016 2b31 281a 2131 09a9 96b1 9fde 3731
00000010: 0587 09b1 8005 8f31 8c84 aa31 da82 6731
00000020: 9e48 3031 537a 7e31 c33b 3e32 ef17 4ab1
00000030: 1ae8 0cb1 7f87 5fb0 bc58 ec31 d61f 8831
00000040: ee12 f330
2.4896494e-09 2.3443452e-09 -4.3847916e-09 2.675655e-09 -2.0012874e-09 4.162473e-09 4.96272e-09 3.3689305e-09
2.565265e-09 3.7031398e-09 1.1073044e-08 -2.9408473e-09 -2.0504616e-09 -8.131948e-10 6.878592e-09 3.9617403e-09
1.7685957e-09

square_avg f4 [17, 17]
00000000: 6312 f030 790a 6133 2eee 9130 94ad fd32
00000010: 1b96 cd32 98a5 4033 ab3e 2431 910c 7b30
00000020: f412 0531 3bc5 a433 aa88 9532 8e28 3535
00000030: b00f 1933 eb9a d232 f690 d533 4827 5130
00000040: 209a a531 8a5c 9f30 d183 8032 b7c7 ba33
00000050: 4055 2133 1a3f 2f34 d1cf 7932 2cda 0230
00000060: 3ecf 3933 e681 7631 ef5a 2432 2954 6931
00000070: 1f76 eb35 fa1d b532 494b 0335 52a5 8234
00000080: d20c 0732 bfab b832 b06c 0631 1b70 d82f
00000090: 581e be32 e826 7b33 1591 4734 134a 8f2f
000000a0: dbad 0630 a61c ed31 57be 9331 41ff b731
000000b0: 2710 c930 24dc d833 a97c 7732 797d 4533
000000c0: 15aa eb33 0264 cf31 77b1 a131 b14c dc2e
000000d0: 2a66 1a32 4f21 1732 9ef1 8032 ed27 4f31
000000e0: 14da 8b30 328a 5730 7560 ed32 2287 f531
000000f0: 7c64 9f30 872a 3f32 0e33 2f31 140c 0532
00000100: 985d 5c31 5641 ec31 993d 9931 3058 2632
00000110: 78f4 af32 3be0 5834 3e00 8534 887a 4535
00000120: 819a 6835 6b46 1733 2e59 2332 020b 1334
00000130: 8ebb 8032 892e 9c33 a52a 0e33 1566 bf34
00000140: 3c8c 1633 987f 8534 4443 cf33 911b 4633
00000150: ca7c 7b33 94e6 362f 247d d931 1358 af32
00000160: 12a2 9b33 646c 4133 2255 7131 ef38 2a31
00000170: 7de8 1032 509f a432 a93c 0430 9aea 0331
00000180: 1855 9e30 c9bb 6633 000f ae31 3a9d bf32
00000190: 5263 6133 5a4c ec31 d8e7 0331 6ec0 4434
000001a0: bc54 4d33 404d cc33 2b24 5a32 4589 3833
000001b0: e747 3632 49a6 8332 a364 3732 ab48 e032
000001c0: bb4e 8a32 ff46 8d33 6b0d 9b32 f0ff 6a32
000001d0: 51db b132 3d59 fc32 04f7 7a32 b5e1 d832
000001e0: c6ae f832 4f4d 1835 dfda ac35 9a2b 2e36
000001f0: 3512 4234 4773 5f33 dfcb 7334 a605 9232
00000200: baa9 8732 4cd5 a233 6e3c ce35 69f6 4b34
00000210: 5a86 2a34 3ae0 0935 ea48 a734 fc1f 0a34
00000220: f15b 022a 1424 662b 7bdc 9a29 bfe1 252a
00000230: 3c95 112a b086 b427 f1bc e828 9220 dd27
00000240: ab34 7f28 30d7 f928 e72d 362e 9a5f 2429
00000250: 61ca a12b 5cf3 8f28 017d cd26 7dda 922a
00000260: d6b7 cc27 d12b ea23 c9a4 3b28 ca17 d026
00000270: c153 2a28 13d2 ab25 5f19 1b20 2754 b726
00000280: ad4c 6c26 5eea 6327 7ff3 9528 6798 6b27
00000290: 80fd d022 64c7 dc28 78b9 7b24 8067 0129
000002a0: a6b2 4627 c6f0 a823 eca4 3032 aeaf a433
000002b0: 0cd3 b234 252c 2035 9303 c435 2bbe 9b33
000002c0: 9e67 2b33 c2e1 1934 cabc c032 26f0 3632
000002d0: 62d0 8332 6f0e d634 123b 1434 c5b6 6034
000002e0: a6b9 f132 b37d 2434 9ba9 c333 ea09 a332
000002f0: a9e7 f531 afae a034 cba2 4835 1880 eb35
00000300: 68c3 bd33 0774 1533 bd1b ea32 3204 1932
00000310: cf43 d231 2b83 6531 af45 a934 64af 9733
00000320: 8d61 2f34 f344 8034 db0b 4e34 7794 1233
00000330: 462a 4c32 6adb ca32 b83d 3e34 051f 2f33
00000340: ce6e cf33 8477 9433 0029 c631 0823 c133
00000350: 83b3 fe32 8be0 1831 94b8 9232 9c11 b133
00000360: ccda c433 545c 2633 b697 1e34 4f99 a533
00000370: 080e 0d33 350e fe32 01a3 2d34 130f 5a35
00000380: 8717 1936 6dc2 6536 f35e 8c34 f022 ca33
00000390: dbea 1d33 95cd 4433 38f5 9834 80c7 9133
000003a0: 8f97 4536 ec08 c634 c77d f335 3c6e ab34
000003b0: e6c3 f234 67d1 db33 a8b1 5931 9393 d632
000003c0: 8632 c633 9795 8a34 5c78 1135 4708 b032
000003d0: 9358 e831 a467 e032 c7ed 4331 9002 9732
000003e0: f085 a132 8f8a 1834 5cfa fa32 90fb 1033
000003f0: 450a 8f33 f1f3 3133 0e1b a932 e300 5124
1.7467524e-09 5.239642e-08 1.0617833e-09 2.953201e-08 2.3933401e-08 4.485409e-08 2.3900764e-09 9.1331126e-10
1.936482e-09 7.672721e-08 1.740803e-08 6.748677e-07 3.5637356e-08 2.4517666e-08 9.944954e-08 7.608958e-10
4.819654e-09 1.1595074e-09 1.4961104e-08 8.697628e-08 3.7563268e-08 1.6321101e-07 1.45409595e-08 4.7603765e-10
4.3262155e-08 3.587155e-09 9.566732e-09 3.3953802e-09 1.7543242e-06 2.1084805e-08 4.891086e-07 2.4334673e-07
7.860949e-09 2.149852e-08 1.9561348e-09 3.9369827e-10 2.213271e-08 5.8475877e-08 1.85861e-07 2.606418e-10
4.899598e-10 6.9008648e-09 4.299902e-09 5.35502e-09 1.4629266e-09 1.0098327e-07 1.4405637e-08 4.5981754e-08
1.0973978e-07 6.0358625e-09 4.705892e-09 1.0018065e-10 8.987209e-09 8.79693e-09 1.5011036e-08 3.014516e-09
1.0175563e-09 7.841293e-10 2.7634295e-08 7.1458013e-09 1.1597332e-09 1.1127333e-08 2.5494873e-09 7.744365e-09
3.2067415e-09 6.875932e-09 4.459889e-09 9.682523e-09 2.0483853e-08 2.0198142e-07 2.4773357e-07 7.3566525e-07
8.665157e-07 3.5221472e-08 9.508126e-09 1.3694446e-07 1.4986451e-08 7.272781e-08 3.3100736e-08 3.5650797e-07
3.505214e-08 2.4866017e-07 9.651424e-08 4.612554e-08 5.8553987e-08 1.6634721e-10 6.329758e-09 2.0412733e-08
7.2472304e-08 4.5034895e-08 3.5118508e-09 2.4770619e-09 8.434765e-09 1.916456e-08 4.8107524e-10 1.9196364e-09
1.1520198e-09 5.3721838e-08 5.065772e-09 2.2306825e-08 5.2477226e-08 6.877184e-09 1.9194797e-09 1.8323928e-07
4.7807347e-08 9.513542e-08 1.2697494e-08 4.2965684e-08 1.0610143e-08 1.5326025e-08 1.0674884e-08 2.6110078e-08
1.6101117e-08 6.578738e-08 1.8050477e-08 1.3678786e-08 2.0705246e-08 2.9377242e-08 1.460808e-08 2.524835e-08
2.8950478e-08 5.673691e-07 1.2878698e-06 2.59534e-06 1.8074282e-07 5.2026078e-08 2.2705306e-07 1.6999206e-08
1.5793251e-08 7.582511e-08 1.5365783e-06 1.8995492e-07 1.588136e-07 5.136277e-07 3.1159226e-07 1.2863887e-07
1.1578218e-13 8.1762483e-13 6.877221e-14 1.4733265e-13 1.2930363e-13 5.0106065e-15 2.5839114e-14 6.1375135e-15
1.4166764e-14 2.7737876e-14 4.142278e-11 3.6498236e-14 1.149591e-12 1.598173e-14 1.4258615e-15 2.6086417e-13
5.682069e-15 2.5388888e-17 1.0416317e-14 1.4439347e-15 9.455057e-15 2.9806123e-16 1.3137405e-19 1.2720985e-15
8.1982863e-16 3.162963e-15 1.6647923e-14 3.2695419e-15 5.6646917e-18 2.4511378e-14 5.4584047e-17 2.8733526e-14
2.7574865e-15 1.8316568e-17 1.0282047e-08 7.668801e-08 3.330864e-07 5.9668884e-07 1.4604178e-06 7.252341e-08
3.990828e-08 1.4331366e-07 2.2437593e-08 1.0648398e-08 1.5345169e-08 3.9871108e-07 1.3805064e-07 2.0928117e-07
2.8140516e-08 1.531942e-07 9.111246e-08 1.8980206e-08 7.156775e-09 2.9929421e-07 7.47427e-07 1.7546145e-06
8.8365425e-08 3.4797292e-08 2.72538e-08 8.906726e-09 6.1195133e-09 3.3398446e-09 3.1529405e-07 7.063389e-08
1.6333634e-07 2.3892025e-07 1.9189558e-07 3.4128302e-08 1.1883975e-08 2.3615673e-08 1.7717582e-07 4.0773575e-08
9.659344e-08 6.913527e-08 5.7672196e-09 8.993635e-08 2.9651124e-08 2.224655e-09 1.7080573e-08 8.245408e-08
9.16676e-08 3.873386e-08 1.4770089e-07 7.711298e-08 3.2841882e-08 2.9575952e-08 1.6171181e-07 8.1233264e-07
2.2812471e-06 3.423683e-06 2.6146117e-07 9.412713e-08 3.676801e-08 4.5821782e-08 2.8490626e-07 6.7883775e-08
2.9443506e-06 3.6886865e-07 1.8141517e-06 3.1931438e-07 4.5218547e-07 1.0236072e-07 3.1678642e-09 2.4979988e-08
9.229284e-08 2.5813344e-07 5.4191855e-07 2.049286e-08 6.7621584e-09 2.6124162e-08 2.8511395e-09 1.7579879e-08
1.8803775e-08 1.420651e-07 2.921768e-08 3.3756407e-08 6.6608244e-08 4.1432887e-08 1.9686492e-08 4.5320402e-17

momentum_buffer f4 [17, 17]
00000000: 1c85 6031 24de 4d31 2faf cf31 dd73 ec31
00000010: 8ff4 3330 4191 1131 ab38 6231 520a acaf
00000020: 05b0 8f30 5948 3f32 51e6 5332 dd28 8531
00000030: 3e10 ec2f 5b31 672f ef38 01b1 f423 c130
00000040: 1b09 00b2 c954 d230 290d 51af e50e 4ab1
00000050: b7cd 6f31 3f40 7b31 eca6 a231 b522 0d31
00000060: 1d85 05b1 5a64 9430 c35c d830 5454 e130
00000070: 934a 8131 0acc 2eb1 6d05 04b1 711d 9eaf
00000080: 6a00 5931 2daf 6130 d9dd 2931 c591 7431
00000090: dd80 0531 1302 8c31 e16e 0831 3610 f930
000000a0: 23e1 5130 ec07 60b0 f4a8 a4af e9b3 5cb0
000000b0: 8e60 152f b17e 8fb0 275d 1831 ce18 8331
000000c0: 460c 81b1 a078 9b30 85b2 5e2f f9a8 7730
000000d0: d408 2731 acec f930 996a 8c31 2b02 bd30
000000e0: 4a5b 1931 3c0e bc30 93ea 1b31 5f42 88b0
000000f0: 520e 8130 d9c8 f430 a387 a331 3382 4eb0
00000100: 7cb6 1f31 0683 232f 68ec a330 266f ec30
00000110: 3241 292f d4b8 4c31 415a e1b0 3fd1 17b1
00000120: bdcb eb30 2d49 af2f 8252 b3af c083 e0af
00000130: 2c12 3db1 7308 2a31 bf3e 2331 d718 2631
00000140: a09a d2af c285 dc30 51a2 c12f 7cff b0b0
00000150: e61e 61b1 347a 6830 bb7f 5031 61c5 2831
00000160: 4f43 2a31 df2b 3831 887c 46af af20 3c30
00000170: cdf4 0930 49e3 a7af ea72 1b30 3196 0c2f
00000180: c218 e930 a0a1 19b0 b3ae 4f30 a642 80af
00000190: 6c52 c630 b6c5 ae30 f471 9b30 6018 80b1
000001a0: 74b1 c0b1 8ab5 11b0 baa8 aa30 c503 ddb0
000001b0: 7493 6eb1 8452 80b0 d32b 9db1 46fb c4b0
000001c0: c6a9 b9af 9452 0fb1 b836 cdb1 4076 deb0
000001d0: 7f0b 09b0 8f65 9eb1 2589 a5b1 c0ba 2131
000001e0: d366 1931 e081 b02f 853e d730 ef24 2c30
000001f0: 8274 5830 44f8 3931 ecf0 3ab1 c409 3830
00000200: 4110 9231 2cba c430 4b58 6931 d9d1 de30
00000210: ce05 a831 828c 1c30 75e7 1031 006a d22f
00000220: 2021 0530 47a6 5230 90e9 a830 dfcd fe30
00000230: d8bc 0731 3c7a 2130 4456 1530 9eaa 4730
00000240: 6042 1e30 ba6b b330 38e3 b430 b06c 8130
00000250: f6f4 4030 3721 c830 bdaa 952f ee6b dc30
00000260: e8cb 9a2f 2029 3daf 8036 3530 8139 d42e
00000270: 92e9 eb2f f1da 472f 274c 362f ca9d f22f
00000280: afeb 2630 eeab 1630 402b 0f30 400a 0530
00000290: d4d3 e62f c3a2 1c30 9eb4 ec2f 2cdf 1930
000002a0: 5206 242f 22d2 3130 21cc 9530 bc62 24b0
000002b0: 876b 4230 9e2d 0731 0995 2930 363a 0831
000002c0: f408 0c31 9f6a 80af c272 282e 1322 7931
000002d0: 53b1 8631 ecf5 4631 df96 79af 3cd4 19b1
000002e0: 6da9 dcb0 b5c6 ad30 1fcd 0b30 1666 8931
000002f0: 18dd 702f 969d 7a2f 4033 bf30 1453 34b0
00000300: 7c12 a12f 877c 322f 3acb 86b0 e94f 0f31
00000310: 0cdd 7531 5bb2 7b30 a9d5 4a31 5d93 7430
00000320: 5b57 aa31 bfad 82af 0261 b62f 42be 2831
00000330: 34a8 b2b0 f037 4632 1f00 4a30 c284 8031
00000340: 9644 3831 93a6 3031 b38d e9b0 c822 8ab1
00000350: 2432 24af 113b 1d31 9b06 6532 3d9c 8e32
00000360: c541 d52f 42de d7b0 3e38 1530 2293 0d31
00000370: 4baa 85b0 1ad0 5cb0 d466 3132 563a 79b0
00000380: e01d 9e2f 1d05 15b1 f129 5031 ff69 1131
00000390: d2d7 b12f 360b 0630 4291 3bb2 b0ff dfb1
000003a0: ae5e aeb1 f3ef a230 3b93 0fb1 9f33 5730
000003b0: 9561 8530 e0dc c631 c630 5d31 23a8 9bb2
000003c0: 75b8 ec30 969e cc30 89ff c930 5a93 9431
000003d0: 61fe e730 5f73 97af f3a6 bab0 6348 71b2
000003e0: cac0 6db2 e910 e131 e270 2db1 b68a b631
000003f0: 09ba 16b1 3b93 d82f 6ff4 80af 8008 0faf
3.2671954e-09 2.9957699e-09 6.044409e-09 6.881676e-09 6.546736e-10 2.1182844e-09 3.291954e-09 -3.129395e-10
1.0454647e-09 1.1134113e-08 1.2334184e-08 3.875455e-09 4.293969e-10 2.1026862e-10 -1.8804334e-09 1.4052817e-09
-7.452651e-09 1.5303608e-09 -1.9013115e-10 -2.9403335e-09 3.4896013e-09 3.6561827e-09 4.7337974e-09 2.053793e-09
-1.9429713e-09 1.0796939e-09 1.5742433e-09 1.6394872e-09 3.7628722e-09 -2.5436315e-09 -1.9211612e-09 -2.8760952e-10
3.1577891e-09 8.2103463e-10 2.4718843e-09 3.5589534e-09 1.9427298e-09 4.074772e-09 1.9853632e-09 1.8121742e-09
7.6353696e-10 -8.1501983e-10 -2.9951475e-10 -8.02912e-10 1.3585774e-10 -1.0440627e-09 2.2171862e-09 3.8154218e-09
-3.7557895e-09 1.1312018e-09 2.0254205e-10 9.00982e-10 2.4306717e-09 1.8184401e-09 4.086655e-09 1.3752176e-09
2.2316322e-09 1.3682846e-09 2.2688809e-09 -9.914166e-10 9.390055e-10 1.7810421e-09 4.7593445e-09 -7.512739e-10
2.3241276e-09 1.4871313e-10 1.1927002e-09 1.720285e-09 1.5393622e-10 2.979097e-09 -1.6396556e-09 -2.2092335e-09
1.7156406e-09 3.188431e-10 -3.2618536e-10 -4.0838977e-10 -2.751345e-09 2.4743059e-09 2.3755289e-09 2.41703e-09
-3.8308645e-10 1.6045123e-09 3.5221828e-10 -1.2878298e-09 -3.2759373e-09 8.457477e-10 3.034059e-09 2.4559415e-09
2.4776516e-09 2.6800462e-09 -1.8052237e-10 6.844045e-10 5.018819e-10 -3.053862e-10 5.6551974e-10 1.2786285e-10
1.6960018e-09 -5.589076e-10 7.5554424e-10 -2.333042e-10 1.4429822e-09 1.2716359e-09 1.1310122e-09 -3.7280614e-09
-5.6081095e-09 -5.3008675e-10 1.2417083e-09 -1.6080938e-09 -3.4717376e-09 -9.336678e-10 -4.5742836e-09 -1.4332293e-09
-3.3771935e-10 -2.085618e-09 -5.972506e-09 -1.6186235e-09 -4.9856647e-10 -4.609951e-09 -4.8177236e-09 2.3534739e-09
2.232288e-09 3.2106495e-10 1.5661078e-09 6.262572e-10 7.874591e-10 2.7062166e-09 -2.720351e-09 6.695269e-10
4.251007e-09 1.431379e-09 3.3956151e-09 1.6212268e-09 4.8901034e-09 5.6952143e-10 2.1086326e-09 3.8274095e-10
4.843219e-10 7.663385e-10 1.2289991e-09 1.8539444e-09 1.975243e-09 5.8745164e-10 5.4328475e-10 7.263824e-10
5.757439e-10 1.3054582e-09 1.3161303e-09 9.416876e-10 7.0197304e-10 1.4561355e-09 2.722426e-10 1.6037782e-09
2.815732e-10 -1.720406e-10 6.5924866e-10 9.6508586e-11 4.2912213e-10 1.8176728e-10 1.6579858e-10 4.413166e-10
6.0725375e-10 5.481401e-10 5.208456e-10 4.8399684e-10 4.198727e-10 5.698377e-10 4.3056486e-10 5.597822e-10
1.4917959e-10 6.469084e-10 1.0899194e-09 -5.980316e-10 7.0729594e-10 1.9671016e-09 6.1693634e-10 1.9823694e-09
2.037777e-09 -2.3358823e-10 3.8300703e-11 3.6253638e-09 3.9200727e-09 2.8952583e-09 -2.2700018e-10 -2.2385072e-09
-1.605526e-09 1.2643883e-09 5.08594e-10 3.9988306e-09 2.1906421e-10 2.2793353e-10 1.3911645e-09 -6.560168e-10
2.9298863e-10 1.6233247e-10 -9.807544e-10 2.0854662e-09 3.5777843e-09 9.1566726e-10 2.951632e-09 8.89761e-10
4.9575823e-09 -2.3770316e-10 3.3174535e-10 2.4555367e-09 -1.2999011e-09 1.1537836e-08 7.3487344e-10 3.740383e-09
2.681451e-09 2.5706057e-09 -1.6993255e-09 -4.0202828e-09 -1.4933527e-10 2.2880082e-09 1.3331056e-08 1.6602025e-08
3.8791206e-10 -1.5706478e-09 5.428581e-10 2.0601836e-09 -9.725424e-10 -8.0331264e-10 1.0326136e-08 -9.066857e-10
2.876126e-10 -2.168526e-09 3.0291825e-09 2.1160529e-09 3.2349462e-10 4.876485e-10 -1.091786e-08 -6.5192225e-09
-5.0748303e-09 1.1855249e-09 -2.089293e-09 7.82899e-10 9.704758e-10 5.787669e-09 3.2187457e-09 -1.8120835e-08
1.7223686e-09 1.4888026e-09 1.4697302e-09 4.324119e-09 1.6879761e-09 -2.7548716e-10 -1.3580731e-09 -1.4044505e-08
-1.3839051e-08 6.5502843e-09 -2.523898e-09 5.3126668e-09 -2.1933622e-09 3.9394785e-10 -2.3456745e-10 -1.3008794e-10

square_avg f4 [17]
00000000: 16f1 8a32 ffbd 9932 bd89 d931 59c3 c431
00000010: b8bb 5e32 3ec4 2d33 2b4e 2332 c5d0 7733
00000020: 2e90 472d 82b4 8029 db97 a832 854e 5f32
00000030: 0dc7 9433 4de7 8033 dff3 b831 87a1 002a
00000040: 037b ac32
1.6174948e-08 1.7897944e-08 6.3311902e-09 5.7265592e-09 1.2964783e-08 4.0458183e-08 9.505622e-09 5.7699044e-08
1.1343855e-11 5.715655e-14 1.962683e-08 1.2998162e-08 6.927994e-08 6.002538e-08 5.3828297e-09 1.1424725e-13
2.0079375e-08

momentum_buffer f4 [17]
00000000: 1cc0 a631 7c73 4e31 4aed ba2f 8adb f430
00000010: 57f6 b7b1 fdb6 e330 2b2c 8eb1 8474 5f30
00000020: ee05 5531 a8c0 1830 83a3 152f 959f e9b0
00000030: b872 7631 69e9 c2b1 3dc2 88b1 514d 0131
00000040: 51ff 8db0
4.853076e-09 3.004259e-09 3.4001807e-10 1.7815733e-09 -5.3540066e-09 1.6568432e-09 -4.1377652e-09 8.1292506e-10
3.099895e-09 5.557106e-10 1.3609562e-10 -1.6998337e-09 3.5862922e-09 -5.6726788e-09 -3.9802033e-09 1.881592e-09
-1.0331666e-09

square_avg f4 [17, 17]
00000000: 011f dc32 15e4 a934 4e36 9d33 d926 9833
00000010: a5fc be34 8e23 e932 eab3 c333 5373 b435
00000020: 1354 732b 6977 d226 bc2b 5835 a29b cb35
00000030: 16be 7533 0e7b 7936 673b f734 206d 9e26
00000040: 2c9a b735 ff17 4431 1bcd 5533 cdd3 5931
00000050: bac1 9631 a3e6 7f34 cacf 0631 07da 0132
00000060: 249b 3f33 54c6 5529 f3fb 8526 2c4f aa34
00000070: 698d 6333 99cf 8431 d50f 4134 e7a6 1733
00000080: 3a5a c724 f1d8 5733 5081 8130 0ea3 dd33
00000090: f90b c32b fa2d b12e 4bbc 8c34 83be 9a2d
000000a0: 2a07 5633 9edb 2031 24b0 b02a 7156 7227
000000b0: cfb6 8235 e4cc ef2f 7353 f82f a364 8032
000000c0: dc57 c132 d86b 8524 aabc c22c 104d 0934
000000d0: e4d9 6f34 cdb5 b233 3dd6 6d33 114a a035
000000e0: 7a47 b432 75e4 3134 a6fa a535 f8e0 0e2d
000000f0: e8d5 9d22 0655 8935 75fe c235 871f 4733
00000100: 2e9b 8b36 e968 4e35 bf84 5c27 2af1 c535
00000110: acdf 1c31 cbd4 ff33 d5f5 1631 0fb7 da31
00000120: f40f 1833 e674 5931 9cad b732 ee68 d033
00000130: 86e7 a12b 7e98 c526 2819 9833 d87c f733
00000140: 8d3f a131 4415 3b34 b789 d132 c070 c826
00000150: b977 b133 fac7 dd31 651f 5532 4790 4d31
00000160: b3f0 e631 8f87 e233 dcdd 3b31 1606 0932
00000170: 465c 2334 d8a3 7f2b 6290 8b27 569c cc33
00000180: 0053 3334 0c2a 1c32 e477 c434 795c 5033
00000190: d7bc e627 5df5 f833 da14 a833 776d 0132
000001a0: 6b4d f732 baee de32 885f 8632 5cef d731
000001b0: b144 9532 d025 4130 ae0b 5a2e 6d2c 0426
000001c0: 39a1 a02f 65ad 9d30 b7f9 1333 40ae 8e31
000001d0: e972 7931 0fd6 0526 c23d 0132 8dc8 2e34
000001e0: 53ce df33 b03d a032 3882 7233 9cd1 0435
000001f0: 51ed c232 f6b3 4433 ea8c f834 f0da e42d
00000200: 4fb0 1824 8802 0a35 85b2 0235 0409 5533
00000210: b561 8635 c0ef 0134 7ab9 a227 4d65 a934
00000220: 7d6f 5e33 d587 4c34 ca4b 8c32 7aac a331
00000230: 01e3 0931 e77a ac30 6cfa 8031 15a8 6a2f
00000240: f92d 462d a427 6527 65bc ca30 6474 f62f
00000250: 452b c531 5240 cc31 fa1b 6031 d981 3d28
00000260: 7bd0 bf32 83ec 462f d47c df35 8e92 1432
00000270: 47b7 7c2f 08a5 0833 1a1e 652b b243 0831
00000280: 73e3 2c30 c489 9522 5b87 9a1f d0a9 5f34
00000290: 010e b030 58be 1231 4905 b231 9c95 d231
000002a0: 2167 5a24 ca46 8c33 2018 7d32 f4c2 3132
000002b0: 1127 a331 e311 9532 7cfe 9733 394b 1a32
000002c0: e52b 9c31 7f78 b634 8172 2e2d 3e19 8c21
000002d0: 116a 6c34 49ba cc34 447a 4c32 be7f 4e35
000002e0: 57ec c833 14e5 0125 037c 7e34 18cb 872f
000002f0: c4f4 d92e 5494 c530 2e91 fe30 2369 5d32
00000300: 31a8 7030 0531 c131 18b3 8b33 0000 0000
00000310: 0000 0000 43d9 0f33 d63e 9933 cf5f 0431
00000320: 799b 1634 5dce bd32 0000 0000 7254 6233
00000330: 0000 0000 0000 0000 0000 0000 0000 0000
00000340: 0000 0000 0000 0000 0000 0000 0000 0000
00000350: 0000 0000 0000 0000 0000 0000 0000 0000
00000360: 0000 0000 0000 0000 0000 0000 0000 0000
00000370: 0000 0000 06da 9b2d 9438 2b31 2f7a 312d
00000380: ba4a 242a a834 212e 15e1 2a29 fbde 812b
00000390: 6cef 3d30 c916 a824 91b8 7a1e 3eba 082d
000003a0: 2934 b230 5e1a a42a 6f2a 0a30 ee45 8a2f
000003b0: 1eff 9225 e9ca 8431 199d 152b 0d6d 3833
000003c0: 156c 2a2f 5653 3e29 5d18 8c2b b916 ff1f
000003d0: ce29 c32c d39c 8d2a 4a1f b425 76cd 4e25
000003e0: 3f3e e92f 2720 482d f5e1 8c25 d479 072f
000003f0: cd72 a62c 7a83 8b25 982b 3d31 9bfa 5232
2.562547e-08 3.1644655e-07 7.32076e-08 7.085118e-08 3.557408e-07 2.7140938e-08 9.113121e-08 1.3444609e-06
8.644762e-13 1.4604043e-15 8.052991e-07 1.5169974e-06 5.721639e-08 3.7175519e-06 4.6050556e-07 1.0993031e-15
1.3679432e-06 2.8535394e-09 4.977947e-08 3.169805e-09 4.3875987e-09 2.3832631e-07 1.961768e-09 7.558362e-09
4.4611753e-08 4.7467523e-14 9.29702e-16 3.1722573e-07 5.2981168e-08 3.8653067e-09 1.7980285e-07 3.5309224e-08
8.645534e-17 5.0255895e-08 9.422738e-10 1.0320774e-07 1.3858906e-12 8.057195e-11 2.6214033e-07 1.7592377e-11
4.9832273e-08 2.3407902e-09 3.1386102e-13 3.3631106e-15 9.738959e-07 4.361943e-10 4.5170231e-10 1.4946925e-08
2.2508111e-08 5.786225e-17 5.5347575e-12 1.2787154e-07 2.2337878e-07 8.32184e-08 5.537571e-08 1.1942485e-06
2.0987262e-08 1.6567522e-07 1.2366406e-06 8.121719e-12 4.2781417e-18 1.023204e-06 1.4528183e-06 4.6361972e-08
4.160588e-06 7.6893645e-07 3.0603095e-15 1.4747832e-06 2.282813e-09 1.19130696e-07 2.1967612e-09 6.3654464e-09
3.5404767e-08 3.1644105e-09 2.1382952e-08 9.7048414e-08 1.1503999e-12 1.3710954e-15 7.0826275e-08 1.1524543e-07
4.6929416e-09 1.7423469e-07 2.4393428e-08 1.3908349e-15 8.263982e-08 6.4546812e-09 1.240537e-08 2.9913438e-09
6.7212453e-09 1.0548603e-07 2.7338194e-09 7.975833e-09 1.5214127e-07 9.082158e-13 3.873679e-15 9.5279276e-08
1.670087e-07 9.0899555e-09 3.6595077e-07 4.8512877e-08 6.4042564e-15 1.1593031e-07 7.8269025e-08 7.533678e-09
2.878979e-08 2.5952762e-08 1.5643096e-08 6.2845356e-09 1.737712e-08 7.0266726e-10 4.9577835e-11 4.585691e-16
2.9218386e-10 1.1472535e-09 3.445322e-08 4.152554e-09 3.6299588e-09 4.643375e-16 7.52283e-09 1.6277973e-07
1.0421777e-07 1.8654504e-08 5.646345e-08 4.9478854e-07 2.2692491e-08 4.579848e-08 4.6296128e-07 2.6017827e-11
3.3109085e-17 5.141269e-07 4.8688554e-07 4.9601127e-08 1.0012214e-06 1.2101282e-07 4.5165127e-15 3.155241e-07
5.17898e-08 1.9048396e-07 1.633261e-08 4.7635327e-09 2.006516e-09 1.2549578e-09 3.75376e-09 2.1341891e-10
1.1265205e-11 3.1801623e-15 1.4750979e-09 4.482984e-10 5.7383738e-09 5.944494e-09 3.2612193e-09 1.0519764e-14
2.2330132e-08 1.8092021e-10 1.6651124e-06 8.6480565e-09 2.298438e-10 3.1815063e-08 8.139892e-13 1.9829085e-09
6.289646e-10 4.0532396e-18 6.5445464e-20 2.0830271e-07 1.2809666e-09 2.1353994e-09 5.1810827e-09 6.128813e-09
4.7358568e-17 6.5321345e-08 1.4732024e-08 1.0347083e-08 4.7483657e-09 1.7354017e-08 7.077776e-08 8.981083e-09
4.545188e-09 3.3987814e-07 9.91618e-12 9.493451e-19 2.20178e-07 3.81335e-07 1.1902163e-08 7.692687e-07
9.356216e-08 1.1266581e-16 2.3700709e-07 2.4700664e-10 9.9114966e-11 1.4375794e-09 1.8522195e-09 1.2887798e-08
8.7550506e-10 5.622612e-09 6.505269e-08 0.0 0.0 3.349238e-08 7.1360475e-08 1.926299e-09
1.4026399e-07 2.2096339e-08 0.0 5.2696528e-08 0.0 0.0 0.0 0.0
0.0 0.0 0.0 0.0 0.0 0.0 0.0 0.0
0.0 0.0 0.0 0.0 0.0 1.7718282e-11 2.4915936e-09 1.0088415e-11
1.4592052e-13 3.665393e-11 3.794281e-14 9.227891e-13 6.909804e-10 7.2896986e-17 1.3273057e-20 7.772059e-12
1.2966029e-09 2.9150548e-13 5.026441e-10 2.5151742e-10 2.5499837e-16 3.864774e-09 5.315345e-13 4.294002e-08
1.5499808e-10 4.2260757e-14 9.95436e-13 1.0803429e-19 5.5468746e-12 2.515545e-13 3.1246225e-16 1.7937265e-16
4.2426682e-10 1.1375823e-11 2.4439243e-16 1.232146e-10 4.730749e-12 2.4201748e-16 2.75279e-09 1.228059e-08

momentum_buffer f4 [17, 17]
00000000: 4b3e fc30 4a16 ebb1 758b 0b31 f4f2 f5b0
00000010: 548f 8fb0 b495 a1b0 b4b4 df30 6df5 ecaf
00000020: 23bd c9b0 fa46 1230 7f08 bc30 20c3 c230
00000030: 99f8 d2af c4c7 d92d fb45 6730 f92d 8f2f
00000040: ec88 d430 23d4 9431 e895 abb1 4f7e bd2f
00000050: 7a91 acb0 2935 9a31 1fe5 1cb1 9ef0 e930
00000060: ad85 5d31 42e2 9f2f b698 1130 efec c930
00000070: d9ea 862f 0b6d 6031 a752 d430 ab1c 9130
00000080: b5df 22ae 1b45 0b31 74f7 9131 27bd 2231
00000090: ea83 672f 6a90 98b0 3484 8431 bb63 8cb0
000000a0: 40ee 0a31 b842 652f f764 6f30 1ddb 0a30
000000b0: be68 7eaf 693b 67b0 9666 7a31 533d 1b31
000000c0: 7e5c 89b0 46c1 2baf 4915 bb30 0f02 91ae
000000d0: 3d4a 3930 cf3b 20b0 ad96 3930 c76f 0f30
000000e0: 9bd0 c430 5c59 c830 ceaf 1eb0 c1cf dc30
000000f0: a15d 2ab0 4bd9 01b0 a37b 0cb1 ace7 bf30
00000100: 3c86 a92f e7d3 8caf b072 a32f 3417 81af
00000110: dc88 a131 94c0 1231 25bb 1f31 d348 d2b0
00000120: d490 4e31 9e01 0db1 0cd6 2231 a534 f52f
00000130: ea6c 47b0 253e 0b30 202f 5331 c47f be30
00000140: 9d1d 322f da0d a630 e19f da30 72b1 1d30
00000150: ff34 0631 d833 e830 4a33 15b1 7035 b630
00000160: a676 14b1 dca3 2531 d881 7fb1 1c24 3131
00000170: 6b7b 51b0 6b0e 22b0 6e33 1930 ab9a 3731
00000180: 9826 4730 976d d9af 7eba 1ab0 9d02 a130
00000190: 5579 3130 ed55 c230 b107 9b32 1bbc 8330
000001a0: 6717 3531 008c 8930 5ad2 1131 8bc1 23b0
000001b0: 86ae 0031 f53f 0131 9a3a c230 6227 23b0
000001c0: aac2 4c31 40b8 b930 0994 1bb1 5f4e 3732
000001d0: 48d6 2e32 292d 8930 d859 f830 d811 b8b0
000001e0: 9c0e 30b0 acc9 9430 6b62 67b1 75e1 0fb1
000001f0: f205 2ab1 63f7 58b1 e55a 99b0 0056 02b0
00000200: 2ee0 5030 2b09 3bb0 6ed2 1031 95cd 2f31
00000210: b7be bdb0 63d1 03b1 7029 21b0 4485 fb30
00000220: faf0 9432 fcc5 1730 c519 b1af 6d39 25b0
00000230: 0712 7631 d7e2 1ab0 b5ea 7c2f 426d d330
00000240: 3bf6 6a30 7c5e 1bb0 4001 6d31 581c 74b0
00000250: 12f2 26b1 196f 3c32 1abf 3832 7ec7 e7af
00000260: 033f 06b0 e223 6f30 fcb1 4f31 5432 edb0
00000270: 7ef8 32b0 603e 9630 edc1 88b0 4ff2 22b1
00000280: c92e f530 ed5f f42f 2a36 ec2e e281 5f31
00000290: cd2d 10af 5071 d6b0 506e 0e32 8ede aab0
000002a0: 7fb0 4c2e 52cf eb31 f440 e230 3674 8a31
000002b0: 0c9f 0031 3655 eaad 48e3 6931 e3a6 91b0
000002c0: ecc1 0631 f839 642f a990 04b1 125d 70af
000002d0: e4f9 5631 3c1a ed30 e4af cc30 27fb b3af
000002e0: de6f 7430 71a5 56ae 102f 9930 4d1c a730
000002f0: 3a2c 612f ce1a 6e30 decc 1bb1 80c0 e930
00000300: 708d 30b1 0a88 d030 09c3 6230 0000 0000
00000310: 0000 0000 413a c730 a20d 2030 7c42 c7b0
00000320: 0a3b 9830 f4c3 1931 0000 0000 1566 0d31
00000330: 0000 0000 0000 0000 0000 0000 0000 0000
00000340: 0000 0000 0000 0000 0000 0000 0000 0000
00000350: 0000 0000 0000 0000 0000 0000 0000 0000
00000360: 0000 0000 0000 0000 0000 0000 0000 0000
00000370: 0000 0000 c0b3 8631 86a0 0fae cf60 d4b0
00000380: 9baf 0231 1ea6 0c30 2f4c 3c30 6416 0231
00000390: 7d2b 1a31 7cc3 2630 7d81 972a 29a9 8531
000003a0: 82e7 e62e 50a8 a130 9f75 4d31 31b8 a230
000003b0: ed16 0c30 8293 d230 a3bb de2f dd8a 1231
000003c0: 27f7 d0b0 bacb c3b0 49dd 8631 eda9 582f
000003d0: 127e 99b1 0bdb ca30 100e f62f 03ee 1230
000003e0: 67b2 c831 e104 70af 2a5e 4daf 5997 8631
000003f0: 9239 07b0 92a0 872f ad35 2431 089a bf31
1.8353118e-09 -6.841934e-09 2.0306434e-09 -1.7895148e-09 -1.0445356e-09 -1.175684e-09 1.6276744e-09 -4.3102535e-10
-1.4678431e-09 5.3215354e-10 1.3681215e-09 1.4170816e-09 -3.8375417e-10 2.4758758e-11 8.413676e-10 2.6044214e-10
1.5463946e-09 4.331484e-09 -4.9937974e-09 3.4468647e-10 -1.2555994e-09 4.4880335e-09 -2.2831228e-09 1.7021369e-09
3.2235719e-09 2.9082697e-10 5.296771e-10 1.4692015e-09 2.4541327e-10 3.2658274e-09 1.5448521e-09 1.0558286e-09
-3.7033227e-11 2.0266444e-09 4.2481876e-09 2.3681623e-09 2.1056193e-10 -1.11005e-09 3.8567354e-09 -1.0214686e-09
2.0217072e-09 2.0851132e-10 8.7091173e-10 5.0515486e-10 -2.3138377e-10 -8.412174e-10 3.6438101e-09 2.2590327e-09
-9.99435e-10 -1.5621024e-10 1.361209e-09 -6.594202e-11 6.7408107e-10 -5.8292654e-10 6.751673e-10 5.218194e-10
1.4320166e-09 1.4577313e-09 -5.77299e-10 1.6066154e-09 -6.1978694e-10 -4.723872e-10 -2.044296e-09 1.3962924e-09
3.08363e-10 -2.5616417e-10 2.9731018e-10 -2.348145e-10 4.701276e-09 2.1355264e-09 2.3243925e-09 -1.5300209e-09
3.005927e-09 -2.051912e-09 2.3695774e-09 4.4602647e-10 -7.2550554e-10 5.065622e-10 3.0731329e-09 1.3860633e-09
1.6199526e-10 1.2082026e-09 1.5907028e-09 5.736843e-10 1.9529691e-09 1.6894957e-09 -2.1711508e-09 1.3257431e-09
-2.1604278e-09 2.4103803e-09 -3.7181191e-09 2.5777416e-09 -7.6209145e-10 -5.8955746e-10 5.573416e-10 2.6717923e-09
7.2450623e-10 -3.9549938e-10 -5.6289895e-10 1.1715034e-09 6.456465e-10 1.4139779e-09 1.8047873e-08 9.584967e-10
2.635227e-09 1.0007852e-09 2.1219848e-09 -5.9574096e-10 1.8725657e-09 1.8808326e-09 1.4132013e-09 -5.935502e-10
2.979656e-09 1.3512889e-09 -2.2639617e-09 1.06698215e-08 1.0176855e-08 9.980897e-10 1.806991e-09 -1.3392834e-09
-6.404919e-10 1.0825736e-09 -3.3670868e-09 -2.0937396e-09 -2.4741635e-09 -3.157276e-09 -1.1158049e-09 -4.741594e-10
7.598854e-10 -6.804323e-10 2.1074373e-09 2.5582712e-09 -1.3805764e-09 -1.9182032e-09 -5.8630345e-10 1.830053e-09
1.7339051e-08 5.521483e-10 -3.2214423e-10 -6.010826e-10 3.5807959e-09 -5.634723e-10 2.3002651e-10 1.5383324e-09
8.547862e-10 -5.652294e-10 3.448875e-09 -8.880696e-10 -2.429378e-09 1.0968301e-08 1.0753661e-08 -4.2160403e-10
-4.883846e-10 8.6998686e-10 3.0223637e-09 -1.7258324e-09 -6.510915e-10 1.0931664e-09 -9.950419e-10 -2.371184e-09
1.7839393e-09 4.44515e-10 1.0741659e-10 3.25246e-09 -1.3112995e-10 -1.5602755e-09 8.29057e-09 -1.2432382e-09
4.654099e-11 6.8629697e-09 1.6462125e-09 4.0295403e-09 1.871686e-09 -2.6640561e-11 3.4035157e-09 -1.0597571e-09
1.9609798e-09 2.0757074e-10 -1.9290758e-09 -2.1860938e-10 3.1283145e-09 1.7251476e-09 1.4892945e-09 -3.2738365e-10
8.8925656e-10 -4.8804908e-11 1.1145591e-09 1.2158893e-09 2.0479343e-10 8.662199e-10 -2.2671922e-09 1.7007693e-09
-2.5691769e-09 1.5172656e-09 8.249548e-10 0.0 0.0 1.4495712e-09 5.8227034e-10 -1.4498052e-09
1.1076235e-09 2.2375817e-09 0.0 2.0576227e-09 0.0 0.0 0.0 0.0
0.0 0.0 0.0 0.0 0.0 0.0 0.0 0.0
0.0 0.0 0.0 0.0 0.0 3.9203485e-09 -3.265701e-11 -1.5452545e-09
1.901731e-09 5.116777e-10 6.8502265e-10 1.8930217e-09 2.243467e-09 6.066825e-10 2.691284e-13 3.8900407e-09
1.0500313e-10 1.1762129e-09 2.9898286e-09 1.1839402e-09 5.0964283e-10 1.5321435e-09 4.051489e-10 2.132473e-09
-1.5204237e-09 -1.424602e-09 3.9250705e-09 1.9705455e-10 -4.4672186e-09 1.475969e-09 4.475713e-10 5.3452726e-10
5.841048e-09 -2.1829606e-10 -1.8678095e-10 3.9171195e-09 -4.9194526e-10 2.467045e-10 2.3895652e-09 5.576343e-09

square_avg f4 [17]
00000000: e97c a431 be9a 1131 3cd1 9f31 14cd a431
00000010: 3999 3831 016d 512f db8d 0732 e9aa 7531
00000020: d146 0e31 3af4 fc31 7057 6d30 f60a e72f
00000030: 0000 0000 2295 8e2e fd94 232f 1127 8430
00000040: ef57 eb30
4.787229e-09 2.1188238e-09 4.6512962e-09 4.796343e-09 2.686262e-09 1.9047165e-10 7.890288e-09 3.5749343e-09
2.0703974e-09 7.3619306e-09 8.6344354e-10 4.2026443e-10 0.0 6.483904e-11 1.4877695e-10 9.615367e-10
1.7123493e-09

momentum_buffer f4 [17]
00000000: 23cd 9031 4b1e 9130 e050 4e31 af91 f1b0
00000010: edec a631 fa32 19b1 b08b ae30 c244 5bb1
00000020: c917 b331 dbf4 ae31 e3fc 0a31 7ee4 4931
00000030: 0000 0000 8606 2231 8f53 3431 0cef a6b1
00000040: 9c83 b1b1
4.214273e-09 1.0558748e-09 3.0022917e-09 -1.7576464e-09 4.858171e-09 -2.2293407e-09 1.2699868e-09 -3.1907779e-09
5.2122897e-09 5.0919033e-09 2.0225392e-09 2.9379232e-09 0.0 2.357781e-09 2.6240945e-09 -4.8584123e-09
-5.1663402e-09

square_avg f4 [17, 17]
00000000: d183 8b23 0000 0000 e964 b623 7e93 b82b
00000010: dbc1 b626 fe6d 0c29 fb20 c329 8b78 9e2b
00000020: 219f 2f2a 0000 0000 e17f 281e 0000 0000
00000030: 0000 0000 0000 0000 0000 0000 cb28 5928
00000040: b23f 481b 7269 dc37 3881 1837 ed69 9032
00000050: 71c5 0836 7b30 1f35 6612 2b38 23df 2531
00000060: d79e 4938 47ec 1f34 abde 2e35 4f99 8d36
00000070: 8e60 a934 0000 0000 1287 1c30 81c0 b42f
00000080: 20e8 d637 b640 3137 960d 952b 11c5 f72c
00000090: 7707 0f2b 780a d72b be0c 2229 04ae f425
000000a0: 360a ed26 3523 852d f213 da26 4de0 0526
000000b0: 7c99 3325 0000 0000 0000 0000 0000 0000
000000c0: 7e25 2425 df57 282b c185 8f27 9152 4030
000000d0: ae9e 9f2f 22c0 472e 6efc 8533 c77b 2b30
000000e0: c7b3 7931 ac95 e532 4dd5 b632 dbef 9d32
000000f0: 67ea c225 41a1 992e fcc6 b627 0000 0000
00000100: e527 c329 9c46 0127 b646 2131 fe5c 8d2e
00000110: 28b6 c82d ffd2 192f 8452 8825 54c9 0c2f
00000120: 27d6 372c 5ada b128 d305 3627 b20b 2b2f
00000130: b06e 1425 ab76 0529 cc9b b123 0000 0000
00000140: 0000 0000 c3e7 da21 8977 2726 dc58 862c
00000150: cf85 b126 d0ba d228 748d ce26 77a3 4a26
00000160: 41b2 9a24 e039 6f27 f025 0829 562d c929
00000170: 600d 8326 65be 1d28 d917 f822 9019 a720
00000180: 0000 0000 0000 0000 3391 1026 bc15 3a28
00000190: 3f47 9729 7f04 9228 6e25 3837 2fc8 9d36
000001a0: f5b9 b631 cbd3 df35 f01c 5f34 fe86 9837
000001b0: ad01 6731 3f2f c237 7a09 8632 9e4a 7234
000001c0: b9ee d835 a5d4 e533 0000 0000 2582 3d2f
000001d0: 5f55 f02e 05db 3f37 aa47 8236 45f9 e636
000001e0: 6bf4 1836 657a c130 a9d9 a534 4b8b bb33
000001f0: d0b2 2c37 9a88 fe31 0ec6 5537 2cf9 7732
00000200: d60b 5833 9db9 c435 a78b 2734 0000 0000
00000210: f37c 5c2e bd6f e62d 723f 1937 e4bf 5636
00000220: d160 6929 c068 fd25 bf02 141e 6be8 8a28
00000230: 286e 1128 d061 ab29 4c1b 4428 f5dc 122a
00000240: 8cdf b528 394d a51f 0000 0000 0000 0000
00000250: 0000 0000 686f 1a21 0000 0000 ef39 fa29
00000260: 61a8 4027 472b ed24 ef1f 731e 0000 0000
00000270: 0362 3e24 0000 0000 b47a bc24 7e2f 1926
00000280: b925 f123 b281 c925 5b1b 3424 aab7 c420
00000290: 0000 0000 0000 0000 0000 0000 65fc 0824
000002a0: 9c06 2026 83af f125 ad72 b433 3ea7 1e34
000002b0: c16b 092f a109 bf33 897e 5730 f6b6 7d33
000002c0: 06e8 b932 4656 8434 5e75 a332 49da 322f
000002d0: 4ceb ae30 addf 902f 0000 0000 1829 9c27
000002e0: ff76 0525 d48c be32 96f1 3c30 0000 0000
000002f0: 0000 0000 b001 aa23 3411 3025 0000 0000
00000300: 0000 0000 761f 1d26 6b0f 9e21 0bf2 0b24
00000310: 0000 0000 4266 8722 0000 0000 0000 0000
00000320: 0000 0000 0000 0000 0000 0000 0000 0000
00000330: 806c b235 38fb 1435 fdeb 2f30 f0f7 5f34
00000340: 6474 e932 004d 1236 b0c4 5531 3719 3636
00000350: 5c41 f031 e553 d832 0742 5b34 17fb 4c32
00000360: 0000 0000 d10e d92d 134c 5d2d a677 b435
00000370: 4476 f734 a2cb 0f2f 7769 bd2c 661f 7f2c
00000380: 096d 7130 34e3 dd2c 5a58 8c2f 96bc 772f
00000390: 8957 9f30 132f d72e 0c1f 1426 6868 222e
000003a0: 0000 0000 0000 0000 8729 6d25 22a0 2823
000003b0: 6788 662f f86a 992c 3aad 2522 0b93 f523
000003c0: 0000 0000 7788 f428 305f 3e21 0000 0000
000003d0: d6e9 9829 14ac 1d28 3944 d728 994e 7624
000003e0: 47bd 5329 0000 0000 0000 0000 0000 0000
000003f0: 0000 0000 5697 a724 3747 d928 518a cd30
1.5126237e-17 0.0 1.9775217e-17 1.3114924e-12 1.2681332e-15 3.1181648e-14 8.665461e-14 1.1260033e-12
1.5598331e-13 0.0 8.920291e-21 0.0 0.0 0.0 0.0 1.2054765e-14
1.6564193e-22 2.6275146e-05 9.089992e-06 1.6811976e-08 2.0380505e-06 5.9302664e-07 4.0786712e-05 2.4137499e-09
4.8070066e-05 1.4893986e-07 6.5144076e-07 4.219975e-06 3.1548956e-07 0.0 5.6944416e-10 3.2878592e-10
2.561888e-05 1.0565089e-05 1.0590858e-12 7.042041e-12 5.0814165e-13 1.5279574e-12 3.5982278e-14 4.244517e-16
1.6447946e-15 1.5135984e-11 1.5132195e-15 4.644763e-16 1.5577778e-16 0.0 0.0 0.0
1.4237435e-16 5.9807535e-13 3.983549e-15 6.9966527e-10 2.903468e-10 4.541801e-11 6.239212e-08 6.2385336e-10
3.633646e-09 2.6727172e-08 2.1284587e-08 1.838628e-08 3.3812473e-16 6.986279e-11 5.0730887e-15 0.0
8.66666e-14 1.7940624e-15 2.3468778e-09 6.4284564e-11 2.2818261e-11 1.399023e-10 2.3648154e-16 1.2804452e-10
2.6124743e-12 1.9745642e-14 2.5260731e-15 1.5556514e-10 1.2874456e-16 2.963486e-14 1.9256361e-17 0.0
0.0 1.4833601e-18 5.8101764e-16 3.8183744e-12 1.2318111e-15 2.33957e-14 1.4332462e-15 7.0304365e-16
6.708883e-17 3.3199287e-15 3.0230972e-14 8.9340576e-14 9.093576e-16 8.756536e-15 6.7245784e-18 2.8307816e-19
0.0 0.0 5.015682e-16 1.0329787e-14 6.718106e-14 1.6211206e-14 1.0975969e-05 4.702269e-06
5.318038e-09 1.6676435e-06 2.0779021e-07 1.8182673e-05 3.3615877e-09 2.3148603e-05 1.5603963e-08 2.2565152e-07
1.6162732e-06 1.0702323e-07 0.0 1.7235686e-10 1.09291014e-10 1.1435482e-05 3.8826447e-06 6.883553e-06
2.2792035e-06 1.4077385e-09 3.0892014e-07 8.733203e-08 1.0293632e-05 7.4079027e-09 1.27419025e-05 1.4433947e-08
5.0302184e-08 1.4657159e-06 1.5603892e-07 0.0 5.0133186e-11 2.6197594e-11 9.134283e-06 3.200018e-06
5.1820368e-14 4.3959485e-16 7.835623e-21 1.5421873e-14 8.073003e-15 7.610893e-14 1.0886105e-14 1.3044065e-13
2.0191985e-14 7.000797e-20 0.0 0.0 0.0 5.2324674e-19 0.0 1.111228e-13
2.673663e-15 1.0285568e-16 1.2870917e-20 0.0 4.1282702e-17 0.0 8.173987e-17 5.31469e-16
2.6145249e-17 3.4955827e-16 3.905445e-17 3.332523e-19 0.0 0.0 0.0 2.9704086e-17
5.552011e-16 4.1925767e-16 8.4027626e-08 1.4775739e-07 1.2498359e-10 8.895882e-08 7.839636e-10 5.9072555e-08
2.1642347e-08 2.4649688e-07 1.902907e-08 1.6266556e-10 1.2727042e-09 2.635238e-10 0.0 4.334325e-15
1.1576229e-16 2.2182952e-08 6.8737316e-10 0.0 0.0 1.8432152e-17 1.5271395e-16 0.0
0.0 5.4512955e-16 1.0710578e-18 3.034584e-17 0.0 3.6700093e-18 0.0 0.0
0.0 0.0 0.0 0.0 1.3293611e-06 5.549987e-07 6.399999e-10 2.0858693e-07
2.7177698e-08 2.1800515e-06 3.1107383e-09 2.713479e-06 6.99235e-09 2.518386e-08 2.0419985e-07 1.1931454e-08
0.0 2.4676624e-11 1.25792874e-11 1.3445867e-06 4.6093385e-07 1.3078119e-10 5.383412e-12 3.625511e-12
8.783024e-10 6.3064224e-12 2.552863e-10 2.2531518e-10 1.1593652e-09 9.78543e-11 5.138989e-16 3.6927267e-11
0.0 0.0 2.0570543e-16 9.141208e-18 2.0966838e-10 4.3603975e-12 2.2453375e-18 2.6625228e-17
0.0 2.7148624e-14 6.4500484e-19 0.0 6.79072e-14 8.752564e-15 2.3899382e-14 5.3409322e-17
4.7015584e-14 0.0 0.0 0.0 0.0 7.268108e-17 2.4122724e-14 1.4955025e-09
