Multistate Intensity Models/SDDR_outputs/best_estimator_nn_event_21.pth (torch, 440325 bytes, 222 tensors)

square_avg f4 [4, 1]
00000000: c3cb a838 0000 0000 0000 0000 fed4 012b
8.048818e-05 0.0 0.0 4.612559e-13

momentum_buffer f4 [4, 1]
00000000: dbfd 1dbf 0000 0000 0000 0000 d77c a939
-0.6171548 0.0 0.0 0.00032327205

square_avg f4 [4]
00000000: 5f17 1735 0000 0000 0000 0000 0867 ec26
5.6285893e-07 0.0 0.0 1.6403716e-15

momentum_buffer f4 [4]
00000000: 4850 573f 0000 0000 0000 0000 174b 0a39
0.84106874 0.0 0.0 0.00013188679

square_avg f4 [4, 4]
00000000: 0000 0000 0000 0000 0000 0000 0000 0000
00000010: 0000 0000 0000 0000 0000 0000 0000 0000
00000020: 8ff4 2137 0000 0000 0000 0000 75f2 112c
00000030: 45c8 d637 0000 0000 0000 0000 25c8 8e2c
0.0 0.0 0.0 0.0 0.0 0.0 0.0 0.0
9.6532885e-06 0.0 0.0 2.074033e-12 2.5604046e-05 0.0 0.0 4.0581032e-12

momentum_buffer f4 [4, 4]
00000000: 0000 0000 0000 0000 0000 0000 0000 0000
00000010: 0000 0000 0000 0000 0000 0000 0000 0000
00000020: 33a5 2cbf 0000 0000 0000 0000 7360 aa37
00000030: c105 35bf 0000 0000 0000 0000 2d6a a237
0.0 0.0 0.0 0.0 0.0 0.0 0.0 0.0
-0.67439574 0.0 0.0 2.0310492e-05 -0.70711905 0.0 0.0 1.9361347e-05

square_avg f4 [4]
00000000: 0000 0000 0000 0000 63d4 6d34 969e 1d35
0.0 0.0 2.2149611e-07 5.871783e-07

momentum_buffer f4 [4]
00000000: 0000 0000 0000 0000 5d9a 483f b071 413f
0.0 0.0 0.7836054 0.755641

square_avg f4 [4, 4]
00000000: 0000 0000 0000 0000 3f83 2137 e43c 1a37
00000010: 0000 0000 0000 0000 0000 0000 0000 0000
00000020: 0000 0000 0000 0000 0000 0000 0000 0000
00000030: 0000 0000 0000 0000 0000 0000 0000 0000
0.0 0.0 9.626906e-06 9.1932925e-06 0.0 0.0 0.0 0.0
0.0 0.0 0.0 0.0 0.0 0.0 0.0 0.0

momentum_buffer f4 [4, 4]
00000000: 0000 0000 0000 0000 ab80 80bf dc42 9bbf
00000010: 0000 0000 0000 0000 0000 0000 0000 0000
00000020: 0000 0000 0000 0000 0000 0000 0000 0000
00000030: 0000 0000 0000 0000 0000 0000 0000 0000
0.0 0.0 -1.0039266 -1.2129779 0.0 0.0 0.0 0.0
0.0 0.0 0.0 0.0 0.0 0.0 0.0 0.0

square_avg f4 [4]
00000000: 02ee 8935 0000 0000 0000 0000 0000 0000
1.0276565e-06 0.0 0.0 0.0

momentum_buffer f4 [4]
00000000: 9b50 343f 0000 0000 0000 0000 0000 0000
0.70435494 0.0 0.0 0.0

square_avg f4 [5, 4]
00000000: 6c34 c534 0000 0000 0000 0000 0000 0000
00000010: e3e0 4138 0000 0000 0000 0000 0000 0000
00000020: 2300 f335 0000 0000 0000 0000 0000 0000
00000030: 5c84 1e34 0000 0000 0000 0000 0000 0000
00000040: a861 7034 0000 0000 0000 0000 0000 0000
3.673225e-07 0.0 0.0 0.0 4.6224228e-05 0.0 0.0 0.0
1.8104951e-06 0.0 0.0 0.0 1.4763049e-07 0.0 0.0 0.0
2.2387269e-07 0.0 0.0 0.0

momentum_buffer f4 [5, 4]
00000000: 64cc a5bf 0000 0000 0000 0000 0000 0000
00000010: ee9e 1b40 0000 0000 0000 0000 0000 0000
00000020: 6e91 47bf 0000 0000 0000 0000 0000 0000
00000030: a8f0 acbf 0000 0000 0000 0000 0000 0000
00000040: 94f1 56bf 0000 0000 0000 0000 0000 0000
-1.2953 0.0 0.0 0.0 2.4315753 0.0 0.0 0.0
-0.77956283 0.0 0.0 0.0 -1.3510942 0.0 0.0 0.0
-0.8396237 0.0 0.0 0.0

square_avg f4 [5]
00000000: a357 4534 74f7 8b35 88e1 7335 bd8b 1922
00000010: 348f 0e34
1.8378937e-07 1.0428325e-06 9.0852745e-07 2.0809343e-18 1.3276878e-07

momentum_buffer f4 [5]
00000000: 8afb f7bf a26e 2b40 5191 24bf 282d a83f
00000010: faf6 b2be
-1.9373639 2.6786275 -0.64284235 1.313878 -0.34954053

square_avg f4 [20, 12]
00000000: dbdf 0038 aa77 6c38 6723 2d36 ae02 2f39
00000010: 5c54 f238 633e 0839 f551 2e38 02fe 1f38
00000020: bd56 7637 3bfd 9138 a88b 8735 aa3f 3e36
00000030: dceb 0539 9e64 8939 5caf cd37 2792 5339
00000040: c7f8 6539 602c d639 b6b9 033a 1df3 7b3a
00000050: 223f 3038 e238 1338 bf23 2935 6420 7d36
00000060: 66f5 7139 113a 3c38 1f5f 2a36 7ff5 2539
00000070: e8a8 c237 24f5 6138 e688 8638 1a54 e737
00000080: 033e 0038 a859 7a38 596f 1634 2c34 4c32
00000090: 6709 6738 e466 1038 ca2f 6236 907c b439
000000a0: 9bd4 cc37 418c 7438 4f32 1438 c4ed 1938
000000b0: 4c37 d937 098d 6138 b825 6333 72d8 bc36
000000c0: b192 1a39 a8b4 ff38 becb ac35 96a0 e638
000000d0: af67 ac38 8832 1538 5c2c e738 0baa b538
000000e0: 46a2 0238 1547 7536 0000 0000 c0b9 8936
000000f0: 0a65 b138 af10 8338 d0d5 4f36 ea5c e537
00000100: a3ac 9f38 8ad4 8f38 3ad1 0539 64de 8039
00000110: bfb3 5d37 710e 0c38 e2e5 2234 ab87 5433
00000120: 24d7 f838 3460 9038 71af 9a36 1d54 9538
00000130: 2bec 8138 617e b238 4ec9 4d38 8190 ad37
00000140: cb39 8537 dfa8 2238 21fa 7e34 6d8b a634
00000150: b11e 8638 7f2f 1b38 1701 7536 6a07 2939
00000160: 983a ab38 aa03 2139 98ef c338 862e 1539
00000170: 0218 fb36 e823 5738 9e18 4035 9c27 de33
00000180: 88ac 0739 43b4 cb39 1dee 2a36 9f22 dc39
00000190: a1b1 9938 fa4e 8c39 14af f839 ecf2 313a
000001a0: 9653 9938 98e8 c036 92a3 e330 ee6f a036
000001b0: 6460 9138 7ed7 6e38 1986 b236 6d13 a938
000001c0: a20a b538 1a13 fa38 7256 1439 4fc5 7839
000001d0: bffd 2337 a5a5 e336 0570 3e33 067e 8f33
000001e0: 31e1 4d38 94eb 2738 105f 0636 2853 9238
000001f0: 0841 f837 e866 2b38 df7d 8638 1b6d 2539
00000200: 2116 7a36 f9de b036 fc20 0f34 1cd6 8e35
00000210: fafb 7838 2230 1a38 a865 3336 0634 b938
00000220: 3822 f637 5d01 6e38 dc3e 1538 519a 9038
00000230: 7eff ba36 99b6 9a37 b5da 3b34 26e0 9d34
00000240: 86f3 2838 83d2 8938 95e3 9437 2a28 a538
00000250: 0965 8b38 6b7f 9538 e3c5 e538 6386 ba38
00000260: 5435 f736 5f81 ae37 4fbf 1c34 8516 da34
00000270: 4fa0 3839 e5b2 2038 3edf 8036 01f5 9b38
00000280: 8d8c 2838 f9c7 0638 5979 1539 6265 2b39
00000290: e698 2738 7025 5938 ac3f 8b33 0000 0000
000002a0: 021b 9f38 b723 b638 b916 4536 f0dd f938
000002b0: 275d 7d38 27a5 1839 9369 1139 b825 2a39
000002c0: 1b19 1c38 af59 e137 8a05 4c34 2457 5036
000002d0: acd9 d038 dbd1 be37 426f 5036 1bd0 4638
000002e0: da28 9837 8a7d e137 2776 7f38 a26b 8e38
000002f0: c27f 0537 1cb1 bc37 24e4 1a34 0000 0000
00000300: aab1 0e39 5ed6 dc38 0c4c 1f36 6ab9 a639
00000310: 895c 3638 ed10 1c39 b86a ae38 0809 8838
00000320: 0549 9e37 b1b5 1438 737b 2634 95ab 8334
00000330: 848a d237 2a0f ed37 eebe 1c35 da2d 4338
00000340: 8351 e236 bae9 3737 3c24 bf37 e249 8337
00000350: 8398 0137 b272 0b37 c2dd 0d2f 4e86 4635
00000360: b1b6 3c38 d59d d737 45bb 7036 c312 0e38
00000370: e1d7 7637 e315 7937 3647 1b38 d85f 0338
00000380: c327 9136 faec 2837 c6d2 3a33 7c06 4435
00000390: b433 4539 3747 6638 ec3c 7436 e4fe 2639
000003a0: faed 2f38 515d 1938 4049 b638 141e a238
000003b0: 1c9b a237 68dd 8338 49de 0632 91d3 1836
3.072606e-05 5.637823e-05 2.5799616e-06 0.00016690299 0.000115551724 0.00012993212 4.156116e-05 3.8145117e-05
1.4682938e-05 6.961307e-05 1.0098929e-06 2.8349264e-06 0.00012771733 0.00026205642 2.4519562e-05 0.00020176974
0.00021931819 0.00040850323 0.00050249265 0.0009611117 4.2020467e-05 3.5100507e-05 6.3009423e-07 3.7718792e-06
0.00023074969 4.487677e-05 2.5387342e-06 0.0001582708 2.3205255e-05 5.3872485e-05 6.415117e-05 2.7576509e-05
3.057533e-05 5.9688144e-05 1.4010347e-07 1.1886225e-08 5.508345e-05 3.44281e-05 3.3704441e-06 0.00034425082
2.4417697e-05 5.8304755e-05 3.5332803e-05 3.669948e-05 2.5894165e-05 5.377553e-05 5.288686e-08 5.628034e-06
0.00014741231 0.000121929974 1.2874295e-06 0.00010997166 8.220912e-05 3.557143e-05 0.00011023201 8.6624255e-05
3.1145544e-05 3.654922e-06 0.0 4.1045423e-06 8.458838e-05 6.249674e-05 3.096986e-06 2.7342194e-05
7.613867e-05 6.85836e-05 0.00012761811 0.00024579756 1.3214477e-05 3.339205e-05 1.5171057e-07 4.9483486e-08
0.000118656346 6.884374e-05 4.6099817e-06 7.120541e-05 6.195189e-05 8.511241e-05 4.906329e-05 2.0690497e-05
1.5881747e-05 3.8781083e-05 2.374659e-07 3.1021355e-07 6.395335e-05 3.6999114e-05 3.650848e-06 0.00016119858
8.164829e-05 0.00015355521 9.3429524e-05 0.00014227079 7.483178e-06 5.1293435e-05 7.1561396e-07 1.03448855e-07
0.00012938876 0.00038853483 2.5470574e-06 0.00041987465 7.3286945e-05 0.00026761723 0.0004743269 0.00067882123
7.3111776e-05 5.7491234e-06 1.6562913e-09 4.781402e-06 6.932093e-05 5.6944315e-05 5.3204244e-06 8.062166e-05
8.632733e-05 0.00011924487 0.00014146583 0.00023724626 9.774637e-06 6.7844107e-06 4.4339703e-08 6.68188e-08
4.9085535e-05 4.0035302e-05 2.002289e-06 6.9773116e-05 2.9594186e-05 4.0865416e-05 6.413063e-05 0.00015776271
3.7265784e-06 5.271166e-06 1.3329912e-07 1.0642138e-06 5.936248e-05 3.676129e-05 2.673225e-06 8.8311775e-05
2.934142e-05 5.674489e-05 3.558291e-05 6.895199e-05 5.572975e-06 1.844326e-05 1.7495297e-07 2.9406618e-07
4.028112e-05 6.57188e-05 1.7748951e-05 7.875294e-05 6.646856e-05 7.128607e-05 0.0001095643 8.8942026e-05
7.367382e-06 2.080266e-05 1.459823e-07 4.062205e-07 0.00017607327 3.831358e-05 3.840686e-06 7.4366115e-05
4.018522e-05 3.213433e-05 0.00014254953 0.00016345599 3.99583e-05 5.1771698e-05 6.484274e-08 0.0
7.5867414e-05 8.685089e-05 2.9368514e-06 0.00011914584 6.0406655e-05 0.00014557374 0.00013867607 0.00016226515
3.721668e-05 2.6863852e-05 1.9000996e-07 3.1045138e-06 9.9587574e-05 2.2747487e-05 3.1059176e-06 4.7400692e-05
1.8138835e-05 2.6880549e-05 6.0906776e-05 6.791136e-05 7.957164e-06 2.249382e-05 1.4425365e-07 0.0
0.0001360836 0.000105303465 2.3737111e-06 0.00031800132 4.347836e-05 0.00014883625 8.3168445e-05 6.4866676e-05
1.886907e-05 3.5455163e-05 1.5504865e-07 2.4525494e-07 2.5098452e-05 2.8259663e-05 5.839237e-07 4.6534326e-05
6.744814e-06 1.0962069e-05 2.2785847e-05 1.5650821e-05 7.724509e-06 8.31175e-06 1.290266e-10 7.3956187e-07
4.4992838e-05 2.5703494e-05 3.5871792e-06 3.387291e-05 1.4713006e-05 1.4846652e-05 3.70212e-05 3.1322095e-05
4.3259656e-06 1.0068756e-05 4.3498197e-08 7.3025126e-07 0.00018806645 5.4902597e-05 3.6394295e-06 0.00015925948
4.1944884e-05 3.656495e-05 8.69208e-05 7.7303645e-05 1.9384133e-05 6.287807e-05 7.850368e-09 2.2772913e-06

momentum_buffer f4 [20, 12]
00000000: a71b 77bf c84e c13f 9a43 8240 912d a83f
00000010: 088a 1dbf be65 40bf 745d a4bf 3ba6 f7bf
00000020: 9e31 ee3e 6695 43bf d0cb bfbc 6f79 263f
00000030: 3429 2abe dc1d 60bf 8063 b1bf 9652 24bf
00000040: e30f 8d3f f256 3040 6026 97bf 7fb8 8fbf
00000050: 501a 6a3e e7ed 893f f8c5 763d 0c7a 353e
00000060: f0c7 ba3f 8c67 9abe bcb5 b940 a6af fabf
00000070: cc45 34be 009f 18bf d429 5fbe aad6 bbbf
00000080: 27d5 3ebf 185b d6bf d490 673f 43d4 d83e
00000090: e6a0 e0be 4312 17c0 7c36 973e 50b5 263d
000000a0: b1c4 303f bd16 153f 31b3 dabd 38bd 1b3e
000000b0: d05b a9bf 5b8b 213f 0aaf c93f 097b abbf
000000c0: 6869 bb3f d024 ca3d 0633 b0bf 78dd 82be
000000d0: fce8 c43e d04b 973f 21f0 36bf ec5e be3d
000000e0: ae77 9bbe a458 1dc0 0000 0000 00b4 863f
000000f0: 18c3 4cc0 a4ed d53e 2857 2dc0 5fff 9c3f
00000100: 54da aebe 9d16 19c0 1dc0 4140 6876 533f
00000110: dbf8 9cbe 1e12 993f 048b f3be 5492 a4bf
00000120: 0615 12bf f470 03be d3ce 1ec0 7087 0a3e
00000130: 9b28 95bf cd08 693f 1865 ba3e c07b 1040
00000140: 8446 c63e 10ef 9b3e 6813 883f ec6f 05bf
00000150: 009c 30bf 6860 c2bf f8f0 fcbe 0883 cfbe
00000160: f230 4bbe f08e debf e7ac 19bf 404b f4bf
00000170: dcce dbbe 2711 93bf e7cd 77bf e8e5 003f
00000180: ff39 2e3e ff17 d23f f859 113f 116f a03f
00000190: 9419 09c0 ee50 5abf edb6 e83f 50f4 0240
000001a0: 1494 843f 2b8f e0be aeae 223a ba28 183f
000001b0: cc6c 933e 3d00 0340 8b25 0840 d43b eb3e
000001c0: cea5 fdbe 02a1 2ec0 4a30 3a3f 63c4 833f
000001d0: e6b6 5840 700f d53d ea55 14be f61a 3540
000001e0: 44d2 e1be 8674 9e3f 78bc fcbf d790 de3f
000001f0: 2cce 00c0 16ca d7bf 1512 0540 0918 dc3f
00000200: f0dd 913f 9333 193e e04d 2c3f 1f41 6b40
00000210: f17e 5dbf 54c5 5abf 30cb 41c0 2c1b dfbe
00000220: c629 19c0 b03f a93d ec17 163f f098 103f
00000230: 7023 afbf 5d7f 41c0 94dc 843f 2044 25be
00000240: df5f d5be b2b3 fb3f 533c 453f 8b27 013f
00000250: 8451 d83e 10d7 cabf 0874 83be 54a9 d2bf
00000260: a677 1ebf 920d d9be 38f2 ab3f d8f0 9f3d
00000270: e03b d13f 68c9 4d3f 6e76 bdbf b862 e1bd
00000280: dfae 84bf c390 383f 80ea 4fbf 5e7f c3bf
00000290: f644 e7be 0a99 1ac0 b2b8 4fbf 0000 0000
000002a0: b2b4 8540 6812 cdbf 8b30 9540 e45e 76bf
000002b0: d062 453f a4fe 6a3f d3f2 32c0 df04 13c0
000002c0: 5cc4 1cc0 ac3c 12c0 c268 10be ab01 29c0
000002d0: a832 ff3f 1251 f13d ecb6 c73e d5ce a53f
000002e0: 6c5c 743f dcff 7040 2832 f1bf 6038 e4be
000002f0: 04a1 51bf df92 67bf 987b 80bf 0000 0000
00000300: c895 34bf 8bc1 15c0 76d1 2cc0 a058 073e
00000310: 145e 4b3e 1547 fabe a2e3 33c0 ce4c 65c0
00000320: 9b22 dcbf 50bc 2abf 7de0 583f 307c 533f
00000330: 5bf8 0840 7d70 5d3f fc92 9c3f 1a59 973e
00000340: 64ec fc3f 276c 833f 74d1 b6be ee28 7840
00000350: 8c02 d63f 54e0 df3e dea3 9d39 0a67 ad3f
00000360: 608a 0ebf 6047 cfbf b6e7 dfbf 480d 9bbf
00000370: 5c7a a63f 7451 8040 2c4a 13c0 c8ef 40c0
00000380: d0e6 423f 50e4 debe 957b d43f 7053 1a40
00000390: 9634 e13e c0f4 af3c 4cd8 5e3f a9e8 c4bf
000003a0: 7ea0 0ebf c679 c63f f586 3c3f eac9 2840
000003b0: b0a2 4f3f 483a 433e e348 80be 799c 81bf
-0.9652657 1.5102167 4.070752 1.3138906 -0.61538744 -0.75155246 -1.284102 -1.9347605
0.4652223 -0.7639984 -0.023412615 0.6502904 -0.1661728 -0.8754556 -1.385849 -0.64188516
1.1020473 2.7553067 -1.1808586 -1.1228179 0.228616 1.0775727 0.06024739 0.17722338
1.4592266 -0.30157125 5.8034344 -1.9584854 -0.1760475 -0.59617615 -0.217933 -1.4674885
-0.74543995 -1.674655 0.90455365 0.42349443 -0.43872756 -2.3604896 0.29533756 0.040700257
0.6905013 0.5823782 -0.10678709 0.152089 -1.3231144 0.63103265 1.5756543 -1.3396922
1.4641542 0.09870303 -1.3765571 -0.25559592 0.38459003 1.1820011 -0.7146016 0.09295449
-0.30364746 -2.4585352 0.0 1.0523682 -3.1994076 0.41782868 -2.7084446 1.2265433
-0.34150946 -2.3920052 3.0273507 0.8260255 -0.30658612 1.1958654 -0.47566998 -1.2857156
-0.5706333 -0.12836057 -2.4813735 0.13528228 -1.1653017 0.91029054 0.36405253 2.257553
0.38725674 0.30455828 1.0630922 -0.52123904 -0.6898804 -1.5185671 -0.49402595 -0.40529656
-0.1984289 -1.7387371 -0.60029453 -1.9085464 -0.4293126 -1.148961 -0.9679856 0.5035081
0.17014311 1.6413573 0.56777906 1.2533895 -2.1421862 -0.8527974 1.8180825 2.0461617
1.035769 -0.43859228 0.0006205839 0.59437144 0.28793943 2.0468895 2.1272914 0.45944083
-0.4954056 -2.7285771 0.72729933 1.0294307 3.3861632 0.10403335 -0.14485899 2.8297706
-0.44105732 1.237931 -1.9745016 1.7387952 -2.0125837 -1.6858547 2.0792286 1.7194835
1.1395855 0.1496108 0.6730633 3.6758497 -0.8652182 -0.8545735 -3.0280266 -0.43575418
-2.3931746 0.082641006 0.5863025 0.56483364 -1.368269 -3.0233986 1.0379815 -0.16139269
-0.41674706 1.9664214 0.7704517 0.5045096 0.4224969 -1.5846882 -0.25674462 -1.6457925
-0.6190132 -0.42393166 1.3433294 0.07809609 1.6346397 0.80385447 -1.4801767 -0.11005157
-1.0365866 0.7209589 -0.81217194 -1.5273244 -0.451698 -2.4155908 -0.811412 0.0
4.1783075 -1.6021242 4.6621757 -0.9623854 0.771039 0.917948 -2.7960708 -2.2971723
-2.4494848 -2.284953 -0.14102462 -2.6407268 1.9937334 0.11783041 0.39006746 1.2953745
0.95453525 3.7656164 -1.8843431 -0.4457426 -0.81886315 -0.9045848 -1.0037718 0.0
-0.7054105 -2.339938 -2.7002845 0.13217402 0.19860107 -0.48882356 -2.8107686 -3.5828128
-1.7198061 -0.6669359 0.8471754 0.8261137 2.1401584 0.8649977 1.2232356 0.29560167
1.9759641 1.026738 -0.35706675 3.8774981 1.6719527 0.43725836 0.00030067464 1.354707
-0.55679893 -1.6193657 -1.7492588 -1.2113428 1.3006091 4.009943 -2.301402 -3.014635
0.7613344 -0.43533564 1.6600214 2.4113426 0.43985432 0.02147901 0.8704879 -1.5383502
-0.5571364 1.5505912 0.7364343 2.6373239 0.81107616 0.19065201 -0.25055608 -1.0125877

square_avg f4 [20]
00000000: fedf 0939 bd72 9b39 16e3 be38 d727 a938
00000010: 5b9e a038 1258 3139 ccd2 8638 12e3 d338
00000020: 6be2 1e39 2f35 aa38 e70c c038 940d a438
00000030: 919b 8938 846f d338 9510 3939 3c63 7c38
00000040: 7999 9538 09b3 1138 fc66 0638 d6cc 3f39
0.00013148782 0.0002964939 9.102204e-05 8.065969e-05 7.6588905e-05 0.00016912844 6.428882e-05 0.00010103559
0.00015152401 8.116138e-05 9.157677e-05 7.8226585e-05 6.5616456e-05 0.000100820354 0.00017649152 6.01739e-05
7.13346e-05 3.4737433e-05 3.2044e-05 0.00018291487

momentum_buffer f4 [20]
00000000: 2684 8dbf 2348 a23f dfea 77bf ce37 e13e
00000010: 6333 b03f e057 483d 586a 553f 1656 79bf
00000020: 645a 11bf d496 f03e 98c3 85bf 27f3 33bf
00000030: d24d 74be 3c98 d5be 3207 6bbf 3284 1a3e
00000040: 40de 4f3d 1493 9cbf 4804 ab3f 3433 54be
-1.1055954 1.2678264 -0.9684276 0.43987888 1.3765682 0.04891193 0.8336539 -0.9739698
-0.5677855 0.46990073 -1.0450315 -0.70292896 -0.23857811 -0.41717708 -0.91807854 0.15089491
0.050749063 -1.2232385 1.3360682 -0.20722657

square_avg f4 [20, 20]
00000000: 4349 6c37 4130 4c38 5eb4 9b36 80fb a737
00000010: fa0e ad37 f87c 9038 d700 5738 4538 1a37
00000020: 7ade 2c37 e336 2f37 998f e838 f26f ba38
00000030: 516a c438 eb09 1e37 6ecc bb38 318e 3538
00000040: bff7 4637 a02d b136 4f21 dd37 04e5 4737
00000050: f5ca 082c 63e5 e32b 8358 252a 0150 242b
00000060: d4f3 162c f29b 7329 710a 2227 e637 1e2a
00000070: 5f91 6a2c 3b5b b32a 2b83 2727 965b c929
00000080: ff22 0028 b89a 1b2d ca72 4829 d065 7f2b
00000090: b01f ae2b f23d 2529 aaed 7a27 e572 412c
000000a0: edc2 a437 a5c6 0839 3c03 7e37 074b 8437
000000b0: 1340 3638 bcbb 6338 e841 3b36 9116 a737
000000c0: a463 8537 7faa 7737 0d6b fd38 44df 9238
000000d0: 289c b938 8c25 0537 181b 9838 eaff 5538
000000e0: 8b96 9d35 9681 fe36 3cdd 5838 41ac 2237
000000f0: 8f69 d832 2c28 5f35 31ab b435 65c7 0a35
00000100: d02b ea35 5e01 a337 1902 a933 8f77 6135
00000110: caa6 e936 157f 7b33 fb95 aa37 1c53 2f37
00000120: 1d2c 7833 3245 1a37 1e93 f037 251c c437
00000130: 20f2 7631 7178 1c37 2c48 b233 d468 c834
00000140: 0387 dd37 020a 7538 cd0f ce37 ebbd e737
00000150: a40e f838 8835 1639 59eb dc38 f5cf 1c38
00000160: 3ffc 2438 6d7d 9a37 c9bf 3039 a0a6 2539
00000170: 0e02 0c39 619f 8d37 b141 7039 0023 f038
00000180: 5ee7 2b38 0202 4b38 ae74 a938 8d54 1b38
00000190: 7eb5 1c35 9588 f638 473a 9d37 7ef9 7e36
000001a0: b26b 0d36 8e66 e439 13d7 1738 1bf3 7d38
000001b0: 2575 4738 75a4 9537 9c10 243a a7a4 4e39
000001c0: d3a2 ad36 3cc4 ab38 4503 9d39 6f9e 9a39
000001d0: 33bc 2137 56b3 0b38 ac83 0137 d0de 3537
000001e0: 8635 c837 1eef 1239 6aa3 db38 5b28 9e37
000001f0: 1043 5338 ee1b a837 671c 9d39 5b61 0639
00000200: 2dbc 1c37 903a 6936 ffcf f435 dfaa b636
00000210: dc23 af36 1dfd be37 2641 7d37 b6c7 6335
00000220: 6962 3039 deab 0739 a95e 4739 d4e2 4439
00000230: 0000 0000 a9d9 4529 0000 0000 2db5 4327
00000240: 0000 0000 3783 cc29 a56f 9229 58c6 632b
00000250: 0000 0000 8d4c 0b2a d0c7 0229 1848 272c
00000260: b1e8 8a29 4e22 302d b4a1 382b 93eb 472b
00000270: 3e22 182a 9359 2728 0157 aa24 0a10 d227
00000280: 8fb0 9235 e8d3 9338 ac0a 4837 d594 d237
00000290: c9a2 0037 f076 5d37 7c72 0f38 9852 ec36
000002a0: 747c 3b37 7535 5437 bfb9 3c38 d190 0138
000002b0: 8d83 8438 3a7d 5d36 7139 e436 bf37 2236
000002c0: 07b7 a235 91dc 0837 4950 4738 266f 3d35
000002d0: 482b 0e30 7377 b72d e0dc b02d 5673 192d
000002e0: de98 ac2e 6663 a529 f109 5f2a f98d bd2e
000002f0: cc8e 102e e23d 852b 909a 852c 0375 6c2c
00000300: 2b74 ad29 4645 0c2a 0a34 dc2c 7170 c32b
00000310: fea1 1f2f 9634 a02f 9dbf 3f2d f6b3 cf2f
00000320: 432e fb34 5c63 1137 44a1 fd35 6957 f835
00000330: b888 1937 59df 6039 f6c9 3338 8b8c 9d37
00000340: 61c1 d236 267a cf35 796e 6039 fc67 0039
00000350: 75db 1b36 48db 9838 a96a 8239 3584 6b39
00000360: 492c 9231 444e 6d34 c4be b236 b6fe 8a35
00000370: 5c60 8437 1cbd ea38 b494 0f38 0edc 9d38
00000380: 29d9 5a38 33e0 1b39 7e7c 4f39 2b6c 7138
00000390: 0fab 9837 29ab 1638 be7a 7d39 17e8 3c39
000003a0: 2b23 5f39 0e2c 3138 adf5 0739 4857 c538
000003b0: 5b99 0135 b82f a236 718c 0b39 af92 a036
000003c0: 9300 7037 7a81 a039 6d15 a937 8645 0b39
000003d0: acc2 9637 7416 3039 ce16 b539 5bee a637
000003e0: 9ea6 3238 be70 4038 0159 a539 f127 5439
000003f0: 226d 0a39 f9b5 d735 3bee 9d38 8ac2 7b37
1.4083754e-05 4.868233e-05 4.6403575e-06 2.0025065e-05 2.0630181e-05 6.889732e-05 5.1260777e-05 9.192217e-06
1.0303798e-05 1.0443592e-05 0.00011089369 8.8900226e-05 9.365811e-05 9.419843e-06 8.954933e-05 4.328619e-05
1.1859403e-05 5.2803225e-06 2.6360764e-05 1.1914646e-05 1.9439426e-12 1.6192988e-12 1.4685653e-13 5.837553e-13
2.1451634e-12 5.40921e-14 2.2487677e-15 1.4052613e-13 3.3334097e-12 3.186009e-13 2.3247012e-15 8.942081e-14
7.113016e-15 8.845084e-12 4.4508485e-14 9.073549e-13 1.2372239e-12 3.669109e-14 3.4823307e-15 2.7490729e-12
1.9641093e-05 0.00013043972 1.5140333e-05 1.5770564e-05 4.3451855e-05 5.429586e-05 2.7903534e-06 1.991846e-05
1.5901234e-05 1.4762044e-05 0.0001208392 7.003409e-05 8.850574e-05 7.93616e-06 7.2529714e-05 5.1021496e-05
1.1741225e-06 7.5848757e-06 5.1704454e-05 9.696058e-06 2.5193712e-08 8.313243e-07 1.3460868e-06 5.1699163e-07
1.744711e-06 1.943175e-05 7.870057e-08 8.399301e-07 6.963358e-06 5.8556072e-08 2.033542e-05 1.0450163e-05
5.778212e-08 9.195226e-06 2.8678736e-05 2.3378127e-05 3.5935344e-09 9.326367e-06 8.301899e-08 3.7329175e-07
2.6408123e-05 5.8421872e-05 2.4564471e-05 2.7625783e-05 0.000118282886 0.00014325057 0.000105342544 3.7386973e-05
3.933557e-05 1.8416637e-05 0.00016856114 0.00015797699 0.00013352206 1.6882726e-05 0.00022912656 0.00011450611
4.0985055e-05 4.840084e-05 8.080281e-05 3.7033624e-05 5.8378635e-07 0.000117556345 1.8742996e-05 3.7994173e-06
2.1073324e-06 0.00043563958 3.620151e-05 6.054631e-05 4.7554397e-05 1.7838765e-05 0.00062585785 0.00019707029
5.174757e-06 8.190467e-05 0.0002994781 0.0002949121 9.640166e-06 3.3307202e-05 7.719656e-06 1.0840318e-05
2.3866782e-05 0.00014012723 0.00010473172 1.885386e-05 5.0368777e-05 2.0040166e-05 0.00029966535 0.00012815504
9.342138e-06 3.4753793e-06 1.8239951e-06 5.4439147e-06 5.219581e-06 2.276763e-05 1.5095144e-05 8.485471e-07
0.00016821329 0.00012938629 0.00019013383 0.00018776517 0.0 4.3931577e-14 0.0 2.7159902e-15
0.0 9.082182e-14 6.50307e-14 8.092186e-13 0.0 1.2372239e-13 2.903911e-14 2.3772147e-12
6.1687966e-14 1.0012059e-11 6.559434e-13 7.1025927e-13 1.3512192e-13 9.2897856e-15 7.387314e-17 5.83041e-15
1.0929233e-06 7.048977e-05 1.1923414e-05 2.5103256e-05 7.667296e-06 1.3200319e-05 3.420048e-05 7.0429633e-06
1.1175045e-05 1.2648631e-05 4.4995682e-05 3.0890867e-05 6.318754e-05 3.3004458e-06 6.8016166e-06 2.417233e-06
1.2123209e-06 8.157586e-06 4.752007e-05 7.056973e-07 5.1720805e-10 2.0857737e-11 2.0106972e-11 8.722653e-12
7.848809e-11 7.344715e-14 1.9809828e-13 8.619944e-11 3.286864e-11 9.467394e-13 3.7972472e-12 3.3602572e-12
7.702895e-14 1.2458532e-13 6.2585536e-12 1.3886792e-12 1.4518517e-10 2.9141195e-10 1.089964e-11 3.778095e-10
4.6786053e-07 8.665807e-06 1.8896903e-06 1.850288e-06 9.151343e-06 0.00021445508 4.2865016e-05 1.8781304e-05
6.281e-06 1.5458252e-06 0.00021403459 0.00012245768 2.322454e-06 7.288769e-05 0.00024875 0.00022460597
4.254194e-09 2.2100818e-07 5.3270214e-06 1.0355932e-06 1.5780497e-05 0.00011193214 3.4232347e-05 7.527332e-05
5.2177496e-05 0.00014865473 0.00019787435 5.7559617e-05 1.8199467e-05 3.5922192e-05 0.00024173685 0.00018015537
0.00021280038 4.2241118e-05 0.00012966125 9.4099494e-05 4.8279406e-07 4.8335314e-06 0.00013308391 4.785448e-06
1.4305248e-05 0.00030614046 2.0156347e-05 0.00013281972 1.7972045e-05 0.00016793032 0.0003454 1.9899735e-05
4.259368e-05 4.5881367e-05 0.00031537566 0.00020232775 0.0001320136 1.6071709e-06 7.530717e-05 1.50060605e-05

momentum_buffer f4 [20, 20]
00000000: 005b 11bd 76a0 473f cea3 b83f ee13 6f3f
00000010: b0db 93bf d2f6 31c0 751d f9bf fedc babf
00000020: a6c0 0640 1e84 0bbf 4a67 f1bf 42f5 b9bf
00000030: 3b52 babf 7a30 b4bf ed73 c6bf 6a37 00c0
00000040: 41c9 463f 861f aa3f 29a0 8b3f aabf f63e
00000050: 6284 d938 1c6d 5639 372c 3539 06ad e038
00000060: 9a3b 9538 2b69 3339 bb96 af38 365d a938
00000070: 66e9 8a39 6ef6 8739 9ce6 af38 ab18 cf38
00000080: 0f47 b838 c9b8 ae38 3c85 abb8 60d4 3639
00000090: 2be5 1839 576c 8039 4362 b338 078d 7339
000000a0: 48e3 3140 9123 c63f 46a3 71be f806 1240
000000b0: 00ba 4fbe 1d9b e23f 7685 0b3f f850 663f
000000c0: 2cfb 153f 08bb 2f3e 228d 2740 ccd2 2640
000000d0: 4473 8a3f 29a1 343f 80ac 4a3f 003e 7f3d
000000e0: cf7c 8fbe 1a78 13c0 1222 7c3f a451 b9be
000000f0: 2ded 773e 103a 36bf 8169 4440 7ea5 19c0
00000100: fd37 5d3f 30ec 87be 5e67 ba40 f6fd 18bf
00000110: f8d9 46bf 5967 b940 6869 0cbf 581e 8f3e
00000120: ae04 433f 64a1 e4be aacb 6fbf ec33 21bf
00000130: fe8c 7cbf e580 0640 1900 aec0 cd5f 2e40
00000140: 3135 c83f 34d0 7dbe 5ada 5bbf ea64 a53f
00000150: 5c1b e13f 0af0 b53f 69d8 a93f a4f0 4b3e
00000160: 6a96 ac3e 64bc ba3d 3021 6e3f a041 ad3f
00000170: 5284 553f 0088 453f ca36 d83f 90c4 ab3f
00000180: 0a37 1dbf 4acf 603e 00f3 363e 0a61 f63e
00000190: 456b 3a3e c7f7 f6bf 5ceb 9f3e 246c 99bd
000001a0: 7048 d83d 82c9 89bf 540e 96bf 002c d3bf
000001b0: c00f 01c0 178c 3dc0 9c8b b9bf 8c14 34bf
000001c0: b027 31bf aa25 57bf b49f 53bf e843 11bf
000001d0: ae9e 023e 2082 c9bd d842 2740 0695 69bf
000001e0: eddf 173e 4c6d 76be c633 573f 5c97 72bd
000001f0: 7415 383f 0ad8 273f 4690 a63f 1bb1 003f
00000200: 5c2b 2a40 0446 91bf a24a 933f 17f2 ef3f
00000210: 4361 7bbf 08d5 6d3f 7df8 a73f 4364 1d40
00000220: c450 12bf 802a 433c d351 aabe 4038 4a3e
00000230: 0000 0000 79db b1b8 0000 0000 1a4f b138
00000240: 0000 0000 101e c138 1877 c0b8 a68a c338
00000250: 0000 0000 6ba2 c138 d563 be38 63eb e338
00000260: c1c8 fe38 356e c438 a167 c338 4f75 c338
00000270: fc92 4439 c6c0 b938 d33a 6cb8 e786 f4b7
00000280: af0a 2740 7a8b 3d3e 048a d13c 67b4 043f
00000290: 01ab 00bf 950a 903f 244c c53f 45de c23f
000002a0: a478 46bf 6d68 7a3f 68a4 0dbf c76c 2bbf
000002b0: a8a1 7f3f e5b0 653f 7c21 cdbf 1ce5 a7be
000002c0: b769 f63e 00da 783f cae7 a13f 8288 8d3e
000002d0: 5fa5 ff38 9d37 1b39 f588 c438 7a8b 2839
000002e0: 2201 1639 0ab7 c038 7649 c2b8 d26f db38
000002f0: 7683 f638 86a2 c338 a635 c438 5d2c c438
00000300: a76b 0c39 f8a2 6337 1857 0539 f2fd d938
00000310: aeb2 0839 1f20 eb38 0272 c438 c757 0339
00000320: d2c9 bf3f 7d6f 2dc0 91fe 0c40 451e 1ec0
00000330: 0d51 7340 fe50 da3e dcf3 613f 1256 6a40
00000340: dcda 873f f210 9ebf 9038 b53d a0c1 e03c
00000350: 261a 8a3f 4218 b23f a898 a03f 9c5a 743f
00000360: 2569 163a a070 6040 63cc 3dc0 bbf6 01bf
00000370: 1b2d adbf 5221 813f f0a0 d53f 5d6f d3be
00000380: b592 9e3f 6213 16bf a44b 0fbf aea7 7c3f
00000390: 2d5d 3340 c7fe 2dbf 2ccc df3d 40da 213e
000003a0: 86f8 51bf 829c 583f 9927 853f a957 ab3e
000003b0: 4d3a 52bf 1501 1240 b030 3e3e feec e93e
000003c0: 2f55 e63f 5037 95bf 41f8 8dbf c2d3 a83e
000003d0: de13 c63e 233f eb3f ca73 9a3f 9ef5 cb3e
000003e0: f2a8 f9bf cec4 b4bd c688 a9bd 2018 753d
000003f0: c23d df3f 1ff0 1dbf 4f8f 1d3f 5320 4e40
-0.035487175 0.7797922 1.4424989 0.93389785 -1.1551418 -2.7806897 -1.9462115 -1.4598691
2.1055083 -0.5449847 -1.8859646 -1.4527972 -1.4556345 -1.4077294 -1.5504128 -2.0033822
0.7765084 1.329087 1.0908252 0.48193103 0.000103720246 0.00020449277 0.00017277976 0.000107133805
7.115975e-05 0.00017109948 8.372726e-05 8.07591e-05 0.00026495307 0.0002593281 8.3876046e-05 9.875124e-05
8.7870394e-05 8.3313855e-05 -8.178732e-05 0.00017435988 0.00014581221 0.00024494782 8.553688e-05 0.00023226823
2.7794971 1.5479604 -0.2359744 2.2816753 -0.20285797 1.7703587 0.5450052 0.899673
0.5858638 0.1716119 2.617989 2.606616 1.0816426 0.7055841 0.79169464 0.062314987
-0.2802491 -2.3042054 0.9848949 -0.361951 0.24211569 -0.71182346 3.0689394 -2.4007258
0.86413556 -0.26547384 5.825118 -0.59762514 -0.77676344 5.7938657 -0.5484834 0.27952838
0.76179016 -0.4465438 -0.9367014 -0.6296985 -0.98652637 2.101617 -5.437512 2.7245972
1.5641233 -0.24786454 -0.85880053 1.2921422 1.7586474 1.4213879 1.3269168 0.19916016
0.33708507 0.09117964 0.9301939 1.3535652 0.8340503 0.77160645 1.689172 1.3419361
-0.6141211 0.21954075 0.17866135 0.4812091 0.18204983 -1.9294366 0.31234252 -0.07491329
0.10560691 -1.076462 -1.1723123 -1.6497803 -2.0165863 -2.9616754 -1.449573 -0.7034385
-0.69201183 -0.84041846 -0.8266556 -0.5674424 0.12755844 -0.098392725 2.6134548 -0.91243017
0.14831515 -0.24065131 0.84063375 -0.05922638 0.71907735 0.65564024 1.3012779 0.5027024
2.6588964 -1.1349492 1.1507151 1.8745755 -0.98195285 0.92903185 1.3122708 2.4592445
-0.5715449 0.011911988 -0.33265552 0.1974802 0.0 -8.480898e-05 0.0 8.4547515e-05
0.0 9.208557e-05 -9.1774564e-05 9.32415e-05 0.0 9.23321e-05 9.078501e-05 0.00010868048
0.00012149057 9.366536e-05 9.317627e-05 9.320175e-05 0.00018746773 8.857394e-05 -5.632157e-05 -2.9149885e-05
2.610027 0.18510237 0.025578506 0.5183777 -0.5026093 1.1253229 1.5413861 1.5224081
-0.77527833 0.9781559 -0.5532899 -0.66962856 0.9985604 0.89723045 -1.6025844 -0.32791984
0.4812753 0.9720764 1.2648861 0.2764321 0.0001219015 0.0001480267 9.3715185e-05 0.00016073688
0.00014305537 9.189367e-05 -9.264324e-05 0.00010463562 0.000117546806 9.328597e-05 9.356001e-05 9.3542716e-05
0.00013391544 1.35681985e-05 0.00012716313 0.00010394667 0.00013036534 0.00011211656 9.367244e-05 0.00012525833
1.4983466 -2.7099297 2.2030375 -2.4705975 3.801822 0.42639917 0.88262725 3.6615033
1.0613666 -1.2348921 0.08848679 0.027436078 1.078923 1.3913653 1.2546587 0.9545076
0.00057377137 3.506874 -2.9655998 -0.50767106 -1.352939 1.0088294 1.6689739 -0.412959
1.2388521 -0.58623326 -0.55974793 0.9869336 2.802562 -0.67966884 0.109276146 0.15805912
-0.8201984 0.8461381 1.0402709 0.33465317 -0.8212021 2.281316 0.1857326 0.45688623
1.7994746 -1.1657505 -1.1091386 0.32974058 0.38687032 1.8378643 1.2066586 0.3983583
-1.9504683 -0.088266 -0.082780406 0.05983746 1.7440722 -0.6169452 0.61546797 3.220723

square_avg f4 [20]
00000000: 8c56 d337 1b66 d42c 3fed 2a38 283a 9236
00000010: 8026 9038 ff9a ad38 91c2 e738 901a 8e2c
00000020: 8620 7c37 c7f5 2930 02f0 3038 0a37 2a38
00000030: add5 d238 f3e4 cf2d 75f0 1038 8736 8133
00000040: c910 d637 2404 9038 f5d0 f538 71ba f137
2.5193462e-05 6.0367384e-12 4.075211e-05 4.3579093e-06 6.873626e-05 8.278153e-05 0.00011051179 4.0388318e-12
1.5027943e-05 6.183111e-10 4.2185195e-05 4.0582418e-05 0.000100533805 2.363485e-11 3.455622e-05 6.016949e-08
2.5518604e-05 6.867226e-05 0.00011721432 2.8816257e-05

momentum_buffer f4 [20]
00000000: e6f0 dcbe ebc0 8339 4d80 b83f 02d7 26bf
00000010: f467 733f a462 b4bf ce77 3f3f 8cf6 d538
00000020: 8ee1 463e ef6f f538 ce83 a53f 6d67 b43f
00000030: 4e45 113e 880e cf38 4f8f fb3f 8907 253a
00000040: e8bb 013f 6757 65bf acb9 883f 63ba 793f
-0.4315254 0.00025130002 1.4414154 -0.65171826 0.95080495 -1.4092603 0.7479218 0.000102025544
0.1942198 0.000117033596 1.2930849 1.4094063 0.14186594 9.873236e-05 1.9653109 0.00062953733
0.5067735 -0.8958649 1.0681663 0.9755003

square_avg f4 [20, 20]
00000000: c46f 3d35 3a88 9529 4d2c 1b38 9551 de31
00000010: cc5e 3e34 d169 2b33 885b 1233 b945 092c
00000020: 39b1 ad32 d8e6 092d aefe 4632 b04d 6e34
00000030: 43c8 5b33 bfda 8b26 1660 9233 03f8 d22f
00000040: 779e 0f30 6025 3133 9171 d135 1416 3e38
00000050: 9c7f 3a38 4bc9 f829 8b55 2236 99ae b833
00000060: 8606 e537 a4b9 3835 3f2e 1e35 47d1 812c
00000070: 5620 1f37 e438 602d b837 f434 5bf2 8837
00000080: f003 8a37 e476 8a27 02d3 1036 95d9 4233
00000090: 9fec 4c35 c014 8334 bcae 0a36 87cc ea36
000000a0: 8607 6d2a 3c5f 9227 355b 8d2a 19b1 1b2c
000000b0: bd80 c22d 14bc d82d 9885 102b 94ac c229
000000c0: e5bc 192b 9a7c c02b 5da1 192a db70 132a
000000d0: 6fd0 6927 14e3 8826 6bcf 0a2b 7eb3 262c
000000e0: f3f1 3f27 2850 752d 37f7 ab2c c4df 1c2e
000000f0: 0000 0000 0000 0000 0000 0000 0000 0000
00000100: 0000 0000 0000 0000 0000 0000 0000 0000
00000110: 0000 0000 0000 0000 0000 0000 0000 0000
00000120: 0000 0000 0000 0000 0000 0000 0000 0000
00000130: 0000 0000 0000 0000 0000 0000 0000 0000
00000140: 7681 ae38 bc6b 0829 8a04 2a36 7822 2935
00000150: af2d 4338 ba33 3336 5a4a 0136 193e 452a
00000160: 0108 ad37 0233 6429 9669 0a37 101c f237
00000170: 000a a737 0994 b725 f35f 0437 1248 f233
00000180: 0aca bc35 144a a636 cd19 9c36 46e9 0738
00000190: e1b2 7d2d 22e2 e923 8cc7 142c e4ed 652c
000001a0: 6099 0e2b 32a5 2d2d 11ae a225 0000 0000
000001b0: 18dd 192c 0000 0000 d046 ba29 5b01 782d
000001c0: 0a12 472d 0000 0000 416e bd2d 7d8b ed2b
000001d0: 6126 2f29 a7b7 112c d2d2 8e2a a93c 3f2d
000001e0: 02a7 ae38 271b 8029 4211 5a37 b4e6 4c35
000001f0: 200f 1438 4985 3536 1fd4 e035 6e04 ec25
00000200: e81a ac37 4701 0f24 8aa3 f536 1a4a 0638
00000210: 50fd ed37 ce19 4322 9c4f e736 3b9c 1934
00000220: a6ff a735 fc25 c436 897e ca36 e214 e938
00000230: 2452 7a38 74b6 9127 fe97 de35 bd30 3933
00000240: b7cd 3f37 df84 ed34 342b be34 cb6b 2427
00000250: 837d 3837 7cb6 442a b9d0 9334 5851 ab37
00000260: 947e 8437 0318 0624 a726 7c35 e0e3 fe32
00000270: ca27 bf34 8b2e 0434 4fa9 5036 1cae 3c36
00000280: 93df ae2c 0000 0000 2a79 252b a6d3 c02b
00000290: 47f8 512c c945 032a 0000 0000 0000 0000
000002a0: 0000 0000 0000 0000 bbdd 3c2d bb39 282b
000002b0: 0000 0000 0000 0000 0000 0000 0000 0000
000002c0: 0000 0000 8825 122c 0000 0000 0000 0000
000002d0: c232 9235 184e ac27 1a04 d439 d1c0 d030
000002e0: 4f52 3236 d183 0d33 580d 1b35 0000 0000
000002f0: ad8a 8734 dd7e cb29 59d2 2833 b495 db34
00000300: bb5b 8a34 32e6 4326 a43d 9e35 3296 0932
00000310: 610b ee31 7235 b834 cfa7 a537 a1d2 033a
00000320: 4cab 2b38 f9fd 5429 da58 4638 75f0 7834
00000330: 5e17 2c37 7f95 2e35 cabc 4235 d521 cc25
00000340: da82 7436 766e 9929 2ff6 8f35 192f 1437
00000350: 3dc1 f736 1762 e725 833f 0536 7c8a 8133
00000360: c891 9f34 c4fc df35 6a94 8b37 4415 7f39
00000370: b53e e738 0000 0000 1fc0 d338 9c09 6b35
00000380: dbfa 3238 1397 5d36 1c71 f835 0000 0000
00000390: 5900 d537 0000 0000 8f33 5737 4730 3338
000003a0: eb4b 2c38 0000 0000 21e3 d236 0000 0000
000003b0: 3e09 dd35 3e9d 2837 de1e b637 85c0 7039
000003c0: 3e5f fc38 1028 b429 da24 3b38 2e45 5a35
000003d0: 929c 2d38 1495 4736 c69f ed35 a91c 0129
000003e0: f3f1 a337 5b24 c32a 63d5 e936 5d24 2a38
000003f0: 8ff4 4b38 51e8 0526 ed13 e936 9f33 1834
7.0570627e-07 6.640561e-14 3.6996138e-05 6.470325e-09 1.7729616e-07 3.991028e-08 3.407652e-08 1.9507575e-12
2.0220442e-08 7.838806e-12 1.1583024e-08 2.219374e-07 5.1172048e-08 9.704354e-16 6.816133e-08 3.8375e-10
5.224829e-10 4.1245016e-08 1.5604766e-06 4.5320092e-05 4.44647e-05 1.1048331e-13 2.4189674e-06 8.599927e-08
2.7301965e-05 6.8815484e-07 5.8926884e-07 3.689635e-12 9.484667e-06 1.2745558e-11 4.5489082e-07 1.6325319e-05
1.6452715e-05 3.8431596e-15 2.1580495e-06 4.5367035e-08 7.634025e-07 2.441575e-07 2.0665311e-06 6.9975536e-06
2.1052439e-13 4.0626394e-15 2.510992e-13 2.2125134e-12 2.2112418e-11 2.463988e-11 5.1344476e-13 8.645268e-14
5.4618663e-13 1.3677004e-12 1.3645114e-13 1.3095377e-13 3.2448238e-15 9.498445e-16 4.93153e-13 2.3689657e-12
2.6637736e-15 1.3944436e-11 4.8875587e-12 3.5669037e-11 0.0 0.0 0.0 0.0
0.0 0.0 0.0 0.0 0.0 0.0 0.0 0.0
0.0 0.0 0.0 0.0 0.0 0.0 0.0 0.0
8.3210805e-05 3.029151e-14 2.5334616e-06 6.3007565e-07 4.653417e-05 2.6703187e-06 1.9265776e-06 1.7518659e-13
2.0626934e-05 5.0670412e-14 8.250025e-06 2.8861716e-05 1.9912608e-05 3.1845752e-16 7.890153e-06 1.1282113e-07
1.4065893e-06 4.9558093e-06 4.652166e-06 3.240376e-05 1.4421104e-11 2.5357682e-17 2.1142836e-12 3.2674913e-12
5.0661385e-13 9.870592e-12 2.8220472e-16 0.0 2.186534e-12 0.0 8.272343e-14 1.4097469e-11
1.1315846e-11 0.0 2.1535775e-11 1.6878579e-12 3.8891094e-14 2.0707687e-12 2.5370553e-13 1.0870562e-11
8.328074e-05 5.689052e-14 1.2997831e-05 7.633164e-07 3.5300036e-05 2.7048684e-06 1.6751036e-06 4.0942476e-16
2.0516527e-05 3.1009264e-17 7.3206074e-06 3.2017102e-05 2.837056e-05 2.6441089e-18 6.893604e-06 1.4306072e-07
1.2516873e-06 5.845677e-06 6.0347998e-06 0.000111141955 5.9681144e-05 4.04434e-15 1.6584524e-06 4.3117996e-08
1.1432384e-05 4.4241366e-07 3.5421692e-07 2.2818007e-15 1.0996478e-05 1.7471609e-13 2.753275e-07 2.0422667e-05
1.5794569e-05 2.9076957e-17 9.393356e-07 2.9673117e-08 3.5605473e-07 1.231039e-07 3.1092966e-06 2.8115528e-06
4.970199e-12 0.0 5.8787925e-13 1.3701165e-12 2.9838508e-12 1.1659349e-13 0.0 0.0
0.0 0.0 1.0735797e-11 5.9765707e-13 0.0 0.0 0.0 0.0
0.0 2.0768682e-12 0.0 0.0 1.089262e-06 4.782426e-15 0.00040438847 1.5188794e-09
2.6571977e-06 3.2949007e-08 5.776142e-07 0.0 2.524661e-07 9.037018e-14 3.9306858e-08 4.0900852e-07
2.5771246e-07 6.796619e-16 1.1789857e-06 8.0086e-09 6.9280053e-09 3.4311557e-07 1.9747675e-05 0.00050286396
4.092911e-05 4.7293742e-14 4.7289628e-05 2.3184278e-07 1.02574395e-05 6.5037597e-07 7.2545356e-07 3.5411284e-16
3.6435e-06 6.813727e-14 1.0725979e-06 8.832453e-06 7.3836695e-06 4.013858e-16 1.9855513e-06 6.032221e-08
2.9722128e-07 1.6688359e-06 1.6639202e-05 0.00024326617 0.000110266184 0.0 0.000100970494 8.7558305e-07
4.2672134e-05 3.3019503e-06 1.8510359e-06 0.0 2.539174e-05 0.0 1.2827003e-05 4.2721887e-05
4.10787e-05 0.0 6.284929e-06 0.0 1.6468473e-06 1.0050191e-05 2.1710464e-05 0.00022959903
0.000120340366 8.0005555e-14 4.4618595e-05 8.1312e-07 4.139223e-05 2.9740086e-06 1.7704376e-06 2.8668613e-14
1.954378e-05 3.4664185e-13 6.9687826e-06 4.0565024e-05 4.8626734e-05 4.645849e-16 6.946261e-06 1.4174883e-07

momentum_buffer f4 [20, 20]
00000000: 9892 90be ee45 0a39 2416 d23e d618 543e
00000010: a09c b8bf c781 343a 0e0e eebe bebb c738
00000020: 91c7 18c0 2119 ea38 e2d1 6fc0 d86f 063d
00000030: 4046 98bd 44b2 67b8 80a6 433d 559b 17b9
00000040: 0e2f 90c0 4abd a43f 28fb 06c0 ecd6 87bf
00000050: 29b9 1bbf c241 04b9 b5a7 8bc0 296d 353f
00000060: 4b21 073f f1d6 1ec0 b8e8 8abd f007 c8b8
00000070: 2223 0c3f 3800 00b9 6c45 5e3f 0896 b4be
00000080: 931d efbf 8d1e 7d38 a009 783e f34b e639
00000090: 5329 6f3f 4236 af3f 6799 313f 69f9 08c0
000000a0: 6c5c c238 6e91 b438 e15c b8b8 6470 c238
000000b0: 6c34 da38 47a4 d138 c878 dd38 1707 c138
000000c0: f245 c338 c48a cd38 0b7d c338 a8b8 c138
000000d0: b1d0 b238 8cf5 a5b8 1d1f e938 27fe d738
000000e0: 5623 b138 59c3 d038 c8b4 db38 16a2 d838
000000f0: 0000 0000 0000 0000 0000 0000 0000 0000
00000100: 0000 0000 0000 0000 0000 0000 0000 0000
00000110: 0000 0000 0000 0000 0000 0000 0000 0000
00000120: 0000 0000 0000 0000 0000 0000 0000 0000
00000130: 0000 0000 0000 0000 0000 0000 0000 0000
00000140: c2c5 393e 1c2e cab8 4e49 f63f fe99 96be
00000150: 66b1 90be eda6 edbf 0035 803e d08f c738
00000160: 1123 4f3f 05a7 abb8 0cbd 0bbf 7189 ca3e
00000170: 44a1 913e aaea 9438 bbb5 2b40 6126 c439
00000180: c119 5a3f 8722 03bf 003c b5bf 18ef a23e
00000190: 8241 ca38 9b34 abb8 50dc ad38 bf0e 9a39
000001a0: 2b8b c439 781f 4939 f87d d238 0000 0000
000001b0: 4d95 4739 0000 0000 559a bd39 6554 8f38
000001c0: 6485 2339 0000 0000 fc39 0339 64fd 22b9
000001d0: 68e7 4b39 6228 9c39 dcd5 d739 974f 6439
000001e0: e0e6 ffbd 7f85 33b9 4f2b 57bf 42b5 3c3f
000001f0: 7c42 b43d d42c dbbf c8f0 003f c719 4038
00000200: 40d0 d83e d010 42b8 0a16 6bbf 9e61 143e
00000210: 8045 a3bd 86b2 05b8 2440 ec3f 40df 3e39
00000220: 080e 493f a3a2 88bf e4b0 f33e 20f5 a3bd
00000230: 52d9 bdbe ae29 63b9 cd31 f5bf a8db 383e
00000240: f84d 82be 46fa 51c0 80c9 91be 00fb bbb8
00000250: a8b1 de3e 6414 02b9 9879 ff3e ba69 8b3e
00000260: 6bcd 05bf 47be b237 60f8 3abd dd7c 2d3a
00000270: 5072 453e b0e9 ba3f 3515 06bf 8a31 0540
00000280: e082 e839 0000 0000 d1e1 c639 a012 dd39
00000290: a22f ee39 4f58 af39 0000 0000 0000 0000
000002a0: 0000 0000 0000 0000 ae0a ed39 f433 c739
000002b0: 0000 0000 0000 0000 0000 0000 0000 0000
000002c0: 0000 0000 d052 ea39 0000 0000 0000 0000
000002d0: db2f babe 7abc 6eb9 e723 90bf a4b3 1040
000002e0: 30d9 5940 0a5d 64bf 3ee5 f63e 0000 0000
000002f0: 9b39 a73f b0e8 3ab9 a434 c240 a251 0d40
00000300: 5b21 74c0 872b 8738 a4d4 99be 2d1d 573a
00000310: 34b7 8440 c2f0 1fc0 2206 d33f 97e4 2c3f
00000320: d823 283e 9d60 c8b8 dc77 923f 7c2b 583f
00000330: b2fa ba3e b466 c2bf 9759 1f3f 5368 b338
00000340: 306b 843d bc9a 8238 e084 12bf 98e6 88be
00000350: 5254 6e3e 0033 8c38 02f8 fc3f 9d38 003a
00000360: 462a 5a3f 04a4 b5bf 9ce8 5c3f 9482 dc3f
00000370: cecb dcbe 0000 0000 fe3f c5bf b0eb 0dbf
00000380: 60cb 803e 6428 e73f 3220 f83d 0000 0000
00000390: 001b 203c 0000 0000 1ebe 1b3f 4732 b2be
000003a0: 48c1 c2be 0000 0000 2d4f e1bf 0000 0000
000003b0: 718f 27bf 56a6 ac3f 4b1a 01bf 1d0f 1fc0
000003c0: 6ff3 bfbd 8769 82b9 ce1c 46bf 7d9e 0d40
000003d0: 6502 0c3f 4f46 e0bf 1c25 473e 0b36 ddb8
000003e0: 16f2 953e 16e4 c2b8 2a89 d5be e25b b13e
000003f0: 69da 94bf 0028 0e38 0edd c43f 01a9 9539
-0.28236842 0.00013186756 0.41032517 0.20712599 -1.4422798 0.00068857934 -0.46495098 9.524029e-05
-2.3871806 0.0001116267 -3.7471852 0.032821506 -0.07435274 -5.5240715e-05 0.04776621 -0.00014458348
-4.505744 1.2870266 -2.1090794 -1.0612464 -0.60829407 -0.00012612998 -4.364222 0.7086969
0.52785176 -2.481869 -0.06782669 -9.538222e-05 0.5474111 -0.00012207113 0.8682468 -0.35270715
-1.86809 6.0348353e-05 0.24222422 0.00043925605 0.9342243 1.3688433 0.693747 -2.1402228
9.267856e-05 8.610157e-05 -8.791104e-05 9.271575e-05 0.000104048144 9.996496e-05 0.000105605985 9.204278e-05
9.311353e-05 9.801009e-05 9.321616e-05 9.237352e-05 8.526573e-05 -7.91355e-05 0.00011116101 0.000102993385
8.4465995e-05 9.954599e-05 0.00010476407 0.000103298735 0.0 0.0 0.0 0.0
0.0 0.0 0.0 0.0 0.0 0.0 0.0 0.0
0.0 0.0 0.0 0.0 0.0 0.0 0.0 0.0
0.18141845 -9.640699e-05 1.9241121 -0.29414362 -0.28260344 -1.8566567 0.25040436 9.5158466e-05
0.8091288 -8.185025e-05 -0.5458534 0.39557984 0.28443348 7.1008995e-05 2.682967 0.00037412628
0.8519555 -0.5122456 -1.4158936 0.3182304 9.6443124e-05 -8.163714e-05 8.290319e-05 0.00029384156
0.0003748772 0.00019180577 0.00010037044 0.0 0.00019033738 0.0 0.00036163875 6.834491e-05
0.00015594583 0.0 0.00012514734 -0.0001554392 0.00019445794 0.00029784726 0.00041167333 0.00021773424
-0.12495208 -0.00017120501 -0.8405046 0.7371408 0.088017434 -1.7123055 0.50367403 4.5800374e-05
0.42346382 -4.6268862e-05 -0.91830504 0.14490363 -0.079722404 -3.1875934e-05 1.8457074 0.00018202979
0.78537035 -1.0674633 0.47595894 -0.08005738 -0.37079865 -0.00021663934 -1.9155823 0.18052542
-0.2545011 -3.2809005 -0.28474045 -8.963607e-05 0.43494916 -0.00012405362 0.49897456 0.272291
-0.5226657 2.1307858e-05 -0.045647025 0.00066180323 0.19281888 1.4602566 -0.5237611 2.0811486
0.00044347998 0.0 0.0003793375 0.00042166281 0.00045430387 0.00033444396 0.0 0.0
0.0 0.0 0.0004521212 0.00037994946 0.0 0.0 0.0 0.0
0.0 0.00044693658 0.0 0.0 -0.36364636 -0.00022767662 -1.1260957 2.2609644
3.403881 -0.89204466 0.48221773 0.0 1.3064455 -0.00017825025 6.068926 2.2081075
-3.8145359 6.445409e-05 -0.30045044 0.00082059467 4.1473637 -2.4990697 1.6486247 0.675363
0.16419923 -9.554739e-05 1.1442828 0.8444135 0.3651939 -1.5187593 0.6224608 8.554817e-05
0.06465757 6.2277046e-05 -0.57234 -0.2673843 0.23274353 6.68522e-05 1.9763186 0.00048912485
0.85220754 -1.4190679 0.86292434 1.7227349 -0.4312424 0.0 -1.5410154 -0.55437756
0.25155163 1.8059201 0.12115516 0.0 0.009772062 0.0 0.6083697 -0.34803984
-0.38038087 0.0 -1.7602288 0.0 -0.6545325 1.3488262 -0.50430745 -2.4852974
-0.09372603 -0.00024874156 -0.773877 2.2127984 0.54691154 -1.7521456 0.1944775 -0.000105481675
0.2928626 -9.293125e-05 -0.4170621 0.34640414 -1.1629153 3.389269e-05 1.537996 0.00028545412

square_avg f4 [20]
00000000: fb55 ab36 3bf3 0736 7eb1 692f 0000 0000
00000010: 1b9c 9036 99ab 8f2e 2471 0437 4919 4136
00000020: 11a5 7a2c 1eea 0c38 f05f 4637 e70a 1f37
00000030: 330e 3437 aa43 3436 d967 9436 2885 4037
00000040: a32d 1836 9075 d437 5a56 2b35 ea96 d237
5.1062066e-06 2.0258146e-06 2.1254284e-10 0.0 4.3097075e-06 6.533369e-11 7.894156e-06 2.877396e-06
3.5618767e-12 3.359664e-05 1.1824057e-05 9.479677e-06 1.0732142e-05 2.6861476e-06 4.422833e-06 1.1475095e-05
2.267633e-06 2.5327114e-05 6.382812e-07 2.5104226e-05

momentum_buffer f4 [20]
00000000: 4570 10bf 3ef6 1ebd 7ec9 d338 0000 0000
00000010: 646d 3ebf 3b90 2d39 c08e 3e3d 73d6 8fbf
00000020: 23b1 e539 de6f 1cbf 06c1 2040 2ce1 dabf
00000030: ee72 0b3f a618 2fbf daaf 39be 69e2 983f
00000040: fc5b 84bc f0af 72bd 00bb 2e3f ab61 983e
-0.5642131 -0.038809054 0.00010098795 0.0 -0.74385667 0.00016552296 0.046522856 -1.123732
0.0004381026 -0.61108196 2.5117812 -1.7099967 0.54472244 -0.68396986 -0.18133488 1.1944095
-0.016157143 -0.05924982 0.6825409 0.29762015

square_avg f4 [31, 20]
00000000: 1fef b52a 0000 0000 0000 0000 0000 0000
00000010: dfdb 5520 0000 0000 0000 0000 0000 0000
00000020: 0000 0000 6a91 cf28 0000 0000 0000 0000
00000030: 0000 0000 0000 0000 020c 6824 0000 0000
00000040: 0000 0000 ecaa a52a ceb0 a029 b0a1 652b
00000050: f8e7 2837 0908 3334 a545 8f2c 0000 0000
00000060: eb53 5635 0487 2b2d 7922 b836 fc1d 8b32
00000070: 0000 0000 1205 a636 93ae fd36 4772 cf37
00000080: 7cec 8e35 4057 a931 d777 0436 da06 4a36
00000090: a92a 3934 511f 8d37 40e8 fb33 06a1 d037
000000a0: e3c1 df2b bab6 e931 0000 0000 0000 0000
000000b0: 7742 932f 8b8d 2322 0261 bc32 d0fc f930
000000c0: 0000 0000 4ea5 ab29 c36e f632 0000 0000
000000d0: 3056 d132 50a6 9e30 095a bc32 241a dd32
000000e0: a7e0 1c28 0821 ff31 06b0 9e2e 7c2e bd2e
000000f0: 8f6c fd29 6037 db29 0000 0000 0000 0000
00000100: 702d 7a2a 0000 0000 20dc 0127 a146 3326
00000110: 0000 0000 0000 0000 c82a a328 0000 0000
00000120: 7930 3a28 2c4b cb29 0000 0000 0000 0000
00000130: 0000 0000 dd6c be28 0000 0000 ad50 fe29
00000140: 2f95 ec36 aa33 b237 8926 732b 0000 0000
00000150: a73f cc36 709b ac2b 70d5 a337 a4a5 d536
00000160: 0000 0000 90f8 4b36 412c e837 f425 7538
00000170: 2293 0238 9e4f 3336 ea1a 2837 d4cf 0838
00000180: 03cd 4f35 8c6b 1a37 e729 1833 e4eb 8837
00000190: b9a8 0137 9bd1 cb31 d524 692b 0000 0000
000001a0: 8810 f833 3892 a12d 062d db34 391d cc30
000001b0: 0000 0000 faff 8936 e674 3035 060c 4136
000001c0: e539 6d32 74b1 8331 1a9b 8b35 6ac4 5334
000001d0: 4a0d 8032 14a5 7337 5d13 0a34 6849 ac37
000001e0: fe2e 0036 7bed f12f 4e4f 2e2c 0000 0000
000001f0: 6436 d332 c2f7 0b2c 3f31 7134 0f74 4830
00000200: 0000 0000 1a2b 8635 bd11 c734 6872 b135
00000210: e9d9 b032 9cbf ca2f afac 8334 2e99 0d34
00000220: 77c2 2e31 8cc3 4736 99d0 e032 d01b a836
00000230: 9066 0536 6c2c bd2f 7c32 272c 0000 0000
00000240: 55d5 f832 afa9 b62b 63c9 c233 f20f 582f
00000250: 0000 0000 e2e1 8035 9ce9 4834 efbc 5035
00000260: fbd4 ef30 31a1 e22f 8664 8834 3b79 3633
00000270: 2766 3331 3ea0 7636 7c81 9432 971a af36
00000280: 0000 0000 1d3c c831 0000 0000 0000 0000
00000290: 445a 1d31 0000 0000 ab44 9231 adca 7e31
000002a0: 0000 0000 bd27 262c 01b3 ad31 0000 0000
000002b0: 725d cd31 d23c 9531 bcaf 8531 56a1 302f
000002c0: 2903 1d30 6a28 982d b8d0 fe2c 38af ef2b
000002d0: 8d2b 4337 ad2d 6933 dbe6 a02c 0000 0000
000002e0: ce49 0935 c012 5b2d a102 ab36 4cee c031
000002f0: 0000 0000 0454 cf36 8ce2 f736 3df1 d837
00000300: 9c08 1735 4200 3c31 c94b 0636 09d8 5236
00000310: 0127 d632 1e2c 9937 61f1 1434 aa42 0338
00000320: c501 7933 db43 bd37 b56a 8a2c 0000 0000
00000330: ec62 cc36 df81 492d 34ee 4537 09fa 2d37
00000340: 191f 9829 0f8f ee35 9523 7f37 8ac1 4638
00000350: 732f c537 fd99 1537 b8d0 1737 238a c137
00000360: 4f6a 1d36 029f 4137 5c1f f931 810f 6835
00000370: 0000 0000 0000 0000 0000 0000 0000 0000
00000380: 90fd 222e 0000 0000 6ee2 942b 0569 3627
00000390: 0000 0000 0000 0000 6149 362b 0000 0000
000003a0: 0000 0000 0000 0000 388c 412e 24ff d82d
000003b0: 5ab0 e02c 0000 0000 0000 0000 0e2e 302a
000003c0: c6c2 e92b 7d11 1e2e b24f ac2b 0000 0000
000003d0: 2eb4 ea2c 2f6c bc23 68c7 f82f 9be9 f72c
000003e0: 0000 0000 802b b929 85e9 ac30 0000 0000
000003f0: f72a 3d30 6995 012d 5d1d a130 588e 9c2f
3.2317982e-13 0.0 0.0 0.0 1.8114551e-19 0.0 0.0 0.0
0.0 2.304468e-14 0.0 0.0 0.0 0.0 5.0317152e-17 0.0
0.0 2.942849e-13 7.136098e-14 8.158153e-13 1.006759e-05 1.6673597e-07 4.0720365e-12 0.0
7.984333e-07 9.750204e-12 5.4876405e-06 1.6195365e-08 0.0 4.947776e-06 7.5603107e-06 2.4729537e-05
1.064865e-06 4.9284665e-09 1.9739289e-06 3.0104334e-06 1.7244987e-07 1.6823093e-05 1.1730344e-07 2.4870515e-05
1.5898917e-12 6.801966e-09 0.0 0.0 2.678637e-10 2.2165551e-18 2.1930195e-08 1.8188988e-09
0.0 7.622601e-14 2.8688538e-08 0.0 2.4369996e-08 1.1543282e-09 2.1927024e-08 2.5739674e-08
8.708453e-15 7.425232e-09 7.216276e-11 8.602982e-11 1.1254289e-13 9.73516e-14 0.0 0.0
2.2220225e-13 0.0 1.8021676e-15 6.219882e-16 0.0 0.0 1.8115189e-14 0.0
1.0335585e-14 9.028051e-14 0.0 0.0 0.0 2.114145e-14 0.0 1.1293861e-13
7.0507153e-06 2.1243311e-05 8.638442e-13 0.0 6.087084e-06 1.2264478e-12 1.9530504e-05 6.367178e-06
0.0 3.039404e-06 2.7677163e-05 5.84479e-05 3.1131443e-05 2.6719422e-06 1.0019847e-05 3.261848e-05
7.741184e-07 9.2041555e-06 3.5428368e-08 1.6322309e-05 7.728283e-06 5.931907e-09 8.2829343e-13 0.0
1.1551407e-07 1.8368515e-11 4.0824688e-07 1.4851259e-09 0.0 4.1127178e-06 6.573522e-07 2.876624e-06
1.3808379e-08 3.832776e-09 1.0401448e-06 1.9722361e-07 1.4907204e-08 1.4522364e-05 1.2859296e-07 2.053818e-05
1.910084e-06 4.4006385e-10 2.477091e-12 0.0 2.4588367e-08 1.9890621e-12 2.246279e-07 7.2924505e-10
0.0 9.996322e-07 3.7079545e-07 1.3220824e-06 2.058819e-08 3.6879733e-10 2.4526295e-07 1.3187375e-07
2.5430873e-09 2.9767134e-06 2.6171891e-08 5.010028e-06 1.9878244e-06 3.4410463e-10 2.3760152e-12 0.0
2.8968012e-08 1.2978974e-12 9.070461e-08 1.965075e-10 0.0 9.602484e-07 1.8711438e-07 7.776097e-07
1.7450071e-09 4.1223694e-10 2.5405114e-07 4.2485436e-08 2.6105995e-09 3.675013e-06 1.728835e-08 5.218502e-06
0.0 5.8276e-09 0.0 0.0 2.2897817e-09 0.0 4.256966e-09 3.7077073e-09
0.0 2.3612078e-12 5.055313e-09 0.0 5.9769087e-09 4.343385e-09 3.890788e-09 1.6064425e-10
5.712076e-10 1.7298347e-11 7.2422866e-12 1.7030604e-12 1.1633046e-05 5.4291082e-08 4.5731036e-12 0.0
5.1143877e-07 1.2452872e-11 5.096503e-06 5.6150267e-09 0.0 6.1788614e-06 7.387547e-06 2.5861542e-05
5.626441e-07 2.7357747e-09 2.0011669e-06 3.1418188e-06 2.4930616e-08 1.8259565e-05 1.3871387e-07 3.129492e-05
5.797644e-08 2.2562153e-05 3.9340428e-12 0.0 6.09119e-06 1.1454364e-11 1.1797576e-05 1.0369819e-05
6.7555506e-14 1.7774017e-06 1.5207469e-05 4.7387126e-05 2.3506325e-05 8.916945e-06 9.0488975e-06 2.3071718e-05
2.3456703e-06 1.1540718e-05 7.250419e-09 8.6449296e-07 0.0 0.0 0.0 0.0
3.7059744e-11 0.0 1.0578879e-12 2.5314505e-15 0.0 0.0 6.476122e-13 0.0
0.0 0.0 4.400766e-11 2.4669662e-11 6.386042e-12 0.0 0.0 1.5647919e-13
1.6609706e-12 3.5940573e-11 1.2243455e-12 0.0 6.670684e-12 2.0428818e-17 4.5252624e-10 7.0460976e-12
0.0 8.2231964e-14 1.2581017e-09 0.0 6.8818856e-10 7.365977e-12 1.1722637e-09 2.8477376e-10
