Multistate Intensity Models/SDDR_outputs/best_estimator_splines_event_10.pth (torch, 373189 bytes, 114 tensors)

square_avg f4 [2, 1]
00000000: 7b7b 9e39 00f0 9c39
0.00030228109 0.00029933453

momentum_buffer f4 [2, 1]
00000000: e00d 44c1 c5bb 2fc1
-12.253387 -10.983342

square_avg f4 [2]
00000000: 18a5 5539 a331 5739
0.00020374765 0.00020522489

momentum_buffer f4 [2]
00000000: b082 d7c0 a92d 05c1
-6.734703 -8.3236475

square_avg f4 [2, 2]
00000000: 619f 5c37 29bb d636 ad3e 1936 e5d5 9135
1.315013e-05 6.3994853e-06 2.2835259e-06 1.0865593e-06

momentum_buffer f4 [2, 2]
00000000: 8bfe 9c3e 213b bf3e 93ed 5a3d c75a b6bd
0.3066295 0.373498 0.053449225 -0.08904033

square_avg f4 [2]
00000000: 1237 b637 698d 832c
2.1721735e-05 3.7389436e-12

momentum_buffer f4 [2]
00000000: 4c33 a9c0 bfa4 55c0
-5.287512 -3.3381803

square_avg f4 [2, 2]
00000000: 0000 0000 0000 0000 016e d338 dcdb 3a37
0.0 0.0 0.00010081754 1.1137654e-05

momentum_buffer f4 [2, 2]
00000000: 0000 0000 0000 0000 0050 3c41 78a6 6f41
0.0 0.0 11.769531 14.978142

square_avg f4 [2]
00000000: 0000 0000 dcef 4a28
0.0 1.1265264e-14

momentum_buffer f4 [2]
00000000: 0000 0000 2b31 29c1
0.0 -10.574504

square_avg f4 [2, 2]
00000000: 0000 0000 8f22 3438 0000 0000 abc1 1e38
0.0 4.294753e-05 0.0 3.7850503e-05

momentum_buffer f4 [2, 2]
00000000: 0000 0000 f4d9 1c41 0000 0000 4c24 0541
0.0 9.803211 0.0 8.321362

square_avg f4 [2]
00000000: 2b0f 8228 066d 3025
1.4439477e-14 1.5302505e-16

momentum_buffer f4 [2]
00000000: 2bae 8dc0 6121 9cc0
-4.4275107 -4.8790746

square_avg f4 [12, 12]
00000000: 02c3 223c 7beb 993b 2d9d 2b3b be3a f63b
00000010: 0358 243d e75c da3c ab7c 1d3c 4255 1c3c
00000020: 384e 5e3a d80f d53b 2ae2 2f3a 5029 f833
00000030: ff40 953d 3055 373d 2078 f33a a373 8a3d
00000040: d3b4 6e3e 24f8 773b c6f2 133e 73b3 043e
00000050: 4589 623b adb3 073d f9f9 7236 9986 0738
00000060: 1254 ad3b 09eb b53b 2f6c 4839 4d53 9a3b
00000070: c109 533b 5016 6c3c 95a4 9d3b de9f 8e3b
00000080: feab 4839 b2e3 f439 19eb 8e3a aeda cd35
00000090: b9c3 bb3a 135a 903b 4ea2 dc38 e0b8 263b
000000a0: b72d 3c3c dcd6 193b a200 ab3c 9300 483c
000000b0: 5146 4338 0a8e a43a de53 1e34 a005 5236
000000c0: ee40 993d f85a 493d f3c3 233b 2dec 173e
000000d0: e007 2b3d 39ff 693d c2da 903d c45d bd3c
000000e0: e29e ff3b afd4 de3d 2353 113a 0e5a b838
000000f0: 19e8 2a3a 1479 3039 8601 e038 1582 ba3a
00000100: c5bb 2f39 07d4 6739 0bc7 913a 9f13 9d39
00000110: b500 a737 cfa5 5439 1994 f733 28d3 a235
00000120: 1534 a23c 7b6a b43b 9233 743a 977f 823d
00000130: 78f8 f53b 6173 153c 3964 b93b 4250 ba3c
00000140: 9144 863a 933f d93a 520b 2637 89ac fb36
00000150: e54e c33b ce3c d13a 26b2 013a af3c 093c
00000160: d009 713b f86d 193c 8caa 753b e89d 5c3b
00000170: b69e 6a38 f57d ac3a aed8 3a3a ec42 072d
00000180: 0d16 513c 23a8 f23c d76f 5a3a 276f 403d
00000190: fb6d 8d3c 4217 833c 1335 1c3d 9808 de3d
000001a0: ead1 383c 928c 7f3c e373 6139 2e3f aa39
000001b0: 26d8 993d 12da 0a3d dcb6 193b 1c8c 583d
000001c0: d52d 273e ff8c 1e3d eb6d 8d3d 8063 623d
000001d0: 4eb4 2c3b 4313 033d 7536 4839 dc03 c438
000001e0: 5fbe f33c 3746 943b 751d 2f3b 0924 953c
000001f0: 096e 0c3c c129 8b3b 16d6 583c 8771 9b3c
00000200: 9286 ce39 0c0f d23a e215 fc36 eedf 8537
00000210: 9b2c 953e 3a78 653d a491 123b 41bc 063e
00000220: 07e3 833e da7b a03c 7657 db3d 6bed 903e
00000230: 4095 9c3a a73b 8e3c 9119 6f39 1553 ef35
0.009934189 0.004697261 0.0026186213 0.007514327 0.040122997 0.026655627 0.009612243 0.009541811
0.00084802834 0.006502133 0.0006709421 1.15559146e-07 0.07287788 0.044758976 0.0018575229 0.06760337
0.23311166 0.0037837112 0.1444808 0.1295908 0.0034566682 0.033130337 3.6206313e-06 3.2311862e-05
0.005289563 0.0055517 0.00019113788 0.0047096373 0.0032201859 0.014409617 0.0048108795 0.0043525537
0.00019137558 0.00046708953 0.0010903805 1.5337334e-06 0.0014325298 0.004405269 0.00010520649 0.0025439784
0.011485509 0.0023474013 0.020874325 0.012207168 4.655711e-05 0.0012554538 1.4745407e-07 3.1295713e-06
0.074830875 0.04915902 0.002498862 0.14836188 0.041755557 0.057128165 0.07072975 0.023116
0.0078009227 0.1088041 0.00055436994 8.790578e-05 0.00065195706 0.00016829773 0.00010681436 0.0014229441
0.0001675925 0.00022108863 0.0011121941 0.00029959992 1.990828e-05 0.00020279664 1.15287726e-07 1.2131395e-06
0.019800225 0.0055058575 0.0009315546 0.06371992 0.0075064264 0.009121747 0.0056576994 0.022743348
0.0010243823 0.0016574733 9.897007e-06 7.5004687e-06 0.0059603327 0.0015963556 0.00049475057 0.0083762845
0.003677953 0.0093645975 0.0037485687 0.0033663455 5.593776e-05 0.0013160097 0.00071276247 7.688721e-12
0.012761605 0.02962119 0.00083327055 0.046981003 0.017264357 0.016002301 0.038136553 0.10841483
0.011280516 0.015597479 0.00021500843 0.00032472 0.0751193 0.033899374 0.002345494 0.052867994
0.16326077 0.038708683 0.06905731 0.05527067 0.0026352587 0.03200079 0.00019093773 9.346727e-05
0.029753862 0.004524972 0.0026720439 0.01820566 0.008571156 0.004246921 0.013234636 0.018975032
0.00039391645 0.0016026213 7.5127327e-06 1.595911e-05 0.29135594 0.05602286 0.002236464 0.1315775
0.25759146 0.019590307 0.10710041 0.28306136 0.0011946335 0.017362429 0.0002280234 1.7831068e-06

momentum_buffer f4 [12, 12]
00000000: 7591 8bc1 dd54 fa41 b394 aac1 3fa7 8e41
00000010: 87ce 08c0 e267 19c2 bc04 9241 af82 8f40
00000020: 2639 3340 8825 6bc1 3252 68c1 2794 7640
00000030: 674b 8341 0e27 36c1 5907 0040 a180 9fc1
00000040: a8dc 1941 c7a6 6e40 174d 95c1 311b 02c1
00000050: 9e43 47c1 a3be 80c0 337c bdc0 3c07 0940
00000060: ae63 1141 e07c 3541 d975 4cbf 562b 2541
00000070: 7326 a640 544f c040 57ca 3440 871d 963f
00000080: 733c 9541 9a22 d741 c739 8540 b2b6 bbc0
00000090: 2db5 7e41 eb3c bbc0 4acc 99c1 9bb1 ccc0
000000a0: 53a8 0fc1 f108 8cbe b654 80bf e557 55c1
000000b0: acf0 8741 5284 8641 26d6 77c1 ba96 0240
000000c0: 3890 42c0 82d6 61c0 0949 6ac0 ad2f debf
000000d0: cd6c 10c0 6fca 2cc0 e7c1 6bbf 04a0 0340
000000e0: 7097 1b41 5e6f 2140 227d a141 34cf 6741
000000f0: ce6f 7dc0 00d0 103f 326f 61c1 3ae3 14be
00000100: dab5 c93f d03b cfc0 b35e 2e41 7fb3 af40
00000110: c78f 36c0 4fad a541 0f62 8e41 e8b8 00c1
00000120: 4e2b 13c0 c8d3 0ec1 0f11 f7c1 e623 41bf
00000130: cc27 c740 5794 53c1 178d cf40 018e d640
00000140: 6787 2541 9421 9fc0 fc39 4a41 f935 dc40
00000150: b223 6fc0 a553 18c1 57a6 b6c1 3eb3 d640
00000160: 486d 423d 5369 d7c0 709d 21c0 7817 24c1
00000170: f75b 4f41 16a5 ad41 4684 4940 1bbe d540
00000180: a138 6240 974a 1cc0 3b07 9941 b2f7 fabf
00000190: ab13 a43f a17b c9c0 6eb7 0b41 2332 3340
000001a0: 1ae6 1fc1 5461 17c1 1aa1 09c1 0fda f540
000001b0: 90fc 23c0 adc8 b1c0 d4cc dd40 ad42 2d41
000001c0: 0cf3 54c1 4e49 62c0 3831 9540 bf1a 19c1
000001d0: 40c6 7340 4ce6 6a41 bc0f 39c0 135b 2941
000001e0: 2ba8 813f c769 1bc0 14b7 0abf 113c a640
000001f0: 708f 14c0 4d47 74c0 87cc 50c1 d341 11c0
00000200: 7bf2 dc3f 62f7 8641 dab7 eb40 752c 01c1
00000210: 0bef b7c1 272d 8141 3acc cd3f be02 5541
00000220: 7745 8340 f9ba 58c1 d744 6740 7797 ef40
00000230: 5c74 f8c0 0276 d93f df9a aec1 e9e7 1dc0
-17.446024 31.291437 -21.322607 17.831663 -2.1376054 -38.351448 18.252312 4.4847026
2.800363 -14.696663 -14.520067 3.8527925 16.411818 -11.384535 2.0004485 -19.937807
9.616371 3.7289293 -18.662642 -8.131639 -12.454008 -4.023271 -5.921411 2.1410666
9.086836 11.342987 -0.7986732 10.32308 5.1921935 6.0096836 2.8248498 1.1727761
18.654516 26.891895 4.163303 -5.8660517 15.919232 -5.8511863 -19.22475 -6.3966804
-8.978595 -0.27350572 -1.0025852 -13.333959 16.992516 16.81461 -15.489782 2.0404496
-3.0400524 -3.5287175 -3.6607077 -1.73583 -2.2566407 -2.6998556 -0.92092746 2.0566416
9.724472 2.5224223 20.1861 14.488087 -3.959949 0.5656738 -14.089647 -0.14539805
1.5758622 -6.4760513 10.89812 5.490661 -2.8525255 20.709623 17.79788 -8.045143
-2.299518 -8.926704 -30.88333 -0.754454 6.223608 -13.223716 6.485973 6.7048345
10.345557 -4.972849 12.639156 6.8815885 -3.7365537 -9.520421 -22.83122 6.70938
0.0474675 -6.731607 -2.5252342 -10.25573 12.959952 21.705608 3.1486983 6.679456
3.5347064 -2.4420526 19.12853 -1.9606841 1.2818502 -6.2963414 8.732283 2.799935
-9.993677 -9.461262 -8.601831 7.6828685 -2.5622902 -5.5557466 6.9312534 10.828778
-13.309338 -3.5357242 4.662258 -9.56903 3.8089752 14.681225 -2.8915854 10.584735
1.0129446 -2.4283311 -0.54185605 5.1948323 -2.3212547 -3.8168519 -13.049933 -2.2696426
1.7261499 16.870792 7.366193 -8.073354 -22.99172 16.147047 1.607795 13.3131695
4.1022296 -13.545648 3.6135767 7.4872394 -7.764204 1.6989138 -21.82562 -2.4672797

square_avg f4 [12]
00000000: 4fd3 483c 8938 e13d bbd4 f93b c7f2 9b3b
00000010: 7d0b b33d 5a5c 593a 54d4 543c a31b 7b3b
00000020: fa73 463d e64d 4c3d d8d5 d03b 3a35 ee3d
0.012257411 0.10997111 0.0076242364 0.004759166 0.087424256 0.00082916545 0.012990076 0.0038316033
0.048450448 0.049878977 0.0063731484 0.11631246

momentum_buffer f4 [12]
00000000: f709 fdbe 761c 493f 0da0 dc41 4769 dd41
00000010: 4904 a441 ac15 0242 8fab 1042 3d27 b941
00000020: 3831 aec1 d287 0041 9f95 c541 a382 cf40
-0.49421665 0.7855905 27.57815 27.676405 20.502092 32.521164 36.167538 23.14416
-21.774033 8.033159 24.698057 6.484697

square_avg f4 [12, 12]
00000000: 0beb 1738 b0da 383b fc4e 9e3b 33de e039
00000010: 0e11 e43c 7a57 b239 bf23 9f3a 864b ea3b
00000020: d02e 7e3c a1ac 093d 7024 c13a 1c66 443c
00000030: ed6b 6f3b bc80 353d 76ae 513b 7fad fd3a
00000040: 8a8d 8f3d 431d a138 7048 fa3b 62d4 a239
00000050: bcf3 873e 23cc 243c 0180 b63a bb90 1c3d
00000060: ab3d 163d 350f f23d 4323 a43b c069 223a
00000070: 0a2f ed3a 6279 3d3a 8c2b 273c 25a4 c33b
00000080: 91e4 503c 658f 893c ca59 b73a 1d42 003c
00000090: 2c16 ef32 fc10 9e33 ea29 9230 e0c5 9f32
000000a0: c7b5 7334 e6c0 8333 28bd a233 f8d2 9033
000000b0: ecb2 2634 9659 2033 b622 e835 0025 2f2e
000000c0: d4a3 bc3a 4fc3 e23d 3f7f 9a3b aaa5 bc3a
000000d0: ff50 fc3c abb1 003a 2e5b 713a 845d ec39
000000e0: 0794 383d 4f38 8c3d f95f 303b 6ae2 5b3b
000000f0: 9846 8538 2697 973c 235f 043c 570b bc3a
00000100: 27cb 0d3e fd7e 9a3a 5f6e 283c 9cd9 a73c
00000110: 2819 873c 1a6f 753d 42a7 713b 8330 e63c
00000120: 6de6 2231 981b 9a2c b045 082c 2c01 582d
00000130: 34a4 312e d074 382d c56a c52d b33c a430
00000140: e7fe 8e2d 02c6 9a2d 8876 462c 2b9b 3330
00000150: 3b7e bd3a d895 b23a 15ba 3a3a 6033 9a39
00000160: 5950 983e 5d9e 283b dbfd c639 b698 883b
00000170: 9e03 233c bc19 863c 65f9 c03b ca3d ab3b
00000180: 0267 0e40 2a79 4e40 0ee8 cf3b 1300 293a
00000190: 7115 ec3d a35a 8e3a d3e0 5b3d 3f51 4c3b
000001a0: 5ef7 213d 4f5c 373e fb18 993c 294b 263d
000001b0: 4b39 0036 90e2 8034 4f40 3c3b 3fc6 b835
000001c0: d730 8c36 e73a 3b36 38ca 3c37 75b6 ba36
000001d0: 05cb b436 6861 6b39 5cfa fd34 96b7 073b
000001e0: 7b71 5133 bd9e fc38 fcd3 7b34 b1f9 cc35
000001f0: 224e c53a 78c4 6033 c314 a638 5314 8b37
00000200: f6c9 aa38 9921 7437 bc14 4f3a e273 0438
00000210: f304 2038 ecf2 763c 001b 903b d828 143b
00000220: 218a 593e 59f2 703a b519 5e3c 6cc4 2c3d
00000230: bd9e 223d 9220 063e ab7b 7b3b c247 d63b
3.6220106e-05 0.002820652 0.004831193 0.0004289016 0.027840164 0.0003401598 0.001214139 0.0071501164
0.015514091 0.033611897 0.0014735591 0.011987235 0.0036532835 0.044312224 0.0031994856 0.0019354074
0.07009418 7.682529e-05 0.0076380298 0.00031057285 0.26553142 0.010058436 0.0013923646 0.038223963
0.036679905 0.11819307 0.0050090863 0.00061955675 0.0018095684 0.0007227865 0.0102032535 0.0059704953
0.012749807 0.016792009 0.0013988551 0.007828263 2.7833345e-08 7.360538e-08 1.0634811e-09 1.860002e-08
2.2697269e-07 6.135251e-08 7.57812e-08 6.7438975e-08 1.5525046e-07 3.733438e-08 1.7295449e-06 3.9823256e-11
0.0014392086 0.110724084 0.004714876 0.0014392633 0.03080034 0.0004909287 0.0009207007 0.00045083102
0.045063045 0.068466775 0.0026912673 0.0033551701 6.355083e-05 0.01850469 0.008079323 0.0014346641
0.13847028 0.0011787113 0.010280221 0.020489506 0.016491488 0.059920408 0.0036873375 0.028099304
2.3705085e-09 4.3800068e-12 1.9365447e-12 1.2278439e-11 4.0390982e-11 1.0485127e-11 2.2443722e-11 1.1949822e-09
1.625673e-11 1.7595706e-11 2.820329e-12 6.534033e-10 0.0014457175 0.0013624979 0.00071230653 0.00029411446
0.297488 0.0025729157 0.0003795464 0.004168595 0.009949593 0.016369693 0.005889105 0.0052258717
2.225037 3.2261453 0.0063448017 0.00064468494 0.11527527 0.0010860752 0.053681206 0.0031176356
0.03954255 0.17906307 0.01868867 0.040599022 1.9106835e-06 2.4006704e-07 0.0028724854 1.3766766e-06
4.178011e-06 2.7899457e-06 1.1252756e-05 5.5644728e-06 5.3880526e-06 0.00022447633 4.7307083e-07 0.002070879
4.8764814e-08 0.00012045864 2.3453316e-07 1.5271854e-06 0.0015053193 5.233275e-08 7.919364e-05 1.6579555e-05
8.14385e-05 1.4551356e-05 0.0007899513 3.1579177e-05 3.8151582e-05 0.0150725655 0.00439775 0.0022607353
0.21244098 0.0009191386 0.013555934 0.04217951 0.039702166 0.13098362 0.0038373272 0.006539316

momentum_buffer f4 [12, 12]
00000000: e5b1 a441 467d 2941 a7f4 7240 d242 dc40
00000010: 54d1 3341 96da 8d40 d50d b140 c676 2a41
00000020: 87f1 9541 4b3e 7941 ddee 35be 9248 06c0
00000030: f0be 1740 dfba 5c41 a159 55c0 3360 38c0
00000040: c8a9 09c0 b3a4 6b41 943a 8240 8c2a 8740
00000050: f6fc 8f41 4a20 8441 7582 3e41 e096 2940
00000060: 7aee 99c1 f24c aec0 8b48 5540 8d57 21c0
00000070: d26f 68c0 c0bb 34c1 9f97 d6c0 8ebb 30c0
00000080: 5888 82c1 019b ff40 06af 4440 fb70 89c1
00000090: f8b3 e640 bce0 2941 3f4b 4241 3e6e 0b41
000000a0: 89fe c340 c15b 2f3f 5818 8240 f2b5 0541
000000b0: 9fd6 1e41 ce85 2f41 e0d5 9d40 162e c940
000000c0: 16e3 cf41 fa84 adc0 2a6c 3fc1 5d6a 9a40
000000d0: a371 d0c0 e11c 2040 806b ea3f 6895 b140
000000e0: f816 9940 7c25 1b40 446c 74bf 7359 1c41
000000f0: a645 be41 08b6 6041 aa6f ec3f d97d e840
00000100: 171e 7841 1c45 cb3f fa99 30c0 dd63 e640
00000110: 7e78 7141 d0b1 5a41 4467 d4bf 0723 f640
00000120: 9211 5d40 6ea7 b040 4486 be40 1458 cf40
00000130: d267 1c41 202d 7940 a617 a13e 5d3d f240
00000140: a39a b240 c120 ce40 10f6 9a40 bd5a 7140
00000150: 2f83 4741 9fc3 2641 d9d7 4441 5bcc a940
00000160: 3067 2b41 e8f5 053f 65fa 5741 b539 1241
00000170: 65ab f140 8ba1 ef40 4acb 7b40 4ea9 4a41
00000180: 24f5 dec1 fda9 4dc1 16c2 8ec0 d7fb b8bf
00000190: e066 3bc1 a5dc 7140 4f30 54c1 fa0f 2fbe
000001a0: d456 0fc2 7b6d 14c1 4bc8 33c0 e235 afc1
000001b0: 34a5 9541 4835 1341 250a f240 f4d4 f240
000001c0: 0010 a140 02d2 2d41 2c2e bd40 5f45 2a41
000001d0: f038 9a41 83e9 0e41 1e4c 1f41 1a0f 7f40
000001e0: 8bae b73e dc99 3341 e484 8e40 65a6 b240
000001f0: 8937 f140 2b2c a3c0 82f2 1341 de40 6241
00000200: f59f 6a41 5a9a 5941 9c75 af3f 3603 9641
00000210: 1271 1c41 dfdf 9a41 2e15 2241 a9f5 0941
00000220: 9b21 6841 e2eb 4ebf de55 72c0 6984 9d40
00000230: 3e9b 8641 9c48 3d41 d99f 2240 88d4 4841
20.586863 10.593084 3.7961824 6.883157 11.2386055 4.432933 5.5329385 10.653997
18.742933 15.577708 -0.177669 -2.0981793 2.371029 13.795623 -3.3335955 -2.8808715
-2.1509876 14.72771 4.0696507 4.2239437 17.998516 16.515766 11.90685 2.6498337
-19.241444 -5.4468927 3.3325527 -2.5209687 -3.631825 -11.295837 -6.7060084 -2.7614474
-16.316574 7.9876714 3.0731826 -17.180166 7.209469 10.617367 12.143371 8.714415
6.124821 0.6849938 4.0654716 8.35692 9.927398 10.970167 4.932358 6.2868757
25.985882 -5.4224825 -11.963907 4.825484 -6.5138717 2.5017626 1.8314056 5.549488
4.784054 2.4241629 -0.954777 9.771838 23.784008 14.044441 1.8471577 7.2653623
15.507346 1.5880466 -2.759398 7.1996903 15.091917 13.668411 -1.6594014 7.691776
3.4541974 5.520438 5.95389 6.4795017 9.775347 3.8933792 0.31463355 7.5699906
5.5813766 6.4414983 4.842537 3.7711632 12.469527 10.422759 12.302697 5.3061957
10.712692 0.5232835 13.4986315 9.139089 7.552172 7.4884696 3.9342828 12.666334
-27.869698 -12.854001 -4.461192 -1.4451855 -11.712616 3.779092 -13.261794 -0.17095938
-35.834793 -9.276729 -2.8091 -21.90131 18.705666 9.200508 7.5637383 7.5884953
5.033203 10.863771 5.911886 10.641936 19.277802 8.93201 9.956083 3.9852967
0.35875353 11.225063 4.453722 5.582812 7.538029 -5.0991416 9.246706 14.140837
14.664052 13.6001835 1.3707767 18.751568 9.777605 19.359312 10.130171 8.622476
14.508204 -0.8082868 -3.786491 4.9224133 16.825802 11.830227 2.5410063 12.5518875

square_avg f4 [12]
00000000: 9cb4 d33b 5781 ab3a e6b1 ef39 adb7 9e34
00000010: 7541 453a e977 5b3b 0a53 6c31 4edf 6a3b
00000020: 8cde 553b c7a1 8838 de86 1138 4e5f 833b
0.0064607393 0.0013084811 0.00045718177 2.9563435e-07 0.00075247075 0.003348822 3.4389722e-09 0.0035838666
0.003263387 6.515119e-05 3.46963e-05 0.004009164

momentum_buffer f4 [12]
00000000: 18ac d640 b6a8 f440 a9e1 1c3f 8988 0941
00000010: a8db d840 9c66 b741 ba75 9a40 96f7 d541
00000020: 4696 4d3f 8f9b ba41 308c ad41 e1b5 9041
6.7085075 7.6455946 0.6128183 8.595834 6.7768135 22.925102 4.826871 26.745892
0.80307424 23.325956 21.69345 18.088808

square_avg f4 [12, 12]
00000000: e32b 2a3b 17aa 833b 68fb 553a 70d4 db31
00000010: 13c6 ff3b cb73 0d3c d725 c52c 1619 a53b
00000020: d38c 673c 237b a738 0e33 6a3a ee09 573c
00000030: f1e0 913d 73a8 153f 4971 a63f de6f cb31
00000040: c548 353e 671a a23e fc9d b32f af6d 8b3d
00000050: dcb4 a13e 8e56 0239 f629 cf3a 584f 073f
00000060: 378b e429 0000 0000 d847 122b 0000 0000
00000070: 4ade c029 7c00 592a 0000 0000 6481 fb27
00000080: 96ea b12b 5f86 3a28 0000 0000 0000 0000
00000090: 5aee a03c 5824 773b b4ed 433f 8ba9 7024
000000a0: aee3 063d 24c2 bb37 34bd fc2c 214d e138
000000b0: 6510 0637 a95d 4726 a420 f42a 1534 9637
000000c0: a3db 023c 2175 863a f1d4 993a 512a 7032
000000d0: d190 223c d71c 2b3d 9bd6 8930 cf47 bf3c
000000e0: 351f 703b 36bb 9d38 5b70 5e3a 645f 883d
000000f0: bd7c fe3e d0ba ee3e 6f33 0346 09f6 222f
00000100: 1cdd 573f c494 d83f 69b6 192f bf4f eb3e
00000110: a59c 553f bd76 2f3a 4028 cc3b 3968 0740
00000120: aa15 373c 6668 a136 7991 ee35 a0e8 9324
00000130: 34e3 3935 48ca 2533 54d6 bc2a 05ad c725
00000140: 97b9 ed2f 6c4c 8a27 4b48 a52a 082c 4036
00000150: 176f d531 0000 0000 754c fa32 0000 0000
00000160: 1db6 0d2e 0212 1a32 0000 0000 9f2a 2b31
00000170: bdfd 912f 0000 0000 7ccf 332b ae50 1733
00000180: 19ce 2a33 9b84 943b 7945 0d3a eb66 4e2c
00000190: 5131 4a37 cc75 0b2d a593 222a e014 552c
000001a0: d2c2 5e2d af67 602b 3159 9e28 a50c 8e2d
000001b0: 1b02 123e 25da 4a3e ff35 c33e 52d2 5432
000001c0: 0cc4 923e 401b b53e 2e4e 1a30 4a17 9f3d
000001d0: e653 b63e debf 7139 2c51 383b 5d7c 1b3f
000001e0: 65eb d62a 0000 0000 d33d 9725 0000 0000
000001f0: 90e5 b92c ed12 ac29 974b 2f29 0000 0000
00000200: 6d32 812b b389 922c c9ee 8029 b9a7 3a2c
00000210: 8242 a129 d7d9 a72a 16fa 262a 2cd1 0d2c
00000220: 4901 0c2b 2602 af2c 9d7f 092c 5faa e62a
00000230: 6a45 642c 6f02 3628 cd7e 182b 6264 032d
0.00259661 0.004018079 0.00081627676 6.39789e-09 0.0078055947 0.008633564 5.603278e-12 0.005038391
0.014132696 7.9861165e-05 0.00089339993 0.013124926 0.07122982 0.5846016 1.3003322 5.9207954e-09
0.1770354 0.31660768 3.2672165e-10 0.0680803 0.31583297 0.0001243001 0.0015805352 0.52855444
1.0149384e-13 0.0 5.1969323e-13 0.0 8.565074e-14 1.927364e-13 0.0 6.980678e-15
1.2641717e-12 1.0354211e-14 0.0 0.0 0.019644905 0.0037710872 0.7653458 5.2185313e-17
0.032931976 2.2382541e-05 7.1832765e-12 0.000107432024 7.99084e-06 6.916893e-16 4.3365756e-13 1.7905646e-05
0.007986936 0.0010258296 0.0011736435 1.397946e-08 0.009922222 0.04177555 1.0029056e-09 0.02334967
0.0036639695 7.521214e-05 0.000848537 0.06658819 0.49704543 0.46626902 8396.858 1.4821223e-10
0.8432176 1.69204 1.3980074e-10 0.4595928 0.83442146 0.00066934136 0.006230384 2.1157362
0.011174599 4.8103275e-06 1.777472e-06 6.414517e-17 6.9248495e-07 3.860103e-08 3.3544229e-13 3.463824e-16
4.3241918e-10 3.838555e-15 2.936005e-13 2.863586e-06 6.2117453e-09 0.0 2.9138599e-08 0.0
3.2221437e-11 8.968074e-09 0.0 2.4908002e-09 2.6555638e-10 0.0 6.3881517e-13 3.5230805e-08
3.9768654e-08 0.0045324094 0.00053890754 2.9331492e-12 1.2051621e-05 7.927391e-12 1.4439715e-13 3.0280708e-12
1.2662498e-11 7.9724676e-13 1.7580204e-14 1.6149146e-11 0.14258616 0.19809778 0.38127133 1.2387845e-08
0.28665197 0.35372353 5.6135974e-10 0.07768114 0.35610884 0.00023055027 0.0028124554 0.6073664
3.8177374e-13 0.0 2.6236218e-16 0.0 5.283503e-12 7.6416175e-14 3.892337e-14 0.0
9.179997e-13 4.1648573e-12 5.7257645e-14 2.6525295e-12 7.1613735e-14 2.9816316e-13 1.4830528e-13 2.0153419e-12
4.9739775e-13 4.9740377e-12 1.953971e-12 4.0974426e-13 3.2439281e-12 1.0103557e-14 5.417722e-13 7.468777e-12

momentum_buffer f4 [12, 12]
00000000: 55fd 0641 3f2b 4041 e75e 7441 8c52 cdc0
00000010: 83af 0941 4dbe 563f 875a c940 74de 8f40
00000020: 665c 0641 0be9 8d41 0077 3641 7f43 b540
00000030: 7410 0f40 62b2 8a41 a15c 8a41 d8fc 2b41
00000040: f76d ff40 9b6b e5c0 d595 38c0 5f4b d5c0
00000050: 556b 2e41 8e39 fec0 3683 b6c0 51d0 01c1
00000060: caf3 7840 0000 0000 dbac 7b40 0000 0000
00000070: 8f86 7840 9748 7a40 0000 0000 ee13 6c40
00000080: bc75 7c40 8213 6f40 0000 0000 0000 0000
00000090: 282b b7bf dd26 3f41 d9b2 0741 46fa febf
000000a0: 6c36 4a41 1890 15c0 b9bb 6940 eb96 d1bf
000000b0: 4ea0 6c40 2473 3e40 db20 6840 690b 71c0
000000c0: 8abe 9f40 ba2a bc40 5b5f e040 45ed 4141
000000d0: aff1 0941 ba99 bd40 92c5 67c0 003c fc40
000000e0: 7a9b 0541 cea3 cabf c938 e040 42d0 aa40
000000f0: 29ed b9bf 33e8 2741 2b8b 9140 bf37 c940
00000100: 804e ab40 8843 a8bf ad57 7ec0 5646 b7bf
00000110: 4ab1 2c41 26c3 4040 632a 813f 4a2e 93c0
00000120: 2928 e540 44ce 8c41 0e16 2641 6092 0740
00000130: c81c 8841 2035 6841 9a0e 6140 7aca 3040
00000140: cd3c 11c0 a4e4 17c0 98ac 6740 6d94 65c1
00000150: 59cd 7840 0000 0000 17d0 7840 0000 0000
00000160: 858c 7840 34ce 7840 0000 0000 76ca 7840
00000170: 0eba 7840 0000 0000 54e5 7640 48d0 7840
00000180: 6142 bc41 c5a3 0041 b9b8 8241 23d3 5c40
00000190: e5b9 4441 32ee 3041 d861 64bf 5cbe 2641
000001a0: 7465 6440 c5cc df40 c409 6040 8409 1d41
000001b0: 4293 6240 790a e53f 732e ff40 1008 0e41
000001c0: d36c bd40 66a2 f1bf 652a 8d3f 0449 50c1
000001d0: 3213 5640 a202 e3c0 b8c9 a0c0 0deb 79c0
000001e0: 3752 6a40 0000 0000 ee0a 2c40 0000 0000
000001f0: c100 6c40 c588 6740 658d 6540 0000 0000
00000200: 8822 6b40 98ec 6b40 63c3 6640 3bbf 6b40
00000210: f414 6540 9bb1 6740 3aa3 6640 5044 6940
00000220: b544 6840 88a0 6940 5540 6940 4311 6840
00000230: 007a 6940 1df6 5c40 db59 6840 52be 6940
8.436849 12.010558 15.2731695 -6.4163265 8.60535 0.83884126 6.2923007 4.495905
8.397558 17.73879 11.404053 5.6644893 2.2353792 17.337101 17.295229 10.749229
7.9821734 -7.1693854 -2.884145 -6.6654506 10.901204 -7.9445257 -5.703517 -8.1133585
3.8898797 0.0 3.9324253 0.0 3.8832128 3.9106805 0.0 3.6887164
3.944686 3.7355657 0.0 0.0 -1.4310045 11.946988 8.481164 -1.9920127
12.638287 -2.3369198 3.6520827 -1.6374182 3.6972842 2.9757776 3.6270053 -3.7663214
4.992009 5.8802156 7.01164 12.120427 8.621505 5.9250154 -3.6214337 7.882324
8.350458 -1.5831239 7.006932 5.337922 -1.45255 10.494189 4.5482383 6.288055
5.3533325 -1.3145609 -3.9741013 -1.431834 10.793283 3.011911 1.009106 -4.5994005
7.1611524 17.600716 10.380384 2.118309 17.014053 14.51297 3.5165162 2.7623582
-2.269336 -2.37333 3.6199093 -14.348737 3.8875334 0.0 3.8877008 0.0
3.8835766 3.8875856 0.0 3.8873572 3.8863559 0.0 3.857747 3.8877125
23.532412 8.039983 16.340197 3.4503868 12.295384 11.058153 -0.892118 10.421474
3.5686922 6.9937463 3.500596 9.814823 3.540238 1.7893821 7.97442 8.876968
5.919534 -1.8877685 1.1028563 -13.017826 3.3449216 -7.0940714 -5.024624 -3.9049714
3.661268 0.0 2.688167 0.0 3.687546 3.6177227 3.586755 0.0
3.6739826 3.6863155 3.6056755 3.6835468 3.5794039 3.6202152 3.6037126 3.6447945
3.6291935 3.650423 3.6445515 3.6260536 3.6480713 3.4525216 3.6304843 3.6522412

square_avg f4 [12]
00000000: bea4 6936 d71d a939 b41b 2427 e43c d639
00000010: 70d0 9837 eaea bb3b 3dc3 1a39 0cc4 6030
00000020: 893c fc36 82e1 2739 87b1 522c a6b4 0a2e
3.4815598e-06 0.00032256424 2.277459e-15 0.00040862628 1.8216873e-05 0.005734791 0.00014759316 8.1769325e-10
7.5172325e-06 0.0001601037 2.9941342e-12 3.1538015e-11

momentum_buffer f4 [12]
00000000: 576a 0941 e4a9 ecc0 7346 6040 0e96 9640
00000010: 4d6d 0ac1 a828 8041 c83f 9141 7ec4 7840
00000020: 6a6b 0c41 5395 f940 69cc 6b40 3b02 6a40
8.588462 -7.3957386 3.5042999 4.705817 -8.651685 16.019852 18.156143 3.886993
8.776224 7.799478 3.6843512 3.6563861

square_avg f4 [12, 12]
00000000: 2ce4 c728 e58a 1127 0000 0000 fdd4 3929
00000010: ee70 b028 a002 1822 844b c225 0000 0000
00000020: e6e8 8f27 24da 102a 0000 0000 ea24 cf29
00000030: fbf5 6b3d 527a d742 2182 fd1f 7809 cf3b
00000040: 05fd 013e 6354 b83f 98a9 2538 98af 1a2e
00000050: 175b ab38 1cf6 3040 0000 0000 0000 0000
00000060: 9a9a ae3d a990 9542 2fb5 2623 ebd0 393c
00000070: 2f36 453e c91f 9541 2898 a93a 525e b42f
00000080: 0ede 7838 75bf 8040 fc48 1529 6703 9928
00000090: 9751 1d2f 2273 e432 0000 0000 0000 0000
000000a0: 8f1d 0e33 3918 9332 331b 9027 0000 0000
000000b0: cf5d 3827 5f93 1d33 0000 0000 0000 0000
000000c0: f8f1 933c b61d 033f 299b 3f22 3d8e 983a
000000d0: a6ab 753d c9db 973e 2812 8637 39e6 442f
000000e0: 0a9c 0535 bf0c 353f 644f bd27 a1c5 2729
000000f0: eb12 d43b 9a65 da3d 0000 0000 09b8 dd35
00000100: 0b3c b03c d7da 1b3f a447 9034 031e ba2f
00000110: 0006 a42e 6403 283e 9744 ed29 f03b 132c
00000120: ae8d a436 f3d7 6d33 0000 0000 0000 0000
00000130: f04b 9033 d688 0333 78d8 e627 37f0 0a2b
00000140: 9c94 1928 8d2f 9933 0000 0000 0000 0000
00000150: 7033 3d30 9032 7041 0000 0000 48a5 7f3a
00000160: 6010 a82e 28cd 023a 0000 0000 0000 0000
00000170: 65c7 0438 9f4b ce3b 0000 0000 0000 0000
00000180: 9493 c82d 4731 5134 0000 0000 3cd9 9c34
00000190: fcdd 352f b338 7c39 8d03 8627 20da 942c
000001a0: 6960 932c 2695 fd2e 27a5 6c27 228b 932b
000001b0: 0000 0000 fa18 8b40 0000 0000 7cba 8438
000001c0: e26f c62f 4c4c 9e37 0000 0000 0000 0000
000001d0: 0000 0000 e352 1b36 0000 0000 0000 0000
000001e0: d057 072c 1900 0a2f 0000 0000 42ca dd2b
000001f0: 7778 402c 9b96 8d2e 93a4 c127 0000 0000
00000200: a9f0 4229 18c0 912c 0000 0000 8e79 c029
00000210: 5de4 d53d 5480 0141 0000 0000 b002 be3a
00000220: ad08 2f3f 0748 b141 f9aa 303a 5e54 5830
00000230: ab01 bb2c 5595 3641 0297 8420 eec8 012c
2.2192392e-14 2.0198087e-15 0.0 4.126299e-14 1.95889e-14 2.060123e-18 3.3704807e-16 0.0
3.9942982e-15 1.2865452e-13 0.0 9.19905e-14 0.057607632 107.73891 1.0736495e-19 0.0063182674
0.12694176 1.4400753 3.9497012e-05 3.5171505e-11 8.170882e-05 2.7650213 0.0 0.0
0.08525582 74.78254 9.037245e-18 0.011341314 0.1925895 18.64052 0.0012939023 3.2808828e-10
5.9334612e-05 4.023371 3.314795e-14 1.6987888e-14 1.4308053e-10 2.659505e-08 0.0 0.0
3.3088835e-08 1.7124067e-08 3.999752e-15 0.0 2.5585983e-15 3.6688444e-08 0.0 0.0
0.018059716 0.5121721 2.5967468e-18 0.001163907 0.05997815 0.2965987 1.59825e-05 1.7907888e-10
4.977343e-07 0.70722574 5.2544113e-15 3.7252865e-14 0.0064719818 0.1066391 0.0 1.6519344e-06
0.021513006 0.608808 2.6874216e-07 3.3854528e-10 7.4589224e-11 0.16407543 1.0536813e-13 2.0923228e-12
4.9040746e-06 5.5377267e-08 0.0 0.0 6.7193355e-08 3.0625266e-08 6.407252e-15 4.9360814e-13
8.525431e-15 7.133267e-08 0.0 0.0 6.8830897e-10 15.012344 0.0 0.0009752107
7.642664e-11 0.0004989677 0.0 0.0 3.1656953e-05 0.006295636 0.0 0.0
2.2802905e-11 1.9482569e-07 0.0 2.9215323e-07 1.6540719e-10 0.00024053715 3.719632e-15 4.2306297e-12
4.188695e-12 1.1531602e-10 3.2841108e-15 1.0483595e-12 0.0 4.346799 0.0 6.328986e-05
3.6095488e-10 1.8870596e-05 0.0 0.0 0.0 2.3145046e-06 0.0 0.0
1.92334e-12 1.2551062e-10 0.0 1.5759132e-12 2.7351712e-12 6.4386906e-11 5.3746693e-15 0.0
4.3285393e-14 4.1424746e-12 0.0 8.547599e-14 0.104439475 8.09383 0.0 0.001449665
0.68372613 22.16017 0.0006739344 7.8700235e-10 5.315045e-12 11.411458 2.2461598e-19 1.844354e-12

momentum_buffer f4 [12, 12]
00000000: 451e 6140 7c77 4e40 0000 0000 4a7c 6340
00000010: d98d 6040 5cad 333f 4a32 3040 0000 0000
00000020: 74cb 5540 ff5f 6640 0000 0000 ebad 6540
00000030: 7f8d 83c0 a6df 2b3f d4df 483e 562e e540
00000040: 5b41 1dc0 25d9 1241 3833 aa40 838f 78c0
00000050: a9b3 b7c0 9262 a7c0 0000 0000 0000 0000
00000060: 4a55 b1bf ba8c b6bf c80c a4bf 320c cdbf
00000070: cb34 dbc0 b2c0 b740 acdd 6040 80bc 7840
00000080: 6c40 a840 0816 eebf d7fa 64c0 8dde 5fc0
00000090: 0d24 8a40 cb19 8040 0000 0000 0000 0000
000000a0: 6b47 8340 0b34 7f40 daf4 59c0 0000 0000
000000b0: c340 55c0 6692 8440 0000 0000 0000 0000
000000c0: ffba 123f 871d 5a40 2ee3 4ebf 1230 a8c1
000000d0: 03f0 b8c0 c66a 34bf 0a5c c6c1 b6b4 7840
000000e0: b13f ce40 0b0f c6bf 6c50 5ac0 1a24 63c0
000000f0: d0e7 1b3e 5434 9640 0000 0000 6db2 fa40
00000100: 8d87 e9c0 3d4f 71c1 3b29 cabe d7bc 7840
00000110: c341 e240 8d45 46c0 b146 68c0 0049 69c0
00000120: 5cb7 6740 fee0 5640 0000 0000 0000 0000
00000130: 57f9 6e40 7042 5f40 4b10 5ec0 12a2 7640
00000140: 0b2e 60c0 a691 6240 0000 0000 0000 0000
00000150: 497d 7040 e1e1 dfc0 0000 0000 c604 4640
00000160: c583 9840 5f24 fa40 0000 0000 0000 0000
00000170: 00ef a140 730b 0040 0000 0000 0000 0000
00000180: fccb ac40 6209 9cc1 0000 0000 c840 d1c0
00000190: dfe7 8140 9e72 87c0 aa52 3fc0 e211 78c0
000001a0: 3a62 383f 9c72 da40 b3ed 5540 8be2 68c0
000001b0: 0000 0000 b273 8dc0 0000 0000 52d6 8840
000001c0: acc7 9540 77c3 a340 0000 0000 0000 0000
000001d0: 0000 0000 b2d6 4840 0000 0000 0000 0000
000001e0: 1beb e540 3733 7440 0000 0000 2623 6940
000001f0: a4f4 dd40 7803 a940 0d67 58c0 0000 0000
00000200: 26a4 63c0 8896 c040 0000 0000 ee82 6540
00000210: df75 ab40 4ff3 6440 0000 0000 95c5 ea40
00000220: 14c4 8bc0 c6c0 13c1 061b 61c0 42c4 78c0
00000230: b3b1 6a40 8ff4 883f 09e1 88be cc38 69c0
3.5174725 3.2260427 0.0 3.554461 3.5086577 0.701864 2.7530694 0.0
3.3405428 3.5996091 0.0 3.58874 -4.1110225 0.67138135 0.19616634 7.1619062
-2.457114 9.178014 5.3187523 -3.8837593 -5.740681 -5.2307825 0.0 0.0
-1.3854153 -1.4261696 -1.28164 -1.6019347 -6.8501945 5.7422724 3.5135298 3.8865051
5.257864 -1.8600473 -3.57781 -3.4979584 4.3169007 4.0031486 0.0 0.0
4.102468 3.9875515 -3.4055696 0.0 -3.3320777 4.142871 0.0 0.0
0.57316583 3.4080522 -0.808154 -21.023472 -5.7792983 -0.70475423 -24.79494 3.8860297
6.445275 -1.5473341 -3.4111586 -3.5490785 0.15225148 4.6938877 0.0 7.8342805
-7.2977967 -15.081845 -0.3948458 3.8865259 7.0705276 -3.097995 -3.6293147 -3.6450806
3.6205664 3.3574824 0.0 0.0 3.7339685 3.48843 -3.4697444 3.853642
-3.5028102 3.5401397 0.0 0.0 3.7576468 -6.996323 0.0 3.0940413
4.766085 7.81694 0.0 0.0 5.060425 2.0006988 0.0 0.0
5.3999004 -19.504581 0.0 -6.539158 4.0595546 -4.2327414 -2.9894204 -3.8760915
0.7202488 6.8264904 3.342633 -3.638827 0.0 -4.420373 0.0 4.276162
4.680624 5.1176105 0.0 0.0 0.0 3.138104 0.0 0.0
7.1849494 3.815626 0.0 3.6427703 6.9361134 5.2816734 -3.3812897 0.0
-3.5568938 6.0183754 0.0 3.5861163 5.3581386 3.5773504 0.0 7.336619
-4.3676853 -9.234564 -3.5172744 -3.8869786 3.667096 1.0699633 -0.26734188 -3.6440916

square_avg f4 [12]
00000000: b600 812a 6a3f 6f39 5d37 2034 5e34 672c
00000010: 1689 463a f0a6 e735 81e2 c330 826f 6a38
00000020: 6b09 5d3c 7569 3937 e2fe b32d 30ef 643a
2.2915497e-13 0.0002281644 1.4921302e-07 3.2856144e-12 0.0007573528 1.7259426e-06 1.4252494e-09 5.5893797e-05
0.013491015 1.1051413e-05 2.0463135e-11 0.00087331515

momentum_buffer f4 [12]
00000000: 5356 6740 80b5 0e41 5b41 cdc0 c7e3 d440
00000010: a111 0b41 41a6 1fc0 2e8e 9240 15f2 74c1
00000020: 447d c0c1 0748 db41 7c12 cf40 1165 063f
3.6146438 8.919312 -6.414228 6.652805 8.691804 -2.4945223 4.579856 -15.309102
-24.061165 27.41017 6.4710064 0.52497965

square_avg f4 [3, 1]
00000000: 0000 0000 0000 0000 0000 0000
0.0 0.0 0.0

momentum_buffer f4 [3, 1]
00000000: 0000 0000 0000 0000 0000 0000
0.0 0.0 0.0

square_avg f4 [3, 1]
00000000: 0000 0000 3b15 852f 0000 0000
0.0 2.4207644e-10 0.0

momentum_buffer f4 [3, 1]
00000000: 0000 0000 9134 74c0 0000 0000
0.0 -3.8157084 0.0

square_avg f4 [5, 2]
00000000: 7741 e130 2d4f 2330 0000 0000 7658 9f27
00000010: 0000 0000 df68 6c2a 0000 0000 1c76 ad2c
00000020: 2807 2e34 04f4 1033
1.6389511e-09 5.941157e-10 0.0 4.4227275e-15 0.0 2.0997395e-13 0.0 4.9300685e-12
1.6207616e-07 3.3749544e-08

momentum_buffer f4 [5, 2]
00000000: 3431 5f40 53e1 6240 0000 0000 16ce 68c0
00000010: 0000 0000 c7a9 b440 0000 0000 ada9 d140
00000020: 6939 adc0 3829 93c0
3.4873781 3.5450027 0.0 -3.6375785 0.0 5.645725 0.0 6.5519624
-5.413258 -4.5987816

square_avg f4 [2, 2]
00000000: 0aab b633 916d 2a35 427a 6e33 eb42 e234
8.506147e-08 6.3489375e-07 5.5524886e-08 4.214447e-07

momentum_buffer f4 [2, 2]
00000000: cb02 bfbf 664c 07c1 b4e8 abc0 6748 aac0
-1.4922727 -8.456152 -5.372156 -5.321338

square_avg f4 [2]
00000000: f45e 3734 78e8 fa33
1.7077747e-07 1.1683818e-07

momentum_buffer f4 [2]
00000000: a59d 04c1 bba2 a3c0
-8.288487 -5.1136146

square_avg f4 [2, 2]
00000000: cffd 7834 13c7 6d35 3dc7 3b30 63d6 b530
2.3189135e-07 8.857907e-07 6.831334e-10 1.3230416e-09

momentum_buffer f4 [2, 2]
00000000: e982 fd40 15ad b1c0 0ef5 e340 34e7 64bf
7.9222302 -5.552378 7.123664 -0.8941529

square_avg f4 [2]
00000000: 1c83 9134 7cf6 8230
2.710375e-07 9.5288e-10

momentum_buffer f4 [2]
00000000: 1ec1 9540 3a9d a840
4.679824 5.2691927

square_avg f4 [2, 2]
00000000: 7231 1834 b66c e22f ddf0 5633 0000 0000
1.4174091e-07 4.1186404e-10 5.004482e-08 0.0

momentum_buffer f4 [2, 2]
00000000: fb8f 7e40 54c5 5040 7538 c740 0000 0000
3.9775379 3.262044 6.2256417 0.0

square_avg f4 [2]
00000000: 20fc 3526 c40b be33
6.3138683e-16 8.8497046e-08

momentum_buffer f4 [2]
00000000: bd71 4140 cc3c dd40
3.022567 6.9136715

square_avg f4 [3, 1]
00000000: 0000 0000 0000 0000 0000 0000
0.0 0.0 0.0

momentum_buffer f4 [3, 1]
00000000: 0000 0000 0000 0000 0000 0000
0.0 0.0 0.0

square_avg f4 [3, 1]
00000000: 0000 0000 0000 0000 0000 0000
0.0 0.0 0.0

momentum_buffer f4 [3, 1]
00000000: 0000 0000 0000 0000 0000 0000
0.0 0.0 0.0

square_avg f4 [3, 1]
00000000: 0000 0000 0000 0000 0000 0000
0.0 0.0 0.0

momentum_buffer f4 [3, 1]
00000000: 0000 0000 0000 0000 0000 0000
0.0 0.0 0.0

square_avg f4 [3, 1]
00000000: 0000 0000 0000 0000 0000 0000
0.0 0.0 0.0

momentum_buffer f4 [3, 1]
00000000: 0000 0000 0000 0000 0000 0000
0.0 0.0 0.0

square_avg f4 [346, 50]
00000000: 7124 033c 0000 0000 0000 0000 0000 0000
00000010: e703 403d 564f cf3a 9fff 4d3a 4f3e fc40
00000020: ab80 053c 9d69 163c 1515 f73f 0000 0000
00000030: 0000 0000 8243 303d ed8f ed3f 0000 0000
00000040: c0d6 013f 354d 332b 0000 0000 87be d33d
00000050: dbfc e03b df1e 8340 0000 0000 7cf2 293b
00000060: f21d 8f3e 0000 0000 a3ae ec3f 0000 0000
00000070: 0000 0000 2a82 943d 0000 0000 49b1 be2a
00000080: 0000 0000 31de a23f b219 0e3f 0000 0000
00000090: 0000 0000 cb9c a43f 0000 0000 0000 0000
000000a0: 0000 0000 c041 823c 0000 0000 0000 0000
000000b0: 0000 0000 0000 0000 7619 e62e 0000 0000
000000c0: 0000 0000 0000 0000 0000 0000 f09a 1c35
000000d0: aca0 2a28 4a15 c836 10ea c526 9986 c932
000000e0: aef0 0237 0000 0000 79cb f431 e50a f936
000000f0: d69f 5c34 0000 0000 5fe8 e537 80c9 ff32
00000100: ee3b 1338 572c 1837 0000 0000 0000 0000
00000110: 0000 0000 54e0 6d2a 87da 8932 0000 0000
00000120: 62e3 9c36 b46b 2c33 5f1f 0637 0000 0000
00000130: 0000 0000 0000 0000 935f 3737 f0ff 8937
00000140: 0000 0000 0000 0000 0000 0000 0000 0000
00000150: 0000 0000 0000 0000 7892 7137 0000 0000
00000160: 0000 0000 bb79 b430 1ab6 0937 2481 5d2c
00000170: 0000 0000 3d94 9937 c7ef b236 b29c 8736
00000180: 6f1b 4f38 0000 0000 0000 0000 b517 9b2c
00000190: 0000 0000 6376 7f27 0000 0000 b563 9336
000001a0: 0000 0000 0000 0000 0000 0000 0000 0000
000001b0: 0000 0000 6e17 e833 0000 0000 c344 1132
000001c0: d591 9235 3d98 a737 0000 0000 30a8 3137
000001d0: 8856 1233 0000 0000 6043 ef3a 0aac 183b
000001e0: 4464 0534 c75d 273b d5b8 733a f2c0 3f33
000001f0: 0000 0000 2465 013b 0000 0000 0000 0000
00000200: 852f a43a 0000 0000 0000 0000 0000 0000
00000210: 8ff1 f133 0000 0000 e9c8 e13a 3238 b23a
00000220: 56a5 c634 93b1 093a 0000 0000 0000 0000
00000230: 0000 0000 3ea0 0436 0000 0000 9343 7c2f
00000240: 0000 0000 8e91 e63a b392 0c2f c629 1527
00000250: 481e f039 5863 823a dfaa 6d37 0000 0000
00000260: c27b 9429 a0da 7a37 3c4f 9734 0000 0000
00000270: ced4 b233 0000 0000 0000 0000 2d1f d636
00000280: 0000 0000 0000 0000 0000 0000 e228 0e37
00000290: 0000 0000 2693 ef36 0000 0000 0000 0000
000002a0: 0000 0000 359b bb37 0000 0000 1314 2a29
000002b0: 0000 0000 6f3a ca37 1d43 8932 0000 0000
000002c0: d88a 5037 0000 0000 f25f 5d37 7ec1 ce36
000002d0: e7c5 4432 7445 3a37 0000 0000 0000 0000
000002e0: 0000 0000 354c 0f34 d356 ac27 0000 0000
000002f0: a81b 8c36 7ec4 e237 29fe 4238 0000 0000
00000300: 0000 0000 0000 0000 0000 0000 0000 0000
00000310: 0000 0000 0000 0000 0000 0000 1d4c 9637
00000320: 16ee cc35 0000 0000 fd48 af36 0000 0000
00000330: 0000 0000 9068 0530 0000 0000 7e8a 0a33
00000340: 25f1 2d32 0000 0000 0000 0000 0000 0000
00000350: 0000 0000 0000 0000 f4bf 5f35 0000 0000
00000360: 8020 0633 04fc 9e36 0000 0000 f222 e82a
00000370: 0000 0000 0000 0000 0000 0000 0000 0000
00000380: 0000 0000 0000 0000 a7dc 3236 c927 7236
00000390: e1db bd35 0000 0000 0000 0000 0000 0000
000003a0: 4b00 7c2d 905b 4835 0000 0000 d830 dc29
000003b0: 5cdc 2635 0000 0000 0000 0000 0000 0000
000003c0: 0000 0000 0000 0000 5f15 cb2d 88d6 8c35
000003d0: 91a4 d834 e00f f432 993a d032 0000 0000
000003e0: 0000 0000 4b76 9635 9080 153a a2d6 8838
000003f0: ca0e 9837 0000 0000 7369 8038 0968 263a
0.008004294 0.0 0.0 0.0 0.04687872 0.0015816491 0.000785822 7.882606
0.008148353 0.009180454 1.9303309 0.0 0.0 0.04303313 1.8559548 0.0
0.5071831 6.370072e-13 0.0 0.103390746 0.00686608 4.0975184 0.0 0.0025931885
0.27952534 0.0 1.8490795 0.0 0.0 0.07251389 0.0 3.3873796e-13
0.0 1.2724057 0.5550796 0.0 0.0 1.286035 0.0 0.0
0.0 0.015900493 0.0 0.0 0.0 0.0 1.0463712e-10 0.0
0.0 0.0 0.0 5.833999e-07 9.471736e-15 5.962943e-06 1.3733064e-15 2.3460688e-08
7.804641e-06 0.0 7.124467e-09 7.4220466e-06 2.0547245e-07 0.0 2.7407134e-05 2.9777539e-08
3.5103345e-05 9.07023e-06 0.0 0.0 0.0 2.1127658e-13 1.6048274e-08 0.0
4.675633e-06 4.0144826e-08 7.994327e-06 0.0 0.0 0.0 1.0929903e-05 1.6450853e-05
0.0 0.0 0.0 0.0 0.0 0.0 1.4398822e-05 0.0
0.0 1.3131322e-09 8.208235e-06 3.1477676e-12 0.0 1.830805e-05 5.332727e-06 4.0415553e-06
4.9378195e-05 0.0 0.0 4.407997e-12 0.0 3.5452536e-15 0.0 4.392549e-06
0.0 0.0 0.0 0.0 0.0 1.0807604e-07 0.0 8.455745e-09
1.092029e-06 1.9978843e-05 0.0 1.0589181e-05 3.4071974e-08 0.0 0.0018254332 0.0023295903
1.2423067e-07 0.0025538073 0.00092972565 4.4646136e-08 0.0 0.0019744122 0.0 0.0
0.0012526369 0.0 0.0 0.0 1.1266376e-07 0.0 0.0017226014 0.001359707
3.7000672e-07 0.0005252596 0.0 0.0 0.0 1.9762806e-06 0.0 2.2943274e-10
0.0 0.0017590986 1.2785044e-10 2.070055e-15 0.00045798928 0.000994782 1.4166085e-05 0.0
6.593989e-14 1.4952064e-05 2.8183592e-07 0.0 8.32748e-08 0.0 0.0 6.3813263e-06
0.0 0.0 0.0 8.473378e-06 0.0 7.1398854e-06 0.0 0.0
0.0 2.2364411e-05 0.0 3.7764994e-14 0.0 2.4107487e-05 1.5979419e-08 0.0
1.2430093e-05 0.0 1.31949655e-05 6.161804e-06 1.1453699e-08 1.1102635e-05 0.0 0.0
0.0 1.3345637e-07 4.7833725e-15 0.0 4.1755447e-06 2.7032798e-05 4.648991e-05 0.0
0.0 0.0 0.0 0.0 0.0 0.0 0.0 1.7916836e-05
1.5268477e-06 0.0 5.2239034e-06 0.0 0.0 4.853371e-10 0.0 3.2256587e-08
1.0124755e-08 0.0 0.0 0.0 0.0 0.0 8.33533e-07 0.0
3.1228865e-08 4.7381054e-06 0.0 4.1235727e-13 0.0 0.0 0.0 0.0
0.0 0.0 2.6652503e-06 3.6083968e-06 1.414559e-06 0.0 0.0 0.0
1.4324607e-11 7.4639047e-07 0.0 9.7784357e-14 6.2160484e-07 0.0 0.0 0.0
0.0 0.0 2.3087919e-11 1.049325e-06 4.0352873e-07 2.8412558e-08 2.4241034e-08 0.0
0.0 1.1210299e-06 0.0005703056 6.524964e-05 1.8126699e-05 0.0 6.123157e-05 0.00063479

momentum_buffer f4 [346, 50]
00000000: 975c 1941 0000 0000 0000 0000 0000 0000
00000010: f4be d240 f2e2 2c41 a595 cb40 7e7e 9ec0
00000020: 094b fe40 e487 0f41 b894 81c1 0000 0000
00000030: 0000 0000 a85a d640 288e 9cc1 0000 0000
00000040: 06cc ac40 a37f 6840 0000 0000 9ea4 c440
00000050: 3b9e 3f40 469a 29bf 0000 0000 26cf 2f41
00000060: c4a6 e340 0000 0000 10d5 11c1 0000 0000
00000070: 0000 0000 0480 8a40 0000 0000 cdd9 6740
00000080: 0000 0000 ce09 90c1 8bac ce40 0000 0000
00000090: 0000 0000 cc3e c4c1 0000 0000 0000 0000
000000a0: 0000 0000 5d5c d640 0000 0000 0000 0000
000000b0: 0000 0000 0000 0000 a6ec e840 0000 0000
000000c0: 0000 0000 0000 0000 0000 0000 4e09 eb40
000000d0: ec8a 6340 1b8c 0441 2562 4940 af6d 8140
000000e0: f905 8340 0000 0000 0e6b 9a40 15cc a3c0
000000f0: 3af3 f540 0000 0000 035c 1141 94b8 9d40
00000100: 50e1 bd40 5204 cd40 0000 0000 0000 0000
00000110: 0000 0000 579a dd40 1ec6 fc40 0000 0000
00000120: 6580 3341 b40b 9540 7521 0740 0000 0000
00000130: 0000 0000 0000 0000 4bb3 c740 c3c6 38c0
00000140: 0000 0000 0000 0000 0000 0000 0000 0000
00000150: 0000 0000 0000 0000 a952 17c0 0000 0000
00000160: 0000 0000 2ddf a440 2a2b 9840 0ead a240
00000170: 0000 0000 c2ce 01c0 c139 21c0 7bbb e23f
00000180: 4318 1fbe 0000 0000 0000 0000 d962 cb40
00000190: 0000 0000 3ea7 5440 0000 0000 e4ce ea40
000001a0: 0000 0000 0000 0000 0000 0000 0000 0000
000001b0: 0000 0000 fbf5 f340 0000 0000 8d64 e640
000001c0: 85e7 2041 883b d140 0000 0000 b80a e540
000001d0: b2a3 2441 0000 0000 e469 2141 40ce c940
000001e0: cdef ae40 db5f 88c1 4753 c9c0 9516 ea40
000001f0: 0000 0000 5c9b 30c1 0000 0000 0000 0000
00000200: 66b7 5440 0000 0000 0000 0000 0000 0000
00000210: 462c 5d41 0000 0000 0742 8940 0b2c 3541
00000220: 327d 0241 9b6f 2c40 0000 0000 0000 0000
00000230: 0000 0000 47b5 6040 0000 0000 64eb da40
00000240: 0000 0000 8afa 29c1 8f47 e040 25c4 4e40
00000250: 441b da40 b41f b240 27e9 0dc1 0000 0000
00000260: e236 c540 6c88 fc3f 5832 d740 0000 0000
00000270: b569 f240 0000 0000 0000 0000 4cef 2041
00000280: 0000 0000 0000 0000 0000 0000 c94a 4041
00000290: 0000 0000 5cf1 1541 0000 0000 0000 0000
000002a0: 0000 0000 38f8 cb41 0000 0000 30be d340
000002b0: 0000 0000 4951 5a41 7df0 f840 0000 0000
000002c0: aa85 7e41 0000 0000 0612 d0c0 2820 5941
000002d0: 30ac fc40 4f0f 6e41 0000 0000 0000 0000
000002e0: 0000 0000 161b 4741 80b1 a340 0000 0000
000002f0: a16a 1840 267c 96c1 75ee 6541 0000 0000
00000300: 0000 0000 0000 0000 0000 0000 0000 0000
00000310: 0000 0000 0000 0000 0000 0000 8509 e6c1
00000320: 4fa7 b6c0 0000 0000 43cc ecc0 0000 0000
00000330: 0000 0000 8255 8740 0000 0000 d0ab a540
00000340: 95db 9040 0000 0000 0000 0000 0000 0000
00000350: 0000 0000 0000 0000 6c09 4540 0000 0000
00000360: 7257 a440 bdf2 6bc0 0000 0000 4c5f 1140
00000370: 0000 0000 0000 0000 0000 0000 0000 0000
00000380: 0000 0000 0000 0000 d82a 76c1 1c94 c9c0
00000390: 721b ae3f 0000 0000 0000 0000 0000 0000
000003a0: 0bcd e23f 59d6 a4c0 0000 0000 71e1 ca40
000003b0: f418 46c1 0000 0000 0000 0000 0000 0000
000003c0: 0000 0000 0000 0000 b6e9 0240 752e dabf
000003d0: 2a78 1ec1 72eb 0041 a2a7 f540 0000 0000
000003e0: 0000 0000 0078 bd40 00e6 7340 9867 0a41
000003f0: 170d ea40 0000 0000 844e 9040 dfcc 14c1
9.585105 0.0 0.0 0.0 6.5858097 10.805407 6.362017 -4.952941
7.9466596 8.970676 -16.197617 0.0 0.0 6.6985664 -19.569412 0.0
5.399905 3.6327903 0.0 6.145095 2.9940326 -0.6625103 0.0 10.988073
7.114107 0.0 -9.114517 0.0 0.0 4.328127 0.0 3.6226685
0.0 -18.004787 6.4585624 0.0 0.0 -24.530663 0.0 0.0
0.0 6.698775 0.0 0.0 0.0 0.0 7.2788877 0.0
0.0 0.0 0.0 7.344886 3.555354 8.284205 3.1466153 4.044639
4.094479 0.0 4.825568 -5.1186624 7.6859407 0.0 9.084964 4.9287815
5.933754 6.4067774 0.0 0.0 0.0 6.9250903 7.899184 0.0
11.218846 4.6576786 2.111417 0.0 0.0 0.0 6.2406363 -2.8871315
0.0 0.0 0.0 0.0 0.0 0.0 -2.3644202 0.0
0.0 5.152243 4.755269 5.083625 0.0 -2.0282445 -2.51915 1.7713464
-0.15536599 0.0 0.0 6.3558164 0.0 3.3227077 0.0 7.337755
0.0 0.0 0.0 0.0 0.0 7.623777 0.0 7.1997743
10.056523 6.538517 0.0 7.1575584 10.289965 0.0 10.088352 6.306427
5.4667726 -17.046804 -6.2914157 7.3152566 0.0 -11.03793 0.0 0.0
3.3236938 0.0 0.0 0.0 13.823309 0.0 4.28931 11.323253
8.155565 2.6943119 0.0 0.0 0.0 3.5110643 0.0 6.841234
0.0 -10.623667 7.008735 3.2307217 6.8158283 5.56637 -8.869422 0.0
6.1629496 1.9729133 6.7248955 0.0 7.5754037 0.0 0.0 10.058422
0.0 0.0 0.0 12.018258 0.0 9.371426 0.0 0.0
0.0 25.4962 0.0 6.6169662 0.0 13.644845 7.7793565 0.0
15.907633 0.0 -6.5022 13.570351 7.896019 14.878737 0.0 0.0
0.0 12.444113 5.1154175 0.0 2.381508 -18.81062 14.370717 0.0
0.0 0.0 0.0 0.0 0.0 0.0 0.0 -28.754648
-5.7079234 0.0 -7.3999343 0.0 0.0 4.229188 0.0 5.177223
4.5268044 0.0 0.0 0.0 0.0 0.0 3.0787 0.0
5.1356745 -3.6866906 0.0 2.2714415 0.0 0.0 0.0 0.0
0.0 0.0 -15.38546 -6.2993298 1.3602126 0.0 0.0 0.0
1.7718824 -5.1511655 0.0 6.3400197 -12.381092 0.0 0.0 0.0
0.0 0.0 2.0455146 -1.7045428 -9.904337 8.057482 7.676713 0.0
0.0 5.9208984 3.810913 8.650291 7.314098 0.0 4.5095844 -9.300017

square_avg f4 [50, 50]
00000000: 57d8 6234 7698 3535 22bd cd37 a8af 6535
00000010: cfb0 2530 1a0f a536 fd0d 3d36 3e99 1736
00000020: 680a a634 5d38 5436 9754 5c35 c4a5 0833
00000030: 07bc 1a34 50ed c836 b1c7 9a32 8a31 8f36
00000040: d7c9 6736 cc57 2136 a81a b432 0b39 f231
00000050: edf0 2431 ec06 d834 35c2 4235 8664 6e36
00000060: 04df ab37 6de2 1337 6bf4 1836 783f 0136
00000070: 872e 1836 fbdd 2633 6e0c 9a35 690a ba35
00000080: 9aec 9237 6d71 f137 aee0 8135 3115 b535
00000090: 86e6 6234 1498 3937 8c63 9234 37a9 c335
000000a0: 494f 7737 9ba6 8835 6540 e333 802b 6f35
000000b0: fcb1 1437 e591 e835 2f32 7536 5f86 4d31
000000c0: 3df2 f131 9acf 5d34 28ee 893a d22a d83a
000000d0: 32e3 6f39 08ee ef3b 4836 113b c086 2a3b
000000e0: 4503 5039 c9f9 5b3b a17e 4a3a 748d a93a
000000f0: 82c3 203b 6288 9b38 daee ff38 0543 943a
00000100: 4934 063b ed36 af39 d6c5 2e3c 58bd d13a
00000110: 5760 2b3a f7bb 2f3a f4b1 1e3c 5e40 893a
00000120: efea 7138 ce15 073a e228 a53a 5617 993c
00000130: f964 013a 2924 4638 406e b43a 7317 463a
00000140: feb8 c238 bbb6 0239 46bb 6138 574f 263b
00000150: 0542 833b f9f7 1438 2e8d 773a efb7 403a
00000160: eded 1a3b b156 5139 92aa a538 8c94 7a3a
00000170: 8a1f d139 d2d9 9337 9ea6 9d38 639a 3e39
00000180: f1a6 0e39 7cd6 263b b348 5f3a 90b7 6839
00000190: d116 e337 73c1 983b 304c 8f39 5b33 6e3b
000001a0: b671 f739 870f b73a 3b4a af3b d444 c33b
000001b0: 419e d837 6c3a 663c 522e f939 f59e 823b
000001c0: b089 ef36 a291 ce39 cb4d 6f3b 26d7 1439
000001d0: bf10 743a e356 6b37 78ca 8c38 f77d 133c
000001e0: f183 133a ad05 6c3a cdd9 9d3a e182 7a3a
000001f0: 4328 b239 7217 123c 5a15 fe38 b8de 2f3a
00000200: 3fe0 ae39 ac93 453a 06eb be3b b355 2439
00000210: 9da8 1b37 0f5f 883a 7346 2b3a a19b 5239
00000220: 8f7f 943c 0bf8 a939 08cd 9837 02c2 db36
00000230: 2907 c536 e450 853a 6618 2238 9eba 213a
00000240: 2031 8c39 9a0d 2638 55d3 8537 e65f 9538
00000250: dc3f d13c a080 4337 4aa4 613d f15e e03b
00000260: 6a68 6b3b 131f 2e3c 39fe bf3c f7cc e53c
00000270: 1de8 e13c 7e8c 0e3f 085d 4c3d 4037 663d
00000280: ccd9 573f 6a7c 583d 4ecb 1c3c cd10 e63b
00000290: cd79 5e3d 1328 033d ea8c d33c 9a8b ff3e
000002a0: f7db 423c cbf3 6a3c 38c1 853b 2c34 dc3e
000002b0: cd84 9d3b 832e 2f3c dc7d 983c 22e3 ac3b
000002c0: 93da d93e 22ae f73b 7b01 d83d 5604 bb3d
000002d0: 59b9 933c 5675 373a 2a07 973b 4782 453e
000002e0: 029c 133d 5808 003b aa55 423b 8ff7 3a3e
000002f0: 41f5 933b 5a59 7e3c 69e2 a43b 877e d43c
00000300: d52e 723a 6859 0e3c 778d a53a 8743 873e
00000310: 4aa6 8c3c 255c 873c 55b1 e03b d958 7d3b
00000320: 3224 b93a 5b4f a835 af98 b238 6478 803a
00000330: defe 0435 1a14 962f b427 743a 4529 8135
00000340: 2147 ed3c f32a 0038 0778 e03a 9939 ab33
00000350: a251 2633 9ab3 3934 758f f235 eb1d 4939
00000360: 0ff2 8d31 56bf 6236 f517 162e f57c 1633
00000370: 7856 f830 baa6 3736 1b1d b637 a347 2636
00000380: 689d 183b d0e1 6d39 e4e4 9434 ed1e 1e37
00000390: 2818 b637 b1d1 3034 fc81 d136 6fcd 3c36
000003a0: c9e4 1630 4bfa 883a adcc 3a35 9ea2 c538
000003b0: 60e3 0035 5b58 8a30 2563 a232 74a3 ab2f
000003c0: 63eb fd38 8bda 8136 8eb6 a236 5f08 6e3b
000003d0: b46b 3c34 d723 dd30 e98e 3936 7b03 8731
000003e0: 9247 0534 9907 3330 09df 272b dfaa c033
000003f0: a078 212d b02e 142e c786 6e33 04fa ca2b
2.1126594e-07 6.7649614e-07 2.4525976e-05 8.556476e-07 6.027791e-10 4.9191412e-06 2.8171337e-06 2.2589952e-06
3.092748e-07 3.162327e-06 8.207948e-07 3.181573e-08 1.4410772e-07 5.9880913e-06 1.8018769e-08 4.267499e-06
3.4539169e-06 2.4041974e-06 2.096688e-08 7.049612e-09 2.4002091e-09 4.0238172e-07 7.255324e-07 3.5523276e-06
2.0488638e-05 8.814602e-06 2.2792035e-06 1.9259442e-06 2.2676847e-06 3.8851777e-08 1.1477512e-06 1.386111e-06
1.7514732e-05 2.8782257e-05 9.676639e-07 1.3491718e-06 2.1131754e-07 1.1062268e-05 2.726705e-07 1.457788e-06
1.4740807e-05 1.0181278e-06 1.05822245e-07 8.909774e-07 8.862928e-06 1.7327808e-06 3.6537056e-06 2.9907807e-09
7.0415624e-09 2.0657754e-07 0.0010523247 0.0016492254 0.00022877453 0.0073220767 0.0022157598 0.0026020259
0.00019837644 0.0033565632 0.00077245577 0.0012935833 0.0024530594 7.416379e-05 0.00012203837 0.0011311477
0.0020477942 0.00033419524 0.010667285 0.0016001863 0.0006537488 0.0006703729 0.009685982 0.0010471453
5.7677677e-05 0.00051530905 0.0012600685 0.018687885 0.00049360056 4.7240555e-05 0.0013765767 0.0007556595
9.285098e-05 0.00012465839 5.3818592e-05 0.002537688 0.004005673 3.5516892e-05 0.00094433397 0.0007351627
0.002364035 0.00019964088 7.899584e-05 0.00095588784 0.00039887085 1.7625196e-05 7.517378e-05 0.00018177326
0.00013604366 0.0025457432 0.0008517608 0.00022193627 2.7071133e-05 0.004661733 0.0002733185 0.0036346528
0.00047196232 0.001396642 0.005349425 0.0059591327 2.58229e-05 0.014052015 0.00047527492 0.0039862343
7.138784e-06 0.00039399887 0.0036514874 0.00014194529 0.00093103567 1.4027321e-05 6.713433e-05 0.0090022
0.0005627266 0.00090035313 0.0012043059 0.00095562456 0.00033980803 0.008916723 0.00012115641 0.0006708908
0.00033354943 0.00075369584 0.005826357 0.00015672184 9.277978e-06 0.0010404306 0.000653363 0.00020085137
0.01812723 0.00032418998 1.8215287e-05 6.549294e-06 5.871891e-06 0.0010171202 3.8646533e-05 0.0006169471
0.00026739482 3.959015e-05 1.5953245e-05 7.122736e-05 0.025543146 1.1652854e-05 0.05508832 0.0068472554
0.003592039 0.010627526 0.023436652 0.028051836 0.0275765 0.55683124 0.04989341 0.056205034
0.84316707 0.052853025 0.009569956 0.007021046 0.054315377 0.03202064 0.025824029 0.49911195
0.011893264 0.014340351 0.0040818714 0.43008554 0.004807091 0.010692242 0.018614702 0.0052761
0.4254957 0.0075586 0.105471574 0.091316864 0.018032717 0.00069983804 0.0046090083 0.19287978
0.036037453 0.0019536223 0.002965311 0.18258499 0.0045153205 0.015524233 0.005031873 0.02593924
0.0009238546 0.008688308 0.0012630661 0.26418707 0.017169137 0.01652343 0.006857077 0.0038657694
0.0014125167 1.2540071e-06 8.516141e-05 0.0009801504 4.954471e-07 2.7299124e-10 0.00093137776 9.62326e-07
0.028964581 3.0557578e-05 0.0017125615 7.973285e-08 3.872413e-08 1.7294806e-07 1.8072157e-06 0.00019179999
4.131159e-09 3.3787996e-06 3.412733e-11 3.5038244e-08 1.8068951e-09 2.7366173e-06 2.1709644e-05 2.4777626e-06
0.002328718 0.00022686203 2.7733688e-07 9.424734e-06 2.170734e-05 1.6467563e-07 6.2438176e-06 2.813376e-06
5.4894805e-10 0.001045057 6.958824e-07 9.423982e-05 4.801459e-07 1.0065934e-09 1.8904368e-08 3.122086e-10
0.00012107824 3.8699413e-06 4.8492284e-06 0.0036320908 1.7548047e-07 1.6090053e-09 2.7650333e-06 3.929413e-09
1.2412627e-07 6.513062e-10 5.963984e-13 8.971778e-08 9.178575e-12 3.369277e-11 5.5536272e-08 1.4422357e-12
