Multistate Intensity Models/SDDR_outputs/best_estimator_splines_event_23.pth (torch, 322117 bytes, 114 tensors)

square_avg f4 [2, 1]
0	0x00000000	0.0
1	0x00000000	0.0

momentum_buffer f4 [2, 1]
0	0x00000000	0.0
1	0x00000000	0.0

square_avg f4 [2]
0	0x00000000	0.0
1	0x00000000	0.0

momentum_buffer f4 [2]
0	0x00000000	0.0
1	0x00000000	0.0

square_avg f4 [2, 2]
0	0x00000000	0.0
1	0x00000000	0.0
2	0x00000000	0.0
3	0x00000000	0.0

momentum_buffer f4 [2, 2]
0	0x00000000	0.0
1	0x00000000	0.0
2	0x00000000	0.0
3	0x00000000	0.0

square_avg f4 [2]
0	0x290eb00c	3.168303e-14
1	0x242888a9	3.654495e-17

momentum_buffer f4 [2]
0	0x41927e14	18.311562
1	0x3fd6ae5a	1.6771958

square_avg f4 [2, 2]
0	0x28bd51c6	2.1018679e-14
1	0x22e7087c	6.262166e-18
2	0x1f2ef2de	3.7046828e-20
3	0x1da96f1d	4.4848816e-21

momentum_buffer f4 [2, 2]
0	0x41275511	10.458268
1	0xc0139480	-2.3059387
2	0x3ea2e3fd	0.31814566
3	0x3dcce1ef	0.10004031

square_avg f4 [2]
0	0x2822fda6	9.047808e-15
1	0x1fad9de6	7.352957e-20

momentum_buffer f4 [2]
0	0x4056f7ef	3.3588827
1	0x3ee7b269	0.45253304

square_avg f4 [2, 2]
0	0x2565cc34	1.993177e-16
1	0x1c1d9a2c	5.2146205e-22
2	0x2898ae24	1.6950911e-14
3	0x1f210467	3.4096718e-20

momentum_buffer f4 [2, 2]
0	0xbfcad7a8	-1.5847063
1	0xbd1b0804	-0.03784944
2	0x3ffa2d68	1.9545107
3	0xbe8b252c	-0.27176797

square_avg f4 [2]
0	0x238d465e	1.5317052e-17
1	0x269d90a7	1.0933272e-15

momentum_buffer f4 [2]
0	0xbfa03354	-1.2515664
1	0xc102ec72	-8.182726

square_avg f4 [12, 12]
0	0x3fe55875	1.791762
1	0x3f332af2	0.69987404
2	0x3e724359	0.23658504
3	0x3eed59f8	0.46357703
4	0x3fb60446	1.4220054
5	0x3f6058f3	0.87635726
6	0x3f93676e	1.1515939
7	0x3ea768d0	0.32697153
8	0x3e214ce7	0.15751992
9	0x3df8991c	0.12138578
10	0x3ce577ff	0.02801132
11	0x3ac0d63d	0.0014712285
12	0x408da7e2	4.4267435
13	0x4024d756	2.575643
14	0x3fdf0d0c	1.7425857
15	0x4014c467	2.3244874
16	0x3fde10e9	1.734891
17	0x3ff8e112	1.9443686
18	0x4010b7ec	2.2612257
19	0x3faa5fb3	1.3310455
20	0x3f95bad3	1.1697639
21	0x3fa80d99	1.312915
22	0x3cff603c	0.031173818
23	0x3d1a230e	0.037631087
24	0x3fc1136d	1.5084053
25	0x3fa2c64c	1.2716765
26	0x4023badc	2.55828
27	0x3f2245ed	0.6338795
28	0x3ec9428f	0.39308593
29	0x3fa74d75	1.3070513
30	0x3f8fb3e7	1.1226777
31	0x3eb7967b	0.35856995
32	0x3d830359	0.06397123
33	0x3f286d51	0.65791804
34	0x3cdede24	0.027205534
35	0x3c36e8fc	0.011163946
36	0x40b4efe8	5.6542854
37	0x402da900	2.71344
38	0x3e86a654	0.26298773
39	0x4018490b	2.3794582
40	0x40b110be	5.5332937
41	0x407ee0e2	3.9824758
42	0x40488212	3.1329389
43	0x3fa7ef37	1.3119878
44	0x3f81edae	1.0150659
45	0x3fa758d8	1.3073988
46	0x3b5c60d3	0.0033627048
47	0x3e56d197	0.2097839
48	0x3fe53a53	1.7908424
49	0x3f743aa5	0.95401984
50	0x3f10ffd0	0.5664034
51	0x3f995f30	1.1982174
52	0x3f35a188	0.709496
53	0x3f2fe10d	0.68702775
54	0x3fbd4d1e	1.4789159
55	0x3fc93953	1.5720619
56	0x3f080300	0.5312958
57	0x3ef67768	0.48137975
58	0x3b33d1c0	0.0027438253
59	0x3c817613	0.015803372
60	0x401344bf	2.301071
61	0x3f3c31ae	0.73513305
62	0x3ffff3a7	1.9996232
63	0x400106a0	2.0160294
64	0x3f7c9009	0.9865728
65	0x401a24f7	2.4085062
66	0x3f7bcef2	0.9836265
67	0x4087e4da	4.246686
68	0x3db6d630	0.08927572
69	0x3e704c87	0.23466693
70	0x39577971	0.00020549238
71	0x3a9c4465	0.0011922239
72	0x403acfe0	2.9189377
73	0x3f3f8afd	0.74821454
74	0x3dc699c5	0.09697298
75	0x40335f18	2.802679
76	0x400e8814	2.2270555
77	0x3fbd00de	1.476589
78	0x3fbe982d	1.489019
79	0x3f7b8eae	0.98264587
80	0x3f028760	0.50987816
81	0x3d9ecd4d	0.07754002
82	0x3b8c0609	0.0042731804
83	0x39463f3e	0.00018906311
84	0x3fb3815c	1.4023852
85	0x3f670fb2	0.90258324
86	0x3f4eb75c	0.80748534
87	0x3f738d93	0.951379
88	0x400378b7	2.0542428
89	0x3fa96f88	1.3237162
90	0x3fc2fc3d	1.5233227
91	0x3f15b6b7	0.58481926
92	0x3eabdf82	0.3356896
93	0x3f0ec8f5	0.55775386
94	0x3c6f4ac0	0.014605224
95	0x3de5b548	0.11216217
96	0x3eeda688	0.46416116
97	0x3e45a775	0.19302161
98	0x3de274a2	0.11057402
99	0x3e86b449	0.26309422
100	0x3f996109	1.1982738
101	0x3e9a2178	0.3010366
102	0x3e7f831c	0.24952358
103	0x3e8e92fb	0.27846512
104	0x3d033d47	0.03204086
105	0x3e92995a	0.28632623
106	0x3c9fe42f	0.019517986
107	0x39fb83e6	0.00047972723
108	0x3ef94ece	0.48692936
109	0x3f9e3fa6	1.2363174
110	0x3f2e0da9	0.67989594
111	0x3e99f209	0.3006747
112	0x3e81094d	0.25202408
113	0x3f6c3729	0.9227167
114	0x3e1d2d2a	0.1534926
115	0x3e3a37f8	0.18185413
116	0x3e68624d	0.22693749
117	0x3e83010a	0.2558673
118	0x3cc7fe1e	0.024413165
119	0x3ca7e280	0.020493746
120	0x407178d5	3.773
121	0x4011c6c1	2.277756
122	0x3f70456b	0.93855923
123	0x4015f01e	2.3427806
124	0x3fea29a6	1.829396
125	0x3fbfded5	1.4989878
126	0x409c4ebd	4.8846116
127	0x3fb8ebbe	1.4446943
128	0x3f15d26e	0.58524215
129	0x3f73a5d1	0.9517489
130	0x3bb694a0	0.0055719167
131	0x3ac6d2a5	0.0015168978
132	0x3f94b391	1.1617299
133	0x3f793063	0.9733946
134	0x3f42e954	0.7613728
135	0x3f0bfc99	0.5468231
136	0x3ecce393	0.40017375
137	0x3ed90186	0.42383975
138	0x3fba4f56	1.4555461
139	0x3ec28b91	0.37997106
140	0x3e1da110	0.15393472
141	0x3ea218a6	0.3165943
142	0x3af4bc90	0.0018671919
143	0x3af5f5f9	0.0018765322

momentum_buffer f4 [12, 12]
0	0xbfbf0356	-1.4922893
1	0x41290bce	10.565382
2	0x41a0ee8f	20.116484
3	0x41bc5099	23.539354
4	0x412fb6a3	10.982089
5	0x410ed7ae	8.927656
6	0xc08e8037	-4.453151
7	0xc1e913a1	-29.134584
8	0xc15bd136	-13.738577
9	0xbf09f27a	-0.53885615
10	0xc143d416	-12.239279
11	0x4164e478	14.3057785
12	0x4148c6e0	12.548553
13	0x410279f1	8.154771
14	0xc112f275	-9.184194
15	0x41a70225	20.876047
16	0xc16ddea7	-14.8668585
17	0x40d0656c	6.5123806
18	0x408381de	4.109603
19	0x411e9241	9.9107065
20	0x419a0916	19.254436
21	0xc0c94379	-6.2894864
22	0xc1a24df3	-20.288061
23	0x3e5f8a10	0.2183001
24	0xc14ba951	-12.728837
25	0x407eb5bb	3.979842
26	0xc1cd18e4	-25.637154
27	0x3fb2ce06	1.3969123
28	0xc0508330	-3.258007
29	0x3fa2075d	1.2658497
30	0x40235bb4	2.552472
31	0xc0d128e8	-6.5362434
32	0x4118b4b8	9.544121
33	0xc107875c	-8.470547
34	0x4102d9cd	8.178174
35	0x410b194c	8.693676
36	0xc1291988	-10.568733
37	0x4137d264	11.488865
38	0xc10e925d	-8.910733
39	0xbf99cb15	-1.2015101
40	0xbe1cbe62	-0.15307
41	0x41267a2c	10.404827
42	0xc1171644	-9.442936
43	0x3f221341	0.6331063
44	0xc00ee9bc	-2.233016
45	0x3d78e53b	0.060765486
46	0x4163fd4d	14.249341
47	0xc144531d	-12.270291
48	0x40aeff03	5.4686294
49	0xc0845f21	-4.1366124
50	0xc07f938a	-3.99338
51	0x41373386	11.450079
52	0x4003a311	2.0568278
53	0x3fd93e05	1.6972052
54	0x4007280a	2.1118188
55	0x416b5e78	14.710564
56	0x41de256a	27.768269
57	0x41cd4af7	25.661604
58	0x417a9718	15.661888
59	0x41b7f64b	22.99526
60	0xc01ff2da	-2.4991975
61	0xbff2a3cb	-1.8956236
62	0xc1efeb39	-29.989855
63	0x4100be53	8.046466
64	0x400d4066	2.2070556
65	0x417d1118	15.816673
66	0xc0f32a24	-7.598894
67	0xbf5f3e58	-0.87204504
68	0xc1feb8ac	-31.840172
69	0x40b363c3	5.605928
70	0x41babb2d	23.341394
71	0xc112ee0f	-9.18312
72	0x40f999b6	7.8000135
73	0x40870e57	4.2205005
74	0xc02ae74c	-2.6703672
75	0xc01788f7	-2.3677347
76	0xc1090a91	-8.56508
77	0x3dc6b6ad	0.097028114
78	0x3f38f89d	0.72254354
79	0xc0c73b0c	-6.225958
80	0xc190ed76	-18.115948
81	0x414c9887	12.787238
82	0x3edb1d85	0.4279596
83	0x41c98055	25.187662
84	0x40951ac6	4.6595182
85	0x41150608	9.313972
86	0xc0be6e94	-5.9509983
87	0x40c60cc5	6.189059
88	0x410699f7	8.412589
89	0xc13dda45	-11.865788
90	0x400ff03e	2.2490382
91	0xc088ec47	-4.2788424
92	0xc204ee20	-33.232544
93	0xc1780610	-15.50148
94	0x412c4343	10.766421
95	0x40274cfc	2.6140738
96	0x4167c150	14.484695
97	0x4037e0d1	2.8730967
98	0x41dde0ea	27.734821
99	0xbf0364f3	-0.5132591
100	0xc0f498df	-7.643661
101	0x412305df	10.188933
102	0x40cc7b76	6.390071
103	0x41681abe	14.506529
104	0xc0a67ce0	-5.2027435
105	0x41267a09	10.404794
106	0xc19c8213	-19.563513
107	0xc0573521	-3.3626177
108	0xc168a209	-14.539559
109	0xc18d8aee	-17.692837
110	0x416b863e	14.720274
111	0xc0fca564	-7.8951893
112	0xc0faa590	-7.8327103
113	0xc17e4eff	-15.894286
114	0x40c2c719	6.086804
115	0xc1fe4519	-31.78374
116	0xc1b1b10f	-22.211454
117	0xc111f5a1	-9.122468
118	0x41471dd4	12.444782
119	0x3ff52305	1.9151312
120	0xc123fc69	-10.249124
121	0xc19d1cca	-19.639057
122	0xc016b537	-2.3548105
123	0x40568c21	3.3523028
124	0x41855187	16.664808
125	0xc0315a3a	-2.771132
126	0xc12800dc	-10.50021
127	0xc18612b3	-16.75913
128	0xc0e03ad3	-7.0071807
129	0xc052deb8	-3.2948437
130	0x4157fd41	13.49933
131	0x42008b0e	32.135796
132	0x402a538b	2.661349
133	0xc1bbe1ae	-23.485195
134	0x3e4fceb2	0.20293692
135	0xc14ff488	-12.9972
136	0x40134084	2.3008127
137	0xc075a267	-3.8380373
138	0xc18d7c14	-17.685585
139	0xbfbe593b	-1.4870981
140	0x419c2549	19.518206
141	0xc153b576	-13.231802
142	0xc0ea0571	-7.313164
143	0xc08dcf91	-4.4315877

square_avg f4 [12]
0	0x3f610a44	0.8790629
1	0x40be27b6	5.9423475
2	0x3f94a1e5	1.1611906
3	0x409f220d	4.9729066
4	0x403d250a	2.9553857
5	0x3fdeba23	1.7400554
6	0x3fecbcf1	1.849516
7	0x3fb579e9	1.4177829
8	0x3ec1b2b1	0.37831643
9	0x3f3b8b3c	0.7325933
10	0x40d3adfc	6.6149883
11	0x3f313d36	0.69234025

momentum_buffer f4 [12]
0	0x4166220a	14.38331
1	0x4177490b	15.455333
2	0xc0af79a6	-5.4835997
3	0x403468e4	2.818902
4	0x41c03a99	24.028612
5	0x41397dff	11.593261
6	0x41ad1904	21.637215
7	0xc187f576	-16.994854
8	0x41864490	16.783478
9	0xc14f56f1	-12.958726
10	0x4063d2f9	3.5597517
11	0x40ef1b2a	7.472066

square_avg f4 [12, 12]
0	0x3e81648b	0.2527202
1	0x4157aa9c	13.479153
2	0x40197767	2.3979127
3	0x418f2442	17.892704
4	0x40b85176	5.759944
5	0x3fbc3b8e	1.4705675
6	0x3d814c93	0.063134335
7	0x4084c8cc	4.1495113
8	0x3e42cb71	0.19022919
9	0x4007f215	2.1241505
10	0x3fd55859	1.6667587
11	0x3f3c7457	0.7361502
12	0x3b85e7ad	0.004086456
13	0x3d6b5ed5	0.057463486
14	0x3db0946d	0.0862206
15	0x3d0e8511	0.03479487
16	0x3cbba432	0.022905443
17	0x3b0fcf8c	0.0021943776
18	0x3a75edca	0.00093814416
19	0x3ba27222	0.0049574533
20	0x3949ca9b	0.0001924433
21	0x3f042747	0.5162243
22	0x3d91e9d6	0.07124679
23	0x3a3d6ca9	0.00072259695
24	0x29a043fb	7.11722e-14
25	0x2ab8ac5b	3.2804561e-13
26	0x289cf2d6	1.7424792e-14
27	0x2beb7e3e	1.6732794e-12
28	0x2ad6cdec	3.8156923e-13
29	0x261e7b37	5.498425e-16
30	0x2a225ba9	1.4420291e-13
31	0x2b1d6584	5.5918486e-13
32	0x27a54953	4.58762e-15
33	0x2bbc8222	1.3394323e-12
34	0x2793e0f2	4.1044582e-15
35	0x2a042875	1.1737991e-13
36	0x3f844e30	1.0336361
37	0x4136059c	11.376369
38	0x4003f83c	2.062026
39	0x41bd03fa	23.626942
40	0x4073a3d1	3.8068736
41	0x3fd6bede	1.6776998
42	0x3ebe66fd	0.3718795
43	0x41130c32	9.190477
44	0x3f59a04b	0.8501021
45	0x3f05ddac	0.5229137
46	0x408a66cf	4.32505
47	0x3fc1aff5	1.5131823
48	0x3ffa6a05	1.9563605
49	0x40edc396	7.430125
50	0x4032008e	2.7812839
51	0x40257a80	2.5856018
52	0x3f755dd6	0.9584631
53	0x3f4491a5	0.76784736
54	0x3ec794cc	0.3898071
55	0x410b2218	8.695824
56	0x3f4ca444	0.7993815
57	0x3fc0b92f	1.5056514
58	0x3f7ba3d1	0.9829684
59	0x3f0ce8a6	0.55042493
60	0x341f0365	1.4809264e-07
61	0x367873a8	3.70222e-06
62	0x369da197	4.697776e-06
63	0x3be92d07	0.0071159634
64	0x3c82f8c3	0.01598776
65	0x3aa47e25	0.0012549801
66	0x36047e7d	1.9743159e-06
67	0x3c07a4e3	0.008279058
68	0x3b36407d	0.0027809434
69	0x3656dc04	3.201655e-06
70	0x368188f2	3.860442e-06
71	0x3e0d24cd	0.1378357
72	0x3fcb243d	1.5870434
73	0x41b48c32	22.568455
74	0x404420d8	3.0645046
75	0x41b9962d	23.198328
76	0x40a31a6e	5.0969763
77	0x3f74760f	0.95492643
78	0x3ecf356e	0.4047045
79	0x411ae94c	9.681957
80	0x3de9ec46	0.11422019
81	0x3fa20bbe	1.2659833
82	0x4004b0a2	2.0732808
83	0x3f55e8f8	0.8355861
84	0x370c02ff	8.345348e-06
85	0x3cb392ae	0.021920528
86	0x3c186088	0.009300359
87	0x3ff53b76	1.9158771
88	0x39ce2abe	0.00039323227
89	0x3a286368	0.0006423504
90	0x3ee64365	0.44973293
91	0x3bdc2864	0.006718682
92	0x3ba027a6	0.004887539
93	0x39927a4e	0.00027938414
94	0x3c83c48b	0.01608493
95	0x3b01521e	0.0019732784
96	0x3e71988e	0.23593351
97	0x40f743a0	7.727005
98	0x3fb598bf	1.418724
99	0x415915cb	13.567821
100	0x402e8cef	2.727352
101	0x3f1c3de4	0.6103194
102	0x3d81a3de	0.06330083
103	0x4052e2b1	3.2950861
104	0x3dfcb2d2	0.12338795
105	0x3f6b3869	0.9188295
106	0x40474a5b	3.1139133
107	0x3f7664c3	0.962475
108	0x3d65cc91	0.056103293
109	0x3e588203	0.21143346
110	0x3cc73f9e	0.024322327
111	0x40477373	3.1164215
112	0x3e2301b1	0.15918614
113	0x3e1f2dff	0.1554489
114	0x3bd3e9e8	0.006467093
115	0x3e21bc86	0.15794572
116	0x3d50bd1c	0.0509616
117	0x3c3c742b	0.011502306
118	0x3f35f821	0.7108174
119	0x3e38299a	0.1798462
120	0x2a3a891f	1.6567692e-13
121	0x2cbf37b0	5.434729e-12
122	0x28a0b54f	1.7842198e-14
123	0x2c0d05f8	2.0040618e-12
124	0x2bd1d7ac	1.4910204e-12
125	0x2b2c1f2e	6.1149946e-13
126	0x2c016cce	1.8392401e-12
127	0x2ac07421	3.4186632e-13
128	0x2b057eab	4.742688e-13
129	0x2c862cd2	3.813485e-12
130	0x289ff416	1.7758401e-14
131	0x273c7bd7	2.6157375e-15
132	0x259af3e2	2.6880003e-16
133	0x2f8dadec	2.577133e-10
134	0x3a899660	0.0010497086
135	0x376cd0e6	1.4115334e-05
136	0x3093e6f1	1.0761295e-09
137	0x2883a3fa	1.4615035e-14
138	0x1d482f33	2.6494181e-21
139	0x25e9638c	4.0486513e-16
140	0x27198598	2.1305437e-15
141	0x28047d8b	7.354695e-15
142	0x26d2861b	1.4608027e-15
143	0x27de403f	6.1687034e-15

momentum_buffer f4 [12, 12]
0	0xc10ebec5	-8.921575
1	0xc1530c80	-13.190552
2	0x3f5eca30	0.87027264
3	0xc0d379d8	-6.6086235
4	0x3f6feea7	0.9372353
5	0xc18ed608	-17.854507
6	0x402bf0fd	2.6865838
7	0x40d192ba	6.549161
8	0x4027bc97	2.6208856
9	0x407dca50	3.9654732
10	0x41337b5c	11.217617
11	0xbee820ff	-0.45337674
12	0x41ada2aa	21.704426
13	0x414cd9cb	12.803172
14	0x40f91ad2	7.784524
15	0x41709d3a	15.038385
16	0x4154c17a	13.2972355
17	0x41092d80	8.573608
18	0x4116ce6d	9.425397
19	0x418180b8	16.18785
20	0x4101e7b7	8.119071
21	0x41dd4ed9	27.6635
22	0xbf64eaf8	-0.89421034
23	0x41969736	18.823833
24	0x406510ec	3.5791578
25	0x4067cfee	3.622066
26	0x405ffea5	3.4999173
27	0x40692b9f	3.6432874
28	0x4067fd26	3.624826
29	0x403a370c	2.9096098
30	0x40669650	3.6029243
31	0x40686180	3.630951
32	0x40570d3a	3.3601823
33	0x40690aeb	3.6412914
34	0x40560c23	3.3444908
35	0x40663222	3.5968099
36	0xc08b8a29	-4.3606153
37	0xc167b6c2	-14.482119
38	0xc1c5fb11	-24.747591
39	0xc10e5eb5	-8.898122
40	0xc0152be7	-2.3308046
41	0xc193f12e	-18.492764
42	0xc1bbab50	-23.458649
43	0xc0eb4556	-7.352214
44	0xc0a73c0b	-5.2260795
45	0xc10b19de	-8.693815
46	0xc0854984	-4.165224
47	0x418f1945	17.887339
48	0xc1985b79	-19.044664
49	0x40076956	2.1158042
50	0xc018c6d0	-2.3871346
51	0x40c86680	6.262512
52	0xbfd4bee1	-1.6620752
53	0xc1976031	-18.921968
54	0x3ffffd5a	1.9999192
55	0xc12fdb49	-10.991036
56	0x403cf826	2.9526458
57	0xc095ed94	-4.685251
58	0xc1433190	-12.1996
59	0xc145a3c5	-12.352483
60	0x410e7eaf	8.905929
61	0x40ca2862	6.3174295
62	0x41a319bd	20.387568
63	0x410f0c0c	8.940441
64	0x42250355	41.253254
65	0x40c9809a	6.2969484
66	0x412e3e0b	10.890147
67	0x41d32531	26.39316
68	0xc1288eab	-10.534831
69	0x412e6ffc	10.90234
70	0xbf454779	-0.77062184
71	0x419aa7dd	19.331964
72	0x4122e03d	10.179746
73	0x410d576a	8.833841
74	0x4145a68b	12.35316
75	0x4190362b	18.02645
76	0x419bbffa	19.468739
77	0x4113c4c0	9.235535
78	0x414c9a13	12.787616
79	0x410d3290	8.824844
80	0x41a85646	21.042126
81	0x41ba93d4	23.322182
82	0x41cccdb3	25.60044
83	0x4187a6f2	16.956516
84	0x414d8ec0	12.847351
85	0x4029607d	2.6465142
86	0xbe89fab8	-0.26949096
87	0x4097f319	4.748425
88	0x41b0a515	22.080606
89	0x40b2e2ae	5.590171
90	0xc117ec2e	-9.495161
91	0x41adbbcc	21.716698
92	0x416e3536	14.887991
93	0x41664c40	14.393616
94	0x4123bf8b	10.234263
95	0x413f34a8	11.950356
96	0x418880a8	17.06282
97	0x4012e6a2	2.2953267
98	0x41275f20	10.460724
99	0xc10192f4	-8.098377
100	0xc0d4a498	-6.645092
101	0xc183e936	-16.488873
102	0x3faffdb6	1.3749301
103	0xbfafa973	-1.3723587
104	0xbf56808f	-0.83789915
105	0x3e3c0f26	0.18365154
106	0xc0dce318	-6.9027214
107	0xbfaa731e	-1.3316381
108	0x411a4795	9.642476
109	0x41f5220e	30.641628
110	0x41abd8ed	21.48092
111	0x40af1b9c	5.4721203
112	0x41139e52	9.226152
113	0x41180bc2	9.502871
114	0xc0b6aa69	-5.708302
115	0x4108668e	8.525038
116	0x40c8250e	6.2545233
117	0x40ca44aa	6.320882
118	0x40e09fc8	7.0195045
119	0x40e4ea3b	7.1535926
120	0x4066d479	3.6067183
121	0x40697567	3.6477907
122	0x40601c30	3.5017204
123	0x40694399	3.6447508
124	0x40691b1b	3.6422794
125	0x40687f5a	3.632773
126	0x40690c30	3.6413689
127	0x40671dd5	3.6111958
128	0x4065aab8	3.5885448
129	0x406988a2	3.6489644
130	0x40601652	3.5013623
131	0x4052c385	3.2931836
132	0x402b1dc6	2.6736922
133	0xc055eda9	-3.3426306
134	0x40592851	3.3930857
135	0xc17a7638	-15.653862
136	0xbf7eef4b	-0.9958388
137	0x405f189a	3.4858766
138	0x3cfcf4df	0.030878482
139	0x40341b40	2.8141632
140	0x404f1d25	3.2361538
141	0x405ad2d3	3.4191177
142	0x404a3f20	3.1601028
143	0x4114874f	9.283034

square_avg f4 [12]
0	0x3cd8beca	0.026458163
1	0x3b14af42	0.002268747
2	0x2c5fa489	3.1781541e-12
3	0x3ceb9324	0.028756686
4	0x3c92d20e	0.017922428
5	0x397e2881	0.00024238417
6	0x3d3d279d	0.046180356
7	0x3b9b9ac5	0.0047486746
8	0x3c99931a	0.018746901
9	0x3b55bb50	0.0032612868
10	0x2d5d3836	1.2574877e-11
11	0x37aadc96	2.0368298e-05

momentum_buffer f4 [12]
0	0x3faa1eee	1.3290689
1	0x40ac32bd	5.3811936
2	0x406977fc	3.6479483
3	0xc153f4f4	-13.247303
4	0xc0eda1a4	-7.4259815
5	0x41d7a195	26.953897
6	0xbf23a723	-0.63926905
7	0xbf582b25	-0.84440833
8	0xc1a62c4b	-20.771627
9	0x416add81	14.679078
10	0x4069895e	3.6490092
11	0x4111aef7	9.105216

square_avg f4 [12, 12]
0	0x40cd0bb5	6.407679
1	0x3bd80f69	0.006593634
2	0x00000000	0.0
3	0x41ceef65	25.866892
4	0x4136b103	11.418216
5	0x3b4482a3	0.0029985092
6	0x41c3526a	24.415241
7	0x3d1ab6ff	0.037772175
8	0x40819c1e	4.0503073
9	0x3eb8d1d7	0.36097595
10	0x28adc070	1.9290315e-14
11	0x344e11ce	1.9191722e-07
12	0x3e36eea1	0.17864467
13	0x3b17d51f	0.0023167802
14	0x00000000	0.0
15	0x3e3c6299	0.18396987
16	0x402d333e	2.7062526
17	0x37cf8d7f	2.4742212e-05
18	0x3ed93d74	0.42429698
19	0x392f4149	0.00016713621
20	0x3fd8b176	1.6929157
21	0x3d3a52a7	0.04548898
22	0x00000000	0.0
23	0x00000000	0.0
24	0x3d897215	0.067112125
25	0x38dcdeb4	0.00010531899
26	0x2a0b3697	1.236462e-13
27	0x40b95360	5.7914276
28	0x41e24de2	28.288029
29	0x3baf4cfa	0.0053497525
30	0x3c82d4fd	0.015970701
31	0x373b20be	1.1153692e-05
32	0x3ea6335c	0.3246106
33	0x3d211444	0.039325967
34	0x2ce824db	6.5979284e-12
35	0x26aa28b3	1.1807151e-15
36	0x3f579c69	0.8422304
37	0x3a4af958	0.00077428436
38	0x282e06b9	9.660398e-15
39	0x4159e032	13.617235
40	0x41a19c84	20.201424
41	0x3a35dae7	0.0006937221
42	0x416d76a7	14.841468
43	0x3b36a319	0.002786821
44	0x40b33431	5.600121
45	0x3d269a10	0.04067427
46	0x2a17ef83	1.3494591e-13
47	0x360d7267	2.1077228e-06
48	0x3dc9d1be	0.09854458
49	0x38231f24	3.889123e-05
50	0x00000000	0.0
51	0x40886292	4.2620325
52	0x3e69a8a9	0.22818245
53	0x3380e2aa	6.0016944e-08
54	0x3fcf93f5	1.6217028
55	0x36a9169c	5.0392246e-06
56	0x408a80b9	4.328213
57	0x3e4d2a74	0.20035726
58	0x00000000	0.0
59	0x00000000	0.0
60	0x4087f93b	4.2491736
61	0x3a6b795f	0.0008982624
62	0x2abebefd	3.3883305e-13
63	0x41813757	16.152021
64	0x3e18415b	0.14868681
65	0x37050c0c	7.930223e-06
66	0x4148e477	12.555778
67	0x3d206185	0.039155502
68	0x3f5b4504	0.85652184
69	0x3cbfcc4d	0.023412848
70	0x2ace255b	3.6618871e-13
71	0x00000000	0.0
72	0x3bda0d21	0.006654397
73	0x3690b596	4.312674e-06
74	0x2a623b5c	2.0093427e-13
75	0x3fe1b279	1.763259
76	0x4148ab66	12.541845
77	0x376174bb	1.34382235e-05
78	0x3b922dd8	0.0044610314
79	0x3678fb41	3.7101129e-06
80	0x3e3f5333	0.18684082
81	0x3ddbc628	0.10731155
82	0x285a435b	1.2116036e-14
83	0x00000000	0.0
84	0x3fbfd6a2	1.4987376
85	0x3b5bb979	0.0033527298
86	0x00000000	0.0
87	0x42163e0f	37.560604
88	0x418677ed	16.808558
89	0x3bb90dbb	0.0056473888
90	0x427e90f4	63.641556
91	0x3a62ee73	0.00086567475
92	0x40f6e99b	7.7160163
93	0x3e374f66	0.17901382
94	0x00000000	0.0
95	0x00000000	0.0
96	0x413b173b	11.6931715
97	0x3c82b1ac	0.015953861
98	0x29ed262a	1.0531535e-13
99	0x42c419e3	98.05056
100	0x413bba49	11.73298
101	0x3ba4851e	0.0050207516
102	0x421b1718	38.772552
103	0x3dbf523e	0.09341858
104	0x42015378	32.331512
105	0x3d027b38	0.03185579
106	0x2b8981d4	9.77047e-13
107	0x38b88e9b	8.800366e-05
108	0x4132c4e5	11.17307
109	0x3bcbec1a	0.006223214
110	0x26438d77	6.7845936e-16
111	0x4291a9bd	72.83152
112	0x4036c2aa	2.8556314
113	0x37a52a65	1.9689274e-05
114	0x41e09026	28.070385
115	0x3bf34d34	0.007424975
116	0x411b634f	9.711745
117	0x3ebc48a5	0.36774173
118	0x2a4bc41d	1.8098062e-13
119	0x25409a69	1.6705662e-16
120	0x3f6cb00c	0.92456126
121	0x39de8e8e	0.0004244935
122	0x28bd9623	2.1048327e-14
123	0x3d6f9b5d	0.058497775
124	0x3d66c940	0.05634427
125	0x2b7ac812	8.9095495e-13
126	0x3f027a6a	0.5096804
127	0x370a1e11	8.232441e-06
128	0x3e9b7f55	0.30370584
129	0x3d5da25f	0.054109927
130	0x2b920af9	1.037697e-12
131	0x00000000	0.0
132	0x4004eeb6	2.0770698
133	0x3ad08396	0.0015908356
134	0x2a1c50fb	1.3883679e-13
135	0x414dc934	12.861622
136	0x41a0255d	20.018244
137	0x38e10cb3	0.000107312015
138	0x41da63a8	27.29866
139	0x3d21dc10	0.03951651
140	0x403037e1	2.7534106
141	0x3db27d63	0.08715322
142	0x2a6d93f7	2.1101164e-13
143	0x00000000	0.0

momentum_buffer f4 [12, 12]
0	0xc084752f	-4.1393046
1	0xc15bdae6	-13.740942
2	0x00000000	0.0
3	0xc112212b	-9.133098
4	0xc0eca330	-7.3949203
5	0xc209fa87	-34.494656
6	0xc1451ab6	-12.319021
7	0x40dd7df7	6.9216266
8	0xc133a309	-11.2273035
9	0xc0b4d165	-5.650561
10	0x3fd0cdac	1.6312766
11	0xc21ea41d	-39.660267
12	0x40f82530	7.7545395
13	0xc12290e9	-10.160378
14	0x00000000	0.0
15	0x4193745d	18.431818
16	0x409d295d	4.911299
17	0x405b7eec	3.4296217
18	0x40a3fcd1	5.1246114
19	0x4148ab3a	12.541803
20	0x40f08e1f	7.517349
21	0xc0f06e8e	-7.5134954
22	0x00000000	0.0
23	0x00000000	0.0
24	0x4121fda4	10.124424
25	0xc0a5f60c	-5.186285
26	0xc0664c67	-3.5984132
27	0x41921144	18.25843
28	0x41374fef	11.457015
29	0xc1bb2436	-23.392681
30	0x419fe8c4	19.988655
31	0x402bda9d	2.685218
32	0x413765aa	11.46232
33	0x41654a27	14.330604
34	0xc061ed3b	-3.5301044
35	0x40473086	3.1123366
36	0x41143cba	9.264826
37	0x40ecc893	7.399484
38	0x405cad64	3.448083
39	0x41e93852	29.1525
40	0xbf4614c1	-0.7737542
41	0xbfc7bad0	-1.5603886
42	0x414a5ec0	12.648132
43	0xc0253553	-2.5813797
44	0x41dc977b	27.573965
45	0xbd8865cb	-0.066600405
46	0x4066771c	3.6010199
47	0xc07436cd	-3.8158448
48	0x41ccce5f	25.600767
49	0xc0c25dc3	-6.0739455
50	0x00000000	0.0
51	0x4186a116	16.828655
52	0x41274965	10.455419
53	0x40c41aa3	6.1282516
54	0xc0b85e5f	-5.76152
55	0xbe8c6013	-0.2741705
56	0x3f02e9d2	0.5113803
57	0xc0cfa39b	-6.4887214
58	0x00000000	0.0
59	0x00000000	0.0
60	0x40df3541	6.9752507
61	0x40b2ea57	5.591106
62	0x4067d9dc	3.622672
63	0x4195e33e	18.735958
64	0x40f1bd1c	7.5543346
65	0x41752067	15.320411
66	0x41154298	9.328758
67	0x3fac858b	1.3478254
68	0x40ec28f8	7.380001
69	0x40621269	3.5323737
70	0x40862b02	4.19275
71	0x00000000	0.0
72	0x411e490b	9.892833
73	0x4134626f	11.274032
74	0x4067242a	3.6115823
75	0x41421be8	12.131813
76	0x40dbd426	6.869647
77	0x41634fa7	14.206946
78	0x4191d01c	18.226616
79	0x40774c22	3.8640218
80	0x41611e2d	14.069867
81	0x40069d0d	2.1033356
82	0x405e0e4f	3.4696233
83	0x00000000	0.0
84	0x40bae8c2	5.840913
85	0xc057bc51	-3.370869
86	0x00000000	0.0
87	0x418e75a2	17.807438
88	0xc0cc0d35	-6.376612
89	0xc07725e6	-3.8616881
90	0x417c2e52	15.761309
91	0x402a22a8	2.6583652
92	0x402a35f6	2.6595435
93	0x40095437	2.145765
94	0x00000000	0.0
95	0x00000000	0.0
96	0x4135c5a6	11.360754
97	0x419154dc	18.166435
98	0x4065f940	3.593338
99	0x416781e0	14.469208
100	0x40e8d655	7.2761636
101	0x41317ede	11.093473
102	0x40379837	2.8686655
103	0xbf38a57b	-0.72127503
104	0x41880279	17.001207
105	0x4106a237	8.414603
106	0x406ff22e	3.7491565
107	0x3f3bfb37	0.734302
108	0x3fe4a4e4	1.7862821
109	0x40abc290	5.3675003
110	0xc03e1ad3	-2.9703872
111	0x411089f0	9.033676
112	0x414a003b	12.625056
113	0x410d3219	8.824731
114	0x4038aaac	2.885417
115	0xc0f8ee3f	-7.779083
116	0x40867c8f	4.202705
117	0x40a235aa	5.069051
118	0xc06aabcf	-3.6667364
119	0xc01f9193	-2.4932601
120	0x408c80bc	4.3907146
121	0x41cfb2ba	25.962269
122	0x4060e20f	3.5137975
123	0x41b55b72	22.669651
124	0x40a96da5	5.2946343
125	0xbfb7baf9	-1.4353935
126	0x40ca2516	6.317027
127	0x416c1702	14.755617
128	0x413107ba	11.064386
129	0x40e9ba5c	7.303999
130	0xc06906f6	-3.6410499
131	0x00000000	0.0
132	0x40fd2010	7.910164
133	0xbdafffd9	-0.08593721
134	0xc066849b	-3.6018436
135	0xc02c07f4	-2.6879854
136	0x417c8eb9	15.784844
137	0xbf7c6f12	-0.9860698
138	0xc0bcf43d	-5.9048142
139	0x4005a678	2.0882854
140	0x4188efbd	17.11706
141	0xbfdb6e04	-1.7142949
142	0xc09240d6	-4.5704145
143	0x00000000	0.0

square_avg f4 [12]
0	0x3a003078	0.0004890035
1	0x38b9013e	8.821719e-05
2	0x38b3ffac	8.583008e-05
3	0x395249f4	0.0002005471
4	0x38ae56d4	8.3131396e-05
5	0x3a15516a	0.00056960306
6	0x391998ba	0.00014648112
7	0x3a1413d7	0.00056487083
8	0x3a89991c	0.0010497901
9	0x3a571c70	0.00082058366
10	0x393db9e3	0.00018093693
11	0x39aa07aa	0.00032430637

momentum_buffer f4 [12]
0	0xc1d45dc2	-26.54578
1	0x40dedb01	6.964234
2	0x41825e56	16.296062
3	0x410aa8f5	8.666249
4	0xc1397fed	-11.593732
5	0x402a58d3	2.6616714
6	0x41a37ab9	20.434923
7	0x415b429d	13.703763
8	0x40de82e6	6.953479
9	0xc07ea4dd	-3.9788125
10	0x40f8c2d5	7.773783
11	0xc1cfe7dd	-25.988214

square_avg f4 [12, 12]
0	0x20f493dd	4.1433056e-19
1	0x00000000	0.0
2	0x2c9d90e9	4.4782966e-12
3	0x25a3b2c2	2.8397124e-16
4	0x00000000	0.0
5	0x2c251c1c	2.3463514e-12
6	0x270881aa	1.8944082e-15
7	0x00000000	0.0
8	0x2ecb1dce	9.2366656e-11
9	0x2744b41c	2.7298102e-15
10	0x291e3e2d	3.5136976e-14
11	0x266af447	8.1516116e-16
12	0x3dbb78dd	0.09153912
13	0x3ad1758c	0.0015980466
14	0x3aada3d0	0.0013247672
15	0x3d81a8b0	0.06331003
16	0x35715e72	8.991693e-07
17	0x392e30a7	0.00016612058
18	0x343d0f30	1.7607522e-07
19	0x3d3c8916	0.046029173
20	0x38294c42	4.036376e-05
21	0x3a1fcafb	0.0006095615
22	0x367c2766	3.757386e-06
23	0x3da34eb2	0.07973994
24	0x428cbfa1	70.374275
25	0x3f282464	0.6568053
26	0x4131685f	11.087981
27	0x42878cc3	67.774925
28	0x3d92dc88	0.07170969
29	0x4188146b	17.00997
30	0x3df9e73d	0.12202308
31	0x420f8845	35.883076
32	0x40b903b1	5.7817006
33	0x41a1f287	20.243422
34	0x3eb0eaa3	0.34554014
35	0x42495f48	50.34305
36	0x4349f45c	201.95453
37	0x3cf655a7	0.03007014
38	0x3cfcaf1d	0.03084522
39	0x432eec31	174.92262
40	0x3d0d8118	0.03454694
41	0x403c7530	2.9446526
42	0x3b7254aa	0.0036976733
43	0x434eed81	206.92775
44	0x411258c0	9.1466675
45	0x4116a9bb	9.416438
46	0x3cdd9d9d	0.027052695
47	0x430e90a4	142.565
48	0x430c7f83	140.4981
49	0x3d5ed6c4	0.054404035
50	0x41184f7f	9.519408
51	0x41b48277	22.563704
52	0x3ace49b2	0.0015738516
53	0x3f95e02d	1.1709038
54	0x3c2d182d	0.010564846
55	0x4255dfec	53.468674
56	0x401386e4	2.305108
57	0x406ba637	3.68202
58	0x3d4669c1	0.0484407
59	0x4268ee9f	58.23303
60	0x00000000	0.0
61	0x00000000	0.0
62	0x2780616c	3.563276e-15
63	0x00000000	0.0
64	0x00000000	0.0
65	0x279879c1	4.232048e-15
66	0x00000000	0.0
67	0x00000000	0.0
68	0x29bbad7e	8.334564e-14
69	0x246753f3	5.0161248e-17
70	0x27a33fa3	4.5310583e-15
71	0x00000000	0.0
72	0x42436184	48.84523
73	0x3c4f1f1d	0.012641695
74	0x3df380d1	0.11889804
75	0x41dccf45	27.601206
76	0x38a18f13	7.703728e-05
77	0x41ccf8a8	25.621414
78	0x3cc0e4e0	0.023546636
79	0x3e6b26a1	0.22963955
80	0x40ce3ffd	6.445311
81	0x4218a0b2	38.15693
82	0x3ed955c6	0.42448252
83	0x40e43521	7.1314855
84	0x4114cf65	9.300633
85	0x28b7e111	2.0414688e-14
86	0x3bd3a02f	0.0064583044
87	0x41c5bf43	24.71839
88	0x3954c431	0.00020290983
89	0x3eac4023	0.33642682
90	0x3781cea9	1.5474232e-05
91	0x40ba6d72	5.82586
92	0x3c170479	0.009217375
93	0x3d0f71f1	0.035020772
94	0x2ce7a1ca	6.583377e-12
95	0x3f63f193	0.8904049
96	0x380c310f	3.342429e-05
97	0x00000000	0.0
98	0x305b29f8	7.9731377e-10
99	0x35804110	9.555679e-07
100	0x00000000	0.0
101	0x2d628b69	1.2877568e-11
102	0x29606dae	4.9833123e-14
103	0x36387afd	2.7489725e-06
104	0x2ee0f053	1.0229031e-10
105	0x2b9aca56	1.0998518e-12
106	0x2a8fbef4	2.5534403e-13
107	0x37fc2884	3.0059608e-05
108	0x419fbee8	19.968216
109	0x3d0918ce	0.03347092
110	0x3f073a7f	0.5282363
111	0x42236ee3	40.858288
112	0x39a0be11	0.0003065919
113	0x3ff94df8	1.9476919
114	0x3c046070	0.008079633
115	0x4121ace1	10.104707
116	0x4062ecaa	3.5456948
117	0x400e69f8	2.2252178
118	0x3cf790aa	0.030220348
119	0x40d7407b	6.726621
120	0x44c37f9f	1563.9882
121	0x3ec81394	0.39077437
122	0x428b5582	69.66701
123	0x4332a7a6	178.65488
124	0x3bcb1734	0.0061978344
125	0x4111cace	9.112013
126	0x3d785050	0.060623467
127	0x43c8504c	400.62732
128	0x419d2b7b	19.64623
129	0x420533dc	33.300644
130	0x3ea51ed1	0.32250074
131	0x43d22880	420.3164
132	0x43c9ef54	403.86975
133	0x3fb8490c	1.4397292
134	0x4041076e	3.0160785
135	0x43e67589	460.91824
136	0x3e48785a	0.1957716
137	0x4221fc08	40.496124
138	0x3dfa2a2f	0.12215077
139	0x43a31150	326.13525
140	0x42138fb1	36.890324
141	0x42a072cc	80.22421
142	0x3f57191d	0.84022695
143	0x4399dfc8	307.7483

momentum_buffer f4 [12, 12]
0	0x3eb43758	0.35198474
1	0x00000000	0.0
2	0x406997d6	3.6498923
3	0x402c5fdd	2.693351
4	0x00000000	0.0
5	0x406956dc	3.6459265
6	0xc04dac04	-3.213624
7	0x00000000	0.0
8	0x406a1d09	3.6580222
9	0x4051f31b	3.280463
10	0x4062efb6	3.5458808
11	0x40414cd0	3.0203133
12	0x41170ab4	9.440113
13	0x403807c7	2.8754747
14	0x40df6ae6	6.981799
15	0x408d02a5	4.406573
16	0x41552f72	13.324083
17	0x41328a22	11.158724
18	0x409c0977	4.8761554
19	0x40a80d9c	5.2516613
20	0x41ab9e94	21.45243
21	0x417dfe85	15.874639
22	0x40c99541	6.2994695
23	0x3f4ef704	0.80845666
24	0x41000756	8.001791
25	0xc00d5df4	-2.2088594
26	0xbf81e8ba	-1.0149148
27	0x3ffb647b	1.9640039
28	0x412c59c0	10.771912
29	0xc0da3ee6	-6.820178
30	0xc0a8b370	-5.271904
31	0x40dc7b76	6.890071
32	0xc1777a25	-15.46732
33	0xc0de59b1	-6.9484487
34	0xc08ee9ad	-4.466025
35	0x3fb3f151	1.4058019
36	0xbf8446f8	-1.0334158
37	0x3fffb9ab	1.9978536
38	0x414c7477	12.778434
39	0x409ec174	4.961115
40	0x41567e23	13.405795
41	0xc113d69e	-9.239897
42	0x401989a3	2.3990257
43	0x41359621	11.349153
44	0xc15f26dc	-13.946987
45	0xc0d4ef83	-6.6542373
46	0x3f193468	0.5984559
47	0x40f2cedc	7.5877514
48	0x4147e615	12.493672
49	0x410df232	8.87163
50	0xc0b8f247	-5.779575
51	0x408be706	4.371951
52	0x40dd64a1	6.918534
53	0x3fc10e20	1.5082436
54	0x3fed655a	1.8546555
55	0x40c4e37e	6.15277
56	0xc130a29a	-11.039698
57	0xc0b209e3	-5.563707
58	0x40fc834b	7.891027
59	0x40305386	2.7550979
60	0x00000000	0.0
61	0x00000000	0.0
62	0x4054b3f5	3.3234837
63	0x00000000	0.0
64	0x00000000	0.0
65	0x4056540a	3.3488793
66	0x00000000	0.0
67	0x00000000	0.0
68	0x406573cd	3.585193
69	0x3ffcad53	1.9740394
70	0x4056f12b	3.3584697
71	0x00000000	0.0
72	0x3fafbf5e	1.3730276
73	0xc0234881	-2.5513003
74	0xc06d5286	-3.7081618
75	0x3fa65d95	1.2997309
76	0x400aff57	2.1718347
77	0xc066c0a4	-3.6055079
78	0xc08d75b4	-4.420618
79	0x407a93f5	3.9152806
80	0xbf17ff65	-0.59374076
81	0xc0c958c0	-6.2920837
82	0x409e17c8	4.940403
83	0xbf41fa44	-0.757725
84	0x4136a78c	11.415905
85	0x40cecc0a	6.462407
86	0x40edd38b	7.432073
87	0x40808264	4.015917
88	0x41640c22	14.252962
89	0x4123ceca	10.237986
90	0x41028b3a	8.158991
91	0xc0082e51	-2.127827
92	0x41ad0b52	21.630527
93	0x412ca327	10.789832
94	0xc0d2be56	-6.5857344
95	0x418653b0	16.790863
96	0x40921d74	4.5660954
97	0x00000000	0.0
98	0x4103414f	8.2034445
99	0x40fdb7be	7.9286795
100	0x00000000	0.0
101	0x4069dddd	3.6541665
102	0x40641454	3.5637407
103	0x40921d55	4.5660806
104	0x406a1ef2	3.6581388
105	0x4068ead7	3.6393335
106	0x40677d45	3.6170208
107	0x40921d74	4.5660954
108	0x4162a43e	14.165098
109	0x40898712	4.297738
110	0xc0677ef1	-3.617123
111	0xc0ff068a	-7.969548
112	0xbfe909d9	-1.820613
113	0xc0a80c81	-5.2515264
114	0x40ae957c	5.4557476
115	0xc10ef62e	-8.935102
116	0xbfbc7120	-1.4722023
117	0xc103fbbf	-8.248961
118	0xbeefc74c	-0.4683174
119	0xc080f34b	-4.029699
120	0x40d4990d	6.643683
121	0xbf6b30d6	-0.9187139
122	0xbe485b32	-0.19566038
123	0x3ef13e77	0.4711797
124	0x40a38533	5.1100097
125	0x3fcfa259	1.622142
126	0xc090f3e2	-4.529771
127	0x409ee248	4.965122
128	0x3e02724f	0.12738918
129	0x3f7909f9	0.9728084
130	0x3d98698f	0.07442009
131	0xc03a7c3a	-2.9138322
132	0x4095e648	4.6843605
133	0x3dcd6afb	0.100301705
134	0x40a5ef7c	5.185484
135	0xbd3d98a4	-0.046288148
136	0x40c77e6f	6.234184
137	0x3fdb0332	1.711035
138	0x40f71d93	7.72236
139	0xc0d6255f	-6.692062
140	0x40c5d65f	6.1824183
141	0xbf963160	-1.1733818
142	0xc04eb3cd	-3.2297242
143	0x402ec331	2.7306635

square_avg f4 [12]
0	0x301b248b	5.64406e-10
1	0x343654c1	1.6980904e-07
2	0x378312fd	1.5625259e-05
3	0x37acbb2a	2.0591153e-05
4	0x3308b4ac	3.1829288e-08
5	0x2b5f4e8a	7.933451e-13
6	0x38952e6b	7.11352e-05
7	0x377aba75	1.4944574e-05
8	0x301f6bd9	5.7997124e-10
9	0x36ecde73	7.0592446e-06
10	0x36ab9333	5.1133334e-06
11	0x38aade94	8.14769e-05

momentum_buffer f4 [12]
0	0x406a3388	3.6593952
1	0x4162020d	14.125501
2	0xc0981160	-4.752121
3	0xc145c28c	-12.359997
4	0x418b6983	17.42652
5	0x4068ae2f	3.6356313
6	0x41a90511	21.127474
7	0x4132c14b	11.172191
8	0x400bb4a9	2.1829016
9	0x4178c9f7	15.549308
10	0xc021acf2	-2.5261807
11	0xbfbc4dc6	-1.4711235

square_avg f4 [3, 1]
0	0x00000000	0.0
1	0x00000000	0.0
2	0x00000000	0.0

momentum_buffer f4 [3, 1]
0	0x00000000	0.0
1	0x00000000	0.0
2	0x00000000	0.0

square_avg f4 [3, 1]
0	0x00000000	0.0
1	0x2dc781b2	2.2681277e-11
2	0x38d5d99d	0.00010197165

momentum_buffer f4 [3, 1]
0	0x00000000	0.0
1	0x4069f6ba	3.655684
2	0xc13f515a	-11.957361

square_avg f4 [5, 2]
0	0x331deb89	3.676863e-08
1	0x3d3bc28b	0.045839828
2	0x30281d1c	6.115941e-10
3	0x00000000	0.0
4	0x379dd38f	1.8814373e-05
5	0x396dbc5c	0.0002267225
6	0x00000000	0.0
7	0x3f3d740e	0.7400521
8	0x3ca4c33d	0.020112628
9	0x3e674aec	0.22587174

momentum_buffer f4 [5, 2]
0	0x414a144f	12.629958
1	0xc06066bb	-3.5062702
2	0x4123da75	10.240834
3	0x00000000	0.0
4	0x4170a328	15.039833
5	0xc128e68a	-10.556284
6	0x00000000	0.0
7	0xc10f6071	-8.961045
8	0xc10a3564	-8.638035
9	0x407cdbc3	3.9509132

square_avg f4 [2, 2]
0	0x3c9fe8c3	0.01952017
1	0x3eff411b	0.4985436
2	0x3f1d2cdc	0.61396575
3	0x40876114	4.2306004

momentum_buffer f4 [2, 2]
0	0xc04fbadc	-3.24578
1	0xc15ee297	-13.93032
2	0xbe97da12	-0.29658562
3	0x3f78ae7c	0.9714124

square_avg f4 [2]
0	0x3cbf6545	0.023363719
1	0x3e492bd4	0.19645625

momentum_buffer f4 [2]
0	0xc137ce3e	-11.487852
1	0x40da2685	6.817202

square_avg f4 [2, 2]
0	0x3f66b1e3	0.90115184
1	0x3fc391ff	1.527893
2	0x33873e85	6.2977996e-08
3	0x3659e058	3.2466105e-06

momentum_buffer f4 [2, 2]
0	0x41344c9b	11.2687025
1	0xc1209d0d	-10.038342
2	0x407653d9	3.8488677
3	0x40765536	3.8489509

square_avg f4 [2]
0	0x3befa734	0.0073136333
1	0x348a1b0d	2.5724185e-07

momentum_buffer f4 [2]
0	0x40f6b88d	7.710028
1	0x407654a1	3.8489153

square_avg f4 [2, 2]
0	0x3f96b861	1.1775018
1	0x341b4948	1.446216e-07
2	0x3da2566f	0.07926642
3	0x31471ddc	2.8975284e-09

momentum_buffer f4 [2, 2]
0	0xc107bf91	-8.484269
1	0xc076546e	-3.8489032
2	0x4080cdf1	4.0251393
3	0xc0764e2b	-3.848521

square_avg f4 [2]
0	0x2757b920	2.99376e-15
1	0x381ecba1	3.785978e-05

momentum_buffer f4 [2]
0	0x40c44914	6.1339207
1	0x4154f02f	13.308639

square_avg f4 [3, 1]
0	0x2fecb5e8	4.3057402e-10
1	0x00000000	0.0
2	0x3108cd16	1.9907183e-09

momentum_buffer f4 [3, 1]
0	0xc0b3a140	-5.613434
1	0x00000000	0.0
2	0x40b293eb	5.5805564

square_avg f4 [3, 1]
0	0x00000000	0.0
1	0x00000000	0.0
2	0x00000000	0.0

momentum_buffer f4 [3, 1]
0	0x00000000	0.0
1	0x00000000	0.0
2	0x00000000	0.0

square_avg f4 [3, 1]
0	0x00000000	0.0
1	0x00000000	0.0
2	0x00000000	0.0

momentum_buffer f4 [3, 1]
0	0x00000000	0.0
1	0x00000000	0.0
2	0x00000000	0.0

square_avg f4 [3, 1]
0	0x00000000	0.0
1	0x00000000	0.0
2	0x00000000	0.0

momentum_buffer f4 [3, 1]
0	0x00000000	0.0
1	0x00000000	0.0
2	0x00000000	0.0

square_avg f4 [261, 50]
0	0x00000000	0.0
1	0x43a2bb5d	325.46378
2	0x3a9466ef	0.001132218
3	0x00000000	0.0
4	0x00000000	0.0
5	0x00000000	0.0
6	0x00000000	0.0
7	0x00000000	0.0
8	0x410d17dd	8.818326
9	0x42ab31b3	85.59707
10	0x3acfd557	0.0015856427
11	0x00000000	0.0
12	0x00000000	0.0
13	0x3aae076a	0.0013277356
14	0x00000000	0.0
15	0x2aa99d62	3.0129637e-13
16	0x00000000	0.0
17	0x43100a64	144.04059
18	0x39e2f639	0.0004328953
19	0x43081915	136.09798
20	0x00000000	0.0
21	0x42237b7c	40.87059
22	0x34752df1	2.2834116e-07
23	0x41c63055	24.7736
24	0x00000000	0.0
25	0x3ee0f0d7	0.43933746
26	0x3cffc0b7	0.031219823
27	0x41e2ddd7	28.35832
28	0x3932b95c	0.00017044455
29	0x3bee1594	0.007265756
30	0x00000000	0.0
31	0x4255d6a4	53.45961
32	0x3d136fe6	0.035995387
33	0x00000000	0.0
34	0x43b00698	352.0515
35	0x3b7ebb43	0.003886894
36	0x00000000	0.0
37	0x3b108689	0.0022052845
38	0x3bc8c5f3	0.006127113
39	0x3397eaa2	7.074165e-08
40	0x00000000	0.0
41	0x00000000	0.0
42	0x3c274f9b	0.0102118505
43	0x430e6564	142.39606
44	0x00000000	0.0
45	0x00000000	0.0
46	0x39afbdd9	0.0003352005
47	0x00000000	0.0
48	0x422634a0	41.55139
49	0x00000000	0.0
50	0x00000000	0.0
51	0x00000000	0.0
52	0x39f848ac	0.0004735639
53	0x00000000	0.0
54	0x00000000	0.0
55	0x395d33bb	0.00021095473
56	0x00000000	0.0
57	0x00000000	0.0
58	0x00000000	0.0
59	0x00000000	0.0
60	0x00000000	0.0
61	0x00000000	0.0
62	0x00000000	0.0
63	0x3a8e8cc0	0.0010875687
64	0x00000000	0.0
65	0x3b5f2b98	0.0034053084
66	0x00000000	0.0
67	0x3a207cb8	0.00061221
68	0x00000000	0.0
69	0x28032e10	7.281949e-15
70	0x00000000	0.0
71	0x00000000	0.0
72	0x00000000	0.0
73	0x2af1eca8	4.2974413e-13
74	0x00000000	0.0
75	0x00000000	0.0
76	0x3a91a1ca	0.0011110839
77	0x00000000	0.0
78	0x00000000	0.0
79	0x3880e989	6.147015e-05
80	0x3a2fa1ed	0.0006699849
81	0x00000000	0.0
82	0x00000000	0.0
83	0x00000000	0.0
84	0x00000000	0.0
85	0x00000000	0.0
86	0x35e91ffd	1.7369163e-06
87	0x00000000	0.0
88	0x00000000	0.0
89	0x00000000	0.0
90	0x00000000	0.0
91	0x00000000	0.0
92	0x00000000	0.0
93	0x3b0be20c	0.0021344451
94	0x38db84fd	0.00010467505
95	0x3a286409	0.0006423598
96	0x3a2d4776	0.0006610075
97	0x3a511f40	0.0007977374
98	0x3a3dd09c	0.0007240863
99	0x3bae8f20	0.0053271204
100	0x3630e52d	2.6359442e-06
101	0x00000000	0.0
102	0x371f125a	9.481411e-06
103	0x3d699bee	0.05703347
104	0x31a028ef	4.6612665e-09
105	0x35977552	1.1284521e-06
106	0x3b045183	0.0020190186
107	0x00000000	0.0
108	0x3e0c1b12	0.13682202
109	0x3e9c3299	0.30507353
110	0x00000000	0.0
111	0x00000000	0.0
112	0x3f2f11fd	0.6838682
113	0x00000000	0.0
114	0x00000000	0.0
115	0x00000000	0.0
116	0x00000000	0.0
117	0x367ab2c3	3.7356956e-06
118	0x3d461535	0.04836007
119	0x00000000	0.0
120	0x3d9bb4c3	0.07602837
121	0x3e86a718	0.26299357
122	0x37589b7a	1.2910803e-05
123	0x3db884b5	0.09009687
124	0x00000000	0.0
125	0x00000000	0.0
126	0x00000000	0.0
127	0x3708f615	8.163527e-06
128	0x33442d3d	4.567595e-08
129	0x3d3acd62	0.045606025
130	0x00000000	0.0
131	0x00000000	0.0
132	0x3e2a7abc	0.16648382
133	0x39596a6e	0.00020734381
134	0x38ccf616	9.773315e-05
135	0x368dfd2a	4.2315996e-06
136	0x3225b6e1	9.645846e-09
137	0x00000000	0.0
138	0x00000000	0.0
139	0x3ead09e3	0.33796605
140	0x3d3ac975	0.04560228
141	0x00000000	0.0
142	0x00000000	0.0
143	0x00000000	0.0
144	0x00000000	0.0
145	0x3b5f9f2b	0.003412197
146	0x00000000	0.0
147	0x320a534d	8.051598e-09
148	0x00000000	0.0
149	0x32c89e87	2.3355154e-08
150	0x3d6e25f4	0.058141664
151	0x00000000	0.0
152	0x00000000	0.0
153	0x3bb7a6d8	0.005604606
154	0x34445998	1.8286516e-07
155	0x3cb7ded2	0.022445116
156	0x00000000	0.0
157	0x3bb19141	0.005418927
158	0x392349d9	0.00015572402
159	0x3db11588	0.08646685
160	0x00000000	0.0
161	0x00000000	0.0
162	0x00000000	0.0
163	0x3c71e12d	0.014763159
164	0x00000000	0.0
165	0x00000000	0.0
166	0x00000000	0.0
167	0x39ee0348	0.00045397342
168	0x00000000	0.0
169	0x00000000	0.0
170	0x3c648eb1	0.013950036
171	0x3d9db957	0.077013664
172	0x00000000	0.0
173	0x3c8679b5	0.016415456
174	0x00000000	0.0
175	0x3bb94290	0.005653687
176	0x279ef12b	4.4115284e-15
177	0x00000000	0.0
178	0x00000000	0.0
179	0x00000000	0.0
180	0x3ba36de8	0.004987467
181	0x3c8b79a8	0.017025784
182	0x3a722bd7	0.00092381
183	0x00000000	0.0
184	0x388644c6	6.402428e-05
185	0x3af41a12	0.0018623492
186	0x00000000	0.0
187	0x00000000	0.0
188	0x3b967860	0.0045919865
189	0x00000000	0.0
190	0x00000000	0.0
191	0x3d1526f9	0.03641412
192	0x00000000	0.0
193	0x3d0778bf	0.033074137
194	0x00000000	0.0
195	0x00000000	0.0
196	0x3cb6211f	0.02223259
197	0x00000000	0.0
198	0x2ed5aa0e	9.7163264e-11
199	0x00000000	0.0
200	0x3b1dbdf7	0.0024069527
201	0x3a7026d3	0.00091610587
202	0x00000000	0.0
203	0x3bdb95fd	0.0067012296
204	0x00000000	0.0
205	0x00000000	0.0
206	0x00000000	0.0
207	0x3b0e30c7	0.0021696554
208	0x28ac5d84	1.9136392e-14
209	0x00000000	0.0
210	0x3ba256dd	0.0049542026
211	0x3ba7fe43	0.005126746
212	0x00000000	0.0
213	0x00000000	0.0
214	0x00000000	0.0
215	0x3cac9e96	0.021071713
216	0x00000000	0.0
217	0x00000000	0.0
218	0x3bbb7588	0.005720798
219	0x3b46bebd	0.0030326091
220	0x3c52f449	0.012875625
221	0x3cba718f	0.022759227
222	0x00000000	0.0
223	0x2c10c2bd	2.0571732e-12
224	0x00000000	0.0
225	0x00000000	0.0
226	0x00000000	0.0
227	0x00000000	0.0
228	0x00000000	0.0
229	0x00000000	0.0
230	0x00000000	0.0
231	0x00000000	0.0
232	0x00000000	0.0
233	0x2687bf27	9.419319e-16
234	0x3bdd78bc	0.0067587774
235	0x00000000	0.0
236	0x3c2c1fcc	0.010505628
237	0x3c01fdd6	0.007934054
238	0x3b185610	0.0023244657
239	0x3c0f2e76	0.0087391045
240	0x3b00498d	0.001957509
241	0x3839d75b	4.4308003e-05
242	0x00000000	0.0
243	0x3bdd5fc1	0.0067557995
244	0x00000000	0.0
245	0x00000000	0.0
246	0x00000000	0.0
247	0x00000000	0.0
248	0x3bb9ecca	0.0056739794
249	0x00000000	0.0
250	0x388f53e7	6.8343994e-05
251	0x00000000	0.0
252	0x00000000	0.0
253	0x00000000	0.0
254	0x00000000	0.0
255	0x3a7f3bcd	0.0009736389

momentum_buffer f4 [261, 50]
0	0x00000000	0.0
1	0xbf20a82e	-0.6275662
2	0x4085c9c4	4.1808796
3	0x00000000	0.0
4	0x00000000	0.0
5	0x00000000	0.0
6	0x00000000	0.0
7	0x00000000	0.0
8	0x40f24b81	7.571717
9	0x40a66714	5.200083
10	0x40c66246	6.1994963
11	0x00000000	0.0
12	0x00000000	0.0
13	0x40e07187	7.0138583
14	0x00000000	0.0
15	0x4067b502	3.6204228
16	0x00000000	0.0
17	0xc036fba8	-2.8591099
18	0x40e1f041	7.060578
19	0x3f2431e5	0.64138633
20	0x00000000	0.0
21	0x4184223d	16.516718
22	0x40585224	3.3800135
23	0x418049df	16.03607
24	0x00000000	0.0
25	0x410fde28	8.991737
26	0x411a2d1b	9.636012
27	0x40ccfa48	6.405552
28	0x40e20b74	7.063898
29	0x40bc9afe	5.89392
30	0x00000000	0.0
31	0x40deb42d	6.959494
32	0x41ae5ce6	21.79536
33	0x00000000	0.0
34	0xc12634bc	-10.387875
35	0x40c48941	6.1417546
36	0x00000000	0.0
37	0x41015c8f	8.085097
38	0x413a4175	11.640981
39	0x413037b5	11.0136
40	0x00000000	0.0
41	0x00000000	0.0
42	0x411cb861	9.795014
43	0xc142f50f	-12.184829
44	0x00000000	0.0
45	0x00000000	0.0
46	0x40e51632	7.1589594
47	0x00000000	0.0
48	0xc0b7c205	-5.742434
49	0x00000000	0.0
50	0x00000000	0.0
51	0x00000000	0.0
52	0xc1889189	-17.071062
53	0x00000000	0.0
54	0x00000000	0.0
55	0x4042baeb	3.0426586
56	0x00000000	0.0
57	0x00000000	0.0
58	0x00000000	0.0
59	0x00000000	0.0
60	0x00000000	0.0
61	0x00000000	0.0
62	0x00000000	0.0
63	0xc10e5e71	-8.898057
64	0x00000000	0.0
65	0xc114e92a	-9.306925
66	0x00000000	0.0
67	0x3f2c28a4	0.6724951
68	0x00000000	0.0
69	0x405ac07b	3.417998
70	0x00000000	0.0
71	0x00000000	0.0
72	0x00000000	0.0
73	0x40e1cc4a	7.0561876
74	0x00000000	0.0
75	0x00000000	0.0
76	0xc194d8d8	-18.60588
77	0x00000000	0.0
78	0x00000000	0.0
79	0x40d633a4	6.693804
80	0x40d685ac	6.7038174
81	0x00000000	0.0
82	0x00000000	0.0
83	0x00000000	0.0
84	0x00000000	0.0
85	0x00000000	0.0
86	0x4130e9a3	11.05704
87	0x00000000	0.0
88	0x00000000	0.0
89	0x00000000	0.0
90	0x00000000	0.0
91	0x00000000	0.0
92	0x00000000	0.0
93	0xc0c315b2	-6.0963984
94	0x403ed3ff	2.9816892
95	0xbf9692ad	-1.1763512
96	0x3fa5519f	1.2915534
97	0xc142ae88	-12.16761
98	0xc1159f38	-9.351372
99	0x3fe0306e	1.751478
100	0x40a7208c	5.222723
101	0x00000000	0.0
102	0x41505a63	13.022067
103	0xc0fe0154	-7.937662
104	0x411fe84e	9.994215
105	0x40d60c98	6.6890373
106	0x3fa76008	1.3076181
107	0x00000000	0.0
108	0x41631177	14.191764
109	0x415458b2	13.271654
110	0x00000000	0.0
111	0x00000000	0.0
112	0xc18adec8	-17.35878
113	0x00000000	0.0
114	0x00000000	0.0
115	0x00000000	0.0
116	0x00000000	0.0
117	0x414407f1	12.251939
118	0x408dcde7	4.4313846
119	0x00000000	0.0
120	0xc1b52a30	-22.6456
121	0x414aaf60	12.667816
122	0x403c94b2	2.9465756
123	0x3fa08375	1.2540118
124	0x00000000	0.0
125	0x00000000	0.0
126	0x00000000	0.0
127	0x413a1fc1	11.632752
128	0x40fff824	7.9990406
129	0x400638be	2.0972133
130	0x00000000	0.0
131	0x00000000	0.0
132	0x3fc3af36	1.5287845
133	0x41203962	10.014009
134	0x4046c2cd	3.1056397
135	0x4149548c	12.583141
136	0x40f2696a	7.575368
137	0x00000000	0.0
138	0x00000000	0.0
139	0x40d0338c	6.5062923
140	0xc16212c7	-14.129584
141	0x00000000	0.0
142	0x00000000	0.0
143	0x00000000	0.0
144	0x00000000	0.0
145	0x40a06f04	5.0135517
146	0x00000000	0.0
147	0x40e9b23c	7.303007
148	0x00000000	0.0
149	0x4111fcfa	9.124262
150	0xbff67535	-1.9254519
151	0x00000000	0.0
152	0x00000000	0.0
153	0xc127ede6	-10.495581
154	0x40f4170d	7.627814
155	0xc116c4a7	-9.423011
156	0x00000000	0.0
157	0xc1111853	-9.068439
158	0x411db625	9.856969
159	0xc014b269	-2.3233893
160	0x00000000	0.0
161	0x00000000	0.0
162	0x00000000	0.0
163	0xc06f7ec1	-3.7421114
164	0x00000000	0.0
165	0x00000000	0.0
166	0x00000000	0.0
167	0x4121e2a8	10.117836
168	0x00000000	0.0
169	0x00000000	0.0
170	0x3fb9c775	1.4513994
171	0xc02999b6	-2.6500068
172	0x00000000	0.0
173	0x40a58f7f	5.1737666
174	0x00000000	0.0
175	0x416a46dc	14.6423
176	0x4056b42b	3.3547466
177	0x00000000	0.0
178	0x00000000	0.0
179	0x00000000	0.0
180	0x41393990	11.576553
181	0xbf22c909	-0.63588005
182	0x416da6b0	14.853195
183	0x00000000	0.0
184	0x40abda46	5.3703947
185	0x41224c31	10.143601
186	0x00000000	0.0
187	0x00000000	0.0
188	0x410c20a4	8.757969
189	0x00000000	0.0
190	0x00000000	0.0
191	0x41103e7f	9.015258
192	0x00000000	0.0
193	0xc0be46c2	-5.9461374
194	0x00000000	0.0
195	0x00000000	0.0
196	0x40ca36c6	6.319186
197	0x00000000	0.0
198	0x4119c7e7	9.611304
199	0x00000000	0.0
200	0xc0ecccfa	-7.4000216
201	0x410c332f	8.762496
202	0x00000000	0.0
203	0xbd9586f7	-0.07301133
204	0x00000000	0.0
205	0x00000000	0.0
206	0x00000000	0.0
207	0xc1751be3	-15.319308
208	0x406071da	3.506949
209	0x00000000	0.0
210	0xc0ddc198	-6.929882
211	0xc0ebd7e3	-7.3701034
212	0x00000000	0.0
213	0x00000000	0.0
214	0x00000000	0.0
215	0xc00e2bc7	-2.221422
216	0x00000000	0.0
217	0x00000000	0.0
218	0xc1144e02	-9.269045
219	0x40d4fdf2	6.655999
220	0xbf2d273b	-0.67637986
221	0x3fb2529e	1.3931463
222	0x00000000	0.0
223	0x40da02e1	6.8128514
224	0x00000000	0.0
225	0x00000000	0.0
226	0x00000000	0.0
227	0x00000000	0.0
228	0x00000000	0.0
229	0x00000000	0.0
230	0x00000000	0.0
231	0x00000000	0.0
232	0x00000000	0.0
233	0x4043af84	3.0575876
234	0xc16af301	-14.684327
235	0x00000000	0.0
236	0x40133ef0	2.3007164
237	0xc11cd8de	-9.802946
238	0xc010864b	-2.2581966
239	0xbf5252c7	-0.8215756
240	0x410f2397	8.946189
241	0x4087b1d2	4.2404566
242	0x00000000	0.0
243	0x4140c91c	12.049099
244	0x00000000	0.0
245	0x00000000	0.0
246	0x00000000	0.0
247	0x00000000	0.0
248	0xc05f1891	-3.4858744
249	0x00000000	0.0
250	0x413630ed	11.386945
251	0x00000000	0.0
252	0x00000000	0.0
253	0x00000000	0.0
254	0x00000000	0.0
255	0xbf24e163	-0.6440641
