Multistate Intensity Models/SDDR_outputs/best_estimator_nn_event_12.pth (torch, 532101 bytes, 222 tensors)

square_avg f4 [4, 1]
000000 00 00 00 00 00 00 00 00 2e 30 41 33 78 4d db 39
       0.0 0.0 4.4980133e-08 0.00041828654

momentum_buffer f4 [4, 1]
000000 00 00 00 00 00 00 00 00 42 85 20 38 4f c8 45 3f
       0.0 0.0 3.827108e-05 0.7725877

square_avg f4 [4]
000000 00 00 00 00 00 00 00 00 03 23 8b 2c 44 3a 5a 35
       0.0 0.0 3.9545047e-12 8.1296116e-07

momentum_buffer f4 [4]
000000 00 00 00 00 00 00 00 00 b7 04 60 38 fb 87 58 40
       0.0 0.0 5.3410153e-05 3.3832996

square_avg f4 [4, 4]
000000 00 00 00 00 00 00 00 00 f4 7b 70 2d 57 e6 ae 2f
       0.0 0.0 1.3669944e-11 3.1814082e-10
000010 00 00 00 00 00 00 00 00 00 00 00 00 00 00 00 00
       0.0 0.0 0.0 0.0
000020 00 00 00 00 00 00 00 00 c0 2d c9 2c e8 32 ec 32
       0.0 0.0 5.717843e-12 2.7497165e-08
000030 00 00 00 00 00 00 00 00 4d 7a 01 2c 0c 13 74 39
       0.0 0.0 1.8399893e-12 0.00023276749

momentum_buffer f4 [4, 4]
000000 00 00 00 00 00 00 00 00 f4 c3 6a b7 1f db 88 38
       0.0 0.0 -1.3993111e-05 6.5258e-05
000010 00 00 00 00 00 00 00 00 00 00 00 00 00 00 00 00
       0.0 0.0 0.0 0.0
000020 00 00 00 00 00 00 00 00 b7 96 6a b7 df 49 ac 38
       0.0 0.0 -1.3982578e-05 8.215359e-05
000030 00 00 00 00 00 00 00 00 7a 50 e6 37 16 4a 50 3f
       0.0 0.0 2.7455611e-05 0.81363046

square_avg f4 [4]
000000 4b 7d 9c 2e 00 00 00 00 ba d3 bc 2e f9 34 76 36
       7.116315e-11 0.0 8.5868604e-11 3.668769e-06

momentum_buffer f4 [4]
000000 31 a9 9a 38 00 00 00 00 17 67 71 38 e5 77 47 40
       7.3748066e-05 0.0 5.7554887e-05 3.1166928

square_avg f4 [4, 4]
000000 9a 4e c7 2c 00 00 00 00 07 0a 90 2e 66 75 96 35
       5.6646467e-12 0.0 6.550143e-11 1.1210038e-06
000010 c4 fa 89 28 00 00 00 00 a9 96 92 2c 03 71 39 39
       1.5318808e-14 0.0 4.166296e-12 0.00017685075
000020 c0 a6 5a 2d 00 00 00 00 0b de 26 31 39 73 04 32
       1.2428891e-11 0.0 2.4282396e-09 7.70961e-09
000030 00 00 00 00 00 00 00 00 00 00 00 00 00 00 00 00
       0.0 0.0 0.0 0.0

momentum_buffer f4 [4, 4]
000000 60 13 c6 b7 00 00 00 00 d5 e1 98 38 d1 79 9d bf
       -2.3612462e-05 0.0 7.289989e-05 -1.23028
000010 0b b7 3a 35 00 00 00 00 84 03 b1 b7 f4 f5 17 bf
       6.955676e-07 0.0 -2.1101681e-05 -0.5935967
000020 4e 7d 21 b8 00 00 00 00 eb 44 7e 38 79 77 0a 37
       -3.850209e-05 0.0 6.0622504e-05 8.253258e-06
000030 00 00 00 00 00 00 00 00 00 00 00 00 00 00 00 00
       0.0 0.0 0.0 0.0

square_avg f4 [4]
000000 eb bf c7 35 e1 f6 77 37 e1 26 97 30 00 00 00 00
       1.4882511e-06 1.4779828e-05 1.0997746e-09 0.0

momentum_buffer f4 [4]
000000 5c c6 aa 3e 89 d6 93 bf 03 11 bd 38 00 00 00 00
       0.3335446 -1.1549846 9.015391e-05 0.0

square_avg f4 [5, 4]
000000 b6 7e a1 33 9d 47 1d 33 b5 06 07 2d 00 00 00 00
       7.520195e-08 3.6619543e-08 7.675351e-12 0.0
000010 54 1d 07 36 db 77 03 34 c2 08 05 2b 00 00 00 00
       2.0133639e-06 1.2243929e-07 4.7263246e-13 0.0
000020 f0 f2 02 34 7d ef 74 33 b6 9d b9 2d 00 00 00 00
       1.2195574e-07 5.702849e-08 2.1102103e-11 0.0
000030 00 00 00 00 22 b9 14 2c 00 00 00 00 00 00 00 00
       0.0 2.1134834e-12 0.0 0.0
000040 f0 0d 42 33 17 5c b2 32 7e c7 be 2f 00 00 00 00
       4.518182e-08 2.0763805e-08 3.4702546e-10 0.0

momentum_buffer f4 [5, 4]
000000 e4 33 04 c0 88 22 d1 c0 04 e6 92 b8 00 00 00 00
       -2.0656672 -6.5354652 -7.004666e-05 0.0
000010 38 21 1e bf 82 2f b7 bf 6a ef 07 38 00 00 00 00
       -0.6176944 -1.4311373 3.240948e-05 0.0
000020 e3 12 2c c0 0c 28 bb c0 55 21 17 b8 00 00 00 00
       -2.6886528 -5.8486385 -3.603225e-05 0.0
000030 00 00 00 00 9a 77 f1 38 00 00 00 00 00 00 00 00
       0.0 0.00011514053 0.0 0.0
000040 72 4d 10 c0 3b 3a d2 c0 48 97 85 b7 00 00 00 00
       -2.254727 -6.569608 -1.5925281e-05 0.0

square_avg f4 [5]
000000 ce ab 90 21 f5 a2 37 34 7f 84 07 22 dd 27 dc 2b
       9.803296e-19 1.7102487e-07 1.8366055e-18 1.5643004e-12
000010 ee bd 69 2c
       3.3216724e-12

momentum_buffer f4 [5]
000000 a0 c8 2a bf 0b 7d f9 bf c3 a2 a4 bf db 4f f1 38
       -0.6671238 -1.9491285 -1.2862171 0.0001150665
000010 d3 a9 18 bb
       -0.0023294582

square_avg f4 [20, 12]
000000 60 d8 96 37 4a 03 78 38 9d 0c 5e 36 69 11 f1 37
       1.798215e-05 5.913087e-05 3.308792e-06 2.8737546e-05
000010 3a 1f 3a 38 77 a8 f6 37 84 c2 65 38 78 39 14 38
       4.4374938e-05 2.9403933e-05 5.477901e-05 3.533947e-05
000020 fb 80 4c 37 70 d3 8d 37 a9 d4 85 34 34 11 8a 34
       1.2189378e-05 1.6906968e-05 2.492791e-07 2.571702e-07
000030 65 47 7a 37 64 7c 0d 37 45 8c 64 35 87 3c 88 37
       1.4917784e-05 8.433217e-06 8.514074e-07 1.6240649e-05
000040 56 df 2a 37 aa 24 aa 37 b9 e9 fd 37 b2 88 a9 37
       1.0184789e-05 2.0282652e-05 3.0268786e-05 2.0210024e-05
000050 50 e6 d5 36 81 3e 18 36 73 1e 99 2e 22 9c fe 30
       6.3747066e-06 2.2686147e-06 6.963043e-11 1.8525308e-09
000060 f9 00 dd 37 10 0f 06 38 05 b2 a3 36 fc e7 02 38
       2.6345706e-05 3.1962118e-05 4.8785028e-06 3.1210468e-05
000070 50 d1 0f 38 8e 9c 51 38 4c 17 67 38 22 da b9 37
       3.4288794e-05 4.9975286e-05 5.509639e-05 2.2155295e-05
000080 9f de b2 36 ce d7 e2 37 b0 27 80 34 25 36 7a 32
       5.33073e-06 2.7041791e-05 2.3870734e-07 1.4564226e-08
000090 b8 c3 88 37 16 9e d2 37 c8 0d d6 34 00 9f f0 37
       1.6303602e-05 2.5107565e-05 3.9870633e-07 2.868427e-05
0000a0 74 7c 83 37 2b 55 8c 37 05 e9 f0 37 76 7a 9e 37
       1.567437e-05 1.672896e-05 2.8718738e-05 1.8892093e-05
0000b0 58 40 7d 36 83 59 fa 35 3f 8d 2f 33 11 5b 75 33
       3.773739e-06 1.8652503e-06 4.0873825e-08 5.7126332e-08
0000c0 88 3f c1 37 fe 58 a6 38 11 b4 c3 36 f0 03 f8 37
       2.3036977e-05 7.932073e-05 5.8324154e-06 2.9565737e-05
0000d0 24 ef c8 37 10 3a 9f 37 c6 2f 2f 38 6b 83 c1 37
       2.3953216e-05 1.8981314e-05 4.1767744e-05 2.306859e-05
0000e0 f3 95 ab 37 97 8f 45 37 76 bd 31 34 85 4f c7 34
       2.0454614e-05 1.1775547e-05 1.6553335e-07 3.7124497e-07
0000f0 87 83 97 37 21 70 b8 37 6e 55 98 36 45 20 0a 38
       1.806185e-05 2.1986723e-05 4.5398983e-06 3.2931817e-05
000100 e3 a2 fc 37 f4 ab b2 37 55 91 19 38 94 91 d4 37
       3.0116591e-05 2.1299325e-05 3.6613394e-05 2.534016e-05
000110 a6 1f b6 36 5d d1 a5 36 8d e9 9f 34 21 54 44 31
       5.427707e-06 4.9417563e-06 2.9785988e-07 2.8569576e-09
000120 be 56 87 37 9d 2d ed 37 81 81 52 36 bf 53 21 38
       1.6133647e-05 2.8273842e-05 3.136782e-06 3.8463386e-05
000130 5e 65 f9 36 57 14 f7 36 5f c7 9c 37 8d 60 5c 37
       7.432579e-06 7.3635415e-06 1.8689489e-05 1.3135502e-05
000140 63 01 e4 36 bb 7c b5 36 75 6c 0c 30 f0 e4 1a 34
       6.795091e-06 5.408741e-06 5.108583e-10 1.4425655e-07
000150 d7 4c 81 37 19 97 e7 37 04 3f 8c 37 40 92 d1 38
       1.541378e-05 2.7607706e-05 1.6718644e-05 9.993138e-05
000160 af 54 b8 37 78 41 19 38 ee 04 e8 37 e2 35 b4 37
       2.1973943e-05 3.6539015e-05 2.765885e-05 2.1482763e-05
000170 0a f8 c9 35 92 d6 26 37 51 c2 af 33 1a 0e 8a 33
       1.5047856e-06 9.94433e-06 8.1844185e-08 6.428691e-08
000180 2e 76 39 37 32 48 83 37 47 38 9e 36 ff 1c 97 37
       1.1054375e-05 1.5650035e-05 4.7153185e-06 1.8014105e-05
000190 c1 2d b3 37 59 d1 b2 37 64 b1 83 37 f0 ec 68 37
       2.1359769e-05 2.1316739e-05 1.569902e-05 1.3883444e-05
0001a0 2f e6 f6 36 0e 94 7b 37 e6 32 a2 34 c3 eb 2c 34
       7.358168e-06 1.49952375e-05 3.0211885e-07 1.6104518e-07
0001b0 e3 b9 4e 37 26 19 a0 37 74 e9 7a 35 1d c7 a4 37
       1.2321837e-05 1.9085197e-05 9.3471976e-07 1.9643043e-05
0001c0 0e 45 91 37 ee e6 54 37 26 53 ca 37 de 77 be 37
       1.7317503e-05 1.2689952e-05 2.4118995e-05 2.2705583e-05
0001d0 74 b8 14 36 55 c1 23 37 02 28 a0 34 8b eb 2f 33
       2.2161084e-06 9.760571e-06 2.9831432e-07 4.0959588e-08
0001e0 24 49 17 37 0e c3 40 37 a1 39 3e 36 69 1e c9 37
       9.017331e-06 1.14895065e-05 2.834575e-06 2.3975228e-05
0001f0 71 33 c0 36 5c 58 45 37 51 b1 7b 37 8c 3c 24 37
       5.7280345e-06 1.1762688e-05 1.50020505e-05 9.789259e-06
000200 65 c6 9f 35 fb 29 90 36 5a 14 95 34 f6 a3 bc 30
       1.1904164e-06 4.2964216e-06 2.776822e-07 1.3725401e-09
000210 5a 8e fb 36 87 c8 a4 37 5e 65 25 35 1c b2 35 37
       7.496955e-06 1.9643701e-05 6.16148e-07 1.082991e-05
000220 1f af 3c 37 09 b9 49 37 ba 3b 41 37 ef 0d a7 37
       1.1246447e-05 1.2023615e-05 1.1517603e-05 1.991444e-05
000230 4a 0c cc 36 59 42 74 36 e4 70 f1 2f 92 e1 04 34
       6.0811044e-06 3.6397453e-06 4.3917858e-10 1.237552e-07
000240 6b 24 0f 38 e9 e0 f5 38 32 bb 07 38 97 fd 02 38
       3.4127774e-05 0.00011724403 3.2360847e-05 3.123059e-05
000250 35 db e9 37 d6 82 0b 38 5b 66 92 38 1f 2c 21 38
       2.787784e-05 3.3262033e-05 6.980888e-05 3.8426482e-05
000260 00 ef 18 38 7d f1 37 37 7a 95 8b 34 9e 23 f6 33
       3.646221e-05 1.0963876e-05 2.5999526e-07 1.14617464e-07
000270 0e 1e 65 37 0e 0f 36 38 f6 fb 95 37 5a 15 0b 38
       1.3656461e-05 4.3406202e-05 1.7879513e-05 3.3160068e-05
000280 11 02 f3 37 a0 89 4d 38 41 6c f1 37 27 ba eb 37
       2.896882e-05 4.9003982e-05 2.8779848e-05 2.8100867e-05
000290 bf 04 89 37 95 52 a5 37 68 49 dc 34 e8 6f 62 34
       1.6333883e-05 1.9707988e-05 4.1031603e-07 2.1088601e-07
0002a0 73 3d b6 36 76 00 bd 37 d5 4b f8 34 b5 56 26 37
       5.4311763e-06 2.253077e-05 4.6248775e-07 9.914559e-06
0002b0 71 d9 7c 37 6f 0c 8b 37 e0 c5 38 37 31 6d 96 37
       1.50709975e-05 1.6575881e-05 1.1013326e-05 1.793224e-05
0002c0 e1 87 0e 36 dc 90 0a 36 32 f4 91 2f ba fa 27 35
       2.123874e-06 2.0647922e-06 2.6548858e-10 6.2577203e-07
0002d0 1c 5a 03 38 3d 9f 19 38 52 46 56 36 77 49 e7 37
       3.1316755e-05 3.6626345e-05 3.1929417e-06 2.7571556e-05
0002e0 02 00 00 38 60 0d ad 38 2f 74 03 38 89 d1 d1 37
       3.0517585e-05 8.251774e-05 3.134104e-05 2.5012314e-05
0002f0 7c 39 65 36 e4 5d ba 37 e7 9e c9 34 6b fd 9e 31
       3.415712e-06 2.2216649e-05 3.7554784e-07 4.6272155e-09
000300 d8 c3 9e 37 a5 3c 16 37 ef 2c 71 37 6c f6 8f 37
       1.8926265e-05 8.954817e-06 1.4375181e-05 1.7161678e-05
000310 02 35 04 37 2b 36 0a 37 65 32 99 37 47 03 76 37
       7.880155e-06 8.238053e-06 1.8262488e-05 1.4663506e-05
000320 77 f6 a1 35 16 b9 4b 34 f9 2c 15 32 df a5 03 34
       1.2067165e-06 1.8973182e-07 8.683167e-09 1.2260669e-07
000330 db f9 a8 37 6a d2 c4 38 71 ca 33 36 64 d9 9d 38
       2.0143509e-05 9.385201e-05 2.6790915e-06 7.5268355e-05
000340 f0 cf 83 37 07 cc f5 37 ed c6 ba 37 45 30 8c 37
       1.5713245e-05 2.9301284e-05 2.226556e-05 1.6711778e-05
000350 b3 52 a8 37 46 f9 d3 36 a4 b3 24 30 32 ec f1 33
       2.006567e-05 6.3173093e-06 5.9918137e-10 1.1265401e-07
000360 66 39 50 37 c4 2a 1b 38 39 c9 48 37 db 1d 83 38
       1.241113e-05 3.699471e-05 1.196778e-05 6.252128e-05
000370 51 9b 32 37 5d 99 ec 37 52 26 18 37 8a 51 4e 37
       1.0645789e-05 2.8204808e-05 9.068828e-06 1.2297542e-05
000380 60 6a 1b 37 66 a0 75 37 0e c1 10 34 ec cb 26 33
       9.263487e-06 1.4640484e-05 1.3481278e-07 3.8835353e-08
000390 8e 0a 24 36 7a 86 d6 37 64 a1 c8 34 00 c8 ee 37
       2.4444048e-06 2.5573408e-05 3.737033e-07 2.8464943e-05
0003a0 10 7e 7f 36 4c 4a 5d 36 41 45 af 36 8f 80 81 36
       3.807134e-06 3.2974813e-06 5.2234686e-06 3.859466e-06
0003b0 7c 48 9f 36 6b 76 05 36 26 fd 1a 32 33 0d 80 33
       4.7470076e-06 1.9887473e-06 9.021539e-09 5.9628654e-08

momentum_buffer f4 [20, 12]
000000 49 68 b0 3f 2b 90 0e bf 40 89 c4 bf f0 13 e7 be
       1.3781825 -0.5568873 -1.5354385 -0.451324
000010 b5 5c 93 3f 1c 77 72 be 40 9f 60 bf fc 57 01 bf
       1.1512667 -0.23678249 -0.87742996 -0.5052488
000020 c7 77 87 bf a8 ec ec 3d fe 7c fa bf b4 34 8a 3f
       -1.0583428 0.11568576 -1.9569395 1.0797334
000030 3a 2c 72 3f ba 0c a7 3f 30 72 5d 3e 74 cd 30 40
       0.94598734 1.3050759 0.2162559 2.7625399
000040 5c ec a1 be 2a 1c b3 3f 93 d8 a7 3f a0 05 fb be
       -0.3162564 1.399297 1.3112968 -0.4902773
000050 b9 3f 89 bf 60 53 85 be 5a 7e d9 3f b2 6a f8 3c
       -1.0722572 -0.26040173 1.6991684 0.030324314
000060 e8 f7 5d 3f b7 70 4d 3d f7 80 4b 3f 19 f3 dc be
       0.867064 0.05015632 0.7949366 -0.4315422
000070 8a 53 97 be 0c 58 b2 be 00 46 0c 3b 79 e0 02 3f
       -0.29555923 -0.348328 0.0021404028 0.5112377
000080 dc 36 cc bf 74 e7 8f bf fe ff a4 3f cc 23 bd bf
       -1.5954242 -1.1242509 1.2890623 -1.4776549
000090 96 c8 9b 3f d8 da ac 3e e0 2f e1 3f 60 9c ea bd
       1.2170589 0.33760715 1.7592735 -0.114556074
0000a0 11 cf 10 40 49 6b a7 3e ea e0 c1 3e 05 43 94 3f
       2.2626383 0.3269904 0.37866908 1.1582953
0000b0 00 6f be be f0 0c 94 3d c7 c1 88 40 9d 13 2d c0
       -0.3719406 0.0722903 4.2736545 -2.704322
0000c0 e0 f9 c4 3d e2 f6 23 bf 80 3d 47 c0 72 f2 51 bf
       0.096179724 -0.6404859 -3.1131287 -0.8201057
0000d0 44 ab c5 3f 50 b2 e2 3c 50 c3 bb be 66 cd 60 bf
       1.5442891 0.027672917 -0.3667245 -0.87813413
0000e0 9a c4 61 bf 00 cf c9 3e c8 ae 4c 3f 24 32 9f be
       -0.88190615 0.3941574 0.79954195 -0.31092942
0000f0 f4 30 cf bf 64 0f a7 be fd 1b be be 87 d2 14 c0
       -1.6186814 -0.3262893 -0.37130728 -2.3253496
000100 de ab 0c be ad e4 77 bf 86 6a 2c 3f 0c f9 b7 3f
       -0.13737437 -0.96833307 0.6735004 1.4372878
000110 00 36 d4 3d 75 f8 82 bf a4 88 5c c0 35 42 67 40
       0.10361862 -1.0232073 -3.44584 3.613416
000120 00 0b 73 bf f4 0e 6e 3f 9d 1e 4f bf 64 2d c5 be
       -0.9493866 0.92991567 -0.8090609 -0.38511193
000130 31 d2 79 bf 58 fb b5 3f d8 7d 01 bf 18 15 16 c0
       -0.9758635 1.4217329 -0.5058265 -2.3450375
000140 4c 05 8f 3f 40 21 81 bc 04 8d e3 40 b4 e5 22 bf
       1.1173491 -0.015762925 7.110964 -0.6363175
000150 d5 67 21 c0 d7 e3 67 bf dc 25 e5 bd 81 7d 59 bf
       -2.5219624 -0.9058203 -0.11188862 -0.8495713
000160 fc 3d 41 bf cc 97 df bf 24 58 b5 bf b2 8a 77 bf
       -0.75485206 -1.74682 -1.4167523 -0.9669601
000170 7a fe 4d bf 04 22 59 bf 1d 49 0b c0 fe e0 d5 3f
       -0.80466425 -0.8481753 -2.1763375 1.6709287
000180 af 80 8a 3e 59 a4 cc bf dd 67 aa be 24 5c 9a 3e
       0.27051303 -1.5987655 -0.33282366 0.30148423
000190 82 91 1b c0 62 aa 83 bf d4 5b 4c 3f 1b 46 cf 3f
       -2.430756 -1.0286372 0.7982762 1.619327
0001a0 73 87 62 c0 04 d8 63 bf 79 ca b7 3f bc bb 59 c0
       -3.5395172 -0.8900149 1.4358665 -3.4020834
0001b0 74 e1 a6 3f 9c fe a0 bf 9e 12 a3 bf d0 9d 2e 3e
       1.3037553 -1.2577701 -1.2740057 0.17052388
0001c0 4c c3 d3 3e 40 9c 3a bf d3 5c 87 3f cb cb 2d bf
       0.41359937 -0.7289467 1.0575203 -0.6788909
0001d0 5f 9d de bf fe 2f 04 40 70 e6 03 3d c0 e0 09 c0
       -1.7391776 2.0654292 0.032202184 -2.1543427
0001e0 40 7b 70 3d bf 37 89 bf 48 22 2f c0 31 66 f4 3f
       0.05871129 -1.0720137 -2.7364674 1.9093686
0001f0 7a 1c 76 3f ea 9b 74 3f 44 4e 33 3f fb d2 49 3f
       0.961372 0.95550406 0.700413 0.78837556
000200 af 89 a4 3f 60 cf e8 be 35 c9 da 3e 1c f2 af 40
       1.2854518 -0.45470715 0.42731634 5.4983044
000210 73 81 1f 3f 9d e7 bc 3f e0 53 70 3d 41 d8 dc 3f
       0.623069 1.4758183 0.05867374 1.7253495
000220 40 d8 f3 be 2e dc a7 3f d4 a9 bc 3e 64 2b b6 bf
       -0.47625923 1.3114069 0.3684832 -1.4231992
000230 da 35 0b 3f 8e 79 38 bf cd 0f 11 c0 d0 f5 68 be
       0.54379046 -0.7206048 -2.2665894 -0.2275002
000240 db a1 5f bf 88 7d c6 bf c0 d9 1d bf 03 be 5d bf
       -0.87356347 -1.5507059 -0.61660385 -0.8661806
000250 bb 21 d1 3f 3e e9 86 bf df 9c a2 bf 12 7b 98 bf
       1.6338419 -1.053993 -1.2704123 -1.1912558
000260 77 10 80 bf f2 08 b6 3f f0 74 cb bd d1 0e 22 40
       -1.0005025 1.422148 -0.099344134 2.5321543
000270 10 1f 95 bf 3b 7d cd bf 62 56 9b 3e 65 41 e1 3e
       -1.1650105 -1.6053842 0.30339342 0.43995205
000280 04 44 5f bf 40 a6 90 3c a0 b9 ca 3f 94 b0 ae be
       -0.8721316 0.0176574 1.5837898 -0.34119093
000290 4c a6 cb be 80 13 4b be 78 20 0d 3f 64 ee be 3e
       -0.39775312 -0.19831657 0.5512767 0.37291253
0002a0 6a 5d 20 c0 14 0f 43 3f 80 c6 5a bd 20 2a 1a c0
       -2.5057015 0.7619488 -0.05341196 -2.408821
0002b0 96 18 ef bf 50 0e f7 be e1 23 75 c0 cf 04 03 c0
       -1.8679378 -0.48253107 -3.8303149 -2.0471685
0002c0 00 29 81 3c 56 d1 b2 be a4 7c 75 c0 3c 54 89 bf
       0.01576662 -0.34925336 -3.8357325 -1.0728831
0002d0 42 6f c0 3e f2 11 3c bf a0 6d 1b c0 38 39 ce bc
       0.37584883 -0.7346488 -2.428566 -0.025173768
0002e0 e4 7e 85 3f 72 bb 39 3f 11 99 32 bf aa f9 21 bf
       1.0429349 0.72551644 -0.6976481 -0.6327158
0002f0 e0 e8 14 bf 5a 35 ec 3f a1 6d 07 40 2e 30 4a 3f
       -0.5816784 1.8453782 2.1160662 0.78979766
000300 59 4b f7 bf 98 91 6f bd c7 f5 0f 40 ca 5b 16 3f
       -1.9319869 -0.05848846 2.249376 0.5873381
000310 b8 0f 57 be 9c 6a 36 3e 38 b0 c1 3e 89 fb a3 bf
       -0.2100209 0.17814106 0.37829757 -1.2811137
000320 14 45 62 bf 3d 81 57 40 0d d3 cb 3f c6 a1 cb bf
       -0.88386655 3.367263 1.5923783 -1.5908744
000330 ff 0e b5 bf 96 e2 f9 be 02 79 89 bd 63 85 2d bf
       -1.4145201 -0.48805684 -0.067125335 -0.67781657
000340 20 c4 e9 bd 4a 63 9d bf 25 d9 5f be ae d8 bf bf
       -0.11414361 -1.2295926 -0.21860178 -1.4988
000350 80 1b c9 bc 0b 08 20 40 ed be a8 3f 80 18 09 bf
       -0.024549246 2.500491 1.3183266 -0.5355301
000360 fd c2 a4 3f a4 d0 15 40 ec a7 99 3f dc 08 bb 3f
       1.2872006 2.3408594 1.2004371 1.4612079
000370 a8 5f c7 3f c0 96 e5 bb 46 a8 56 bf 3a 5e 3d 40
       1.5576067 -0.007006496 -0.83850515 2.9588761
000380 98 1c 61 be f4 54 37 bf 5e 9f d3 bf 31 3c c9 3e
       -0.21983564 -0.71614003 -1.653301 0.39303735
000390 9d 28 01 40 f6 35 8c 3f 63 64 65 bf ec ed 8f 3f
       2.0181038 1.0953968 -0.896063 1.1244483
0003a0 04 0d c0 bf 41 14 83 40 60 16 a6 3f a5 95 4c 40
       -1.5003972 4.0962224 1.2975578 3.1966336
0003b0 60 b8 74 3e d0 8f 37 be be 92 96 40 c8 99 8a 3f
       0.23898458 -0.17925954 4.705413 1.082818

square_avg f4 [20]
000000 ec 79 a4 38 47 ce 50 38 2a ee cd 38 67 42 c4 37
       7.842839e-05 4.9783175e-05 9.819523e-05 2.3395942e-05
000010 2a 07 c2 38 26 38 5b 38 a1 6f 02 38 f6 d3 31 38
       9.251975e-05 5.226596e-05 3.1098378e-05 4.2397493e-05
000020 dd d2 8c 38 11 5c 67 38 b4 bd 12 38 61 50 18 38
       6.7149966e-05 5.5160435e-05 3.4985787e-05 3.6314483e-05
000030 f4 83 bb 38 75 53 01 39 34 25 e4 37 d2 c7 9a 38
       8.941433e-05 0.00012333489 2.7197042e-05 7.380512e-05
000040 46 0a cf 37 98 ef 8e 38 ba fe 6c 38 70 dc b3 37
       2.4681107e-05 6.8157155e-05 5.6504017e-05 2.1441112e-05

momentum_buffer f4 [20]
000000 74 f6 7c be 8c 83 5d be 65 82 63 be 42 c6 e1 bf
       -0.2470339 -0.21632212 -0.2221771 -1.7638628
000010 3e fe 09 3f e2 4c 72 bf 94 3f 01 bf 67 4d 3a c0
       0.5390357 -0.94648564 -0.5048764 -2.9109743
000020 25 a9 52 be ff 22 a3 3f a0 3d 04 3f 48 c4 21 be
       -0.20572336 1.2745055 0.5165653 -0.15797532
000030 19 48 e6 3e 18 14 23 3e e0 85 70 3d 10 30 8b 3e
       0.4497688 0.15925634 0.058721423 0.27185106
000040 a2 62 29 c0 50 d3 af 3d dc ce b0 be 91 ba ef 3f
       -2.646645 0.085852265 -0.3453282 1.872881

square_avg f4 [20, 20]
000000 85 46 39 35 c8 eb 81 36 d7 34 5a 38 bb 4e 59 36
       6.902049e-07 3.871948e-06 5.202446e-05 3.2381347e-06
000010 0a 70 26 36 86 a2 d4 37 d4 c5 90 35 71 77 fa 37
       2.4801143e-06 2.534805e-05 1.0786412e-06 2.9857942e-05
000020 84 76 8a 38 cd 60 26 37 a7 2c 6d 35 27 49 d4 36
       6.602428e-05 9.916909e-06 8.835436e-07 6.3266084e-06
000030 67 b0 d4 36 d2 cf 8d 38 66 e6 35 35 92 a6 37 38
       6.3386283e-06 6.7621135e-05 6.776303e-07 4.378573e-05
000040 fb 29 a8 36 1f 6b 34 35 dd b0 fe 37 e5 c4 5c 33
       5.0116773e-06 6.7211107e-07 3.0361518e-05 5.1401816e-08
000050 9a e3 b5 36 b8 d8 00 37 1e 52 b6 37 93 d4 cb 36
       5.4207167e-06 7.679853e-06 2.173433e-05 6.0746183e-06
000060 77 3e 06 38 93 fe 48 37 b1 db 2d 37 4b 35 2a 37
       3.2006265e-05 1.1980202e-05 1.0362754e-05 1.0145198e-05
000070 57 5d 0d 38 ed 30 11 38 1e cf 10 37 64 07 84 38
       3.370395e-05 3.461626e-05 8.631292e-06 6.295627e-05
000080 47 59 72 37 b9 ed 0f 39 fd 9e 75 35 87 9d 97 37
       1.44451105e-05 0.00013726101 9.150097e-07 1.8073957e-05
000090 7b 5b 64 36 58 6c cf 36 7f 47 ca 37 86 c6 11 37
       3.4027896e-06 6.1816936e-06 2.411357e-05 8.688896e-06
0000a0 ca e3 49 35 d5 af 42 35 00 55 b8 30 61 0e 7d 36
       7.520981e-07 7.25265e-07 1.341192e-09 3.7708307e-06
0000b0 25 c5 81 34 5c 1a 18 36 18 a8 b6 33 f4 12 eb 32
       2.4171564e-07 2.2665108e-06 8.5056115e-08 2.736622e-08
0000c0 7e d4 42 33 08 90 51 33 17 6a b0 31 a8 90 cc 36
       4.5362405e-08 4.87926e-08 5.134335e-09 6.096514e-06
0000d0 0b 7f c9 35 3b 69 7b 35 b0 36 8c 34 dd c9 19 36
       1.5012641e-06 9.3657917e-07 2.6116822e-07 2.2916277e-06
0000e0 ff a4 a7 32 57 b9 45 35 2a 4c 58 36 b1 5a 1b 35
       1.951639e-08 7.3657924e-07 3.2230841e-06 5.7873973e-07
0000f0 00 56 20 37 94 7b 77 37 fa 3b 9e 38 55 cf 98 36
       9.556767e-06 1.475112e-05 7.5451986e-05 4.5540896e-06
000100 d8 c2 6e 38 13 6d 09 38 ee 0b bb 37 47 f0 00 38
       5.6925084e-05 3.276493e-05 2.2297692e-05 3.0741354e-05
000110 6a ce c3 38 46 e5 3e 38 d7 02 55 37 32 03 23 39
       9.336772e-05 4.5513058e-05 1.26964505e-05 0.00015546082
000120 c4 3d 30 38 46 d1 42 39 60 9f 02 37 be db 17 38
       4.2019194e-05 0.00018579242 7.785711e-06 3.6205856e-05
000130 cd 17 2d 37 e8 0f e8 36 15 8b 3d 38 be cf 9f 37
       1.0317145e-05 6.9159905e-06 4.519064e-05 1.9051015e-05
000140 65 02 4f 37 be 20 ba 37 ea fb 25 38 b2 ba 07 38
       1.2338719e-05 2.2188175e-05 3.957368e-05 3.236038e-05
000150 35 91 20 38 01 ed ef 37 2c 93 3c 38 72 53 53 37
       3.8282207e-05 2.8601384e-05 4.4959757e-05 1.2596009e-05
000160 33 b6 5a 38 78 c7 27 38 4a e4 2c 38 eb 9f fb 38
       5.2144936e-05 4.0001672e-05 4.1220606e-05 0.000119984
000170 e8 e2 f1 37 7e 0d 88 39 ff 97 cb 35 15 08 97 37
       2.88351e-05 0.00025949994 1.5168915e-06 1.8004366e-05
000180 24 a8 15 37 68 20 dd 37 b3 a6 bc 37 a3 1f 2c 38
       8.92024e-06 2.6360343e-05 2.2488972e-05 4.103746e-05
000190 f7 82 a2 36 34 35 e7 36 3e a4 21 38 84 ad 65 36
       4.8432225e-06 6.89053e-06 3.8538354e-05 3.4224659e-06
0001a0 0a 3f 4a 37 30 fe bf 37 95 3b b9 37 a1 f8 a0 37
       1.2054816e-05 2.288734e-05 2.2081464e-05 1.9189263e-05
0001b0 99 83 23 38 31 6a e2 36 80 7c d7 36 e0 fb d3 37
       3.898479e-05 6.747687e-06 6.421993e-06 2.5270449e-05
0001c0 d5 5c 88 36 de af 4f 38 76 96 0c 36 c4 48 dd 36
       4.063923e-06 4.9516435e-05 2.0949205e-06 6.5947843e-06
0001d0 d0 0e 04 36 cd ab 01 37 1c f5 99 37 f6 50 e3 37
       1.9678155e-06 7.729e-06 1.835316e-05 2.709821e-05
0001e0 86 55 44 37 c0 e7 f5 35 4e 76 64 33 d8 b4 8b 36
       1.1702423e-05 1.8321371e-06 5.3192984e-08 4.163576e-06
0001f0 8e f5 14 37 51 36 cc 35 e2 09 21 38 72 82 18 34
       8.87866e-06 1.5214993e-06 3.8394595e-05 1.4203559e-07
000200 5c 53 48 34 4c eb d7 33 25 5e a7 35 7d de 25 38
       1.8656777e-07 1.0054518e-07 1.2469869e-06 3.9546274e-05
000210 a2 4c ae 35 00 24 01 38 fd 76 1e 34 a1 2a 9c 35
       1.2986313e-06 3.0789524e-05 1.4758184e-07 1.1635312e-06
000220 51 93 8b 35 cf 36 df 36 53 34 2c 35 ca 81 f4 37
       1.0399182e-06 6.6522985e-06 6.4151135e-07 2.9147504e-05
000230 d1 b0 13 36 7b 91 22 36 1c a7 3a 37 95 e6 5f 35
       2.2007628e-06 2.4224562e-06 1.1125372e-05 8.3409515e-07
000240 02 64 83 37 b5 e6 08 36 e9 86 55 36 9c ab 21 36
       1.5662987e-05 2.0399868e-06 3.1818001e-06 2.409076e-06
000250 3f 9d a9 37 ee 4c 96 37 b2 9e 46 37 99 bf 9f 37
       2.0219593e-05 1.7917217e-05 1.1838669e-05 1.9043497e-05
000260 81 c7 01 37 0e 14 a1 38 ad 6f a4 35 14 93 25 37
       7.73545e-06 7.680814e-05 1.2251454e-06 9.869011e-06
000270 2d 02 0d 35 38 25 20 36 f7 fd dc 36 03 45 dd 35
       5.252976e-07 2.3863522e-06 6.5860763e-06 1.6485868e-06
000280 af d3 46 36 4e 8a ac 36 ff 84 1c 37 2c dc 1c 36
       2.9627515e-06 5.1421002e-06 9.32929e-06 2.3373968e-06
000290 c0 69 9e 37 b0 0d 77 34 cf 9d 82 37 da e5 06 36
       1.8884311e-05 2.3008647e-07 1.5570693e-05 2.0101347e-06
0002a0 ef 64 63 37 6d 63 98 37 d2 d0 83 37 bf 1d 54 38
       1.3553755e-05 1.816611e-05 1.5713656e-05 5.0572442e-05
0002b0 a1 14 1d 36 f1 f1 bb 38 60 f6 8c 35 2d ab 91 35
       2.340683e-06 8.96192e-05 1.0502517e-06 1.0853161e-06
0002c0 f5 98 01 35 79 f6 9c 36 88 e1 45 36 2c f8 13 37
       4.8278827e-07 4.6778555e-06 2.9486564e-06 8.819665e-06
0002d0 67 b5 b7 37 f1 89 b8 37 0e e1 81 36 fc c6 31 37
       2.1899772e-05 2.1998743e-05 3.8706994e-06 1.0596352e-05
0002e0 2b 5a 0a 38 d1 80 20 38 36 1e 5d 38 9d e7 b4 37
       3.298574e-05 3.8266942e-05 5.2718642e-05 2.1565525e-05
0002f0 29 b7 c5 36 54 93 e3 37 40 54 fe 36 26 ed c4 38
       5.89238e-06 2.7129114e-05 7.579598e-06 9.390181e-05
000300 51 be 20 37 2d 67 a8 38 1e 43 64 36 02 6c 8a 36
       9.581055e-06 8.030082e-05 3.4013715e-06 4.1252943e-06
000310 c1 6e 1d 37 f2 9f cd 37 98 dd cd 37 74 b2 98 38
       9.383716e-06 2.4512385e-05 2.4541092e-05 7.281164e-05
000320 dc 90 d2 37 7d 50 0c 38 ee be 3f 37 1b 10 76 38
       2.5101406e-05 3.345356e-05 1.1428941e-05 5.866597e-05
000330 53 3c 6b 37 5f c8 a2 38 77 96 8b 38 f0 d3 9d 37
       1.4021137e-05 7.762084e-05 6.656063e-05 1.881455e-05
000340 fe 63 39 37 5b de 81 36 62 aa 31 37 40 8b 87 38
       1.10501405e-05 3.870385e-06 1.05896925e-05 6.463239e-05
000350 0f 48 b3 37 ca a6 43 38 cd 35 03 35 0f 4a c5 37
       2.1372018e-05 4.6646957e-05 4.8879593e-07 2.3518716e-05
000360 24 fb f7 36 fa 7d 40 38 e5 4f 40 38 6c 29 cc 38
       7.3904102e-06 4.5893692e-05 4.5850775e-05 9.7351935e-05
000370 2b 69 50 38 a3 d6 77 38 14 49 30 38 e6 bc 91 38
       4.968901e-05 5.9089285e-05 4.202973e-05 6.949324e-05
000380 a6 d6 d2 38 b3 f1 13 38 8a 9c 50 39 58 9b 7e 37
       0.00010053562 3.527263e-05 0.00019894741 1.5175749e-05
000390 8f 65 99 38 ab b3 7c 38 9f f0 02 38 a9 af e1 39
       7.314525e-05 6.024881e-05 3.121851e-05 0.0004304622
0003a0 e4 c5 1b 38 f3 58 01 3a c5 c3 57 36 f8 b2 be 37
       3.713918e-05 0.0004934214 3.215145e-06 2.2733104e-05
0003b0 3f 01 44 37 6c 70 69 38 95 40 26 38 52 f4 0f 39
       1.16828005e-05 5.565623e-05 3.963763e-05 0.00013728559
0003c0 01 38 cb 37 b7 8e 16 37 a5 6c b1 36 ea 1b 60 37
       2.4225565e-05 8.973925e-06 5.287659e-06 1.335794e-05
0003d0 56 49 9d 37 4c 92 0a 38 ba 52 c7 38 1b 85 8d 37
       1.8750008e-05 3.3038013e-05 9.5044685e-05 1.6870492e-05
0003e0 88 54 a0 36 12 2b aa 35 67 54 a8 35 ae 77 58 38
       4.7782123e-06 1.2678522e-06 1.254154e-06 5.1609873e-05
0003f0 76 4f bf 36 db 50 56 38 68 de 28 34 05 ce 31 37
       5.701494e-06 5.109688e-05 1.572713e-07 1.059799e-05

momentum_buffer f4 [20, 20]
000000 92 64 23 3f 54 dd 9c bf d7 0a c8 bf 6a be 70 c0
       0.63825333 -1.2255044 -1.5628308 -3.761622
000010 7c 27 0b c0 4b ea 51 bf 57 72 8d c0 10 46 eb be
       -2.174285 -0.8199813 -4.4202075 -0.4595189
000020 57 1a f7 bf 75 65 45 c0 8c c3 44 3f 61 54 10 c0
       -1.9304913 -3.0843174 0.7686088 -2.25515
000030 21 44 2f c0 a3 27 58 bf dd e9 23 bf e5 8a 96 bf
       -2.7385333 -0.8443548 -0.6402872 -1.1761137
000040 70 5b 1c 3f ba be b1 c0 44 41 ea bf 6f 90 c6 c0
       0.6107702 -5.554532 -1.8301167 -6.205131
000050 a1 0c 71 be 9e 8d 1e c0 ee 54 da 3e 60 76 26 40
       -0.23539974 -2.4773936 0.4264292 2.600975
000060 77 62 d5 3f 16 81 8a bf 06 83 94 bf 42 1f f4 be
       1.6670674 -1.0820644 -1.1602485 -0.47680098
000070 f3 2e a4 be 98 02 25 bf ba ee 9c 3f 3f 3a 97 3f
       -0.3206707 -0.6445708 1.2260354 1.181465
000080 18 7d 78 3f aa 9c 60 3f 95 30 e9 bf 8f 86 16 3f
       0.9706588 0.8773905 -1.8217951 0.5879907
000090 f4 50 f2 3f a7 41 84 3f f9 79 b6 3f fc fb e4 3e
       1.8930955 1.0332536 1.4255973 0.447235
0000a0 34 e1 59 be 8a fb d7 3e c4 5f e5 bf c1 de a1 3f
       -0.21277314 0.42184097 -1.791985 1.2646104
0000b0 0a c4 ef c0 dc 89 18 be 8d b2 79 40 92 df a0 40
       -7.4926805 -0.14896339 3.9015229 5.0272913
0000c0 8c 7a a1 40 30 95 0d 40 cb 4b 5b b8 98 3e d7 bd
       5.0462093 2.2122307 -5.2284257e-05 -0.10509986
0000d0 14 b6 2d 3f 8c 49 a4 40 16 2a 01 c0 92 73 85 bf
       0.67855954 5.133978 -2.0181937 -1.0425894
0000e0 73 27 50 40 c4 d3 2f 3e 12 1b 49 3f c6 14 83 40
       3.2524078 0.17170626 0.7855693 4.096286
0000f0 fe 9b c4 bf 64 c8 22 40 52 33 f1 be a7 ef e3 be
       -1.5360105 2.5434809 -0.47109467 -0.44518778
000100 6e 0e d3 3e 31 cb df 3e 3f 96 a2 3e 05 d8 7a 3f
       0.41221946 0.4370971 0.31755254 0.9798587
000110 f1 96 d9 be ba 9d 1c 3f e0 72 92 be 8f df a0 3f
       -0.42497972 0.6117817 -0.28603268 1.2568225
000120 1e c6 52 3f 8c ad 5d bf 26 59 dc 3f 78 ee 95 be
       0.8233355 -0.86592937 1.7214706 -0.292835
000130 cc 70 87 3f 8c d5 03 bf 11 95 3d bf de 11 2b 40
       1.0581298 -0.5149772 -0.7405558 2.6729655
000140 40 d5 b5 3f 24 0b 11 40 60 32 b3 3e 14 8a 0e bd
       1.4205704 2.266305 0.3499937 -0.03479965
000150 22 88 9f bf 37 4f ba 3e 62 d6 68 3f 96 40 2d 40
       -1.246342 0.3638856 0.9095212 2.707067
000160 08 fb 86 3d 53 11 0d 40 5b a7 3e bf 0c 41 99 3f
       0.06590849 2.2041824 -0.74474114 1.1972976
000170 08 0a b8 bd f7 27 91 3f 4c e1 dc be 84 7c 08 bf
       -0.08986288 1.1340321 -0.43140638 -0.53314996
000180 d5 54 a8 3f 18 44 3c 3d 62 73 5d 40 ea 7e 78 bf
       1.3150889 0.045963377 3.4601674 -0.97068655
000190 44 bc 69 40 68 9a f8 3f 78 38 9f be 4a 2c 57 bf
       3.6521158 1.9422121 -0.3109777 -0.84051955
0001a0 7c 70 cb 3f 70 4f a8 3d 40 df 79 bd a2 54 f0 3e
       1.5893703 0.082182765 -0.061003923 0.4693957
0001b0 37 8d 47 3f b8 c2 31 3e 00 49 e2 3d 88 3a 8e 3f
       0.7794985 0.17359436 0.1104908 1.1111612
0001c0 b0 2e e8 bf 99 a5 4d 3f ce 5d 87 bf 12 f5 38 bf
       -1.8139248 0.80330807 -1.0575502 -0.7224895
0001d0 5e c0 a7 3f 16 4c c5 3f 04 51 49 3f 30 4c 88 3f
       1.3105581 1.5413845 0.78639245 1.064825
0001e0 e7 09 4a bf 85 90 03 bf 46 2f cc 40 46 fc 19 c0
       -0.7892136 -0.51392394 6.3807707 -2.4060225
0001f0 e6 0d b7 bf a7 6f 31 3f 11 49 6c bf 69 6a 86 40
       -1.4301116 0.6931099 -0.9229899 4.2004895
000200 04 96 b9 3f 02 5e 44 40 ed 40 1d c0 6a 39 09 bf
       1.4498906 3.0682378 -2.4570878 -0.5360323
000210 f9 d4 6f c0 ca cf 93 bf 76 ff 91 bf c9 1f 11 c0
       -3.7473738 -1.1547787 -1.1406085 -2.267565
000220 3f 7d d9 c0 66 3b d2 bf c0 a2 db 3d 3f 1b a9 bf
       -6.796539 -1.6424377 0.107244015 -1.321144
000230 8e c8 14 40 cd 4a 9e 3f 40 42 43 3e 54 b8 41 40
       2.324741 1.2366577 0.19068241 3.0268755
000240 de c5 8e 3e 85 96 cd 3f 8e 5f c5 3f 2e 1e e0 3f
       0.27885336 1.606156 1.5419786 1.750921
000250 c6 20 5e 3f c9 91 a4 3f 32 42 15 3f 01 0e 11 3f
       0.8676876 1.285699 0.5830413 0.56661993
000260 6f 15 1f 40 97 40 f4 3f 16 81 d2 bf ac 59 07 40
       2.4856832 1.9082211 -1.6445644 2.1148481
000270 90 56 94 be f4 cb ee 3e 24 b6 93 3f 84 52 16 40
       -0.28972292 0.4663998 1.153996 2.3487864
000280 fc fe 23 3e ac 1a aa bf 48 35 74 3f 3c ba 8d bf
       0.16015238 -1.328939 0.953938 -1.1072459
000290 98 bd d0 3d 52 e3 8c 40 b6 97 8c 3e 5a ba 10 c0
       0.10192412 4.402749 0.27459496 -2.261374
0002a0 00 b8 b2 3b 4c e6 ce bf 72 81 a5 3f 75 b0 98 bf
       0.0054540634 -1.6164031 1.2930129 -1.192885
0002b0 5d fd ea 3f 3d b0 8c bf 34 88 0f bf 72 0c fb bf
       1.835857 -1.0991284 -0.56067204 -1.9613173
0002c0 8a d6 24 c0 a1 65 7d 3f 0f 1a 8f bf 48 72 e2 3d
       -2.5755944 0.989832 -1.1179827 0.11056954
0002d0 f3 12 bd bf d2 8c 14 3f 91 c1 da 3f 11 0f 84 3f
       -1.4771408 0.58027375 1.7090322 1.0317098
0002e0 f3 f5 bd 3f 74 ef 96 3f ba 2c 77 3f 60 92 1d 3f
       1.4840683 1.1791825 0.9655262 0.61551476
0002f0 26 c9 44 3f 4b 58 49 3f d8 5b 3c bd f4 be 1f bf
       0.7686943 0.7865035 -0.045986027 -0.62400746
000300 78 89 4e 3f 52 50 8b 3e a0 ad e4 3d de 39 14 c0
       0.8067851 0.27209717 0.11165929 -2.316032
000310 b4 10 82 bd e8 29 da 3f 10 c7 d8 3e b8 d2 c8 3f
       -0.06350842 1.7044039 0.42339373 1.5689306
000320 58 e6 95 3f 44 0c c0 bf 47 98 95 3f c3 4c ba be
       1.171092 -1.5003743 1.1687096 -0.3638669
000330 20 14 85 bf 66 c2 9c 3e 95 af d9 3e 78 ad d6 3e
       -1.0396767 0.30617064 0.4251677 0.4192922
000340 0c 30 fc 3f d4 be 19 bf 4e 61 3c 3f 6a d9 12 3f
       1.9702163 -0.60056806 0.73585975 0.57363
000350 76 ac 3d 3f 38 30 1e 40 c0 57 3e 3f 76 e1 ab 3f
       0.7409128 2.471693 0.74352646 1.342818
000360 89 92 a6 be ce f5 aa 3f 21 23 25 3f 2c 30 9e 3e
       -0.32533672 1.3356264 0.6450673 0.30896127
000370 f3 c7 bb bf 7f cf b6 bf d0 e2 81 bf 35 ae 20 3e
       -1.4670395 -1.4282073 -1.0147343 0.15691455
000380 4e 91 f1 bf d2 fb f9 be c1 ef 90 bf c7 bf 49 c0
       -1.8872468 -0.48824936 -1.1323167 -3.1523302
000390 12 eb 14 bf 42 78 ca bf c4 d8 81 be de a6 59 bf
       -0.5817119 -1.581795 -0.25360692 -0.85020244
0003a0 87 84 28 bf 34 58 e3 bf 00 df db 3e 2a 7e cd be
       -0.6582722 -1.7761292 0.42943573 -0.40135318
0003b0 45 89 54 c0 de ad 0e c0 a3 25 d6 bf b7 1c be bf
       -3.3208783 -2.229362 -1.6730236 -1.4852513
0003c0 2c 9f 69 3f cf 7f 2c 40 a2 90 57 3f c1 53 06 3f
       0.912585 2.6953008 0.8420507 0.5247155
0003d0 cc 3c ea 3e 00 7c 27 be 62 40 0f 3f 52 6e e9 3f
       0.4574951 -0.16355896 0.55957615 1.8236792
0003e0 70 53 89 40 c1 c6 2d c0 58 ba 1f 40 38 9f 1e 3f
       4.2914352 -2.715256 2.4957485 0.619617
0003f0 d5 dd a3 bf 0d d3 a7 3f f8 35 be 40 99 dd 45 40
       -1.2802073 1.3111283 5.944088 3.0916502

square_avg f4 [20]
000000 52 1e 95 37 3d 62 20 38 45 73 20 36 9b 33 76 38
       1.7776303e-05 3.8238464e-05 2.3908954e-06 5.869903e-05
000010 91 9b 86 38 16 ec 5a 37 c5 ce 15 37 98 52 93 37
       6.4185944e-05 1.3048781e-05 8.929234e-06 1.7562226e-05
000020 2e 8d a2 37 04 4b 23 38 c4 5b 47 38 6c 39 1b 39
       1.9377647e-05 3.8932092e-05 4.753076e-05 0.00014803343
000030 f9 ec b0 37 60 5e 06 37 65 7c 55 37 a9 40 15 35
       2.1091184e-05 8.008996e-06 1.2724752e-05 5.560092e-07
000040 d1 79 11 38 e6 08 67 37 b0 2f cd 38 03 e8 9d 38
       3.4684144e-05 1.3770745e-05 9.784044e-05 7.529559e-05

momentum_buffer f4 [20]
000000 c5 cf 6c c0 cd fb c0 be 4e 09 14 40 b2 a5 7b bf
       -3.7001812 -0.3769211 2.313068 -0.98299706
000010 8f 28 bc 3f bc b7 82 3e 76 48 d3 bf c5 57 26 40
       1.4699878 0.25530803 -1.6506488 2.599107
000020 75 fa 96 bf 79 71 32 3f f7 6c c2 3f 5b 10 c6 bf
       -1.1795183 0.69704396 1.5189503 -1.5473741
000030 04 f6 23 3f 80 4c f7 3d 60 b4 9e 3f 10 68 1e be
       0.64047265 0.12075138 1.2398796 -0.15469384
000040 39 91 10 3f c8 ba 35 3e b2 51 0d bf d0 93 24 3f
       0.5647159 0.17747033 -0.5520278 0.64288044

square_avg f4 [20, 20]
000000 09 80 df 30 c5 14 d5 32 82 35 cb 32 4e db d9 32
       1.6261775e-09 2.4805908e-08 2.3656643e-08 2.5361853e-08
000010 0a 83 59 33 a2 bc 0d 31 5b 0a ec 33 3a b6 7e 32
       5.064343e-08 2.0625426e-09 1.099149e-07 1.4826179e-08
000020 57 3c d3 31 d1 45 27 31 4c 97 bf 33 a1 e9 ff 32
       6.147768e-09 2.4341384e-09 8.921651e-08 2.979215e-08
000030 88 5e bf 32 00 00 00 00 a2 01 dd 32 bd f2 42 32
       2.2278314e-08 0.0 2.5728529e-08 1.13474785e-08
000040 79 b1 ab 33 d7 d3 2a 33 ab 35 ad 30 10 e6 aa 33
       7.99509e-08 3.9773877e-08 1.260266e-09 7.95809e-08
000050 1f 44 80 34 a6 01 41 37 f9 32 1b 33 20 fb 09 38
       2.3891423e-07 1.150408e-05 3.613511e-08 3.2897224e-05
000060 22 70 b9 37 35 96 15 38 d3 3f 12 34 4c c7 73 36
       2.2105934e-05 3.566426e-05 1.3620529e-07 3.6325828e-06
000070 25 65 a4 35 b7 51 f5 35 9b 6f 25 35 f9 4d d1 37
       1.2248389e-06 1.8277705e-06 6.16297e-07 2.495105e-05
000080 3b 2d f5 35 0f 48 7a 33 46 0b ae 37 de 33 61 33
       1.8267086e-06 5.8273198e-08 2.0747666e-05 5.2434068e-08
000090 36 a7 56 39 5a 6c 9c 36 48 24 f4 35 21 b6 18 36
       0.00020470921 4.661776e-06 1.8189976e-06 2.2755778e-06
0000a0 38 66 b4 35 20 e5 fb 36 5c 5d eb 31 36 33 10 37
       1.3440795e-06 7.5070566e-06 6.850014e-09 8.594992e-06
0000b0 81 89 dd 36 ca 14 8d 36 b4 cc b0 33 c1 ee 1b 36
       6.602321e-06 4.2045476e-06 8.232874e-08 2.3235773e-06
0000c0 60 6e c6 35 d2 fb c0 35 7f dc 43 35 07 f2 3e 37
       1.4784273e-06 1.4378404e-06 7.2964025e-07 1.1381234e-05
0000d0 95 a5 0c 35 16 cb 01 33 b2 b1 70 36 83 17 d4 32
       5.239502e-07 3.021986e-08 3.586622e-06 2.469074e-08
0000e0 40 56 09 38 3f e2 89 35 48 85 f3 35 42 61 18 35
       3.2743672e-05 1.0273142e-06 1.8143701e-06 5.676594e-07
0000f0 ee a4 4a 2e 06 16 d6 2d 9e d5 de 2c 38 6f 2c 2c
       4.607597e-11 2.4338764e-11 6.3333358e-12 2.450441e-12
000100 60 4b 06 2d f5 d7 76 2d 3e a2 57 2d 8c ea 90 2b
       7.633755e-12 1.4031433e-11 1.225736e-11 1.0296915e-12
000110 5b 55 a3 2c e8 32 03 2b 20 d5 5d 2d c2 8e 43 2d
       4.642215e-12 4.6611196e-13 1.2609719e-11 1.1116165e-11
000120 d5 a5 62 2c 00 00 00 00 e4 20 00 2c 7a 13 b7 2c
       3.2208587e-12 0.0 1.8208152e-12 5.203335e-12
000130 33 4d 9f 2c 43 89 59 2d 95 51 cd 28 c3 30 5d 2c
       4.5276226e-12 1.23655e-11 2.2794953e-14 3.1433057e-12
000140 be f1 1a 37 86 12 92 38 67 c0 83 33 ca 40 b9 38
       9.2354e-06 6.965273e-05 6.135161e-08 8.833555e-05
000150 e0 f0 9a 38 af 78 57 38 48 31 b1 34 d9 c8 a8 37
       7.388159e-05 5.137239e-05 3.3004676e-07 2.0120688e-05
000160 5d 86 37 37 86 a8 cf 36 5d dc 78 36 f1 bb af 38
       1.0938934e-05 6.1886994e-06 3.7083148e-06 8.379657e-05
000170 b9 97 c5 35 75 bc 15 34 00 a2 f7 37 04 83 b7 33
       1.4721801e-06 1.3945267e-07 2.9520132e-05 8.545433e-08
000180 09 1a 59 38 a8 a5 0d 36 6c cc 7a 37 47 8a 11 36
       5.176108e-05 2.1107062e-06 1.4948757e-05 2.1687172e-06
000190 96 37 54 31 6d 94 6c 34 f7 01 94 31 c3 5e 11 37
       3.0881657e-09 2.203321e-07 4.3075903e-09 8.664737e-06
0001a0 60 76 4b 37 a7 e6 12 37 cf 91 d8 34 b4 c0 71 34
       1.2127304e-05 8.755981e-06 4.0339225e-07 2.2514979e-07
0001b0 39 66 1a 36 19 0b ac 36 78 b0 24 33 79 df 81 36
       2.300729e-06 5.1272914e-06 3.8344723e-08 3.8705152e-06
0001c0 b7 36 79 36 00 00 00 00 4f bd ba 35 8f 37 bc 31
       3.713574e-06 0.0 1.3913176e-06 5.4778364e-09
0001d0 34 d0 e5 37 1f 68 4b 34 e1 f5 f1 33 a2 ba 68 33
       2.739588e-05 1.8943727e-07 1.1267162e-07 5.418645e-08
0001e0 63 01 c4 35 f1 c1 75 39 51 d1 6c 34 ee df 4c 39
       1.4603542e-06 0.0002343727 2.2055362e-07 0.00019538376
0001f0 c2 b0 db 39 5e c5 1f 3a 44 ba a0 35 e0 7c 30 38
       0.0004190263 0.00060947787 1.1975139e-06 4.207797e-05
000200 ac 6a 03 39 d0 6b 5e 39 a1 05 64 38 c8 25 45 3a
       0.00012532872 0.00021211733 5.436468e-05 0.00075205835
000210 d8 78 9f 37 a3 66 3e 32 eb 58 bc 39 12 ba db 35
       1.901055e-05 1.10827925e-08 0.00035924403 1.6370925e-06
000220 5e 9a b3 3a 4d 52 4b 38 81 27 bc 38 1f 16 d5 38
       0.0013702621 4.847562e-05 8.971897e-05 0.00010160752
000230 d4 12 0a 34 ae 96 d9 38 33 1c 1e 33 fe 56 a1 38
       1.2859101e-07 0.000103754326 3.681289e-08 7.693282e-05
000240 95 81 0f 39 ca 78 0f 39 05 04 b1 34 87 ad b0 37
       0.00013685816 0.0001368254 3.2971744e-07 2.106164e-05
000250 b0 97 5f 37 87 4e b8 37 79 1b 28 37 25 20 77 39
       1.3327153e-05 2.1971076e-05 1.0019977e-05 0.0002356773
000260 ea 5e f1 36 61 05 0e 32 65 86 82 38 bf 77 f8 33
       7.193409e-06 8.266711e-09 6.223916e-05 1.15701816e-07
000270 c7 59 38 3a 4a c1 89 37 6b c1 2b 37 0c 94 17 37
       0.0007032421 1.642168e-05 1.0237428e-05 9.034771e-06
000280 28 43 fb 36 96 33 a3 38 ab 4e 77 32 a9 40 da 37
       7.488201e-06 7.782054e-05 1.4395179e-08 2.6017735e-05
000290 9c cf c3 38 7f 5f 31 39 17 34 15 35 45 dc b0 37
       9.336995e-05 0.0001691561 5.5582626e-07 2.1083406e-05
0002a0 c0 ab 23 38 6d 22 cb 38 89 ba e3 36 77 86 6d 39
       3.9022183e-05 9.6862066e-05 6.7868427e-06 0.00022652173
0002b0 e9 eb c7 36 4f b7 1b 34 43 37 db 37 a7 a5 39 35
       5.9581257e-06 1.4502187e-07 2.6132568e-05 6.9158926e-07
0002c0 3e 82 a1 39 53 85 3c 37 d3 13 52 37 eb 73 05 38
       0.0003080535 1.1236715e-05 1.2521591e-05 3.1817628e-05
0002d0 22 5a 0a 38 ea ed 8c 39 0b 86 9b 32 20 d1 9d 39
       3.2985707e-05 0.0002688014 1.810533e-08 0.00030101184
0002e0 a5 f0 45 39 fc d3 14 39 f2 26 30 33 fb f8 7f 38
       0.00018877031 0.0001419335 4.1013614e-08 6.102862e-05
0002f0 af c9 c3 36 8e d5 16 37 8b 8e 84 37 58 d4 d3 39
       5.834932e-06 8.990419e-06 1.5802003e-05 0.00040403265
000300 da 54 9c 36 d5 e0 d2 34 76 4b 2f 38 dd c4 bf 35
       4.6590403e-06 3.9279135e-07 4.179353e-05 1.4287904e-06
000310 53 02 00 36 f9 44 95 33 0e 99 86 37 71 89 c8 33
       1.907484e-06 6.950899e-08 1.6045316e-05 9.338226e-08
000320 12 cb 41 33 4e 2d 74 36 0c 1e e9 31 2e 65 13 36
       4.5121006e-08 3.6385204e-06 6.7846084e-09 2.1963601e-06
000330 3a 59 03 37 82 12 b9 37 25 d2 a8 33 7e ce fb 34
       7.828983e-06 2.2062337e-05 7.861335e-08 4.6902636e-07
000340 64 7d 7a 36 fe 0d 8f 37 a8 3e c1 34 bd 07 c5 37
       3.732589e-06 1.7053444e-05 3.599464e-07 2.3487833e-05
000350 41 80 c7 35 27 f7 91 31 54 ee 01 36 13 b8 f5 33
       1.4863982e-06 4.2481534e-09 1.9361223e-06 1.14421844e-07
000360 6f 65 d3 38 ec 35 7f 36 36 68 34 34 cc 0a b8 36
       0.000100801575 3.8029348e-06 1.6801718e-07 5.4848842e-06
000370 6e fb d6 35 72 be ab 36 14 f6 86 31 88 d2 61 37
       1.6017418e-06 5.118368e-06 3.927889e-09 1.3460063e-05
000380 9a 0c 28 37 d5 5f 2f 38 58 14 35 34 88 a8 97 36
       1.0016514e-05 4.1812502e-05 1.686434e-07 4.5197703e-06
000390 55 9d 02 37 59 c2 d6 36 f2 f9 98 34 97 be 06 37
       7.7852355e-06 6.400322e-06 2.8494065e-07 8.031398e-06
0003a0 40 47 6d 35 fe ac e8 31 e7 d9 19 38 31 bf c8 34
       8.839306e-07 6.7717556e-09 3.668098e-05 3.7392013e-07
0003b0 18 0e 0e 38 96 11 96 34 6f 65 0b 37 dc c7 96 33
       3.3868564e-05 2.7952473e-07 8.3086625e-06 7.0212735e-08
0003c0 8b 39 89 24 0c 70 83 2a 2e de 75 26 fa f7 32 26
       5.951176e-17 2.3348023e-13 8.530256e-16 6.2092227e-16
0003d0 a2 84 b5 28 63 6c 94 28 c0 54 71 2a 73 3e 39 26
       2.0152557e-14 1.6478306e-14 2.1434503e-13 6.4269403e-16
0003e0 1b 5a 60 24 00 00 00 00 c4 09 1c 2a 55 0f d2 2a
       4.864858e-17 0.0 1.3858971e-13 3.7314132e-13
0003f0 1f 93 74 27 00 00 00 00 00 00 00 00 ac d4 2b 27
       3.3941557e-15 0.0 0.0 2.3846307e-15

momentum_buffer f4 [20, 20]
000000 4e f0 91 37 bf c9 3c 3b 07 81 0d 38 6f 62 8a 3e
       1.7397248e-05 0.0028806773 3.3737186e-05 0.27028224
000010 f0 1e 2f 3d 08 0c 8f 3a a6 72 c7 b6 e6 6f fc 38
       0.042754114 0.001091362 -5.944009e-06 0.00012037139
000020 78 d6 d7 38 cc b9 b8 3d 1f 34 cf 37 c0 28 cf 3d
       0.00010291947 0.09019813 2.4700594e-05 0.10115194
000030 39 22 83 3d 00 00 00 00 cc 00 0a bc 68 36 a6 38
       0.06403012 0.0 -0.008423042 7.925631e-05
000040 27 25 90 3d 38 2c ae 3a 2a 60 28 b9 f4 54 92 38
       0.07038336 0.0013288325 -0.00016057552 6.977646e-05
000050 ea f3 bc bf 7d a7 a8 3e e9 aa 8d bf 4f ae 93 3f
       -1.4761937 0.32940283 -1.1067783 1.153757
000060 90 20 f4 be 80 a4 87 be e6 6c ce 3e 36 55 e2 3f
       -0.47681093 -0.2649269 0.40317458 1.7682254
000070 72 0f a8 3f 26 1e 5d c0 49 81 75 be 90 52 43 be
       1.3129714 -3.454965 -0.239751 -0.19074464
000080 ce ab e0 3f d1 f2 f4 c0 7c d9 56 3d 26 93 08 3f
       1.7552431 -7.6546407 0.052453503 0.5334953
000090 0b a9 a4 bf 52 04 87 3e b4 90 87 3f 22 06 4f be
       -1.2864088 0.26370484 1.0591035 -0.20217183
0000a0 2d 8e 36 40 b6 a7 66 3f 6f 6b 61 c0 63 25 fe 3f
       2.8524277 0.90099657 -3.5221822 1.985516
0000b0 de bf 67 40 65 94 37 40 b4 e6 07 bf a9 20 d1 3f
       3.6210856 2.8684323 -0.530864 1.6338092
0000c0 88 95 dd 3e 1e 14 96 40 2c 0f df 3f 4c 6b 0c 40
       0.43278146 4.6899557 1.7426505 2.194049
0000d0 bd 83 77 40 93 fb b2 c0 0b 2f 01 40 06 f9 66 40
       3.8674157 -5.5932097 2.0184963 3.6089492
0000e0 7b 66 1c 40 32 76 bf 40 9b d3 2b 3f ea 21 e5 3f
       2.443755 5.983178 0.6711976 1.7900975
0000f0 7e 03 7b 37 4a 73 e4 37 96 9f 1d 38 43 e9 75 37
       1.4961579e-05 2.7233404e-05 3.7580343e-05 1.4657448e-05
000100 70 43 dd 37 c8 b7 6e 37 a7 17 16 38 34 83 a8 37
       2.6376656e-05 1.4228695e-05 3.5784815e-05 2.0088257e-05
000110 32 2e c2 37 b6 42 8b 37 3f 16 5a 37 d3 7a cc 37
       2.3148114e-05 1.6601156e-05 1.2998992e-05 2.437589e-05
000120 2d 85 29 38 00 00 00 00 eb 66 c2 37 bb 99 b1 37
       4.041677e-05 0.0 2.3174527e-05 2.117163e-05
000130 e1 ce 2c 38 9d 22 06 38 22 1d 59 37 1e ed 10 38
       4.1200667e-05 3.1980326e-05 1.2940991e-05 3.4553108e-05
000140 a7 72 c9 bf 29 92 d7 be 4a fc 87 3f ac 4c 62 bf
       -1.5738114 -0.421037 1.0623868 -0.8839824
000150 60 0d 41 bf 74 50 60 3e da c9 3b be 18 a4 53 bf
       -0.75411034 0.2190569 -0.18338719 -0.8267226
000160 20 8d 94 3f 80 b0 9e bf be d5 f5 bf a8 77 21 bf
       1.1605568 -1.2397614 -1.9205854 -0.63073206
000170 78 7d 6e 3e 18 75 e2 3e 08 ee cc bf 00 91 40 40
       0.2329005 0.4422996 -1.6010141 3.00885
000180 77 61 99 bf 6b 05 34 c0 41 f7 84 bf 88 f3 26 3f
       -1.1982869 -2.8128307 -1.0387956 0.6521535
000190 d1 c2 4c c0 16 03 44 bf 43 14 ca 3e 06 6a da 3e
       -3.1993906 -0.7656721 0.39468583 0.42659014
0001a0 90 5b 0d bf db 46 dc bf a0 38 96 c0 56 83 98 3e
       -0.5521784 -1.7209123 -4.694412 0.297877
0001b0 dd e0 a9 bf 00 aa 11 c0 15 a0 6c 3f 14 1c cb be
       -1.3271748 -2.276001 0.92431766 -0.3966986
0001c0 8a f3 ba bf 00 00 00 00 6d 8e 08 bf 7e ae 87 c0
       -1.4605572 0.0 -0.53342324 -4.2400503
0001d0 29 ad fd bf 5e 40 a0 bf e7 18 2d c0 14 e8 dc c0
       -1.9818469 -1.2519643 -2.704645 -6.90333
0001e0 e6 7c 55 bf 00 d7 a8 3f ea 99 46 c0 5d f7 0b 40
       -0.83393705 1.3190613 -3.1031442 2.1869729
0001f0 31 fe 2e 3f 27 d6 a8 3f e0 3e ba 3c c7 ca d3 3f
       0.68356615 1.3190354 0.02273506 1.6546258
000200 ff 51 ab 3f 47 77 e0 3f 7c e8 31 3f 29 39 93 3f
       1.3384398 1.75364 0.6949537 1.1501819
000210 24 6e 5d 3f 3f 4b 1b 40 f8 ee 46 3f 44 41 dd 3e
       0.86496186 2.4264677 0.7770839 0.43213856
000220 8f df c3 3f 45 60 14 40 22 89 f3 3f 5d a0 ad 3f
       1.53026 2.3183758 1.9026225 1.3564564
000230 55 9f 1e 41 79 6a ac 3f 46 fd 96 40 22 b5 46 3f
       9.913899 1.3469993 4.718417 0.77620137
000240 02 67 ba 3e a3 df a5 3f 2c 56 72 bf 72 34 ca 3f
       0.36406714 1.2958874 -0.9466274 1.5797255
000250 74 53 b3 3f 00 34 9f bf 36 ac 2a 3f 2b 4d 87 3f
       1.4009843 -1.2437744 0.66669023 1.0570425
000260 4a 29 04 3e 5e f7 30 c1 6c 86 f7 3f 3c 59 e3 40
       0.12906376 -11.060392 1.9337897 7.104643
000270 5c 02 15 3e b6 62 69 3f df f0 be 3f 76 ff b5 bf
       0.14551681 0.91166246 1.4917258 -1.4218585
000280 2b a4 1a 40 21 95 d4 be a7 f3 c3 3f cf 35 10 c0
       2.41627 -0.41520026 1.5308732 -2.2532842
000290 45 3e 1a bf 08 fd 3d bf 5c 33 3c bf 06 c0 88 bf
       -0.60251266 -0.7421422 -0.7351587 -1.0683601
0002a0 9e 04 9d be f8 54 fd 3f f6 43 27 40 0e ca cf be
       -0.30667585 1.9791555 2.613523 -0.40583843
0002b0 b0 aa b8 3c 9f af 85 c0 5c f0 3f 3f ec ea 06 3f
       0.022542328 -4.177688 0.74976134 0.5270221
0002c0 55 a0 70 bf b8 ee af 3e 80 05 8e be fa e6 de 3e
       -0.9399465 0.34361815 -0.2773857 0.43535596
0002d0 3e 17 71 3d f0 65 50 be d7 54 b6 c0 f4 02 88 bf
       0.058860056 -0.20351386 -5.6978564 -1.0625901
0002e0 aa 61 d2 be b0 70 a0 bf 01 7d b0 3c 52 85 0b 3e
       -0.41090137 -1.253439 0.021543982 0.13625076
0002f0 8e bd 9c 3e 76 d8 81 bf b4 15 26 3f 9e f6 a7 be
       0.3061337 -1.0144184 0.64876866 -0.3280534
000300 40 af b2 3f 3a 14 17 bf f3 20 93 be 00 78 62 c0
       1.3959732 -0.5901524 -0.28736076 -3.5385742
000310 d8 b0 65 bf 98 ac 0a 41 5e ae 04 c0 79 74 83 40
       -0.8972297 8.667137 -2.0731425 4.107968
000320 8e 3d c0 40 f4 ab aa 3e bc af dd bf 2a 22 09 40
       6.007514 0.33334315 -1.7319255 2.1427102
000330 61 c1 94 3f 16 b2 61 3f a2 c7 2e 3f be de f1 3f
       1.1621515 0.8816236 0.68273365 1.88961
000340 6a 50 69 3f d5 9b 71 3e 10 79 01 bd 92 5f 69 3f
       0.9113833 0.23594601 -0.031609595 0.91161454
000350 b4 db 49 3f 08 94 75 c0 4c 9d 03 40 16 f2 cc 3f
       0.78850865 -3.83716 2.0564756 1.6011379
000360 c9 b3 0f 3f 13 48 08 40 fe 08 88 be ee a0 bb 3e
       0.56133705 2.129399 -0.2656936 0.36646217
000370 e9 5d 1a 3f a3 38 85 3f 11 0f d3 36 71 92 1e 3f
       0.60299546 1.0407909 6.290044e-06 0.619422
000380 9d 95 a2 3f 86 ac db 3f 2c 33 21 c0 f0 cc 52 3f
       1.2701908 1.7162025 -2.5187483 0.8234396
000390 27 1a b5 3f 7b 59 2e bf 3e 41 25 40 80 70 87 be
       1.4148606 -0.68105286 2.582107 -0.26453018
0003a0 72 dd fb 3f 3f 36 d9 bf a4 a1 26 3f 10 ea f9 3d
       1.9676955 -1.696968 0.65090394 0.12202847
0003b0 3b 4c b2 3f 6e 79 81 40 3c 56 21 40 d8 91 46 3f
       1.3929514 4.046073 2.5208883 0.7756629
0003c0 89 d4 92 37 ff 28 f7 37 3a d4 d2 37 2a 4d cd b7
       1.7503526e-05 2.9463785e-05 2.5132776e-05 -2.4473837e-05
0003d0 a5 be f0 37 aa cf ef 37 51 0a f7 37 ff ed cd 37
       2.8699005e-05 2.8587721e-05 2.9449498e-05 2.454873e-05
0003e0 5d ad 8c 37 00 00 00 00 a5 58 f6 37 e5 bb f7 37
       1.677003e-05 0.0 2.9366764e-05 2.953219e-05
0003f0 68 ab e4 37 00 00 00 00 00 00 00 00 a2 f9 e0 37
       2.7259535e-05 0.0 0.0 2.6819125e-05

square_avg f4 [20]
000000 05 95 2f 33 15 1b 07 37 ff 80 81 35 3f 8a 3f 2f
       4.0880895e-08 8.052933e-06 9.648792e-07 1.7420464e-10
000010 ad 51 b0 36 97 5d d0 35 78 5f a6 38 18 20 01 38
       5.254717e-06 1.5524446e-06 7.933279e-05 3.0785886e-05
000020 28 56 37 37 61 f8 66 37 dd e0 3c 36 e8 04 4b 36
       1.092771e-05 1.37668985e-05 2.814507e-06 3.0252213e-06
000030 1a b1 53 29 00 00 00 00 b3 0f 30 37 59 61 20 33
       4.7005023e-14 0.0 1.0494073e-05 3.734144e-08
000040 e9 1f 19 37 d4 ae 77 36 d5 e9 5a 37 2a 21 b4 28
       9.12694e-06 3.6907632e-06 1.3048256e-05 1.9998397e-14

momentum_buffer f4 [20]
000000 c1 8e d7 3c ab 99 e1 be 74 ef e8 3f d3 94 b5 37
       0.026313188 -0.44062552 1.8198075 2.1646183e-05
000010 9e 2f c4 bf 04 c6 b9 be a0 3b f6 3f d7 a2 8a 3f
       -1.5327032 -0.36283886 1.9236946 1.0830945
000020 a6 48 88 bf 56 20 0e bf 83 1f 0a 3f 8e 21 22 3f
       -1.064717 -0.5551809 0.53954333 0.6333245
000030 a9 d6 f3 37 00 00 00 00 e8 a6 aa be 4a 95 73 38
       2.9067816e-05 0.0 -0.33330464 5.807475e-05
000040 50 c4 c3 3f 24 80 e9 bd dd 0e a3 bf 2e 51 51 37
       1.5294285 -0.11401394 -1.2738911 1.2476272e-05
